{"format": "graph-model", "generatedBy": "1.14.0", "convertedBy": "TensorFlow.js Converter v1.2.6", "modelTopology": {"node": [{"name": "z", "op": "Placeholder", "attr": {"shape": {"shape": {"dim": [{"size": "-1"}, {"size": "512"}]}}, "dtype": {"type": "DT_FLOAT"}}}, {"name": "g_synthesis/8x8_2/smooth_transition/LerpClip/clip_by_value", "op": "Const", "attr": {"value": {"tensor": {"dtype": "DT_FLOAT", "tensorShape": {}}}, "dtype": {"type": "DT_FLOAT"}}}, {"name": "g_synthesis/512x512_1/ToRGB/Reshape", "op": "Const", "attr": {"value": {"tensor": {"dtype": "DT_FLOAT", "tensorShape": {"dim": [{"size": "1"}, {"size": "3"}, {"size": "1"}, {"size": "1"}]}}}, "dtype": {"type": "DT_FLOAT"}}}, {"name": "g_synthesis/4x4_1/ToRGB/NHWC_to_NCHW/perm", "op": "Const", "attr": {"value": {"tensor": {"dtype": "DT_INT32", "tensorShape": {"dim": [{"size": "4"}]}}}, "dtype": {"type": "DT_INT32"}}}, {"name": "g_synthesis/512x512_1/ToRGB/mul", "op": "Const", "attr": {"value": {"tensor": {"dtype": "DT_FLOAT", "tensorShape": {"dim": [{"size": "1"}, {"size": "1"}, {"size": "32"}, {"size": "3"}]}}}, "dtype": {"type": "DT_FLOAT"}}}, {"name": "g_synthesis/4x4_1/ToRGB/NCHW_to_NHWC/perm", "op": "Const", "attr": {"value": {"tensor": {"dtype": "DT_INT32", "tensorShape": {"dim": [{"size": "4"}]}}}, "dtype": {"type": "DT_INT32"}}}, {"name": "g_synthesis/4x4/Const/StyleMod/strided_slice/stack_2", "op": "Const", "attr": {"value": {"tensor": {"dtype": "DT_INT32", "tensorShape": {"dim": [{"size": "2"}]}}}, "dtype": {"type": "DT_INT32"}}}, {"name": "g_synthesis/4x4/Const/StyleMod/strided_slice_1/stack_1", "op": "Const", "attr": {"value": {"tensor": {"dtype": "DT_INT32", "tensorShape": {"dim": [{"size": "2"}]}}}, "dtype": {"type": "DT_INT32"}}}, {"name": "g_synthesis/4x4/Const/StyleMod/strided_slice/stack_1", "op": "Const", "attr": {"value": {"tensor": {"dtype": "DT_INT32", "tensorShape": {"dim": [{"size": "2"}]}}}, "dtype": {"type": "DT_INT32"}}}, {"name": "g_synthesis/512x512/Conv0_up/StyleMod/Reshape/shape", "op": "Const", "attr": {"value": {"tensor": {"dtype": "DT_INT32", "tensorShape": {"dim": [{"size": "5"}]}}}, "dtype": {"type": "DT_INT32"}}}, {"name": "g_synthesis/512x512/Conv1/StyleMod/mul_1", "op": "Const", "attr": {"value": {"tensor": {"dtype": "DT_FLOAT", "tensorShape": {"dim": [{"size": "64"}]}}}, "dtype": {"type": "DT_FLOAT"}}}, {"name": "g_synthesis/512x512/Conv1/StyleMod/mul", "op": "Const", "attr": {"value": {"tensor": {"dtype": "DT_FLOAT", "tensorShape": {"dim": [{"size": "512"}, {"size": "64"}]}}}, "dtype": {"type": "DT_FLOAT"}}}, {"name": "g_synthesis/4x4/Const/StyleMod/flatten/Reshape/shape/1", "op": "Const", "attr": {"value": {"tensor": {"dtype": "DT_INT32", "tensorShape": {}}}, "dtype": {"type": "DT_INT32"}}}, {"name": "g_synthesis/512x512/Conv0_up/strided_slice_4/stack_1", "op": "Const", "attr": {"value": {"tensor": {"dtype": "DT_INT32", "tensorShape": {"dim": [{"size": "1"}]}}}, "dtype": {"type": "DT_INT32"}}}, {"name": "g_synthesis/512x512/Conv0_up/strided_slice_4/stack", "op": "Const", "attr": {"value": {"tensor": {"dtype": "DT_INT32", "tensorShape": {"dim": [{"size": "1"}]}}}, "dtype": {"type": "DT_INT32"}}}, {"name": "g_synthesis/strided_slice_16/stack_1", "op": "Const", "attr": {"value": {"tensor": {"dtype": "DT_INT32", "tensorShape": {"dim": [{"size": "2"}]}}}, "dtype": {"type": "DT_INT32"}}}, {"name": "g_synthesis/strided_slice_15/stack_1", "op": "Const", "attr": {"value": {"tensor": {"dtype": "DT_INT32", "tensorShape": {"dim": [{"size": "2"}]}}}, "dtype": {"type": "DT_INT32"}}}, {"name": "w_avg", "op": "Const", "attr": {"value": {"tensor": {"dtype": "DT_FLOAT", "tensorShape": {"dim": [{"size": "512"}]}}}, "dtype": {"type": "DT_FLOAT"}}}, {"name": "Truncation/Select", "op": "Const", "attr": {"value": {"tensor": {"dtype": "DT_FLOAT", "tensorShape": {"dim": [{"size": "1"}, {"size": "16"}, {"size": "1"}]}}}, "dtype": {"type": "DT_FLOAT"}}}, {"name": "g_mapping/Broadcast/Tile/multiples", "op": "Const", "attr": {"value": {"tensor": {"dtype": "DT_INT32", "tensorShape": {"dim": [{"size": "3"}]}}}, "dtype": {"type": "DT_INT32"}}}, {"name": "g_synthesis/4x4/Const/Tile/multiples/1", "op": "Const", "attr": {"value": {"tensor": {"dtype": "DT_INT32", "tensorShape": {}}}, "dtype": {"type": "DT_INT32"}}}, {"name": "g_mapping/Dense7/mul_1", "op": "Const", "attr": {"value": {"tensor": {"dtype": "DT_FLOAT", "tensorShape": {"dim": [{"size": "512"}]}}}, "dtype": {"type": "DT_FLOAT"}}}, {"name": "g_mapping/Dense7/mul", "op": "Const", "attr": {"value": {"tensor": {"dtype": "DT_FLOAT", "tensorShape": {"dim": [{"size": "512"}, {"size": "512"}]}}}, "dtype": {"type": "DT_FLOAT"}}}, {"name": "g_mapping/Dense6/mul_1", "op": "Const", "attr": {"value": {"tensor": {"dtype": "DT_FLOAT", "tensorShape": {"dim": [{"size": "512"}]}}}, "dtype": {"type": "DT_FLOAT"}}}, {"name": "g_mapping/Dense6/mul", "op": "Const", "attr": {"value": {"tensor": {"dtype": "DT_FLOAT", "tensorShape": {"dim": [{"size": "512"}, {"size": "512"}]}}}, "dtype": {"type": "DT_FLOAT"}}}, {"name": "g_mapping/Dense5/mul_1", "op": "Const", "attr": {"value": {"tensor": {"dtype": "DT_FLOAT", "tensorShape": {"dim": [{"size": "512"}]}}}, "dtype": {"type": "DT_FLOAT"}}}, {"name": "g_mapping/Dense5/mul", "op": "Const", "attr": {"value": {"tensor": {"dtype": "DT_FLOAT", "tensorShape": {"dim": [{"size": "512"}, {"size": "512"}]}}}, "dtype": {"type": "DT_FLOAT"}}}, {"name": "g_mapping/Dense4/mul_1", "op": "Const", "attr": {"value": {"tensor": {"dtype": "DT_FLOAT", "tensorShape": {"dim": [{"size": "512"}]}}}, "dtype": {"type": "DT_FLOAT"}}}, {"name": "g_mapping/Dense4/mul", "op": "Const", "attr": {"value": {"tensor": {"dtype": "DT_FLOAT", "tensorShape": {"dim": [{"size": "512"}, {"size": "512"}]}}}, "dtype": {"type": "DT_FLOAT"}}}, {"name": "g_mapping/Dense3/mul_1", "op": "Const", "attr": {"value": {"tensor": {"dtype": "DT_FLOAT", "tensorShape": {"dim": [{"size": "512"}]}}}, "dtype": {"type": "DT_FLOAT"}}}, {"name": "g_mapping/Dense3/mul", "op": "Const", "attr": {"value": {"tensor": {"dtype": "DT_FLOAT", "tensorShape": {"dim": [{"size": "512"}, {"size": "512"}]}}}, "dtype": {"type": "DT_FLOAT"}}}, {"name": "g_mapping/Dense2/mul_1", "op": "Const", "attr": {"value": {"tensor": {"dtype": "DT_FLOAT", "tensorShape": {"dim": [{"size": "512"}]}}}, "dtype": {"type": "DT_FLOAT"}}}, {"name": "g_mapping/Dense2/mul", "op": "Const", "attr": {"value": {"tensor": {"dtype": "DT_FLOAT", "tensorShape": {"dim": [{"size": "512"}, {"size": "512"}]}}}, "dtype": {"type": "DT_FLOAT"}}}, {"name": "g_mapping/Dense1/mul_1", "op": "Const", "attr": {"value": {"tensor": {"dtype": "DT_FLOAT", "tensorShape": {"dim": [{"size": "512"}]}}}, "dtype": {"type": "DT_FLOAT"}}}, {"name": "g_mapping/Dense1/mul", "op": "Const", "attr": {"value": {"tensor": {"dtype": "DT_FLOAT", "tensorShape": {"dim": [{"size": "512"}, {"size": "512"}]}}}, "dtype": {"type": "DT_FLOAT"}}}, {"name": "g_mapping/Dense0/mul_1", "op": "Const", "attr": {"value": {"tensor": {"dtype": "DT_FLOAT", "tensorShape": {"dim": [{"size": "512"}]}}}, "dtype": {"type": "DT_FLOAT"}}}, {"name": "g_mapping/Dense0/mul", "op": "Const", "attr": {"value": {"tensor": {"dtype": "DT_FLOAT", "tensorShape": {"dim": [{"size": "512"}, {"size": "512"}]}}}, "dtype": {"type": "DT_FLOAT"}}}, {"name": "g_synthesis/4x4/Const/InstanceNorm/epsilon", "op": "Const", "attr": {"value": {"tensor": {"dtype": "DT_FLOAT", "tensorShape": {}}}, "dtype": {"type": "DT_FLOAT"}}}, {"name": "g_synthesis/4x4/Const/StyleMod/strided_slice/stack", "op": "Const", "attr": {"value": {"tensor": {"dtype": "DT_INT32", "tensorShape": {"dim": [{"size": "2"}]}}}, "dtype": {"type": "DT_INT32"}}}, {"name": "g_synthesis/4x4/Const/Noise/random_uniform/sub", "op": "Const", "attr": {"value": {"tensor": {"dtype": "DT_FLOAT", "tensorShape": {}}}, "dtype": {"type": "DT_FLOAT"}}}, {"name": "g_synthesis/4x4/Const/InstanceNorm/Mean/reduction_indices", "op": "Const", "attr": {"value": {"tensor": {"dtype": "DT_INT32", "tensorShape": {"dim": [{"size": "2"}]}}}, "dtype": {"type": "DT_INT32"}}}, {"name": "g_synthesis/512x512/Conv1/Reshape", "op": "Const", "attr": {"value": {"tensor": {"dtype": "DT_FLOAT", "tensorShape": {"dim": [{"size": "1"}, {"size": "32"}, {"size": "1"}, {"size": "1"}]}}}, "dtype": {"type": "DT_FLOAT"}}}, {"name": "g_synthesis/512x512/Conv0_up/conv2d_transpose/input_sizes/1", "op": "Const", "attr": {"value": {"tensor": {"dtype": "DT_INT32", "tensorShape": {}}}, "dtype": {"type": "DT_INT32"}}}, {"name": "g_synthesis/512x512/Conv1/mul", "op": "Const", "attr": {"value": {"tensor": {"dtype": "DT_FLOAT", "tensorShape": {"dim": [{"size": "3"}, {"size": "3"}, {"size": "32"}, {"size": "32"}]}}}, "dtype": {"type": "DT_FLOAT"}}}, {"name": "g_synthesis/512x512/Conv0_up/StyleMod/mul_1", "op": "Const", "attr": {"value": {"tensor": {"dtype": "DT_FLOAT", "tensorShape": {"dim": [{"size": "64"}]}}}, "dtype": {"type": "DT_FLOAT"}}}, {"name": "g_synthesis/512x512/Conv0_up/StyleMod/mul", "op": "Const", "attr": {"value": {"tensor": {"dtype": "DT_FLOAT", "tensorShape": {"dim": [{"size": "512"}, {"size": "64"}]}}}, "dtype": {"type": "DT_FLOAT"}}}, {"name": "g_synthesis/strided_slice_14/stack_1", "op": "Const", "attr": {"value": {"tensor": {"dtype": "DT_INT32", "tensorShape": {"dim": [{"size": "2"}]}}}, "dtype": {"type": "DT_INT32"}}}, {"name": "g_synthesis/512x512/Conv0_up/Reshape", "op": "Const", "attr": {"value": {"tensor": {"dtype": "DT_FLOAT", "tensorShape": {"dim": [{"size": "1"}, {"size": "32"}, {"size": "1"}, {"size": "1"}]}}}, "dtype": {"type": "DT_FLOAT"}}}, {"name": "g_synthesis/512x512/Conv0_up/filter", "op": "Const", "attr": {"value": {"tensor": {"dtype": "DT_FLOAT", "tensorShape": {"dim": [{"size": "3"}, {"size": "3"}, {"size": "32"}, {"size": "1"}]}}}, "dtype": {"type": "DT_FLOAT"}}}, {"name": "g_synthesis/256x256/Conv0_up/StyleMod/Reshape/shape", "op": "Const", "attr": {"value": {"tensor": {"dtype": "DT_INT32", "tensorShape": {"dim": [{"size": "5"}]}}}, "dtype": {"type": "DT_INT32"}}}, {"name": "g_synthesis/256x256/Conv1/StyleMod/mul_1", "op": "Const", "attr": {"value": {"tensor": {"dtype": "DT_FLOAT", "tensorShape": {"dim": [{"size": "128"}]}}}, "dtype": {"type": "DT_FLOAT"}}}, {"name": "g_synthesis/256x256/Conv1/StyleMod/mul", "op": "Const", "attr": {"value": {"tensor": {"dtype": "DT_FLOAT", "tensorShape": {"dim": [{"size": "512"}, {"size": "128"}]}}}, "dtype": {"type": "DT_FLOAT"}}}, {"name": "g_synthesis/strided_slice_13/stack_1", "op": "Const", "attr": {"value": {"tensor": {"dtype": "DT_INT32", "tensorShape": {"dim": [{"size": "2"}]}}}, "dtype": {"type": "DT_INT32"}}}, {"name": "g_synthesis/256x256/Conv1/Reshape", "op": "Const", "attr": {"value": {"tensor": {"dtype": "DT_FLOAT", "tensorShape": {"dim": [{"size": "1"}, {"size": "64"}, {"size": "1"}, {"size": "1"}]}}}, "dtype": {"type": "DT_FLOAT"}}}, {"name": "g_synthesis/256x256/Conv0_up/conv2d_transpose/input_sizes/1", "op": "Const", "attr": {"value": {"tensor": {"dtype": "DT_INT32", "tensorShape": {}}}, "dtype": {"type": "DT_INT32"}}}, {"name": "g_synthesis/256x256/Conv1/mul", "op": "Const", "attr": {"value": {"tensor": {"dtype": "DT_FLOAT", "tensorShape": {"dim": [{"size": "3"}, {"size": "3"}, {"size": "64"}, {"size": "64"}]}}}, "dtype": {"type": "DT_FLOAT"}}}, {"name": "g_synthesis/256x256/Conv0_up/StyleMod/mul_1", "op": "Const", "attr": {"value": {"tensor": {"dtype": "DT_FLOAT", "tensorShape": {"dim": [{"size": "128"}]}}}, "dtype": {"type": "DT_FLOAT"}}}, {"name": "g_synthesis/256x256/Conv0_up/StyleMod/mul", "op": "Const", "attr": {"value": {"tensor": {"dtype": "DT_FLOAT", "tensorShape": {"dim": [{"size": "512"}, {"size": "128"}]}}}, "dtype": {"type": "DT_FLOAT"}}}, {"name": "g_synthesis/strided_slice_12/stack_1", "op": "Const", "attr": {"value": {"tensor": {"dtype": "DT_INT32", "tensorShape": {"dim": [{"size": "2"}]}}}, "dtype": {"type": "DT_INT32"}}}, {"name": "g_synthesis/256x256/Conv0_up/Reshape", "op": "Const", "attr": {"value": {"tensor": {"dtype": "DT_FLOAT", "tensorShape": {"dim": [{"size": "1"}, {"size": "64"}, {"size": "1"}, {"size": "1"}]}}}, "dtype": {"type": "DT_FLOAT"}}}, {"name": "g_synthesis/256x256/Conv0_up/filter", "op": "Const", "attr": {"value": {"tensor": {"dtype": "DT_FLOAT", "tensorShape": {"dim": [{"size": "3"}, {"size": "3"}, {"size": "64"}, {"size": "1"}]}}}, "dtype": {"type": "DT_FLOAT"}}}, {"name": "g_synthesis/128x128/Conv0_up/StyleMod/Reshape/shape", "op": "Const", "attr": {"value": {"tensor": {"dtype": "DT_INT32", "tensorShape": {"dim": [{"size": "5"}]}}}, "dtype": {"type": "DT_INT32"}}}, {"name": "g_synthesis/128x128/Conv1/StyleMod/mul_1", "op": "Const", "attr": {"value": {"tensor": {"dtype": "DT_FLOAT", "tensorShape": {"dim": [{"size": "256"}]}}}, "dtype": {"type": "DT_FLOAT"}}}, {"name": "g_synthesis/128x128/Conv1/StyleMod/mul", "op": "Const", "attr": {"value": {"tensor": {"dtype": "DT_FLOAT", "tensorShape": {"dim": [{"size": "512"}, {"size": "256"}]}}}, "dtype": {"type": "DT_FLOAT"}}}, {"name": "g_synthesis/strided_slice_11/stack_1", "op": "Const", "attr": {"value": {"tensor": {"dtype": "DT_INT32", "tensorShape": {"dim": [{"size": "2"}]}}}, "dtype": {"type": "DT_INT32"}}}, {"name": "g_synthesis/128x128/Conv1/Reshape", "op": "Const", "attr": {"value": {"tensor": {"dtype": "DT_FLOAT", "tensorShape": {"dim": [{"size": "1"}, {"size": "128"}, {"size": "1"}, {"size": "1"}]}}}, "dtype": {"type": "DT_FLOAT"}}}, {"name": "g_synthesis/128x128/Conv0_up/conv2d_transpose/input_sizes/1", "op": "Const", "attr": {"value": {"tensor": {"dtype": "DT_INT32", "tensorShape": {}}}, "dtype": {"type": "DT_INT32"}}}, {"name": "g_synthesis/128x128/Conv1/mul", "op": "Const", "attr": {"value": {"tensor": {"dtype": "DT_FLOAT", "tensorShape": {"dim": [{"size": "3"}, {"size": "3"}, {"size": "128"}, {"size": "128"}]}}}, "dtype": {"type": "DT_FLOAT"}}}, {"name": "g_synthesis/128x128/Conv0_up/StyleMod/mul_1", "op": "Const", "attr": {"value": {"tensor": {"dtype": "DT_FLOAT", "tensorShape": {"dim": [{"size": "256"}]}}}, "dtype": {"type": "DT_FLOAT"}}}, {"name": "g_synthesis/128x128/Conv0_up/StyleMod/mul", "op": "Const", "attr": {"value": {"tensor": {"dtype": "DT_FLOAT", "tensorShape": {"dim": [{"size": "512"}, {"size": "256"}]}}}, "dtype": {"type": "DT_FLOAT"}}}, {"name": "g_synthesis/strided_slice_10/stack_1", "op": "Const", "attr": {"value": {"tensor": {"dtype": "DT_INT32", "tensorShape": {"dim": [{"size": "2"}]}}}, "dtype": {"type": "DT_INT32"}}}, {"name": "g_synthesis/128x128/Conv0_up/Reshape", "op": "Const", "attr": {"value": {"tensor": {"dtype": "DT_FLOAT", "tensorShape": {"dim": [{"size": "1"}, {"size": "128"}, {"size": "1"}, {"size": "1"}]}}}, "dtype": {"type": "DT_FLOAT"}}}, {"name": "g_synthesis/128x128/Conv0_up/filter", "op": "Const", "attr": {"value": {"tensor": {"dtype": "DT_FLOAT", "tensorShape": {"dim": [{"size": "3"}, {"size": "3"}, {"size": "128"}, {"size": "1"}]}}}, "dtype": {"type": "DT_FLOAT"}}}, {"name": "g_synthesis/64x64/Conv0_up/StyleMod/Reshape/shape", "op": "Const", "attr": {"value": {"tensor": {"dtype": "DT_INT32", "tensorShape": {"dim": [{"size": "5"}]}}}, "dtype": {"type": "DT_INT32"}}}, {"name": "g_synthesis/64x64/Conv1/StyleMod/mul_1", "op": "Const", "attr": {"value": {"tensor": {"dtype": "DT_FLOAT", "tensorShape": {"dim": [{"size": "512"}]}}}, "dtype": {"type": "DT_FLOAT"}}}, {"name": "g_synthesis/64x64/Conv1/StyleMod/mul", "op": "Const", "attr": {"value": {"tensor": {"dtype": "DT_FLOAT", "tensorShape": {"dim": [{"size": "512"}, {"size": "512"}]}}}, "dtype": {"type": "DT_FLOAT"}}}, {"name": "g_synthesis/strided_slice_9/stack_1", "op": "Const", "attr": {"value": {"tensor": {"dtype": "DT_INT32", "tensorShape": {"dim": [{"size": "2"}]}}}, "dtype": {"type": "DT_INT32"}}}, {"name": "g_synthesis/64x64/Conv1/Reshape", "op": "Const", "attr": {"value": {"tensor": {"dtype": "DT_FLOAT", "tensorShape": {"dim": [{"size": "1"}, {"size": "256"}, {"size": "1"}, {"size": "1"}]}}}, "dtype": {"type": "DT_FLOAT"}}}, {"name": "g_synthesis/256x256/Conv0_up/conv2d_transpose/input_sizes/3", "op": "Const", "attr": {"value": {"tensor": {"dtype": "DT_INT32", "tensorShape": {}}}, "dtype": {"type": "DT_INT32"}}}, {"name": "g_synthesis/64x64/Conv1/mul", "op": "Const", "attr": {"value": {"tensor": {"dtype": "DT_FLOAT", "tensorShape": {"dim": [{"size": "3"}, {"size": "3"}, {"size": "256"}, {"size": "256"}]}}}, "dtype": {"type": "DT_FLOAT"}}}, {"name": "g_synthesis/64x64/Conv0_up/StyleMod/mul_1", "op": "Const", "attr": {"value": {"tensor": {"dtype": "DT_FLOAT", "tensorShape": {"dim": [{"size": "512"}]}}}, "dtype": {"type": "DT_FLOAT"}}}, {"name": "g_synthesis/64x64/Conv0_up/StyleMod/mul", "op": "Const", "attr": {"value": {"tensor": {"dtype": "DT_FLOAT", "tensorShape": {"dim": [{"size": "512"}, {"size": "512"}]}}}, "dtype": {"type": "DT_FLOAT"}}}, {"name": "g_synthesis/strided_slice_8/stack_1", "op": "Const", "attr": {"value": {"tensor": {"dtype": "DT_INT32", "tensorShape": {"dim": [{"size": "2"}]}}}, "dtype": {"type": "DT_INT32"}}}, {"name": "g_synthesis/64x64/Conv0_up/Reshape_2", "op": "Const", "attr": {"value": {"tensor": {"dtype": "DT_FLOAT", "tensorShape": {"dim": [{"size": "1"}, {"size": "256"}, {"size": "1"}, {"size": "1"}]}}}, "dtype": {"type": "DT_FLOAT"}}}, {"name": "g_synthesis/64x64/Conv0_up/filter", "op": "Const", "attr": {"value": {"tensor": {"dtype": "DT_FLOAT", "tensorShape": {"dim": [{"size": "3"}, {"size": "3"}, {"size": "256"}, {"size": "1"}]}}}, "dtype": {"type": "DT_FLOAT"}}}, {"name": "g_synthesis/64x64/Conv0_up/mul", "op": "Const", "attr": {"value": {"tensor": {"dtype": "DT_FLOAT", "tensorShape": {"dim": [{"size": "3"}, {"size": "3"}, {"size": "512"}, {"size": "256"}]}}}, "dtype": {"type": "DT_FLOAT"}}}, {"name": "g_synthesis/64x64/Conv0_up/Reshape_1/shape", "op": "Const", "attr": {"value": {"tensor": {"dtype": "DT_INT32", "tensorShape": {"dim": [{"size": "4"}]}}}, "dtype": {"type": "DT_INT32"}}}, {"name": "g_synthesis/Tile/multiples", "op": "Const", "attr": {"value": {"tensor": {"dtype": "DT_INT32", "tensorShape": {"dim": [{"size": "6"}]}}}, "dtype": {"type": "DT_INT32"}}}, {"name": "g_synthesis/64x64/Conv0_up/Reshape/shape", "op": "Const", "attr": {"value": {"tensor": {"dtype": "DT_INT32", "tensorShape": {"dim": [{"size": "6"}]}}}, "dtype": {"type": "DT_INT32"}}}, {"name": "g_synthesis/4x4/Const/StyleMod/Reshape/shape", "op": "Const", "attr": {"value": {"tensor": {"dtype": "DT_INT32", "tensorShape": {"dim": [{"size": "5"}]}}}, "dtype": {"type": "DT_INT32"}}}, {"name": "g_synthesis/32x32/Conv1/StyleMod/mul_1", "op": "Const", "attr": {"value": {"tensor": {"dtype": "DT_FLOAT", "tensorShape": {"dim": [{"size": "1024"}]}}}, "dtype": {"type": "DT_FLOAT"}}}, {"name": "g_synthesis/32x32/Conv1/StyleMod/mul", "op": "Const", "attr": {"value": {"tensor": {"dtype": "DT_FLOAT", "tensorShape": {"dim": [{"size": "512"}, {"size": "1024"}]}}}, "dtype": {"type": "DT_FLOAT"}}}, {"name": "g_synthesis/strided_slice_7/stack_1", "op": "Const", "attr": {"value": {"tensor": {"dtype": "DT_INT32", "tensorShape": {"dim": [{"size": "2"}]}}}, "dtype": {"type": "DT_INT32"}}}, {"name": "g_synthesis/32x32/Conv1/Reshape", "op": "Const", "attr": {"value": {"tensor": {"dtype": "DT_FLOAT", "tensorShape": {"dim": [{"size": "1"}, {"size": "512"}, {"size": "1"}, {"size": "1"}]}}}, "dtype": {"type": "DT_FLOAT"}}}, {"name": "g_synthesis/512x512/Conv0_up/conv2d_transpose/input_sizes/3", "op": "Const", "attr": {"value": {"tensor": {"dtype": "DT_INT32", "tensorShape": {}}}, "dtype": {"type": "DT_INT32"}}}, {"name": "g_synthesis/32x32/Conv1/mul", "op": "Const", "attr": {"value": {"tensor": {"dtype": "DT_FLOAT", "tensorShape": {"dim": [{"size": "3"}, {"size": "3"}, {"size": "512"}, {"size": "512"}]}}}, "dtype": {"type": "DT_FLOAT"}}}, {"name": "g_synthesis/32x32/Conv0_up/StyleMod/mul_1", "op": "Const", "attr": {"value": {"tensor": {"dtype": "DT_FLOAT", "tensorShape": {"dim": [{"size": "1024"}]}}}, "dtype": {"type": "DT_FLOAT"}}}, {"name": "g_synthesis/32x32/Conv0_up/StyleMod/mul", "op": "Const", "attr": {"value": {"tensor": {"dtype": "DT_FLOAT", "tensorShape": {"dim": [{"size": "512"}, {"size": "1024"}]}}}, "dtype": {"type": "DT_FLOAT"}}}, {"name": "g_synthesis/strided_slice_6/stack_1", "op": "Const", "attr": {"value": {"tensor": {"dtype": "DT_INT32", "tensorShape": {"dim": [{"size": "2"}]}}}, "dtype": {"type": "DT_INT32"}}}, {"name": "g_synthesis/32x32/Conv0_up/Reshape_2", "op": "Const", "attr": {"value": {"tensor": {"dtype": "DT_FLOAT", "tensorShape": {"dim": [{"size": "1"}, {"size": "512"}, {"size": "1"}, {"size": "1"}]}}}, "dtype": {"type": "DT_FLOAT"}}}, {"name": "g_synthesis/8x8/Conv0_up/filter", "op": "Const", "attr": {"value": {"tensor": {"dtype": "DT_FLOAT", "tensorShape": {"dim": [{"size": "3"}, {"size": "3"}, {"size": "512"}, {"size": "1"}]}}}, "dtype": {"type": "DT_FLOAT"}}}, {"name": "g_synthesis/32x32/Conv0_up/mul", "op": "Const", "attr": {"value": {"tensor": {"dtype": "DT_FLOAT", "tensorShape": {"dim": [{"size": "3"}, {"size": "3"}, {"size": "512"}, {"size": "512"}]}}}, "dtype": {"type": "DT_FLOAT"}}}, {"name": "g_synthesis/32x32/Conv0_up/Reshape_1/shape", "op": "Const", "attr": {"value": {"tensor": {"dtype": "DT_INT32", "tensorShape": {"dim": [{"size": "4"}]}}}, "dtype": {"type": "DT_INT32"}}}, {"name": "g_synthesis/32x32/Conv0_up/Reshape/shape", "op": "Const", "attr": {"value": {"tensor": {"dtype": "DT_INT32", "tensorShape": {"dim": [{"size": "6"}]}}}, "dtype": {"type": "DT_INT32"}}}, {"name": "g_synthesis/16x16/Conv1/StyleMod/mul_1", "op": "Const", "attr": {"value": {"tensor": {"dtype": "DT_FLOAT", "tensorShape": {"dim": [{"size": "1024"}]}}}, "dtype": {"type": "DT_FLOAT"}}}, {"name": "g_synthesis/16x16/Conv1/StyleMod/mul", "op": "Const", "attr": {"value": {"tensor": {"dtype": "DT_FLOAT", "tensorShape": {"dim": [{"size": "512"}, {"size": "1024"}]}}}, "dtype": {"type": "DT_FLOAT"}}}, {"name": "g_synthesis/strided_slice_5/stack_1", "op": "Const", "attr": {"value": {"tensor": {"dtype": "DT_INT32", "tensorShape": {"dim": [{"size": "2"}]}}}, "dtype": {"type": "DT_INT32"}}}, {"name": "g_synthesis/16x16/Conv1/Reshape", "op": "Const", "attr": {"value": {"tensor": {"dtype": "DT_FLOAT", "tensorShape": {"dim": [{"size": "1"}, {"size": "512"}, {"size": "1"}, {"size": "1"}]}}}, "dtype": {"type": "DT_FLOAT"}}}, {"name": "g_synthesis/16x16/Conv0_up/Noise/random_uniform/shape/2", "op": "Const", "attr": {"value": {"tensor": {"dtype": "DT_INT32", "tensorShape": {}}}, "dtype": {"type": "DT_INT32"}}}, {"name": "g_synthesis/16x16/Conv1/mul", "op": "Const", "attr": {"value": {"tensor": {"dtype": "DT_FLOAT", "tensorShape": {"dim": [{"size": "3"}, {"size": "3"}, {"size": "512"}, {"size": "512"}]}}}, "dtype": {"type": "DT_FLOAT"}}}, {"name": "g_synthesis/16x16/Conv0_up/StyleMod/mul_1", "op": "Const", "attr": {"value": {"tensor": {"dtype": "DT_FLOAT", "tensorShape": {"dim": [{"size": "1024"}]}}}, "dtype": {"type": "DT_FLOAT"}}}, {"name": "g_synthesis/16x16/Conv0_up/StyleMod/mul", "op": "Const", "attr": {"value": {"tensor": {"dtype": "DT_FLOAT", "tensorShape": {"dim": [{"size": "512"}, {"size": "1024"}]}}}, "dtype": {"type": "DT_FLOAT"}}}, {"name": "g_synthesis/strided_slice_4/stack_1", "op": "Const", "attr": {"value": {"tensor": {"dtype": "DT_INT32", "tensorShape": {"dim": [{"size": "2"}]}}}, "dtype": {"type": "DT_INT32"}}}, {"name": "g_synthesis/16x16/Conv0_up/Reshape_2", "op": "Const", "attr": {"value": {"tensor": {"dtype": "DT_FLOAT", "tensorShape": {"dim": [{"size": "1"}, {"size": "512"}, {"size": "1"}, {"size": "1"}]}}}, "dtype": {"type": "DT_FLOAT"}}}, {"name": "g_synthesis/16x16/Conv0_up/mul", "op": "Const", "attr": {"value": {"tensor": {"dtype": "DT_FLOAT", "tensorShape": {"dim": [{"size": "3"}, {"size": "3"}, {"size": "512"}, {"size": "512"}]}}}, "dtype": {"type": "DT_FLOAT"}}}, {"name": "g_synthesis/16x16/Conv0_up/Reshape_1/shape", "op": "Const", "attr": {"value": {"tensor": {"dtype": "DT_INT32", "tensorShape": {"dim": [{"size": "4"}]}}}, "dtype": {"type": "DT_INT32"}}}, {"name": "g_synthesis/16x16/Conv0_up/Reshape/shape", "op": "Const", "attr": {"value": {"tensor": {"dtype": "DT_INT32", "tensorShape": {"dim": [{"size": "6"}]}}}, "dtype": {"type": "DT_INT32"}}}, {"name": "g_synthesis/8x8/Conv1/StyleMod/mul_1", "op": "Const", "attr": {"value": {"tensor": {"dtype": "DT_FLOAT", "tensorShape": {"dim": [{"size": "1024"}]}}}, "dtype": {"type": "DT_FLOAT"}}}, {"name": "g_synthesis/8x8/Conv1/StyleMod/mul", "op": "Const", "attr": {"value": {"tensor": {"dtype": "DT_FLOAT", "tensorShape": {"dim": [{"size": "512"}, {"size": "1024"}]}}}, "dtype": {"type": "DT_FLOAT"}}}, {"name": "g_synthesis/strided_slice_3/stack_1", "op": "Const", "attr": {"value": {"tensor": {"dtype": "DT_INT32", "tensorShape": {"dim": [{"size": "2"}]}}}, "dtype": {"type": "DT_INT32"}}}, {"name": "g_synthesis/8x8/Conv1/Reshape", "op": "Const", "attr": {"value": {"tensor": {"dtype": "DT_FLOAT", "tensorShape": {"dim": [{"size": "1"}, {"size": "512"}, {"size": "1"}, {"size": "1"}]}}}, "dtype": {"type": "DT_FLOAT"}}}, {"name": "g_synthesis/8x8/Conv0_up/Noise/random_uniform/shape/2", "op": "Const", "attr": {"value": {"tensor": {"dtype": "DT_INT32", "tensorShape": {}}}, "dtype": {"type": "DT_INT32"}}}, {"name": "g_synthesis/8x8/Conv1/mul", "op": "Const", "attr": {"value": {"tensor": {"dtype": "DT_FLOAT", "tensorShape": {"dim": [{"size": "3"}, {"size": "3"}, {"size": "512"}, {"size": "512"}]}}}, "dtype": {"type": "DT_FLOAT"}}}, {"name": "g_synthesis/8x8/Conv0_up/StyleMod/mul_1", "op": "Const", "attr": {"value": {"tensor": {"dtype": "DT_FLOAT", "tensorShape": {"dim": [{"size": "1024"}]}}}, "dtype": {"type": "DT_FLOAT"}}}, {"name": "g_synthesis/8x8/Conv0_up/StyleMod/mul", "op": "Const", "attr": {"value": {"tensor": {"dtype": "DT_FLOAT", "tensorShape": {"dim": [{"size": "512"}, {"size": "1024"}]}}}, "dtype": {"type": "DT_FLOAT"}}}, {"name": "g_synthesis/8x8/Conv0_up/Reshape_2", "op": "Const", "attr": {"value": {"tensor": {"dtype": "DT_FLOAT", "tensorShape": {"dim": [{"size": "1"}, {"size": "512"}, {"size": "1"}, {"size": "1"}]}}}, "dtype": {"type": "DT_FLOAT"}}}, {"name": "g_synthesis/8x8/Conv0_up/mul", "op": "Const", "attr": {"value": {"tensor": {"dtype": "DT_FLOAT", "tensorShape": {"dim": [{"size": "3"}, {"size": "3"}, {"size": "512"}, {"size": "512"}]}}}, "dtype": {"type": "DT_FLOAT"}}}, {"name": "g_synthesis/8x8/Conv0_up/Reshape_1/shape", "op": "Const", "attr": {"value": {"tensor": {"dtype": "DT_INT32", "tensorShape": {"dim": [{"size": "4"}]}}}, "dtype": {"type": "DT_INT32"}}}, {"name": "g_synthesis/8x8/Conv0_up/Reshape/shape", "op": "Const", "attr": {"value": {"tensor": {"dtype": "DT_INT32", "tensorShape": {"dim": [{"size": "6"}]}}}, "dtype": {"type": "DT_INT32"}}}, {"name": "g_synthesis/4x4/Conv/StyleMod/mul_1", "op": "Const", "attr": {"value": {"tensor": {"dtype": "DT_FLOAT", "tensorShape": {"dim": [{"size": "1024"}]}}}, "dtype": {"type": "DT_FLOAT"}}}, {"name": "g_synthesis/4x4/Conv/StyleMod/mul", "op": "Const", "attr": {"value": {"tensor": {"dtype": "DT_FLOAT", "tensorShape": {"dim": [{"size": "512"}, {"size": "1024"}]}}}, "dtype": {"type": "DT_FLOAT"}}}, {"name": "g_synthesis/4x4/Conv/Reshape", "op": "Const", "attr": {"value": {"tensor": {"dtype": "DT_FLOAT", "tensorShape": {"dim": [{"size": "1"}, {"size": "512"}, {"size": "1"}, {"size": "1"}]}}}, "dtype": {"type": "DT_FLOAT"}}}, {"name": "g_synthesis/4x4/Const/Noise/random_uniform/shape/2", "op": "Const", "attr": {"value": {"tensor": {"dtype": "DT_INT32", "tensorShape": {}}}, "dtype": {"type": "DT_INT32"}}}, {"name": "g_synthesis/4x4/Conv/mul", "op": "Const", "attr": {"value": {"tensor": {"dtype": "DT_FLOAT", "tensorShape": {"dim": [{"size": "3"}, {"size": "3"}, {"size": "512"}, {"size": "512"}]}}}, "dtype": {"type": "DT_FLOAT"}}}, {"name": "g_synthesis/4x4/Const/StyleMod/mul_1", "op": "Const", "attr": {"value": {"tensor": {"dtype": "DT_FLOAT", "tensorShape": {"dim": [{"size": "1024"}]}}}, "dtype": {"type": "DT_FLOAT"}}}, {"name": "g_synthesis/4x4/Const/StyleMod/mul", "op": "Const", "attr": {"value": {"tensor": {"dtype": "DT_FLOAT", "tensorShape": {"dim": [{"size": "512"}, {"size": "1024"}]}}}, "dtype": {"type": "DT_FLOAT"}}}, {"name": "g_synthesis/4x4/Const/const", "op": "Const", "attr": {"value": {"tensor": {"dtype": "DT_FLOAT", "tensorShape": {"dim": [{"size": "1"}, {"size": "512"}, {"size": "4"}, {"size": "4"}]}}}, "dtype": {"type": "DT_FLOAT"}}}, {"name": "g_synthesis/4x4/Const/Reshape", "op": "Const", "attr": {"value": {"tensor": {"dtype": "DT_FLOAT", "tensorShape": {"dim": [{"size": "1"}, {"size": "512"}, {"size": "1"}, {"size": "1"}]}}}, "dtype": {"type": "DT_FLOAT"}}}, {"name": "g_synthesis/4x4/Const/Noise/Reshape", "op": "Const", "attr": {"value": {"tensor": {"dtype": "DT_FLOAT", "tensorShape": {"dim": [{"size": "1"}, {"size": "512"}, {"size": "1"}, {"size": "1"}]}}}, "dtype": {"type": "DT_FLOAT"}}}, {"name": "g_synthesis/4x4/Conv/Noise/Reshape", "op": "Const", "attr": {"value": {"tensor": {"dtype": "DT_FLOAT", "tensorShape": {"dim": [{"size": "1"}, {"size": "512"}, {"size": "1"}, {"size": "1"}]}}}, "dtype": {"type": "DT_FLOAT"}}}, {"name": "g_synthesis/8x8/Conv0_up/Noise/Reshape", "op": "Const", "attr": {"value": {"tensor": {"dtype": "DT_FLOAT", "tensorShape": {"dim": [{"size": "1"}, {"size": "512"}, {"size": "1"}, {"size": "1"}]}}}, "dtype": {"type": "DT_FLOAT"}}}, {"name": "g_synthesis/8x8/Conv1/Noise/Reshape", "op": "Const", "attr": {"value": {"tensor": {"dtype": "DT_FLOAT", "tensorShape": {"dim": [{"size": "1"}, {"size": "512"}, {"size": "1"}, {"size": "1"}]}}}, "dtype": {"type": "DT_FLOAT"}}}, {"name": "g_synthesis/16x16/Conv0_up/Noise/Reshape", "op": "Const", "attr": {"value": {"tensor": {"dtype": "DT_FLOAT", "tensorShape": {"dim": [{"size": "1"}, {"size": "512"}, {"size": "1"}, {"size": "1"}]}}}, "dtype": {"type": "DT_FLOAT"}}}, {"name": "g_synthesis/16x16/Conv1/Noise/Reshape", "op": "Const", "attr": {"value": {"tensor": {"dtype": "DT_FLOAT", "tensorShape": {"dim": [{"size": "1"}, {"size": "512"}, {"size": "1"}, {"size": "1"}]}}}, "dtype": {"type": "DT_FLOAT"}}}, {"name": "g_synthesis/32x32/Conv0_up/Noise/Reshape", "op": "Const", "attr": {"value": {"tensor": {"dtype": "DT_FLOAT", "tensorShape": {"dim": [{"size": "1"}, {"size": "512"}, {"size": "1"}, {"size": "1"}]}}}, "dtype": {"type": "DT_FLOAT"}}}, {"name": "g_synthesis/32x32/Conv1/Noise/Reshape", "op": "Const", "attr": {"value": {"tensor": {"dtype": "DT_FLOAT", "tensorShape": {"dim": [{"size": "1"}, {"size": "512"}, {"size": "1"}, {"size": "1"}]}}}, "dtype": {"type": "DT_FLOAT"}}}, {"name": "g_synthesis/64x64/Conv0_up/Noise/Reshape", "op": "Const", "attr": {"value": {"tensor": {"dtype": "DT_FLOAT", "tensorShape": {"dim": [{"size": "1"}, {"size": "256"}, {"size": "1"}, {"size": "1"}]}}}, "dtype": {"type": "DT_FLOAT"}}}, {"name": "g_synthesis/64x64/Conv1/Noise/Reshape", "op": "Const", "attr": {"value": {"tensor": {"dtype": "DT_FLOAT", "tensorShape": {"dim": [{"size": "1"}, {"size": "256"}, {"size": "1"}, {"size": "1"}]}}}, "dtype": {"type": "DT_FLOAT"}}}, {"name": "g_synthesis/128x128/Conv0_up/AddN", "op": "Const", "attr": {"value": {"tensor": {"dtype": "DT_FLOAT", "tensorShape": {"dim": [{"size": "4"}, {"size": "4"}, {"size": "128"}, {"size": "256"}]}}}, "dtype": {"type": "DT_FLOAT"}}}, {"name": "g_synthesis/128x128/Conv0_up/Noise/Reshape", "op": "Const", "attr": {"value": {"tensor": {"dtype": "DT_FLOAT", "tensorShape": {"dim": [{"size": "1"}, {"size": "128"}, {"size": "1"}, {"size": "1"}]}}}, "dtype": {"type": "DT_FLOAT"}}}, {"name": "g_synthesis/128x128/Conv1/Noise/Reshape", "op": "Const", "attr": {"value": {"tensor": {"dtype": "DT_FLOAT", "tensorShape": {"dim": [{"size": "1"}, {"size": "128"}, {"size": "1"}, {"size": "1"}]}}}, "dtype": {"type": "DT_FLOAT"}}}, {"name": "g_synthesis/256x256/Conv0_up/AddN", "op": "Const", "attr": {"value": {"tensor": {"dtype": "DT_FLOAT", "tensorShape": {"dim": [{"size": "4"}, {"size": "4"}, {"size": "64"}, {"size": "128"}]}}}, "dtype": {"type": "DT_FLOAT"}}}, {"name": "g_synthesis/256x256/Conv0_up/Noise/Reshape", "op": "Const", "attr": {"value": {"tensor": {"dtype": "DT_FLOAT", "tensorShape": {"dim": [{"size": "1"}, {"size": "64"}, {"size": "1"}, {"size": "1"}]}}}, "dtype": {"type": "DT_FLOAT"}}}, {"name": "g_synthesis/256x256/Conv1/Noise/Reshape", "op": "Const", "attr": {"value": {"tensor": {"dtype": "DT_FLOAT", "tensorShape": {"dim": [{"size": "1"}, {"size": "64"}, {"size": "1"}, {"size": "1"}]}}}, "dtype": {"type": "DT_FLOAT"}}}, {"name": "g_synthesis/512x512/Conv0_up/AddN", "op": "Const", "attr": {"value": {"tensor": {"dtype": "DT_FLOAT", "tensorShape": {"dim": [{"size": "4"}, {"size": "4"}, {"size": "32"}, {"size": "64"}]}}}, "dtype": {"type": "DT_FLOAT"}}}, {"name": "g_synthesis/512x512/Conv0_up/Noise/Reshape", "op": "Const", "attr": {"value": {"tensor": {"dtype": "DT_FLOAT", "tensorShape": {"dim": [{"size": "1"}, {"size": "32"}, {"size": "1"}, {"size": "1"}]}}}, "dtype": {"type": "DT_FLOAT"}}}, {"name": "g_synthesis/512x512/Conv1/Noise/Reshape", "op": "Const", "attr": {"value": {"tensor": {"dtype": "DT_FLOAT", "tensorShape": {"dim": [{"size": "1"}, {"size": "32"}, {"size": "1"}, {"size": "1"}]}}}, "dtype": {"type": "DT_FLOAT"}}}, {"name": "g_synthesis/Reshape_13/shape", "op": "Const", "attr": {"value": {"tensor": {"dtype": "DT_INT32", "tensorShape": {"dim": [{"size": "4"}]}}}, "dtype": {"type": "DT_INT32"}}}, {"name": "g_synthesis/Reshape_12/shape", "op": "Const", "attr": {"value": {"tensor": {"dtype": "DT_INT32", "tensorShape": {"dim": [{"size": "6"}]}}}, "dtype": {"type": "DT_INT32"}}}, {"name": "g_synthesis/256x256_1/ToRGB/Reshape", "op": "Const", "attr": {"value": {"tensor": {"dtype": "DT_FLOAT", "tensorShape": {"dim": [{"size": "1"}, {"size": "3"}, {"size": "1"}, {"size": "1"}]}}}, "dtype": {"type": "DT_FLOAT"}}}, {"name": "g_synthesis/256x256_1/ToRGB/mul", "op": "Const", "attr": {"value": {"tensor": {"dtype": "DT_FLOAT", "tensorShape": {"dim": [{"size": "1"}, {"size": "1"}, {"size": "64"}, {"size": "3"}]}}}, "dtype": {"type": "DT_FLOAT"}}}, {"name": "g_synthesis/Reshape_11/shape", "op": "Const", "attr": {"value": {"tensor": {"dtype": "DT_INT32", "tensorShape": {"dim": [{"size": "4"}]}}}, "dtype": {"type": "DT_INT32"}}}, {"name": "g_synthesis/Reshape_10/shape", "op": "Const", "attr": {"value": {"tensor": {"dtype": "DT_INT32", "tensorShape": {"dim": [{"size": "6"}]}}}, "dtype": {"type": "DT_INT32"}}}, {"name": "g_synthesis/128x128_1/ToRGB/Reshape", "op": "Const", "attr": {"value": {"tensor": {"dtype": "DT_FLOAT", "tensorShape": {"dim": [{"size": "1"}, {"size": "3"}, {"size": "1"}, {"size": "1"}]}}}, "dtype": {"type": "DT_FLOAT"}}}, {"name": "g_synthesis/128x128_1/ToRGB/mul", "op": "Const", "attr": {"value": {"tensor": {"dtype": "DT_FLOAT", "tensorShape": {"dim": [{"size": "1"}, {"size": "1"}, {"size": "128"}, {"size": "3"}]}}}, "dtype": {"type": "DT_FLOAT"}}}, {"name": "g_synthesis/Reshape_9/shape", "op": "Const", "attr": {"value": {"tensor": {"dtype": "DT_INT32", "tensorShape": {"dim": [{"size": "4"}]}}}, "dtype": {"type": "DT_INT32"}}}, {"name": "g_synthesis/Reshape_8/shape", "op": "Const", "attr": {"value": {"tensor": {"dtype": "DT_INT32", "tensorShape": {"dim": [{"size": "6"}]}}}, "dtype": {"type": "DT_INT32"}}}, {"name": "g_synthesis/64x64_1/ToRGB/Reshape", "op": "Const", "attr": {"value": {"tensor": {"dtype": "DT_FLOAT", "tensorShape": {"dim": [{"size": "1"}, {"size": "3"}, {"size": "1"}, {"size": "1"}]}}}, "dtype": {"type": "DT_FLOAT"}}}, {"name": "g_synthesis/64x64_1/ToRGB/mul", "op": "Const", "attr": {"value": {"tensor": {"dtype": "DT_FLOAT", "tensorShape": {"dim": [{"size": "1"}, {"size": "1"}, {"size": "256"}, {"size": "3"}]}}}, "dtype": {"type": "DT_FLOAT"}}}, {"name": "g_synthesis/Reshape_7/shape", "op": "Const", "attr": {"value": {"tensor": {"dtype": "DT_INT32", "tensorShape": {"dim": [{"size": "4"}]}}}, "dtype": {"type": "DT_INT32"}}}, {"name": "g_synthesis/Reshape_6/shape", "op": "Const", "attr": {"value": {"tensor": {"dtype": "DT_INT32", "tensorShape": {"dim": [{"size": "6"}]}}}, "dtype": {"type": "DT_INT32"}}}, {"name": "g_synthesis/32x32_1/ToRGB/Reshape", "op": "Const", "attr": {"value": {"tensor": {"dtype": "DT_FLOAT", "tensorShape": {"dim": [{"size": "1"}, {"size": "3"}, {"size": "1"}, {"size": "1"}]}}}, "dtype": {"type": "DT_FLOAT"}}}, {"name": "g_synthesis/32x32_1/ToRGB/mul", "op": "Const", "attr": {"value": {"tensor": {"dtype": "DT_FLOAT", "tensorShape": {"dim": [{"size": "1"}, {"size": "1"}, {"size": "512"}, {"size": "3"}]}}}, "dtype": {"type": "DT_FLOAT"}}}, {"name": "g_synthesis/Reshape_5/shape", "op": "Const", "attr": {"value": {"tensor": {"dtype": "DT_INT32", "tensorShape": {"dim": [{"size": "4"}]}}}, "dtype": {"type": "DT_INT32"}}}, {"name": "g_synthesis/Reshape_4/shape", "op": "Const", "attr": {"value": {"tensor": {"dtype": "DT_INT32", "tensorShape": {"dim": [{"size": "6"}]}}}, "dtype": {"type": "DT_INT32"}}}, {"name": "g_synthesis/16x16_1/ToRGB/Reshape", "op": "Const", "attr": {"value": {"tensor": {"dtype": "DT_FLOAT", "tensorShape": {"dim": [{"size": "1"}, {"size": "3"}, {"size": "1"}, {"size": "1"}]}}}, "dtype": {"type": "DT_FLOAT"}}}, {"name": "g_synthesis/16x16_1/ToRGB/mul", "op": "Const", "attr": {"value": {"tensor": {"dtype": "DT_FLOAT", "tensorShape": {"dim": [{"size": "1"}, {"size": "1"}, {"size": "512"}, {"size": "3"}]}}}, "dtype": {"type": "DT_FLOAT"}}}, {"name": "g_synthesis/Reshape_3/shape", "op": "Const", "attr": {"value": {"tensor": {"dtype": "DT_INT32", "tensorShape": {"dim": [{"size": "4"}]}}}, "dtype": {"type": "DT_INT32"}}}, {"name": "g_synthesis/Reshape_2/shape", "op": "Const", "attr": {"value": {"tensor": {"dtype": "DT_INT32", "tensorShape": {"dim": [{"size": "6"}]}}}, "dtype": {"type": "DT_INT32"}}}, {"name": "g_synthesis/8x8_1/ToRGB/Reshape", "op": "Const", "attr": {"value": {"tensor": {"dtype": "DT_FLOAT", "tensorShape": {"dim": [{"size": "1"}, {"size": "3"}, {"size": "1"}, {"size": "1"}]}}}, "dtype": {"type": "DT_FLOAT"}}}, {"name": "g_synthesis/8x8_1/ToRGB/mul", "op": "Const", "attr": {"value": {"tensor": {"dtype": "DT_FLOAT", "tensorShape": {"dim": [{"size": "1"}, {"size": "1"}, {"size": "512"}, {"size": "3"}]}}}, "dtype": {"type": "DT_FLOAT"}}}, {"name": "g_synthesis/Reshape_1/shape", "op": "Const", "attr": {"value": {"tensor": {"dtype": "DT_INT32", "tensorShape": {"dim": [{"size": "4"}]}}}, "dtype": {"type": "DT_INT32"}}}, {"name": "g_synthesis/Reshape/shape", "op": "Const", "attr": {"value": {"tensor": {"dtype": "DT_INT32", "tensorShape": {"dim": [{"size": "6"}]}}}, "dtype": {"type": "DT_INT32"}}}, {"name": "g_synthesis/4x4_1/ToRGB/mul", "op": "Const", "attr": {"value": {"tensor": {"dtype": "DT_FLOAT", "tensorShape": {"dim": [{"size": "1"}, {"size": "1"}, {"size": "512"}, {"size": "3"}]}}}, "dtype": {"type": "DT_FLOAT"}}}, {"name": "g_mapping/PixelNorm/Square", "op": "Square", "input": ["z"], "attr": {"T": {"type": "DT_FLOAT"}}}, {"name": "g_mapping/PixelNorm/Mean", "op": "Mean", "input": ["g_mapping/PixelNorm/Square", "g_synthesis/4x4/Const/Tile/multiples/1"], "attr": {"keep_dims": {"b": true}, "Tidx": {"type": "DT_INT32"}, "T": {"type": "DT_FLOAT"}}}, {"name": "g_mapping/PixelNorm/add", "op": "Add", "input": ["g_mapping/PixelNorm/Mean", "g_synthesis/4x4/Const/InstanceNorm/epsilon"], "attr": {"T": {"type": "DT_FLOAT"}}}, {"name": "g_mapping/PixelNorm/Rsqrt", "op": "Rsqrt", "input": ["g_mapping/PixelNorm/add"], "attr": {"T": {"type": "DT_FLOAT"}}}, {"name": "g_mapping/PixelNorm/mul", "op": "Mul", "input": ["g_mapping/PixelNorm/Rsqrt", "z"], "attr": {"T": {"type": "DT_FLOAT"}}}, {"name": "g_mapping/Dense0/flatten/Shape", "op": "Shape", "input": ["g_mapping/PixelNorm/mul"], "attr": {"T": {"type": "DT_FLOAT"}, "out_type": {"type": "DT_INT32"}}}, {"name": "g_mapping/Dense0/flatten/strided_slice", "op": "StridedSlice", "input": ["g_mapping/Dense0/flatten/Shape", "g_synthesis/512x512/Conv0_up/strided_slice_4/stack", "g_synthesis/512x512/Conv0_up/strided_slice_4/stack_1", "g_synthesis/512x512/Conv0_up/strided_slice_4/stack_1"], "attr": {"T": {"type": "DT_INT32"}, "Index": {"type": "DT_INT32"}, "shrink_axis_mask": {"i": "1"}, "begin_mask": {"i": "0"}, "ellipsis_mask": {"i": "0"}, "new_axis_mask": {"i": "0"}, "end_mask": {"i": "0"}}}, {"name": "g_mapping/Dense0/flatten/Reshape/shape", "op": "Pack", "input": ["g_mapping/Dense0/flatten/strided_slice", "g_synthesis/4x4/Const/StyleMod/flatten/Reshape/shape/1"], "attr": {"T": {"type": "DT_INT32"}, "axis": {"i": "0"}, "N": {"i": "2"}}}, {"name": "g_mapping/Dense0/flatten/Reshape", "op": "Reshape", "input": ["g_mapping/PixelNorm/mul", "g_mapping/Dense0/flatten/Reshape/shape"], "attr": {"T": {"type": "DT_FLOAT"}, "Tshape": {"type": "DT_INT32"}}}, {"name": "g_mapping/Dense0/MatMul", "op": "MatMul", "input": ["g_mapping/Dense0/flatten/Reshape", "g_mapping/Dense0/mul"], "attr": {"transpose_b": {"b": false}, "T": {"type": "DT_FLOAT"}, "transpose_a": {"b": false}}}, {"name": "g_mapping/Dense0/add", "op": "Add", "input": ["g_mapping/Dense0/MatMul", "g_mapping/Dense0/mul_1"], "attr": {"T": {"type": "DT_FLOAT"}}}, {"name": "g_mapping/Dense0/LeakyRelu", "op": "LeakyRelu", "input": ["g_mapping/Dense0/add"], "attr": {"T": {"type": "DT_FLOAT"}, "alpha": {"f": 0.20000000298023224}}}, {"name": "g_mapping/Dense1/flatten/Shape", "op": "Shape", "input": ["g_mapping/Dense0/LeakyRelu"], "attr": {"T": {"type": "DT_FLOAT"}, "out_type": {"type": "DT_INT32"}}}, {"name": "g_mapping/Dense1/flatten/strided_slice", "op": "StridedSlice", "input": ["g_mapping/Dense1/flatten/Shape", "g_synthesis/512x512/Conv0_up/strided_slice_4/stack", "g_synthesis/512x512/Conv0_up/strided_slice_4/stack_1", "g_synthesis/512x512/Conv0_up/strided_slice_4/stack_1"], "attr": {"T": {"type": "DT_INT32"}, "Index": {"type": "DT_INT32"}, "shrink_axis_mask": {"i": "1"}, "begin_mask": {"i": "0"}, "ellipsis_mask": {"i": "0"}, "new_axis_mask": {"i": "0"}, "end_mask": {"i": "0"}}}, {"name": "g_mapping/Dense1/flatten/Reshape/shape", "op": "Pack", "input": ["g_mapping/Dense1/flatten/strided_slice", "g_synthesis/4x4/Const/StyleMod/flatten/Reshape/shape/1"], "attr": {"T": {"type": "DT_INT32"}, "axis": {"i": "0"}, "N": {"i": "2"}}}, {"name": "g_mapping/Dense1/flatten/Reshape", "op": "Reshape", "input": ["g_mapping/Dense0/LeakyRelu", "g_mapping/Dense1/flatten/Reshape/shape"], "attr": {"T": {"type": "DT_FLOAT"}, "Tshape": {"type": "DT_INT32"}}}, {"name": "g_mapping/Dense1/MatMul", "op": "MatMul", "input": ["g_mapping/Dense1/flatten/Reshape", "g_mapping/Dense1/mul"], "attr": {"transpose_b": {"b": false}, "T": {"type": "DT_FLOAT"}, "transpose_a": {"b": false}}}, {"name": "g_mapping/Dense1/add", "op": "Add", "input": ["g_mapping/Dense1/MatMul", "g_mapping/Dense1/mul_1"], "attr": {"T": {"type": "DT_FLOAT"}}}, {"name": "g_mapping/Dense1/LeakyRelu", "op": "LeakyRelu", "input": ["g_mapping/Dense1/add"], "attr": {"T": {"type": "DT_FLOAT"}, "alpha": {"f": 0.20000000298023224}}}, {"name": "g_mapping/Dense2/flatten/Shape", "op": "Shape", "input": ["g_mapping/Dense1/LeakyRelu"], "attr": {"T": {"type": "DT_FLOAT"}, "out_type": {"type": "DT_INT32"}}}, {"name": "g_mapping/Dense2/flatten/strided_slice", "op": "StridedSlice", "input": ["g_mapping/Dense2/flatten/Shape", "g_synthesis/512x512/Conv0_up/strided_slice_4/stack", "g_synthesis/512x512/Conv0_up/strided_slice_4/stack_1", "g_synthesis/512x512/Conv0_up/strided_slice_4/stack_1"], "attr": {"T": {"type": "DT_INT32"}, "Index": {"type": "DT_INT32"}, "shrink_axis_mask": {"i": "1"}, "begin_mask": {"i": "0"}, "ellipsis_mask": {"i": "0"}, "new_axis_mask": {"i": "0"}, "end_mask": {"i": "0"}}}, {"name": "g_mapping/Dense2/flatten/Reshape/shape", "op": "Pack", "input": ["g_mapping/Dense2/flatten/strided_slice", "g_synthesis/4x4/Const/StyleMod/flatten/Reshape/shape/1"], "attr": {"T": {"type": "DT_INT32"}, "axis": {"i": "0"}, "N": {"i": "2"}}}, {"name": "g_mapping/Dense2/flatten/Reshape", "op": "Reshape", "input": ["g_mapping/Dense1/LeakyRelu", "g_mapping/Dense2/flatten/Reshape/shape"], "attr": {"T": {"type": "DT_FLOAT"}, "Tshape": {"type": "DT_INT32"}}}, {"name": "g_mapping/Dense2/MatMul", "op": "MatMul", "input": ["g_mapping/Dense2/flatten/Reshape", "g_mapping/Dense2/mul"], "attr": {"transpose_b": {"b": false}, "T": {"type": "DT_FLOAT"}, "transpose_a": {"b": false}}}, {"name": "g_mapping/Dense2/add", "op": "Add", "input": ["g_mapping/Dense2/MatMul", "g_mapping/Dense2/mul_1"], "attr": {"T": {"type": "DT_FLOAT"}}}, {"name": "g_mapping/Dense2/LeakyRelu", "op": "LeakyRelu", "input": ["g_mapping/Dense2/add"], "attr": {"T": {"type": "DT_FLOAT"}, "alpha": {"f": 0.20000000298023224}}}, {"name": "g_mapping/Dense3/flatten/Shape", "op": "Shape", "input": ["g_mapping/Dense2/LeakyRelu"], "attr": {"T": {"type": "DT_FLOAT"}, "out_type": {"type": "DT_INT32"}}}, {"name": "g_mapping/Dense3/flatten/strided_slice", "op": "StridedSlice", "input": ["g_mapping/Dense3/flatten/Shape", "g_synthesis/512x512/Conv0_up/strided_slice_4/stack", "g_synthesis/512x512/Conv0_up/strided_slice_4/stack_1", "g_synthesis/512x512/Conv0_up/strided_slice_4/stack_1"], "attr": {"T": {"type": "DT_INT32"}, "Index": {"type": "DT_INT32"}, "shrink_axis_mask": {"i": "1"}, "begin_mask": {"i": "0"}, "ellipsis_mask": {"i": "0"}, "new_axis_mask": {"i": "0"}, "end_mask": {"i": "0"}}}, {"name": "g_mapping/Dense3/flatten/Reshape/shape", "op": "Pack", "input": ["g_mapping/Dense3/flatten/strided_slice", "g_synthesis/4x4/Const/StyleMod/flatten/Reshape/shape/1"], "attr": {"T": {"type": "DT_INT32"}, "axis": {"i": "0"}, "N": {"i": "2"}}}, {"name": "g_mapping/Dense3/flatten/Reshape", "op": "Reshape", "input": ["g_mapping/Dense2/LeakyRelu", "g_mapping/Dense3/flatten/Reshape/shape"], "attr": {"T": {"type": "DT_FLOAT"}, "Tshape": {"type": "DT_INT32"}}}, {"name": "g_mapping/Dense3/MatMul", "op": "MatMul", "input": ["g_mapping/Dense3/flatten/Reshape", "g_mapping/Dense3/mul"], "attr": {"transpose_b": {"b": false}, "T": {"type": "DT_FLOAT"}, "transpose_a": {"b": false}}}, {"name": "g_mapping/Dense3/add", "op": "Add", "input": ["g_mapping/Dense3/MatMul", "g_mapping/Dense3/mul_1"], "attr": {"T": {"type": "DT_FLOAT"}}}, {"name": "g_mapping/Dense3/LeakyRelu", "op": "LeakyRelu", "input": ["g_mapping/Dense3/add"], "attr": {"T": {"type": "DT_FLOAT"}, "alpha": {"f": 0.20000000298023224}}}, {"name": "g_mapping/Dense4/flatten/Shape", "op": "Shape", "input": ["g_mapping/Dense3/LeakyRelu"], "attr": {"T": {"type": "DT_FLOAT"}, "out_type": {"type": "DT_INT32"}}}, {"name": "g_mapping/Dense4/flatten/strided_slice", "op": "StridedSlice", "input": ["g_mapping/Dense4/flatten/Shape", "g_synthesis/512x512/Conv0_up/strided_slice_4/stack", "g_synthesis/512x512/Conv0_up/strided_slice_4/stack_1", "g_synthesis/512x512/Conv0_up/strided_slice_4/stack_1"], "attr": {"T": {"type": "DT_INT32"}, "Index": {"type": "DT_INT32"}, "shrink_axis_mask": {"i": "1"}, "begin_mask": {"i": "0"}, "ellipsis_mask": {"i": "0"}, "new_axis_mask": {"i": "0"}, "end_mask": {"i": "0"}}}, {"name": "g_mapping/Dense4/flatten/Reshape/shape", "op": "Pack", "input": ["g_mapping/Dense4/flatten/strided_slice", "g_synthesis/4x4/Const/StyleMod/flatten/Reshape/shape/1"], "attr": {"T": {"type": "DT_INT32"}, "axis": {"i": "0"}, "N": {"i": "2"}}}, {"name": "g_mapping/Dense4/flatten/Reshape", "op": "Reshape", "input": ["g_mapping/Dense3/LeakyRelu", "g_mapping/Dense4/flatten/Reshape/shape"], "attr": {"T": {"type": "DT_FLOAT"}, "Tshape": {"type": "DT_INT32"}}}, {"name": "g_mapping/Dense4/MatMul", "op": "MatMul", "input": ["g_mapping/Dense4/flatten/Reshape", "g_mapping/Dense4/mul"], "attr": {"transpose_b": {"b": false}, "T": {"type": "DT_FLOAT"}, "transpose_a": {"b": false}}}, {"name": "g_mapping/Dense4/add", "op": "Add", "input": ["g_mapping/Dense4/MatMul", "g_mapping/Dense4/mul_1"], "attr": {"T": {"type": "DT_FLOAT"}}}, {"name": "g_mapping/Dense4/LeakyRelu", "op": "LeakyRelu", "input": ["g_mapping/Dense4/add"], "attr": {"T": {"type": "DT_FLOAT"}, "alpha": {"f": 0.20000000298023224}}}, {"name": "g_mapping/Dense5/flatten/Shape", "op": "Shape", "input": ["g_mapping/Dense4/LeakyRelu"], "attr": {"T": {"type": "DT_FLOAT"}, "out_type": {"type": "DT_INT32"}}}, {"name": "g_mapping/Dense5/flatten/strided_slice", "op": "StridedSlice", "input": ["g_mapping/Dense5/flatten/Shape", "g_synthesis/512x512/Conv0_up/strided_slice_4/stack", "g_synthesis/512x512/Conv0_up/strided_slice_4/stack_1", "g_synthesis/512x512/Conv0_up/strided_slice_4/stack_1"], "attr": {"T": {"type": "DT_INT32"}, "Index": {"type": "DT_INT32"}, "shrink_axis_mask": {"i": "1"}, "begin_mask": {"i": "0"}, "ellipsis_mask": {"i": "0"}, "new_axis_mask": {"i": "0"}, "end_mask": {"i": "0"}}}, {"name": "g_mapping/Dense5/flatten/Reshape/shape", "op": "Pack", "input": ["g_mapping/Dense5/flatten/strided_slice", "g_synthesis/4x4/Const/StyleMod/flatten/Reshape/shape/1"], "attr": {"T": {"type": "DT_INT32"}, "axis": {"i": "0"}, "N": {"i": "2"}}}, {"name": "g_mapping/Dense5/flatten/Reshape", "op": "Reshape", "input": ["g_mapping/Dense4/LeakyRelu", "g_mapping/Dense5/flatten/Reshape/shape"], "attr": {"T": {"type": "DT_FLOAT"}, "Tshape": {"type": "DT_INT32"}}}, {"name": "g_mapping/Dense5/MatMul", "op": "MatMul", "input": ["g_mapping/Dense5/flatten/Reshape", "g_mapping/Dense5/mul"], "attr": {"transpose_b": {"b": false}, "T": {"type": "DT_FLOAT"}, "transpose_a": {"b": false}}}, {"name": "g_mapping/Dense5/add", "op": "Add", "input": ["g_mapping/Dense5/MatMul", "g_mapping/Dense5/mul_1"], "attr": {"T": {"type": "DT_FLOAT"}}}, {"name": "g_mapping/Dense5/LeakyRelu", "op": "LeakyRelu", "input": ["g_mapping/Dense5/add"], "attr": {"T": {"type": "DT_FLOAT"}, "alpha": {"f": 0.20000000298023224}}}, {"name": "g_mapping/Dense6/flatten/Shape", "op": "Shape", "input": ["g_mapping/Dense5/LeakyRelu"], "attr": {"T": {"type": "DT_FLOAT"}, "out_type": {"type": "DT_INT32"}}}, {"name": "g_mapping/Dense6/flatten/strided_slice", "op": "StridedSlice", "input": ["g_mapping/Dense6/flatten/Shape", "g_synthesis/512x512/Conv0_up/strided_slice_4/stack", "g_synthesis/512x512/Conv0_up/strided_slice_4/stack_1", "g_synthesis/512x512/Conv0_up/strided_slice_4/stack_1"], "attr": {"T": {"type": "DT_INT32"}, "Index": {"type": "DT_INT32"}, "shrink_axis_mask": {"i": "1"}, "begin_mask": {"i": "0"}, "ellipsis_mask": {"i": "0"}, "new_axis_mask": {"i": "0"}, "end_mask": {"i": "0"}}}, {"name": "g_mapping/Dense6/flatten/Reshape/shape", "op": "Pack", "input": ["g_mapping/Dense6/flatten/strided_slice", "g_synthesis/4x4/Const/StyleMod/flatten/Reshape/shape/1"], "attr": {"T": {"type": "DT_INT32"}, "axis": {"i": "0"}, "N": {"i": "2"}}}, {"name": "g_mapping/Dense6/flatten/Reshape", "op": "Reshape", "input": ["g_mapping/Dense5/LeakyRelu", "g_mapping/Dense6/flatten/Reshape/shape"], "attr": {"T": {"type": "DT_FLOAT"}, "Tshape": {"type": "DT_INT32"}}}, {"name": "g_mapping/Dense6/MatMul", "op": "MatMul", "input": ["g_mapping/Dense6/flatten/Reshape", "g_mapping/Dense6/mul"], "attr": {"transpose_b": {"b": false}, "T": {"type": "DT_FLOAT"}, "transpose_a": {"b": false}}}, {"name": "g_mapping/Dense6/add", "op": "Add", "input": ["g_mapping/Dense6/MatMul", "g_mapping/Dense6/mul_1"], "attr": {"T": {"type": "DT_FLOAT"}}}, {"name": "g_mapping/Dense6/LeakyRelu", "op": "LeakyRelu", "input": ["g_mapping/Dense6/add"], "attr": {"T": {"type": "DT_FLOAT"}, "alpha": {"f": 0.20000000298023224}}}, {"name": "g_mapping/Dense7/flatten/Shape", "op": "Shape", "input": ["g_mapping/Dense6/LeakyRelu"], "attr": {"T": {"type": "DT_FLOAT"}, "out_type": {"type": "DT_INT32"}}}, {"name": "g_mapping/Dense7/flatten/strided_slice", "op": "StridedSlice", "input": ["g_mapping/Dense7/flatten/Shape", "g_synthesis/512x512/Conv0_up/strided_slice_4/stack", "g_synthesis/512x512/Conv0_up/strided_slice_4/stack_1", "g_synthesis/512x512/Conv0_up/strided_slice_4/stack_1"], "attr": {"T": {"type": "DT_INT32"}, "Index": {"type": "DT_INT32"}, "shrink_axis_mask": {"i": "1"}, "begin_mask": {"i": "0"}, "ellipsis_mask": {"i": "0"}, "new_axis_mask": {"i": "0"}, "end_mask": {"i": "0"}}}, {"name": "g_mapping/Dense7/flatten/Reshape/shape", "op": "Pack", "input": ["g_mapping/Dense7/flatten/strided_slice", "g_synthesis/4x4/Const/StyleMod/flatten/Reshape/shape/1"], "attr": {"T": {"type": "DT_INT32"}, "axis": {"i": "0"}, "N": {"i": "2"}}}, {"name": "g_mapping/Dense7/flatten/Reshape", "op": "Reshape", "input": ["g_mapping/Dense6/LeakyRelu", "g_mapping/Dense7/flatten/Reshape/shape"], "attr": {"T": {"type": "DT_FLOAT"}, "Tshape": {"type": "DT_INT32"}}}, {"name": "g_mapping/Dense7/MatMul", "op": "MatMul", "input": ["g_mapping/Dense7/flatten/Reshape", "g_mapping/Dense7/mul"], "attr": {"transpose_b": {"b": false}, "T": {"type": "DT_FLOAT"}, "transpose_a": {"b": false}}}, {"name": "g_mapping/Dense7/add", "op": "Add", "input": ["g_mapping/Dense7/MatMul", "g_mapping/Dense7/mul_1"], "attr": {"T": {"type": "DT_FLOAT"}}}, {"name": "g_mapping/Dense7/LeakyRelu", "op": "LeakyRelu", "input": ["g_mapping/Dense7/add"], "attr": {"T": {"type": "DT_FLOAT"}, "alpha": {"f": 0.20000000298023224}}}, {"name": "g_mapping/Broadcast/ExpandDims", "op": "ExpandDims", "input": ["g_mapping/Dense7/LeakyRelu", "g_synthesis/4x4/Const/Tile/multiples/1"], "attr": {"Tdim": {"type": "DT_INT32"}, "T": {"type": "DT_FLOAT"}}}, {"name": "g_mapping/Broadcast/Tile", "op": "Tile", "input": ["g_mapping/Broadcast/ExpandDims", "g_mapping/Broadcast/Tile/multiples"], "attr": {"Tmultiples": {"type": "DT_INT32"}, "T": {"type": "DT_FLOAT"}}}, {"name": "Truncation/Lerp/sub", "op": "Sub", "input": ["g_mapping/Broadcast/Tile", "w_avg"], "attr": {"T": {"type": "DT_FLOAT"}}}, {"name": "Truncation/Lerp/mul", "op": "Mul", "input": ["Truncation/Lerp/sub", "Truncation/Select"], "attr": {"T": {"type": "DT_FLOAT"}}}, {"name": "Truncation/Lerp/add", "op": "Add", "input": ["Truncation/Lerp/mul", "w_avg"], "attr": {"T": {"type": "DT_FLOAT"}}}, {"name": "g_synthesis/strided_slice_16", "op": "StridedSlice", "input": ["Truncation/Lerp/add", "g_synthesis/strided_slice_15/stack_1", "g_synthesis/strided_slice_16/stack_1", "g_synthesis/4x4/Const/StyleMod/strided_slice/stack_2"], "attr": {"T": {"type": "DT_FLOAT"}, "Index": {"type": "DT_INT32"}, "shrink_axis_mask": {"i": "2"}, "begin_mask": {"i": "1"}, "ellipsis_mask": {"i": "0"}, "new_axis_mask": {"i": "0"}, "end_mask": {"i": "1"}}}, {"name": "g_synthesis/strided_slice_15", "op": "StridedSlice", "input": ["Truncation/Lerp/add", "g_synthesis/strided_slice_14/stack_1", "g_synthesis/strided_slice_15/stack_1", "g_synthesis/4x4/Const/StyleMod/strided_slice/stack_2"], "attr": {"T": {"type": "DT_FLOAT"}, "Index": {"type": "DT_INT32"}, "shrink_axis_mask": {"i": "2"}, "begin_mask": {"i": "1"}, "ellipsis_mask": {"i": "0"}, "new_axis_mask": {"i": "0"}, "end_mask": {"i": "1"}}}, {"name": "g_synthesis/strided_slice_14", "op": "StridedSlice", "input": ["Truncation/Lerp/add", "g_synthesis/strided_slice_13/stack_1", "g_synthesis/strided_slice_14/stack_1", "g_synthesis/4x4/Const/StyleMod/strided_slice/stack_2"], "attr": {"T": {"type": "DT_FLOAT"}, "Index": {"type": "DT_INT32"}, "shrink_axis_mask": {"i": "2"}, "begin_mask": {"i": "1"}, "ellipsis_mask": {"i": "0"}, "new_axis_mask": {"i": "0"}, "end_mask": {"i": "1"}}}, {"name": "g_synthesis/strided_slice_13", "op": "StridedSlice", "input": ["Truncation/Lerp/add", "g_synthesis/strided_slice_12/stack_1", "g_synthesis/strided_slice_13/stack_1", "g_synthesis/4x4/Const/StyleMod/strided_slice/stack_2"], "attr": {"T": {"type": "DT_FLOAT"}, "Index": {"type": "DT_INT32"}, "shrink_axis_mask": {"i": "2"}, "begin_mask": {"i": "1"}, "ellipsis_mask": {"i": "0"}, "new_axis_mask": {"i": "0"}, "end_mask": {"i": "1"}}}, {"name": "g_synthesis/strided_slice_12", "op": "StridedSlice", "input": ["Truncation/Lerp/add", "g_synthesis/strided_slice_11/stack_1", "g_synthesis/strided_slice_12/stack_1", "g_synthesis/4x4/Const/StyleMod/strided_slice/stack_2"], "attr": {"T": {"type": "DT_FLOAT"}, "Index": {"type": "DT_INT32"}, "shrink_axis_mask": {"i": "2"}, "begin_mask": {"i": "1"}, "ellipsis_mask": {"i": "0"}, "new_axis_mask": {"i": "0"}, "end_mask": {"i": "1"}}}, {"name": "g_synthesis/strided_slice_11", "op": "StridedSlice", "input": ["Truncation/Lerp/add", "g_synthesis/strided_slice_10/stack_1", "g_synthesis/strided_slice_11/stack_1", "g_synthesis/4x4/Const/StyleMod/strided_slice/stack_2"], "attr": {"T": {"type": "DT_FLOAT"}, "Index": {"type": "DT_INT32"}, "shrink_axis_mask": {"i": "2"}, "begin_mask": {"i": "1"}, "ellipsis_mask": {"i": "0"}, "new_axis_mask": {"i": "0"}, "end_mask": {"i": "1"}}}, {"name": "g_synthesis/strided_slice_10", "op": "StridedSlice", "input": ["Truncation/Lerp/add", "g_synthesis/strided_slice_9/stack_1", "g_synthesis/strided_slice_10/stack_1", "g_synthesis/4x4/Const/StyleMod/strided_slice/stack_2"], "attr": {"T": {"type": "DT_FLOAT"}, "Index": {"type": "DT_INT32"}, "shrink_axis_mask": {"i": "2"}, "begin_mask": {"i": "1"}, "ellipsis_mask": {"i": "0"}, "new_axis_mask": {"i": "0"}, "end_mask": {"i": "1"}}}, {"name": "g_synthesis/strided_slice_9", "op": "StridedSlice", "input": ["Truncation/Lerp/add", "g_synthesis/strided_slice_8/stack_1", "g_synthesis/strided_slice_9/stack_1", "g_synthesis/4x4/Const/StyleMod/strided_slice/stack_2"], "attr": {"T": {"type": "DT_FLOAT"}, "Index": {"type": "DT_INT32"}, "shrink_axis_mask": {"i": "2"}, "begin_mask": {"i": "1"}, "ellipsis_mask": {"i": "0"}, "new_axis_mask": {"i": "0"}, "end_mask": {"i": "1"}}}, {"name": "g_synthesis/strided_slice_8", "op": "StridedSlice", "input": ["Truncation/Lerp/add", "g_synthesis/strided_slice_7/stack_1", "g_synthesis/strided_slice_8/stack_1", "g_synthesis/4x4/Const/StyleMod/strided_slice/stack_2"], "attr": {"T": {"type": "DT_FLOAT"}, "Index": {"type": "DT_INT32"}, "shrink_axis_mask": {"i": "2"}, "begin_mask": {"i": "1"}, "ellipsis_mask": {"i": "0"}, "new_axis_mask": {"i": "0"}, "end_mask": {"i": "1"}}}, {"name": "g_synthesis/strided_slice_7", "op": "StridedSlice", "input": ["Truncation/Lerp/add", "g_synthesis/strided_slice_6/stack_1", "g_synthesis/strided_slice_7/stack_1", "g_synthesis/4x4/Const/StyleMod/strided_slice/stack_2"], "attr": {"T": {"type": "DT_FLOAT"}, "Index": {"type": "DT_INT32"}, "shrink_axis_mask": {"i": "2"}, "begin_mask": {"i": "1"}, "ellipsis_mask": {"i": "0"}, "new_axis_mask": {"i": "0"}, "end_mask": {"i": "1"}}}, {"name": "g_synthesis/strided_slice_6", "op": "StridedSlice", "input": ["Truncation/Lerp/add", "g_synthesis/strided_slice_5/stack_1", "g_synthesis/strided_slice_6/stack_1", "g_synthesis/4x4/Const/StyleMod/strided_slice/stack_2"], "attr": {"T": {"type": "DT_FLOAT"}, "Index": {"type": "DT_INT32"}, "shrink_axis_mask": {"i": "2"}, "begin_mask": {"i": "1"}, "ellipsis_mask": {"i": "0"}, "new_axis_mask": {"i": "0"}, "end_mask": {"i": "1"}}}, {"name": "g_synthesis/strided_slice_5", "op": "StridedSlice", "input": ["Truncation/Lerp/add", "g_synthesis/strided_slice_4/stack_1", "g_synthesis/strided_slice_5/stack_1", "g_synthesis/4x4/Const/StyleMod/strided_slice/stack_2"], "attr": {"T": {"type": "DT_FLOAT"}, "Index": {"type": "DT_INT32"}, "shrink_axis_mask": {"i": "2"}, "begin_mask": {"i": "1"}, "ellipsis_mask": {"i": "0"}, "new_axis_mask": {"i": "0"}, "end_mask": {"i": "1"}}}, {"name": "g_synthesis/strided_slice_4", "op": "StridedSlice", "input": ["Truncation/Lerp/add", "g_synthesis/strided_slice_3/stack_1", "g_synthesis/strided_slice_4/stack_1", "g_synthesis/4x4/Const/StyleMod/strided_slice/stack_2"], "attr": {"T": {"type": "DT_FLOAT"}, "Index": {"type": "DT_INT32"}, "shrink_axis_mask": {"i": "2"}, "begin_mask": {"i": "1"}, "ellipsis_mask": {"i": "0"}, "new_axis_mask": {"i": "0"}, "end_mask": {"i": "1"}}}, {"name": "g_synthesis/strided_slice_3", "op": "StridedSlice", "input": ["Truncation/Lerp/add", "g_synthesis/4x4/Const/StyleMod/strided_slice_1/stack_1", "g_synthesis/strided_slice_3/stack_1", "g_synthesis/4x4/Const/StyleMod/strided_slice/stack_2"], "attr": {"T": {"type": "DT_FLOAT"}, "Index": {"type": "DT_INT32"}, "shrink_axis_mask": {"i": "2"}, "begin_mask": {"i": "1"}, "ellipsis_mask": {"i": "0"}, "new_axis_mask": {"i": "0"}, "end_mask": {"i": "1"}}}, {"name": "g_synthesis/strided_slice_1", "op": "StridedSlice", "input": ["Truncation/Lerp/add", "g_synthesis/4x4/Const/StyleMod/strided_slice/stack_1", "g_synthesis/4x4/Const/StyleMod/strided_slice_1/stack_1", "g_synthesis/4x4/Const/StyleMod/strided_slice/stack_2"], "attr": {"T": {"type": "DT_FLOAT"}, "Index": {"type": "DT_INT32"}, "shrink_axis_mask": {"i": "2"}, "begin_mask": {"i": "1"}, "ellipsis_mask": {"i": "0"}, "new_axis_mask": {"i": "0"}, "end_mask": {"i": "1"}}}, {"name": "g_synthesis/strided_slice", "op": "StridedSlice", "input": ["Truncation/Lerp/add", "g_synthesis/4x4/Const/StyleMod/strided_slice/stack", "g_synthesis/4x4/Const/StyleMod/strided_slice/stack_1", "g_synthesis/4x4/Const/StyleMod/strided_slice/stack_2"], "attr": {"T": {"type": "DT_FLOAT"}, "Index": {"type": "DT_INT32"}, "shrink_axis_mask": {"i": "2"}, "begin_mask": {"i": "1"}, "ellipsis_mask": {"i": "0"}, "new_axis_mask": {"i": "0"}, "end_mask": {"i": "1"}}}, {"name": "g_synthesis/512x512/Conv1/StyleMod/flatten/Shape", "op": "Shape", "input": ["g_synthesis/strided_slice_16"], "attr": {"T": {"type": "DT_FLOAT"}, "out_type": {"type": "DT_INT32"}}}, {"name": "g_synthesis/512x512/Conv0_up/StyleMod/flatten/Shape", "op": "Shape", "input": ["g_synthesis/strided_slice_15"], "attr": {"T": {"type": "DT_FLOAT"}, "out_type": {"type": "DT_INT32"}}}, {"name": "g_synthesis/256x256/Conv1/StyleMod/flatten/Shape", "op": "Shape", "input": ["g_synthesis/strided_slice_14"], "attr": {"T": {"type": "DT_FLOAT"}, "out_type": {"type": "DT_INT32"}}}, {"name": "g_synthesis/256x256/Conv0_up/StyleMod/flatten/Shape", "op": "Shape", "input": ["g_synthesis/strided_slice_13"], "attr": {"T": {"type": "DT_FLOAT"}, "out_type": {"type": "DT_INT32"}}}, {"name": "g_synthesis/128x128/Conv1/StyleMod/flatten/Shape", "op": "Shape", "input": ["g_synthesis/strided_slice_12"], "attr": {"T": {"type": "DT_FLOAT"}, "out_type": {"type": "DT_INT32"}}}, {"name": "g_synthesis/128x128/Conv0_up/StyleMod/flatten/Shape", "op": "Shape", "input": ["g_synthesis/strided_slice_11"], "attr": {"T": {"type": "DT_FLOAT"}, "out_type": {"type": "DT_INT32"}}}, {"name": "g_synthesis/64x64/Conv1/StyleMod/flatten/Shape", "op": "Shape", "input": ["g_synthesis/strided_slice_10"], "attr": {"T": {"type": "DT_FLOAT"}, "out_type": {"type": "DT_INT32"}}}, {"name": "g_synthesis/64x64/Conv0_up/StyleMod/flatten/Shape", "op": "Shape", "input": ["g_synthesis/strided_slice_9"], "attr": {"T": {"type": "DT_FLOAT"}, "out_type": {"type": "DT_INT32"}}}, {"name": "g_synthesis/32x32/Conv1/StyleMod/flatten/Shape", "op": "Shape", "input": ["g_synthesis/strided_slice_8"], "attr": {"T": {"type": "DT_FLOAT"}, "out_type": {"type": "DT_INT32"}}}, {"name": "g_synthesis/32x32/Conv0_up/StyleMod/flatten/Shape", "op": "Shape", "input": ["g_synthesis/strided_slice_7"], "attr": {"T": {"type": "DT_FLOAT"}, "out_type": {"type": "DT_INT32"}}}, {"name": "g_synthesis/16x16/Conv1/StyleMod/flatten/Shape", "op": "Shape", "input": ["g_synthesis/strided_slice_6"], "attr": {"T": {"type": "DT_FLOAT"}, "out_type": {"type": "DT_INT32"}}}, {"name": "g_synthesis/16x16/Conv0_up/StyleMod/flatten/Shape", "op": "Shape", "input": ["g_synthesis/strided_slice_5"], "attr": {"T": {"type": "DT_FLOAT"}, "out_type": {"type": "DT_INT32"}}}, {"name": "g_synthesis/8x8/Conv1/StyleMod/flatten/Shape", "op": "Shape", "input": ["g_synthesis/strided_slice_4"], "attr": {"T": {"type": "DT_FLOAT"}, "out_type": {"type": "DT_INT32"}}}, {"name": "g_synthesis/8x8/Conv0_up/StyleMod/flatten/Shape", "op": "Shape", "input": ["g_synthesis/strided_slice_3"], "attr": {"T": {"type": "DT_FLOAT"}, "out_type": {"type": "DT_INT32"}}}, {"name": "g_synthesis/4x4/Conv/StyleMod/flatten/Shape", "op": "Shape", "input": ["g_synthesis/strided_slice_1"], "attr": {"T": {"type": "DT_FLOAT"}, "out_type": {"type": "DT_INT32"}}}, {"name": "g_synthesis/Shape", "op": "Shape", "input": ["g_synthesis/strided_slice"], "attr": {"T": {"type": "DT_FLOAT"}, "out_type": {"type": "DT_INT32"}}}, {"name": "g_synthesis/512x512/Conv1/StyleMod/flatten/strided_slice", "op": "StridedSlice", "input": ["g_synthesis/512x512/Conv1/StyleMod/flatten/Shape", "g_synthesis/512x512/Conv0_up/strided_slice_4/stack", "g_synthesis/512x512/Conv0_up/strided_slice_4/stack_1", "g_synthesis/512x512/Conv0_up/strided_slice_4/stack_1"], "attr": {"T": {"type": "DT_INT32"}, "Index": {"type": "DT_INT32"}, "shrink_axis_mask": {"i": "1"}, "begin_mask": {"i": "0"}, "ellipsis_mask": {"i": "0"}, "new_axis_mask": {"i": "0"}, "end_mask": {"i": "0"}}}, {"name": "g_synthesis/512x512/Conv0_up/StyleMod/flatten/strided_slice", "op": "StridedSlice", "input": ["g_synthesis/512x512/Conv0_up/StyleMod/flatten/Shape", "g_synthesis/512x512/Conv0_up/strided_slice_4/stack", "g_synthesis/512x512/Conv0_up/strided_slice_4/stack_1", "g_synthesis/512x512/Conv0_up/strided_slice_4/stack_1"], "attr": {"T": {"type": "DT_INT32"}, "Index": {"type": "DT_INT32"}, "shrink_axis_mask": {"i": "1"}, "begin_mask": {"i": "0"}, "ellipsis_mask": {"i": "0"}, "new_axis_mask": {"i": "0"}, "end_mask": {"i": "0"}}}, {"name": "g_synthesis/256x256/Conv1/StyleMod/flatten/strided_slice", "op": "StridedSlice", "input": ["g_synthesis/256x256/Conv1/StyleMod/flatten/Shape", "g_synthesis/512x512/Conv0_up/strided_slice_4/stack", "g_synthesis/512x512/Conv0_up/strided_slice_4/stack_1", "g_synthesis/512x512/Conv0_up/strided_slice_4/stack_1"], "attr": {"T": {"type": "DT_INT32"}, "Index": {"type": "DT_INT32"}, "shrink_axis_mask": {"i": "1"}, "begin_mask": {"i": "0"}, "ellipsis_mask": {"i": "0"}, "new_axis_mask": {"i": "0"}, "end_mask": {"i": "0"}}}, {"name": "g_synthesis/256x256/Conv0_up/StyleMod/flatten/strided_slice", "op": "StridedSlice", "input": ["g_synthesis/256x256/Conv0_up/StyleMod/flatten/Shape", "g_synthesis/512x512/Conv0_up/strided_slice_4/stack", "g_synthesis/512x512/Conv0_up/strided_slice_4/stack_1", "g_synthesis/512x512/Conv0_up/strided_slice_4/stack_1"], "attr": {"T": {"type": "DT_INT32"}, "Index": {"type": "DT_INT32"}, "shrink_axis_mask": {"i": "1"}, "begin_mask": {"i": "0"}, "ellipsis_mask": {"i": "0"}, "new_axis_mask": {"i": "0"}, "end_mask": {"i": "0"}}}, {"name": "g_synthesis/128x128/Conv1/StyleMod/flatten/strided_slice", "op": "StridedSlice", "input": ["g_synthesis/128x128/Conv1/StyleMod/flatten/Shape", "g_synthesis/512x512/Conv0_up/strided_slice_4/stack", "g_synthesis/512x512/Conv0_up/strided_slice_4/stack_1", "g_synthesis/512x512/Conv0_up/strided_slice_4/stack_1"], "attr": {"T": {"type": "DT_INT32"}, "Index": {"type": "DT_INT32"}, "shrink_axis_mask": {"i": "1"}, "begin_mask": {"i": "0"}, "ellipsis_mask": {"i": "0"}, "new_axis_mask": {"i": "0"}, "end_mask": {"i": "0"}}}, {"name": "g_synthesis/128x128/Conv0_up/StyleMod/flatten/strided_slice", "op": "StridedSlice", "input": ["g_synthesis/128x128/Conv0_up/StyleMod/flatten/Shape", "g_synthesis/512x512/Conv0_up/strided_slice_4/stack", "g_synthesis/512x512/Conv0_up/strided_slice_4/stack_1", "g_synthesis/512x512/Conv0_up/strided_slice_4/stack_1"], "attr": {"T": {"type": "DT_INT32"}, "Index": {"type": "DT_INT32"}, "shrink_axis_mask": {"i": "1"}, "begin_mask": {"i": "0"}, "ellipsis_mask": {"i": "0"}, "new_axis_mask": {"i": "0"}, "end_mask": {"i": "0"}}}, {"name": "g_synthesis/64x64/Conv1/StyleMod/flatten/strided_slice", "op": "StridedSlice", "input": ["g_synthesis/64x64/Conv1/StyleMod/flatten/Shape", "g_synthesis/512x512/Conv0_up/strided_slice_4/stack", "g_synthesis/512x512/Conv0_up/strided_slice_4/stack_1", "g_synthesis/512x512/Conv0_up/strided_slice_4/stack_1"], "attr": {"T": {"type": "DT_INT32"}, "Index": {"type": "DT_INT32"}, "shrink_axis_mask": {"i": "1"}, "begin_mask": {"i": "0"}, "ellipsis_mask": {"i": "0"}, "new_axis_mask": {"i": "0"}, "end_mask": {"i": "0"}}}, {"name": "g_synthesis/64x64/Conv0_up/StyleMod/flatten/strided_slice", "op": "StridedSlice", "input": ["g_synthesis/64x64/Conv0_up/StyleMod/flatten/Shape", "g_synthesis/512x512/Conv0_up/strided_slice_4/stack", "g_synthesis/512x512/Conv0_up/strided_slice_4/stack_1", "g_synthesis/512x512/Conv0_up/strided_slice_4/stack_1"], "attr": {"T": {"type": "DT_INT32"}, "Index": {"type": "DT_INT32"}, "shrink_axis_mask": {"i": "1"}, "begin_mask": {"i": "0"}, "ellipsis_mask": {"i": "0"}, "new_axis_mask": {"i": "0"}, "end_mask": {"i": "0"}}}, {"name": "g_synthesis/32x32/Conv1/StyleMod/flatten/strided_slice", "op": "StridedSlice", "input": ["g_synthesis/32x32/Conv1/StyleMod/flatten/Shape", "g_synthesis/512x512/Conv0_up/strided_slice_4/stack", "g_synthesis/512x512/Conv0_up/strided_slice_4/stack_1", "g_synthesis/512x512/Conv0_up/strided_slice_4/stack_1"], "attr": {"T": {"type": "DT_INT32"}, "Index": {"type": "DT_INT32"}, "shrink_axis_mask": {"i": "1"}, "begin_mask": {"i": "0"}, "ellipsis_mask": {"i": "0"}, "new_axis_mask": {"i": "0"}, "end_mask": {"i": "0"}}}, {"name": "g_synthesis/32x32/Conv0_up/StyleMod/flatten/strided_slice", "op": "StridedSlice", "input": ["g_synthesis/32x32/Conv0_up/StyleMod/flatten/Shape", "g_synthesis/512x512/Conv0_up/strided_slice_4/stack", "g_synthesis/512x512/Conv0_up/strided_slice_4/stack_1", "g_synthesis/512x512/Conv0_up/strided_slice_4/stack_1"], "attr": {"T": {"type": "DT_INT32"}, "Index": {"type": "DT_INT32"}, "shrink_axis_mask": {"i": "1"}, "begin_mask": {"i": "0"}, "ellipsis_mask": {"i": "0"}, "new_axis_mask": {"i": "0"}, "end_mask": {"i": "0"}}}, {"name": "g_synthesis/16x16/Conv1/StyleMod/flatten/strided_slice", "op": "StridedSlice", "input": ["g_synthesis/16x16/Conv1/StyleMod/flatten/Shape", "g_synthesis/512x512/Conv0_up/strided_slice_4/stack", "g_synthesis/512x512/Conv0_up/strided_slice_4/stack_1", "g_synthesis/512x512/Conv0_up/strided_slice_4/stack_1"], "attr": {"T": {"type": "DT_INT32"}, "Index": {"type": "DT_INT32"}, "shrink_axis_mask": {"i": "1"}, "begin_mask": {"i": "0"}, "ellipsis_mask": {"i": "0"}, "new_axis_mask": {"i": "0"}, "end_mask": {"i": "0"}}}, {"name": "g_synthesis/16x16/Conv0_up/StyleMod/flatten/strided_slice", "op": "StridedSlice", "input": ["g_synthesis/16x16/Conv0_up/StyleMod/flatten/Shape", "g_synthesis/512x512/Conv0_up/strided_slice_4/stack", "g_synthesis/512x512/Conv0_up/strided_slice_4/stack_1", "g_synthesis/512x512/Conv0_up/strided_slice_4/stack_1"], "attr": {"T": {"type": "DT_INT32"}, "Index": {"type": "DT_INT32"}, "shrink_axis_mask": {"i": "1"}, "begin_mask": {"i": "0"}, "ellipsis_mask": {"i": "0"}, "new_axis_mask": {"i": "0"}, "end_mask": {"i": "0"}}}, {"name": "g_synthesis/8x8/Conv1/StyleMod/flatten/strided_slice", "op": "StridedSlice", "input": ["g_synthesis/8x8/Conv1/StyleMod/flatten/Shape", "g_synthesis/512x512/Conv0_up/strided_slice_4/stack", "g_synthesis/512x512/Conv0_up/strided_slice_4/stack_1", "g_synthesis/512x512/Conv0_up/strided_slice_4/stack_1"], "attr": {"T": {"type": "DT_INT32"}, "Index": {"type": "DT_INT32"}, "shrink_axis_mask": {"i": "1"}, "begin_mask": {"i": "0"}, "ellipsis_mask": {"i": "0"}, "new_axis_mask": {"i": "0"}, "end_mask": {"i": "0"}}}, {"name": "g_synthesis/8x8/Conv0_up/StyleMod/flatten/strided_slice", "op": "StridedSlice", "input": ["g_synthesis/8x8/Conv0_up/StyleMod/flatten/Shape", "g_synthesis/512x512/Conv0_up/strided_slice_4/stack", "g_synthesis/512x512/Conv0_up/strided_slice_4/stack_1", "g_synthesis/512x512/Conv0_up/strided_slice_4/stack_1"], "attr": {"T": {"type": "DT_INT32"}, "Index": {"type": "DT_INT32"}, "shrink_axis_mask": {"i": "1"}, "begin_mask": {"i": "0"}, "ellipsis_mask": {"i": "0"}, "new_axis_mask": {"i": "0"}, "end_mask": {"i": "0"}}}, {"name": "g_synthesis/4x4/Conv/StyleMod/flatten/strided_slice", "op": "StridedSlice", "input": ["g_synthesis/4x4/Conv/StyleMod/flatten/Shape", "g_synthesis/512x512/Conv0_up/strided_slice_4/stack", "g_synthesis/512x512/Conv0_up/strided_slice_4/stack_1", "g_synthesis/512x512/Conv0_up/strided_slice_4/stack_1"], "attr": {"T": {"type": "DT_INT32"}, "Index": {"type": "DT_INT32"}, "shrink_axis_mask": {"i": "1"}, "begin_mask": {"i": "0"}, "ellipsis_mask": {"i": "0"}, "new_axis_mask": {"i": "0"}, "end_mask": {"i": "0"}}}, {"name": "g_synthesis/strided_slice_2", "op": "StridedSlice", "input": ["g_synthesis/Shape", "g_synthesis/512x512/Conv0_up/strided_slice_4/stack", "g_synthesis/512x512/Conv0_up/strided_slice_4/stack_1", "g_synthesis/512x512/Conv0_up/strided_slice_4/stack_1"], "attr": {"T": {"type": "DT_INT32"}, "Index": {"type": "DT_INT32"}, "shrink_axis_mask": {"i": "1"}, "begin_mask": {"i": "0"}, "ellipsis_mask": {"i": "0"}, "new_axis_mask": {"i": "0"}, "end_mask": {"i": "0"}}}, {"name": "g_synthesis/512x512/Conv1/StyleMod/flatten/Reshape/shape", "op": "Pack", "input": ["g_synthesis/512x512/Conv1/StyleMod/flatten/strided_slice", "g_synthesis/4x4/Const/StyleMod/flatten/Reshape/shape/1"], "attr": {"T": {"type": "DT_INT32"}, "axis": {"i": "0"}, "N": {"i": "2"}}}, {"name": "g_synthesis/512x512/Conv0_up/StyleMod/flatten/Reshape/shape", "op": "Pack", "input": ["g_synthesis/512x512/Conv0_up/StyleMod/flatten/strided_slice", "g_synthesis/4x4/Const/StyleMod/flatten/Reshape/shape/1"], "attr": {"T": {"type": "DT_INT32"}, "axis": {"i": "0"}, "N": {"i": "2"}}}, {"name": "g_synthesis/256x256/Conv1/StyleMod/flatten/Reshape/shape", "op": "Pack", "input": ["g_synthesis/256x256/Conv1/StyleMod/flatten/strided_slice", "g_synthesis/4x4/Const/StyleMod/flatten/Reshape/shape/1"], "attr": {"T": {"type": "DT_INT32"}, "axis": {"i": "0"}, "N": {"i": "2"}}}, {"name": "g_synthesis/256x256/Conv0_up/StyleMod/flatten/Reshape/shape", "op": "Pack", "input": ["g_synthesis/256x256/Conv0_up/StyleMod/flatten/strided_slice", "g_synthesis/4x4/Const/StyleMod/flatten/Reshape/shape/1"], "attr": {"T": {"type": "DT_INT32"}, "axis": {"i": "0"}, "N": {"i": "2"}}}, {"name": "g_synthesis/128x128/Conv1/StyleMod/flatten/Reshape/shape", "op": "Pack", "input": ["g_synthesis/128x128/Conv1/StyleMod/flatten/strided_slice", "g_synthesis/4x4/Const/StyleMod/flatten/Reshape/shape/1"], "attr": {"T": {"type": "DT_INT32"}, "axis": {"i": "0"}, "N": {"i": "2"}}}, {"name": "g_synthesis/128x128/Conv0_up/StyleMod/flatten/Reshape/shape", "op": "Pack", "input": ["g_synthesis/128x128/Conv0_up/StyleMod/flatten/strided_slice", "g_synthesis/4x4/Const/StyleMod/flatten/Reshape/shape/1"], "attr": {"T": {"type": "DT_INT32"}, "axis": {"i": "0"}, "N": {"i": "2"}}}, {"name": "g_synthesis/64x64/Conv1/StyleMod/flatten/Reshape/shape", "op": "Pack", "input": ["g_synthesis/64x64/Conv1/StyleMod/flatten/strided_slice", "g_synthesis/4x4/Const/StyleMod/flatten/Reshape/shape/1"], "attr": {"T": {"type": "DT_INT32"}, "axis": {"i": "0"}, "N": {"i": "2"}}}, {"name": "g_synthesis/64x64/Conv0_up/StyleMod/flatten/Reshape/shape", "op": "Pack", "input": ["g_synthesis/64x64/Conv0_up/StyleMod/flatten/strided_slice", "g_synthesis/4x4/Const/StyleMod/flatten/Reshape/shape/1"], "attr": {"T": {"type": "DT_INT32"}, "axis": {"i": "0"}, "N": {"i": "2"}}}, {"name": "g_synthesis/32x32/Conv1/StyleMod/flatten/Reshape/shape", "op": "Pack", "input": ["g_synthesis/32x32/Conv1/StyleMod/flatten/strided_slice", "g_synthesis/4x4/Const/StyleMod/flatten/Reshape/shape/1"], "attr": {"T": {"type": "DT_INT32"}, "axis": {"i": "0"}, "N": {"i": "2"}}}, {"name": "g_synthesis/32x32/Conv0_up/StyleMod/flatten/Reshape/shape", "op": "Pack", "input": ["g_synthesis/32x32/Conv0_up/StyleMod/flatten/strided_slice", "g_synthesis/4x4/Const/StyleMod/flatten/Reshape/shape/1"], "attr": {"T": {"type": "DT_INT32"}, "axis": {"i": "0"}, "N": {"i": "2"}}}, {"name": "g_synthesis/16x16/Conv1/StyleMod/flatten/Reshape/shape", "op": "Pack", "input": ["g_synthesis/16x16/Conv1/StyleMod/flatten/strided_slice", "g_synthesis/4x4/Const/StyleMod/flatten/Reshape/shape/1"], "attr": {"T": {"type": "DT_INT32"}, "axis": {"i": "0"}, "N": {"i": "2"}}}, {"name": "g_synthesis/16x16/Conv0_up/StyleMod/flatten/Reshape/shape", "op": "Pack", "input": ["g_synthesis/16x16/Conv0_up/StyleMod/flatten/strided_slice", "g_synthesis/4x4/Const/StyleMod/flatten/Reshape/shape/1"], "attr": {"T": {"type": "DT_INT32"}, "axis": {"i": "0"}, "N": {"i": "2"}}}, {"name": "g_synthesis/8x8/Conv1/StyleMod/flatten/Reshape/shape", "op": "Pack", "input": ["g_synthesis/8x8/Conv1/StyleMod/flatten/strided_slice", "g_synthesis/4x4/Const/StyleMod/flatten/Reshape/shape/1"], "attr": {"T": {"type": "DT_INT32"}, "axis": {"i": "0"}, "N": {"i": "2"}}}, {"name": "g_synthesis/8x8/Conv0_up/StyleMod/flatten/Reshape/shape", "op": "Pack", "input": ["g_synthesis/8x8/Conv0_up/StyleMod/flatten/strided_slice", "g_synthesis/4x4/Const/StyleMod/flatten/Reshape/shape/1"], "attr": {"T": {"type": "DT_INT32"}, "axis": {"i": "0"}, "N": {"i": "2"}}}, {"name": "g_synthesis/4x4/Conv/StyleMod/flatten/Reshape/shape", "op": "Pack", "input": ["g_synthesis/4x4/Conv/StyleMod/flatten/strided_slice", "g_synthesis/4x4/Const/StyleMod/flatten/Reshape/shape/1"], "attr": {"T": {"type": "DT_INT32"}, "axis": {"i": "0"}, "N": {"i": "2"}}}, {"name": "g_synthesis/4x4/Const/StyleMod/flatten/Reshape/shape", "op": "Pack", "input": ["g_synthesis/strided_slice_2", "g_synthesis/4x4/Const/StyleMod/flatten/Reshape/shape/1"], "attr": {"T": {"type": "DT_INT32"}, "axis": {"i": "0"}, "N": {"i": "2"}}}, {"name": "g_synthesis/4x4/Const/Tile/multiples", "op": "Pack", "input": ["g_synthesis/strided_slice_2", "g_synthesis/4x4/Const/Tile/multiples/1", "g_synthesis/4x4/Const/Tile/multiples/1", "g_synthesis/4x4/Const/Tile/multiples/1"], "attr": {"T": {"type": "DT_INT32"}, "axis": {"i": "0"}, "N": {"i": "4"}}}, {"name": "g_synthesis/512x512/Conv1/StyleMod/flatten/Reshape", "op": "Reshape", "input": ["g_synthesis/strided_slice_16", "g_synthesis/512x512/Conv1/StyleMod/flatten/Reshape/shape"], "attr": {"T": {"type": "DT_FLOAT"}, "Tshape": {"type": "DT_INT32"}}}, {"name": "g_synthesis/512x512/Conv0_up/StyleMod/flatten/Reshape", "op": "Reshape", "input": ["g_synthesis/strided_slice_15", "g_synthesis/512x512/Conv0_up/StyleMod/flatten/Reshape/shape"], "attr": {"T": {"type": "DT_FLOAT"}, "Tshape": {"type": "DT_INT32"}}}, {"name": "g_synthesis/256x256/Conv1/StyleMod/flatten/Reshape", "op": "Reshape", "input": ["g_synthesis/strided_slice_14", "g_synthesis/256x256/Conv1/StyleMod/flatten/Reshape/shape"], "attr": {"T": {"type": "DT_FLOAT"}, "Tshape": {"type": "DT_INT32"}}}, {"name": "g_synthesis/256x256/Conv0_up/StyleMod/flatten/Reshape", "op": "Reshape", "input": ["g_synthesis/strided_slice_13", "g_synthesis/256x256/Conv0_up/StyleMod/flatten/Reshape/shape"], "attr": {"T": {"type": "DT_FLOAT"}, "Tshape": {"type": "DT_INT32"}}}, {"name": "g_synthesis/128x128/Conv1/StyleMod/flatten/Reshape", "op": "Reshape", "input": ["g_synthesis/strided_slice_12", "g_synthesis/128x128/Conv1/StyleMod/flatten/Reshape/shape"], "attr": {"T": {"type": "DT_FLOAT"}, "Tshape": {"type": "DT_INT32"}}}, {"name": "g_synthesis/128x128/Conv0_up/StyleMod/flatten/Reshape", "op": "Reshape", "input": ["g_synthesis/strided_slice_11", "g_synthesis/128x128/Conv0_up/StyleMod/flatten/Reshape/shape"], "attr": {"T": {"type": "DT_FLOAT"}, "Tshape": {"type": "DT_INT32"}}}, {"name": "g_synthesis/64x64/Conv1/StyleMod/flatten/Reshape", "op": "Reshape", "input": ["g_synthesis/strided_slice_10", "g_synthesis/64x64/Conv1/StyleMod/flatten/Reshape/shape"], "attr": {"T": {"type": "DT_FLOAT"}, "Tshape": {"type": "DT_INT32"}}}, {"name": "g_synthesis/64x64/Conv0_up/StyleMod/flatten/Reshape", "op": "Reshape", "input": ["g_synthesis/strided_slice_9", "g_synthesis/64x64/Conv0_up/StyleMod/flatten/Reshape/shape"], "attr": {"T": {"type": "DT_FLOAT"}, "Tshape": {"type": "DT_INT32"}}}, {"name": "g_synthesis/32x32/Conv1/StyleMod/flatten/Reshape", "op": "Reshape", "input": ["g_synthesis/strided_slice_8", "g_synthesis/32x32/Conv1/StyleMod/flatten/Reshape/shape"], "attr": {"T": {"type": "DT_FLOAT"}, "Tshape": {"type": "DT_INT32"}}}, {"name": "g_synthesis/32x32/Conv0_up/StyleMod/flatten/Reshape", "op": "Reshape", "input": ["g_synthesis/strided_slice_7", "g_synthesis/32x32/Conv0_up/StyleMod/flatten/Reshape/shape"], "attr": {"T": {"type": "DT_FLOAT"}, "Tshape": {"type": "DT_INT32"}}}, {"name": "g_synthesis/16x16/Conv1/StyleMod/flatten/Reshape", "op": "Reshape", "input": ["g_synthesis/strided_slice_6", "g_synthesis/16x16/Conv1/StyleMod/flatten/Reshape/shape"], "attr": {"T": {"type": "DT_FLOAT"}, "Tshape": {"type": "DT_INT32"}}}, {"name": "g_synthesis/16x16/Conv0_up/StyleMod/flatten/Reshape", "op": "Reshape", "input": ["g_synthesis/strided_slice_5", "g_synthesis/16x16/Conv0_up/StyleMod/flatten/Reshape/shape"], "attr": {"T": {"type": "DT_FLOAT"}, "Tshape": {"type": "DT_INT32"}}}, {"name": "g_synthesis/8x8/Conv1/StyleMod/flatten/Reshape", "op": "Reshape", "input": ["g_synthesis/strided_slice_4", "g_synthesis/8x8/Conv1/StyleMod/flatten/Reshape/shape"], "attr": {"T": {"type": "DT_FLOAT"}, "Tshape": {"type": "DT_INT32"}}}, {"name": "g_synthesis/8x8/Conv0_up/StyleMod/flatten/Reshape", "op": "Reshape", "input": ["g_synthesis/strided_slice_3", "g_synthesis/8x8/Conv0_up/StyleMod/flatten/Reshape/shape"], "attr": {"T": {"type": "DT_FLOAT"}, "Tshape": {"type": "DT_INT32"}}}, {"name": "g_synthesis/4x4/Conv/StyleMod/flatten/Reshape", "op": "Reshape", "input": ["g_synthesis/strided_slice_1", "g_synthesis/4x4/Conv/StyleMod/flatten/Reshape/shape"], "attr": {"T": {"type": "DT_FLOAT"}, "Tshape": {"type": "DT_INT32"}}}, {"name": "g_synthesis/4x4/Const/StyleMod/flatten/Reshape", "op": "Reshape", "input": ["g_synthesis/strided_slice", "g_synthesis/4x4/Const/StyleMod/flatten/Reshape/shape"], "attr": {"T": {"type": "DT_FLOAT"}, "Tshape": {"type": "DT_INT32"}}}, {"name": "g_synthesis/4x4/Const/Tile", "op": "Tile", "input": ["g_synthesis/4x4/Const/const", "g_synthesis/4x4/Const/Tile/multiples"], "attr": {"Tmultiples": {"type": "DT_INT32"}, "T": {"type": "DT_FLOAT"}}}, {"name": "g_synthesis/512x512/Conv1/StyleMod/MatMul", "op": "MatMul", "input": ["g_synthesis/512x512/Conv1/StyleMod/flatten/Reshape", "g_synthesis/512x512/Conv1/StyleMod/mul"], "attr": {"transpose_b": {"b": false}, "T": {"type": "DT_FLOAT"}, "transpose_a": {"b": false}}}, {"name": "g_synthesis/512x512/Conv0_up/StyleMod/MatMul", "op": "MatMul", "input": ["g_synthesis/512x512/Conv0_up/StyleMod/flatten/Reshape", "g_synthesis/512x512/Conv0_up/StyleMod/mul"], "attr": {"transpose_b": {"b": false}, "T": {"type": "DT_FLOAT"}, "transpose_a": {"b": false}}}, {"name": "g_synthesis/256x256/Conv1/StyleMod/MatMul", "op": "MatMul", "input": ["g_synthesis/256x256/Conv1/StyleMod/flatten/Reshape", "g_synthesis/256x256/Conv1/StyleMod/mul"], "attr": {"transpose_b": {"b": false}, "T": {"type": "DT_FLOAT"}, "transpose_a": {"b": false}}}, {"name": "g_synthesis/256x256/Conv0_up/StyleMod/MatMul", "op": "MatMul", "input": ["g_synthesis/256x256/Conv0_up/StyleMod/flatten/Reshape", "g_synthesis/256x256/Conv0_up/StyleMod/mul"], "attr": {"transpose_b": {"b": false}, "T": {"type": "DT_FLOAT"}, "transpose_a": {"b": false}}}, {"name": "g_synthesis/128x128/Conv1/StyleMod/MatMul", "op": "MatMul", "input": ["g_synthesis/128x128/Conv1/StyleMod/flatten/Reshape", "g_synthesis/128x128/Conv1/StyleMod/mul"], "attr": {"transpose_b": {"b": false}, "T": {"type": "DT_FLOAT"}, "transpose_a": {"b": false}}}, {"name": "g_synthesis/128x128/Conv0_up/StyleMod/MatMul", "op": "MatMul", "input": ["g_synthesis/128x128/Conv0_up/StyleMod/flatten/Reshape", "g_synthesis/128x128/Conv0_up/StyleMod/mul"], "attr": {"transpose_b": {"b": false}, "T": {"type": "DT_FLOAT"}, "transpose_a": {"b": false}}}, {"name": "g_synthesis/64x64/Conv1/StyleMod/MatMul", "op": "MatMul", "input": ["g_synthesis/64x64/Conv1/StyleMod/flatten/Reshape", "g_synthesis/64x64/Conv1/StyleMod/mul"], "attr": {"transpose_b": {"b": false}, "T": {"type": "DT_FLOAT"}, "transpose_a": {"b": false}}}, {"name": "g_synthesis/64x64/Conv0_up/StyleMod/MatMul", "op": "MatMul", "input": ["g_synthesis/64x64/Conv0_up/StyleMod/flatten/Reshape", "g_synthesis/64x64/Conv0_up/StyleMod/mul"], "attr": {"transpose_b": {"b": false}, "T": {"type": "DT_FLOAT"}, "transpose_a": {"b": false}}}, {"name": "g_synthesis/32x32/Conv1/StyleMod/MatMul", "op": "MatMul", "input": ["g_synthesis/32x32/Conv1/StyleMod/flatten/Reshape", "g_synthesis/32x32/Conv1/StyleMod/mul"], "attr": {"transpose_b": {"b": false}, "T": {"type": "DT_FLOAT"}, "transpose_a": {"b": false}}}, {"name": "g_synthesis/32x32/Conv0_up/StyleMod/MatMul", "op": "MatMul", "input": ["g_synthesis/32x32/Conv0_up/StyleMod/flatten/Reshape", "g_synthesis/32x32/Conv0_up/StyleMod/mul"], "attr": {"transpose_b": {"b": false}, "T": {"type": "DT_FLOAT"}, "transpose_a": {"b": false}}}, {"name": "g_synthesis/16x16/Conv1/StyleMod/MatMul", "op": "MatMul", "input": ["g_synthesis/16x16/Conv1/StyleMod/flatten/Reshape", "g_synthesis/16x16/Conv1/StyleMod/mul"], "attr": {"transpose_b": {"b": false}, "T": {"type": "DT_FLOAT"}, "transpose_a": {"b": false}}}, {"name": "g_synthesis/16x16/Conv0_up/StyleMod/MatMul", "op": "MatMul", "input": ["g_synthesis/16x16/Conv0_up/StyleMod/flatten/Reshape", "g_synthesis/16x16/Conv0_up/StyleMod/mul"], "attr": {"transpose_b": {"b": false}, "T": {"type": "DT_FLOAT"}, "transpose_a": {"b": false}}}, {"name": "g_synthesis/8x8/Conv1/StyleMod/MatMul", "op": "MatMul", "input": ["g_synthesis/8x8/Conv1/StyleMod/flatten/Reshape", "g_synthesis/8x8/Conv1/StyleMod/mul"], "attr": {"transpose_b": {"b": false}, "T": {"type": "DT_FLOAT"}, "transpose_a": {"b": false}}}, {"name": "g_synthesis/8x8/Conv0_up/StyleMod/MatMul", "op": "MatMul", "input": ["g_synthesis/8x8/Conv0_up/StyleMod/flatten/Reshape", "g_synthesis/8x8/Conv0_up/StyleMod/mul"], "attr": {"transpose_b": {"b": false}, "T": {"type": "DT_FLOAT"}, "transpose_a": {"b": false}}}, {"name": "g_synthesis/4x4/Conv/StyleMod/MatMul", "op": "MatMul", "input": ["g_synthesis/4x4/Conv/StyleMod/flatten/Reshape", "g_synthesis/4x4/Conv/StyleMod/mul"], "attr": {"transpose_b": {"b": false}, "T": {"type": "DT_FLOAT"}, "transpose_a": {"b": false}}}, {"name": "g_synthesis/4x4/Const/StyleMod/MatMul", "op": "MatMul", "input": ["g_synthesis/4x4/Const/StyleMod/flatten/Reshape", "g_synthesis/4x4/Const/StyleMod/mul"], "attr": {"transpose_b": {"b": false}, "T": {"type": "DT_FLOAT"}, "transpose_a": {"b": false}}}, {"name": "g_synthesis/4x4/Const/Noise/Shape", "op": "Shape", "input": ["g_synthesis/4x4/Const/Tile"], "attr": {"T": {"type": "DT_FLOAT"}, "out_type": {"type": "DT_INT32"}}}, {"name": "g_synthesis/512x512/Conv1/StyleMod/add", "op": "Add", "input": ["g_synthesis/512x512/Conv1/StyleMod/MatMul", "g_synthesis/512x512/Conv1/StyleMod/mul_1"], "attr": {"T": {"type": "DT_FLOAT"}}}, {"name": "g_synthesis/512x512/Conv0_up/StyleMod/add", "op": "Add", "input": ["g_synthesis/512x512/Conv0_up/StyleMod/MatMul", "g_synthesis/512x512/Conv0_up/StyleMod/mul_1"], "attr": {"T": {"type": "DT_FLOAT"}}}, {"name": "g_synthesis/256x256/Conv1/StyleMod/add", "op": "Add", "input": ["g_synthesis/256x256/Conv1/StyleMod/MatMul", "g_synthesis/256x256/Conv1/StyleMod/mul_1"], "attr": {"T": {"type": "DT_FLOAT"}}}, {"name": "g_synthesis/256x256/Conv0_up/StyleMod/add", "op": "Add", "input": ["g_synthesis/256x256/Conv0_up/StyleMod/MatMul", "g_synthesis/256x256/Conv0_up/StyleMod/mul_1"], "attr": {"T": {"type": "DT_FLOAT"}}}, {"name": "g_synthesis/128x128/Conv1/StyleMod/add", "op": "Add", "input": ["g_synthesis/128x128/Conv1/StyleMod/MatMul", "g_synthesis/128x128/Conv1/StyleMod/mul_1"], "attr": {"T": {"type": "DT_FLOAT"}}}, {"name": "g_synthesis/128x128/Conv0_up/StyleMod/add", "op": "Add", "input": ["g_synthesis/128x128/Conv0_up/StyleMod/MatMul", "g_synthesis/128x128/Conv0_up/StyleMod/mul_1"], "attr": {"T": {"type": "DT_FLOAT"}}}, {"name": "g_synthesis/64x64/Conv1/StyleMod/add", "op": "Add", "input": ["g_synthesis/64x64/Conv1/StyleMod/MatMul", "g_synthesis/64x64/Conv1/StyleMod/mul_1"], "attr": {"T": {"type": "DT_FLOAT"}}}, {"name": "g_synthesis/64x64/Conv0_up/StyleMod/add", "op": "Add", "input": ["g_synthesis/64x64/Conv0_up/StyleMod/MatMul", "g_synthesis/64x64/Conv0_up/StyleMod/mul_1"], "attr": {"T": {"type": "DT_FLOAT"}}}, {"name": "g_synthesis/32x32/Conv1/StyleMod/add", "op": "Add", "input": ["g_synthesis/32x32/Conv1/StyleMod/MatMul", "g_synthesis/32x32/Conv1/StyleMod/mul_1"], "attr": {"T": {"type": "DT_FLOAT"}}}, {"name": "g_synthesis/32x32/Conv0_up/StyleMod/add", "op": "Add", "input": ["g_synthesis/32x32/Conv0_up/StyleMod/MatMul", "g_synthesis/32x32/Conv0_up/StyleMod/mul_1"], "attr": {"T": {"type": "DT_FLOAT"}}}, {"name": "g_synthesis/16x16/Conv1/StyleMod/add", "op": "Add", "input": ["g_synthesis/16x16/Conv1/StyleMod/MatMul", "g_synthesis/16x16/Conv1/StyleMod/mul_1"], "attr": {"T": {"type": "DT_FLOAT"}}}, {"name": "g_synthesis/16x16/Conv0_up/StyleMod/add", "op": "Add", "input": ["g_synthesis/16x16/Conv0_up/StyleMod/MatMul", "g_synthesis/16x16/Conv0_up/StyleMod/mul_1"], "attr": {"T": {"type": "DT_FLOAT"}}}, {"name": "g_synthesis/8x8/Conv1/StyleMod/add", "op": "Add", "input": ["g_synthesis/8x8/Conv1/StyleMod/MatMul", "g_synthesis/8x8/Conv1/StyleMod/mul_1"], "attr": {"T": {"type": "DT_FLOAT"}}}, {"name": "g_synthesis/8x8/Conv0_up/StyleMod/add", "op": "Add", "input": ["g_synthesis/8x8/Conv0_up/StyleMod/MatMul", "g_synthesis/8x8/Conv0_up/StyleMod/mul_1"], "attr": {"T": {"type": "DT_FLOAT"}}}, {"name": "g_synthesis/4x4/Conv/StyleMod/add", "op": "Add", "input": ["g_synthesis/4x4/Conv/StyleMod/MatMul", "g_synthesis/4x4/Conv/StyleMod/mul_1"], "attr": {"T": {"type": "DT_FLOAT"}}}, {"name": "g_synthesis/4x4/Const/StyleMod/add", "op": "Add", "input": ["g_synthesis/4x4/Const/StyleMod/MatMul", "g_synthesis/4x4/Const/StyleMod/mul_1"], "attr": {"T": {"type": "DT_FLOAT"}}}, {"name": "g_synthesis/4x4/Const/Noise/strided_slice", "op": "StridedSlice", "input": ["g_synthesis/4x4/Const/Noise/Shape", "g_synthesis/512x512/Conv0_up/strided_slice_4/stack", "g_synthesis/512x512/Conv0_up/strided_slice_4/stack_1", "g_synthesis/512x512/Conv0_up/strided_slice_4/stack_1"], "attr": {"T": {"type": "DT_INT32"}, "Index": {"type": "DT_INT32"}, "shrink_axis_mask": {"i": "1"}, "begin_mask": {"i": "0"}, "ellipsis_mask": {"i": "0"}, "new_axis_mask": {"i": "0"}, "end_mask": {"i": "0"}}}, {"name": "g_synthesis/512x512/Conv1/StyleMod/Reshape", "op": "Reshape", "input": ["g_synthesis/512x512/Conv1/StyleMod/add", "g_synthesis/512x512/Conv0_up/StyleMod/Reshape/shape"], "attr": {"T": {"type": "DT_FLOAT"}, "Tshape": {"type": "DT_INT32"}}}, {"name": "g_synthesis/512x512/Conv0_up/StyleMod/Reshape", "op": "Reshape", "input": ["g_synthesis/512x512/Conv0_up/StyleMod/add", "g_synthesis/512x512/Conv0_up/StyleMod/Reshape/shape"], "attr": {"T": {"type": "DT_FLOAT"}, "Tshape": {"type": "DT_INT32"}}}, {"name": "g_synthesis/256x256/Conv1/StyleMod/Reshape", "op": "Reshape", "input": ["g_synthesis/256x256/Conv1/StyleMod/add", "g_synthesis/256x256/Conv0_up/StyleMod/Reshape/shape"], "attr": {"T": {"type": "DT_FLOAT"}, "Tshape": {"type": "DT_INT32"}}}, {"name": "g_synthesis/256x256/Conv0_up/StyleMod/Reshape", "op": "Reshape", "input": ["g_synthesis/256x256/Conv0_up/StyleMod/add", "g_synthesis/256x256/Conv0_up/StyleMod/Reshape/shape"], "attr": {"T": {"type": "DT_FLOAT"}, "Tshape": {"type": "DT_INT32"}}}, {"name": "g_synthesis/128x128/Conv1/StyleMod/Reshape", "op": "Reshape", "input": ["g_synthesis/128x128/Conv1/StyleMod/add", "g_synthesis/128x128/Conv0_up/StyleMod/Reshape/shape"], "attr": {"T": {"type": "DT_FLOAT"}, "Tshape": {"type": "DT_INT32"}}}, {"name": "g_synthesis/128x128/Conv0_up/StyleMod/Reshape", "op": "Reshape", "input": ["g_synthesis/128x128/Conv0_up/StyleMod/add", "g_synthesis/128x128/Conv0_up/StyleMod/Reshape/shape"], "attr": {"T": {"type": "DT_FLOAT"}, "Tshape": {"type": "DT_INT32"}}}, {"name": "g_synthesis/64x64/Conv1/StyleMod/Reshape", "op": "Reshape", "input": ["g_synthesis/64x64/Conv1/StyleMod/add", "g_synthesis/64x64/Conv0_up/StyleMod/Reshape/shape"], "attr": {"T": {"type": "DT_FLOAT"}, "Tshape": {"type": "DT_INT32"}}}, {"name": "g_synthesis/64x64/Conv0_up/StyleMod/Reshape", "op": "Reshape", "input": ["g_synthesis/64x64/Conv0_up/StyleMod/add", "g_synthesis/64x64/Conv0_up/StyleMod/Reshape/shape"], "attr": {"T": {"type": "DT_FLOAT"}, "Tshape": {"type": "DT_INT32"}}}, {"name": "g_synthesis/32x32/Conv1/StyleMod/Reshape", "op": "Reshape", "input": ["g_synthesis/32x32/Conv1/StyleMod/add", "g_synthesis/4x4/Const/StyleMod/Reshape/shape"], "attr": {"T": {"type": "DT_FLOAT"}, "Tshape": {"type": "DT_INT32"}}}, {"name": "g_synthesis/32x32/Conv0_up/StyleMod/Reshape", "op": "Reshape", "input": ["g_synthesis/32x32/Conv0_up/StyleMod/add", "g_synthesis/4x4/Const/StyleMod/Reshape/shape"], "attr": {"T": {"type": "DT_FLOAT"}, "Tshape": {"type": "DT_INT32"}}}, {"name": "g_synthesis/16x16/Conv1/StyleMod/Reshape", "op": "Reshape", "input": ["g_synthesis/16x16/Conv1/StyleMod/add", "g_synthesis/4x4/Const/StyleMod/Reshape/shape"], "attr": {"T": {"type": "DT_FLOAT"}, "Tshape": {"type": "DT_INT32"}}}, {"name": "g_synthesis/16x16/Conv0_up/StyleMod/Reshape", "op": "Reshape", "input": ["g_synthesis/16x16/Conv0_up/StyleMod/add", "g_synthesis/4x4/Const/StyleMod/Reshape/shape"], "attr": {"T": {"type": "DT_FLOAT"}, "Tshape": {"type": "DT_INT32"}}}, {"name": "g_synthesis/8x8/Conv1/StyleMod/Reshape", "op": "Reshape", "input": ["g_synthesis/8x8/Conv1/StyleMod/add", "g_synthesis/4x4/Const/StyleMod/Reshape/shape"], "attr": {"T": {"type": "DT_FLOAT"}, "Tshape": {"type": "DT_INT32"}}}, {"name": "g_synthesis/8x8/Conv0_up/StyleMod/Reshape", "op": "Reshape", "input": ["g_synthesis/8x8/Conv0_up/StyleMod/add", "g_synthesis/4x4/Const/StyleMod/Reshape/shape"], "attr": {"T": {"type": "DT_FLOAT"}, "Tshape": {"type": "DT_INT32"}}}, {"name": "g_synthesis/4x4/Conv/StyleMod/Reshape", "op": "Reshape", "input": ["g_synthesis/4x4/Conv/StyleMod/add", "g_synthesis/4x4/Const/StyleMod/Reshape/shape"], "attr": {"T": {"type": "DT_FLOAT"}, "Tshape": {"type": "DT_INT32"}}}, {"name": "g_synthesis/4x4/Const/StyleMod/Reshape", "op": "Reshape", "input": ["g_synthesis/4x4/Const/StyleMod/add", "g_synthesis/4x4/Const/StyleMod/Reshape/shape"], "attr": {"T": {"type": "DT_FLOAT"}, "Tshape": {"type": "DT_INT32"}}}, {"name": "g_synthesis/4x4/Const/Noise/random_uniform/shape", "op": "Pack", "input": ["g_synthesis/4x4/Const/Noise/strided_slice", "g_synthesis/4x4/Const/Tile/multiples/1", "g_synthesis/4x4/Const/Noise/random_uniform/shape/2", "g_synthesis/4x4/Const/Noise/random_uniform/shape/2"], "attr": {"T": {"type": "DT_INT32"}, "axis": {"i": "0"}, "N": {"i": "4"}}}, {"name": "g_synthesis/512x512/Conv1/StyleMod/strided_slice_1", "op": "StridedSlice", "input": ["g_synthesis/512x512/Conv1/StyleMod/Reshape", "g_synthesis/4x4/Const/StyleMod/strided_slice/stack_1", "g_synthesis/4x4/Const/StyleMod/strided_slice_1/stack_1", "g_synthesis/4x4/Const/StyleMod/strided_slice/stack_2"], "attr": {"T": {"type": "DT_FLOAT"}, "Index": {"type": "DT_INT32"}, "shrink_axis_mask": {"i": "2"}, "begin_mask": {"i": "1"}, "ellipsis_mask": {"i": "0"}, "new_axis_mask": {"i": "0"}, "end_mask": {"i": "1"}}}, {"name": "g_synthesis/512x512/Conv1/StyleMod/strided_slice", "op": "StridedSlice", "input": ["g_synthesis/512x512/Conv1/StyleMod/Reshape", "g_synthesis/4x4/Const/StyleMod/strided_slice/stack", "g_synthesis/4x4/Const/StyleMod/strided_slice/stack_1", "g_synthesis/4x4/Const/StyleMod/strided_slice/stack_2"], "attr": {"T": {"type": "DT_FLOAT"}, "Index": {"type": "DT_INT32"}, "shrink_axis_mask": {"i": "2"}, "begin_mask": {"i": "1"}, "ellipsis_mask": {"i": "0"}, "new_axis_mask": {"i": "0"}, "end_mask": {"i": "1"}}}, {"name": "g_synthesis/512x512/Conv0_up/StyleMod/strided_slice_1", "op": "StridedSlice", "input": ["g_synthesis/512x512/Conv0_up/StyleMod/Reshape", "g_synthesis/4x4/Const/StyleMod/strided_slice/stack_1", "g_synthesis/4x4/Const/StyleMod/strided_slice_1/stack_1", "g_synthesis/4x4/Const/StyleMod/strided_slice/stack_2"], "attr": {"T": {"type": "DT_FLOAT"}, "Index": {"type": "DT_INT32"}, "shrink_axis_mask": {"i": "2"}, "begin_mask": {"i": "1"}, "ellipsis_mask": {"i": "0"}, "new_axis_mask": {"i": "0"}, "end_mask": {"i": "1"}}}, {"name": "g_synthesis/512x512/Conv0_up/StyleMod/strided_slice", "op": "StridedSlice", "input": ["g_synthesis/512x512/Conv0_up/StyleMod/Reshape", "g_synthesis/4x4/Const/StyleMod/strided_slice/stack", "g_synthesis/4x4/Const/StyleMod/strided_slice/stack_1", "g_synthesis/4x4/Const/StyleMod/strided_slice/stack_2"], "attr": {"T": {"type": "DT_FLOAT"}, "Index": {"type": "DT_INT32"}, "shrink_axis_mask": {"i": "2"}, "begin_mask": {"i": "1"}, "ellipsis_mask": {"i": "0"}, "new_axis_mask": {"i": "0"}, "end_mask": {"i": "1"}}}, {"name": "g_synthesis/256x256/Conv1/StyleMod/strided_slice_1", "op": "StridedSlice", "input": ["g_synthesis/256x256/Conv1/StyleMod/Reshape", "g_synthesis/4x4/Const/StyleMod/strided_slice/stack_1", "g_synthesis/4x4/Const/StyleMod/strided_slice_1/stack_1", "g_synthesis/4x4/Const/StyleMod/strided_slice/stack_2"], "attr": {"T": {"type": "DT_FLOAT"}, "Index": {"type": "DT_INT32"}, "shrink_axis_mask": {"i": "2"}, "begin_mask": {"i": "1"}, "ellipsis_mask": {"i": "0"}, "new_axis_mask": {"i": "0"}, "end_mask": {"i": "1"}}}, {"name": "g_synthesis/256x256/Conv1/StyleMod/strided_slice", "op": "StridedSlice", "input": ["g_synthesis/256x256/Conv1/StyleMod/Reshape", "g_synthesis/4x4/Const/StyleMod/strided_slice/stack", "g_synthesis/4x4/Const/StyleMod/strided_slice/stack_1", "g_synthesis/4x4/Const/StyleMod/strided_slice/stack_2"], "attr": {"T": {"type": "DT_FLOAT"}, "Index": {"type": "DT_INT32"}, "shrink_axis_mask": {"i": "2"}, "begin_mask": {"i": "1"}, "ellipsis_mask": {"i": "0"}, "new_axis_mask": {"i": "0"}, "end_mask": {"i": "1"}}}, {"name": "g_synthesis/256x256/Conv0_up/StyleMod/strided_slice_1", "op": "StridedSlice", "input": ["g_synthesis/256x256/Conv0_up/StyleMod/Reshape", "g_synthesis/4x4/Const/StyleMod/strided_slice/stack_1", "g_synthesis/4x4/Const/StyleMod/strided_slice_1/stack_1", "g_synthesis/4x4/Const/StyleMod/strided_slice/stack_2"], "attr": {"T": {"type": "DT_FLOAT"}, "Index": {"type": "DT_INT32"}, "shrink_axis_mask": {"i": "2"}, "begin_mask": {"i": "1"}, "ellipsis_mask": {"i": "0"}, "new_axis_mask": {"i": "0"}, "end_mask": {"i": "1"}}}, {"name": "g_synthesis/256x256/Conv0_up/StyleMod/strided_slice", "op": "StridedSlice", "input": ["g_synthesis/256x256/Conv0_up/StyleMod/Reshape", "g_synthesis/4x4/Const/StyleMod/strided_slice/stack", "g_synthesis/4x4/Const/StyleMod/strided_slice/stack_1", "g_synthesis/4x4/Const/StyleMod/strided_slice/stack_2"], "attr": {"T": {"type": "DT_FLOAT"}, "Index": {"type": "DT_INT32"}, "shrink_axis_mask": {"i": "2"}, "begin_mask": {"i": "1"}, "ellipsis_mask": {"i": "0"}, "new_axis_mask": {"i": "0"}, "end_mask": {"i": "1"}}}, {"name": "g_synthesis/128x128/Conv1/StyleMod/strided_slice_1", "op": "StridedSlice", "input": ["g_synthesis/128x128/Conv1/StyleMod/Reshape", "g_synthesis/4x4/Const/StyleMod/strided_slice/stack_1", "g_synthesis/4x4/Const/StyleMod/strided_slice_1/stack_1", "g_synthesis/4x4/Const/StyleMod/strided_slice/stack_2"], "attr": {"T": {"type": "DT_FLOAT"}, "Index": {"type": "DT_INT32"}, "shrink_axis_mask": {"i": "2"}, "begin_mask": {"i": "1"}, "ellipsis_mask": {"i": "0"}, "new_axis_mask": {"i": "0"}, "end_mask": {"i": "1"}}}, {"name": "g_synthesis/128x128/Conv1/StyleMod/strided_slice", "op": "StridedSlice", "input": ["g_synthesis/128x128/Conv1/StyleMod/Reshape", "g_synthesis/4x4/Const/StyleMod/strided_slice/stack", "g_synthesis/4x4/Const/StyleMod/strided_slice/stack_1", "g_synthesis/4x4/Const/StyleMod/strided_slice/stack_2"], "attr": {"T": {"type": "DT_FLOAT"}, "Index": {"type": "DT_INT32"}, "shrink_axis_mask": {"i": "2"}, "begin_mask": {"i": "1"}, "ellipsis_mask": {"i": "0"}, "new_axis_mask": {"i": "0"}, "end_mask": {"i": "1"}}}, {"name": "g_synthesis/128x128/Conv0_up/StyleMod/strided_slice_1", "op": "StridedSlice", "input": ["g_synthesis/128x128/Conv0_up/StyleMod/Reshape", "g_synthesis/4x4/Const/StyleMod/strided_slice/stack_1", "g_synthesis/4x4/Const/StyleMod/strided_slice_1/stack_1", "g_synthesis/4x4/Const/StyleMod/strided_slice/stack_2"], "attr": {"T": {"type": "DT_FLOAT"}, "Index": {"type": "DT_INT32"}, "shrink_axis_mask": {"i": "2"}, "begin_mask": {"i": "1"}, "ellipsis_mask": {"i": "0"}, "new_axis_mask": {"i": "0"}, "end_mask": {"i": "1"}}}, {"name": "g_synthesis/128x128/Conv0_up/StyleMod/strided_slice", "op": "StridedSlice", "input": ["g_synthesis/128x128/Conv0_up/StyleMod/Reshape", "g_synthesis/4x4/Const/StyleMod/strided_slice/stack", "g_synthesis/4x4/Const/StyleMod/strided_slice/stack_1", "g_synthesis/4x4/Const/StyleMod/strided_slice/stack_2"], "attr": {"T": {"type": "DT_FLOAT"}, "Index": {"type": "DT_INT32"}, "shrink_axis_mask": {"i": "2"}, "begin_mask": {"i": "1"}, "ellipsis_mask": {"i": "0"}, "new_axis_mask": {"i": "0"}, "end_mask": {"i": "1"}}}, {"name": "g_synthesis/64x64/Conv1/StyleMod/strided_slice_1", "op": "StridedSlice", "input": ["g_synthesis/64x64/Conv1/StyleMod/Reshape", "g_synthesis/4x4/Const/StyleMod/strided_slice/stack_1", "g_synthesis/4x4/Const/StyleMod/strided_slice_1/stack_1", "g_synthesis/4x4/Const/StyleMod/strided_slice/stack_2"], "attr": {"T": {"type": "DT_FLOAT"}, "Index": {"type": "DT_INT32"}, "shrink_axis_mask": {"i": "2"}, "begin_mask": {"i": "1"}, "ellipsis_mask": {"i": "0"}, "new_axis_mask": {"i": "0"}, "end_mask": {"i": "1"}}}, {"name": "g_synthesis/64x64/Conv1/StyleMod/strided_slice", "op": "StridedSlice", "input": ["g_synthesis/64x64/Conv1/StyleMod/Reshape", "g_synthesis/4x4/Const/StyleMod/strided_slice/stack", "g_synthesis/4x4/Const/StyleMod/strided_slice/stack_1", "g_synthesis/4x4/Const/StyleMod/strided_slice/stack_2"], "attr": {"T": {"type": "DT_FLOAT"}, "Index": {"type": "DT_INT32"}, "shrink_axis_mask": {"i": "2"}, "begin_mask": {"i": "1"}, "ellipsis_mask": {"i": "0"}, "new_axis_mask": {"i": "0"}, "end_mask": {"i": "1"}}}, {"name": "g_synthesis/64x64/Conv0_up/StyleMod/strided_slice_1", "op": "StridedSlice", "input": ["g_synthesis/64x64/Conv0_up/StyleMod/Reshape", "g_synthesis/4x4/Const/StyleMod/strided_slice/stack_1", "g_synthesis/4x4/Const/StyleMod/strided_slice_1/stack_1", "g_synthesis/4x4/Const/StyleMod/strided_slice/stack_2"], "attr": {"T": {"type": "DT_FLOAT"}, "Index": {"type": "DT_INT32"}, "shrink_axis_mask": {"i": "2"}, "begin_mask": {"i": "1"}, "ellipsis_mask": {"i": "0"}, "new_axis_mask": {"i": "0"}, "end_mask": {"i": "1"}}}, {"name": "g_synthesis/64x64/Conv0_up/StyleMod/strided_slice", "op": "StridedSlice", "input": ["g_synthesis/64x64/Conv0_up/StyleMod/Reshape", "g_synthesis/4x4/Const/StyleMod/strided_slice/stack", "g_synthesis/4x4/Const/StyleMod/strided_slice/stack_1", "g_synthesis/4x4/Const/StyleMod/strided_slice/stack_2"], "attr": {"T": {"type": "DT_FLOAT"}, "Index": {"type": "DT_INT32"}, "shrink_axis_mask": {"i": "2"}, "begin_mask": {"i": "1"}, "ellipsis_mask": {"i": "0"}, "new_axis_mask": {"i": "0"}, "end_mask": {"i": "1"}}}, {"name": "g_synthesis/32x32/Conv1/StyleMod/strided_slice_1", "op": "StridedSlice", "input": ["g_synthesis/32x32/Conv1/StyleMod/Reshape", "g_synthesis/4x4/Const/StyleMod/strided_slice/stack_1", "g_synthesis/4x4/Const/StyleMod/strided_slice_1/stack_1", "g_synthesis/4x4/Const/StyleMod/strided_slice/stack_2"], "attr": {"T": {"type": "DT_FLOAT"}, "Index": {"type": "DT_INT32"}, "shrink_axis_mask": {"i": "2"}, "begin_mask": {"i": "1"}, "ellipsis_mask": {"i": "0"}, "new_axis_mask": {"i": "0"}, "end_mask": {"i": "1"}}}, {"name": "g_synthesis/32x32/Conv1/StyleMod/strided_slice", "op": "StridedSlice", "input": ["g_synthesis/32x32/Conv1/StyleMod/Reshape", "g_synthesis/4x4/Const/StyleMod/strided_slice/stack", "g_synthesis/4x4/Const/StyleMod/strided_slice/stack_1", "g_synthesis/4x4/Const/StyleMod/strided_slice/stack_2"], "attr": {"T": {"type": "DT_FLOAT"}, "Index": {"type": "DT_INT32"}, "shrink_axis_mask": {"i": "2"}, "begin_mask": {"i": "1"}, "ellipsis_mask": {"i": "0"}, "new_axis_mask": {"i": "0"}, "end_mask": {"i": "1"}}}, {"name": "g_synthesis/32x32/Conv0_up/StyleMod/strided_slice_1", "op": "StridedSlice", "input": ["g_synthesis/32x32/Conv0_up/StyleMod/Reshape", "g_synthesis/4x4/Const/StyleMod/strided_slice/stack_1", "g_synthesis/4x4/Const/StyleMod/strided_slice_1/stack_1", "g_synthesis/4x4/Const/StyleMod/strided_slice/stack_2"], "attr": {"T": {"type": "DT_FLOAT"}, "Index": {"type": "DT_INT32"}, "shrink_axis_mask": {"i": "2"}, "begin_mask": {"i": "1"}, "ellipsis_mask": {"i": "0"}, "new_axis_mask": {"i": "0"}, "end_mask": {"i": "1"}}}, {"name": "g_synthesis/32x32/Conv0_up/StyleMod/strided_slice", "op": "StridedSlice", "input": ["g_synthesis/32x32/Conv0_up/StyleMod/Reshape", "g_synthesis/4x4/Const/StyleMod/strided_slice/stack", "g_synthesis/4x4/Const/StyleMod/strided_slice/stack_1", "g_synthesis/4x4/Const/StyleMod/strided_slice/stack_2"], "attr": {"T": {"type": "DT_FLOAT"}, "Index": {"type": "DT_INT32"}, "shrink_axis_mask": {"i": "2"}, "begin_mask": {"i": "1"}, "ellipsis_mask": {"i": "0"}, "new_axis_mask": {"i": "0"}, "end_mask": {"i": "1"}}}, {"name": "g_synthesis/16x16/Conv1/StyleMod/strided_slice_1", "op": "StridedSlice", "input": ["g_synthesis/16x16/Conv1/StyleMod/Reshape", "g_synthesis/4x4/Const/StyleMod/strided_slice/stack_1", "g_synthesis/4x4/Const/StyleMod/strided_slice_1/stack_1", "g_synthesis/4x4/Const/StyleMod/strided_slice/stack_2"], "attr": {"T": {"type": "DT_FLOAT"}, "Index": {"type": "DT_INT32"}, "shrink_axis_mask": {"i": "2"}, "begin_mask": {"i": "1"}, "ellipsis_mask": {"i": "0"}, "new_axis_mask": {"i": "0"}, "end_mask": {"i": "1"}}}, {"name": "g_synthesis/16x16/Conv1/StyleMod/strided_slice", "op": "StridedSlice", "input": ["g_synthesis/16x16/Conv1/StyleMod/Reshape", "g_synthesis/4x4/Const/StyleMod/strided_slice/stack", "g_synthesis/4x4/Const/StyleMod/strided_slice/stack_1", "g_synthesis/4x4/Const/StyleMod/strided_slice/stack_2"], "attr": {"T": {"type": "DT_FLOAT"}, "Index": {"type": "DT_INT32"}, "shrink_axis_mask": {"i": "2"}, "begin_mask": {"i": "1"}, "ellipsis_mask": {"i": "0"}, "new_axis_mask": {"i": "0"}, "end_mask": {"i": "1"}}}, {"name": "g_synthesis/16x16/Conv0_up/StyleMod/strided_slice_1", "op": "StridedSlice", "input": ["g_synthesis/16x16/Conv0_up/StyleMod/Reshape", "g_synthesis/4x4/Const/StyleMod/strided_slice/stack_1", "g_synthesis/4x4/Const/StyleMod/strided_slice_1/stack_1", "g_synthesis/4x4/Const/StyleMod/strided_slice/stack_2"], "attr": {"T": {"type": "DT_FLOAT"}, "Index": {"type": "DT_INT32"}, "shrink_axis_mask": {"i": "2"}, "begin_mask": {"i": "1"}, "ellipsis_mask": {"i": "0"}, "new_axis_mask": {"i": "0"}, "end_mask": {"i": "1"}}}, {"name": "g_synthesis/16x16/Conv0_up/StyleMod/strided_slice", "op": "StridedSlice", "input": ["g_synthesis/16x16/Conv0_up/StyleMod/Reshape", "g_synthesis/4x4/Const/StyleMod/strided_slice/stack", "g_synthesis/4x4/Const/StyleMod/strided_slice/stack_1", "g_synthesis/4x4/Const/StyleMod/strided_slice/stack_2"], "attr": {"T": {"type": "DT_FLOAT"}, "Index": {"type": "DT_INT32"}, "shrink_axis_mask": {"i": "2"}, "begin_mask": {"i": "1"}, "ellipsis_mask": {"i": "0"}, "new_axis_mask": {"i": "0"}, "end_mask": {"i": "1"}}}, {"name": "g_synthesis/8x8/Conv1/StyleMod/strided_slice_1", "op": "StridedSlice", "input": ["g_synthesis/8x8/Conv1/StyleMod/Reshape", "g_synthesis/4x4/Const/StyleMod/strided_slice/stack_1", "g_synthesis/4x4/Const/StyleMod/strided_slice_1/stack_1", "g_synthesis/4x4/Const/StyleMod/strided_slice/stack_2"], "attr": {"T": {"type": "DT_FLOAT"}, "Index": {"type": "DT_INT32"}, "shrink_axis_mask": {"i": "2"}, "begin_mask": {"i": "1"}, "ellipsis_mask": {"i": "0"}, "new_axis_mask": {"i": "0"}, "end_mask": {"i": "1"}}}, {"name": "g_synthesis/8x8/Conv1/StyleMod/strided_slice", "op": "StridedSlice", "input": ["g_synthesis/8x8/Conv1/StyleMod/Reshape", "g_synthesis/4x4/Const/StyleMod/strided_slice/stack", "g_synthesis/4x4/Const/StyleMod/strided_slice/stack_1", "g_synthesis/4x4/Const/StyleMod/strided_slice/stack_2"], "attr": {"T": {"type": "DT_FLOAT"}, "Index": {"type": "DT_INT32"}, "shrink_axis_mask": {"i": "2"}, "begin_mask": {"i": "1"}, "ellipsis_mask": {"i": "0"}, "new_axis_mask": {"i": "0"}, "end_mask": {"i": "1"}}}, {"name": "g_synthesis/8x8/Conv0_up/StyleMod/strided_slice_1", "op": "StridedSlice", "input": ["g_synthesis/8x8/Conv0_up/StyleMod/Reshape", "g_synthesis/4x4/Const/StyleMod/strided_slice/stack_1", "g_synthesis/4x4/Const/StyleMod/strided_slice_1/stack_1", "g_synthesis/4x4/Const/StyleMod/strided_slice/stack_2"], "attr": {"T": {"type": "DT_FLOAT"}, "Index": {"type": "DT_INT32"}, "shrink_axis_mask": {"i": "2"}, "begin_mask": {"i": "1"}, "ellipsis_mask": {"i": "0"}, "new_axis_mask": {"i": "0"}, "end_mask": {"i": "1"}}}, {"name": "g_synthesis/8x8/Conv0_up/StyleMod/strided_slice", "op": "StridedSlice", "input": ["g_synthesis/8x8/Conv0_up/StyleMod/Reshape", "g_synthesis/4x4/Const/StyleMod/strided_slice/stack", "g_synthesis/4x4/Const/StyleMod/strided_slice/stack_1", "g_synthesis/4x4/Const/StyleMod/strided_slice/stack_2"], "attr": {"T": {"type": "DT_FLOAT"}, "Index": {"type": "DT_INT32"}, "shrink_axis_mask": {"i": "2"}, "begin_mask": {"i": "1"}, "ellipsis_mask": {"i": "0"}, "new_axis_mask": {"i": "0"}, "end_mask": {"i": "1"}}}, {"name": "g_synthesis/4x4/Conv/StyleMod/strided_slice_1", "op": "StridedSlice", "input": ["g_synthesis/4x4/Conv/StyleMod/Reshape", "g_synthesis/4x4/Const/StyleMod/strided_slice/stack_1", "g_synthesis/4x4/Const/StyleMod/strided_slice_1/stack_1", "g_synthesis/4x4/Const/StyleMod/strided_slice/stack_2"], "attr": {"T": {"type": "DT_FLOAT"}, "Index": {"type": "DT_INT32"}, "shrink_axis_mask": {"i": "2"}, "begin_mask": {"i": "1"}, "ellipsis_mask": {"i": "0"}, "new_axis_mask": {"i": "0"}, "end_mask": {"i": "1"}}}, {"name": "g_synthesis/4x4/Conv/StyleMod/strided_slice", "op": "StridedSlice", "input": ["g_synthesis/4x4/Conv/StyleMod/Reshape", "g_synthesis/4x4/Const/StyleMod/strided_slice/stack", "g_synthesis/4x4/Const/StyleMod/strided_slice/stack_1", "g_synthesis/4x4/Const/StyleMod/strided_slice/stack_2"], "attr": {"T": {"type": "DT_FLOAT"}, "Index": {"type": "DT_INT32"}, "shrink_axis_mask": {"i": "2"}, "begin_mask": {"i": "1"}, "ellipsis_mask": {"i": "0"}, "new_axis_mask": {"i": "0"}, "end_mask": {"i": "1"}}}, {"name": "g_synthesis/4x4/Const/StyleMod/strided_slice_1", "op": "StridedSlice", "input": ["g_synthesis/4x4/Const/StyleMod/Reshape", "g_synthesis/4x4/Const/StyleMod/strided_slice/stack_1", "g_synthesis/4x4/Const/StyleMod/strided_slice_1/stack_1", "g_synthesis/4x4/Const/StyleMod/strided_slice/stack_2"], "attr": {"T": {"type": "DT_FLOAT"}, "Index": {"type": "DT_INT32"}, "shrink_axis_mask": {"i": "2"}, "begin_mask": {"i": "1"}, "ellipsis_mask": {"i": "0"}, "new_axis_mask": {"i": "0"}, "end_mask": {"i": "1"}}}, {"name": "g_synthesis/4x4/Const/StyleMod/strided_slice", "op": "StridedSlice", "input": ["g_synthesis/4x4/Const/StyleMod/Reshape", "g_synthesis/4x4/Const/StyleMod/strided_slice/stack", "g_synthesis/4x4/Const/StyleMod/strided_slice/stack_1", "g_synthesis/4x4/Const/StyleMod/strided_slice/stack_2"], "attr": {"T": {"type": "DT_FLOAT"}, "Index": {"type": "DT_INT32"}, "shrink_axis_mask": {"i": "2"}, "begin_mask": {"i": "1"}, "ellipsis_mask": {"i": "0"}, "new_axis_mask": {"i": "0"}, "end_mask": {"i": "1"}}}, {"name": "g_synthesis/4x4/Const/Noise/random_uniform/RandomUniform", "op": "RandomUniform", "input": ["g_synthesis/4x4/Const/Noise/random_uniform/shape"], "attr": {"seed": {"i": "0"}, "T": {"type": "DT_INT32"}, "dtype": {"type": "DT_FLOAT"}, "seed2": {"i": "0"}}}, {"name": "g_synthesis/512x512/Conv1/StyleMod/add_1", "op": "Add", "input": ["g_synthesis/4x4/Const/Noise/random_uniform/sub", "g_synthesis/512x512/Conv1/StyleMod/strided_slice"], "attr": {"T": {"type": "DT_FLOAT"}}}, {"name": "g_synthesis/512x512/Conv0_up/StyleMod/add_1", "op": "Add", "input": ["g_synthesis/4x4/Const/Noise/random_uniform/sub", "g_synthesis/512x512/Conv0_up/StyleMod/strided_slice"], "attr": {"T": {"type": "DT_FLOAT"}}}, {"name": "g_synthesis/256x256/Conv1/StyleMod/add_1", "op": "Add", "input": ["g_synthesis/256x256/Conv1/StyleMod/strided_slice", "g_synthesis/4x4/Const/Noise/random_uniform/sub"], "attr": {"T": {"type": "DT_FLOAT"}}}, {"name": "g_synthesis/256x256/Conv0_up/StyleMod/add_1", "op": "Add", "input": ["g_synthesis/256x256/Conv0_up/StyleMod/strided_slice", "g_synthesis/4x4/Const/Noise/random_uniform/sub"], "attr": {"T": {"type": "DT_FLOAT"}}}, {"name": "g_synthesis/128x128/Conv1/StyleMod/add_1", "op": "Add", "input": ["g_synthesis/128x128/Conv1/StyleMod/strided_slice", "g_synthesis/4x4/Const/Noise/random_uniform/sub"], "attr": {"T": {"type": "DT_FLOAT"}}}, {"name": "g_synthesis/128x128/Conv0_up/StyleMod/add_1", "op": "Add", "input": ["g_synthesis/128x128/Conv0_up/StyleMod/strided_slice", "g_synthesis/4x4/Const/Noise/random_uniform/sub"], "attr": {"T": {"type": "DT_FLOAT"}}}, {"name": "g_synthesis/64x64/Conv1/StyleMod/add_1", "op": "Add", "input": ["g_synthesis/4x4/Const/Noise/random_uniform/sub", "g_synthesis/64x64/Conv1/StyleMod/strided_slice"], "attr": {"T": {"type": "DT_FLOAT"}}}, {"name": "g_synthesis/64x64/Conv0_up/StyleMod/add_1", "op": "Add", "input": ["g_synthesis/4x4/Const/Noise/random_uniform/sub", "g_synthesis/64x64/Conv0_up/StyleMod/strided_slice"], "attr": {"T": {"type": "DT_FLOAT"}}}, {"name": "g_synthesis/32x32/Conv1/StyleMod/add_1", "op": "Add", "input": ["g_synthesis/32x32/Conv1/StyleMod/strided_slice", "g_synthesis/4x4/Const/Noise/random_uniform/sub"], "attr": {"T": {"type": "DT_FLOAT"}}}, {"name": "g_synthesis/32x32/Conv0_up/StyleMod/add_1", "op": "Add", "input": ["g_synthesis/32x32/Conv0_up/StyleMod/strided_slice", "g_synthesis/4x4/Const/Noise/random_uniform/sub"], "attr": {"T": {"type": "DT_FLOAT"}}}, {"name": "g_synthesis/16x16/Conv1/StyleMod/add_1", "op": "Add", "input": ["g_synthesis/16x16/Conv1/StyleMod/strided_slice", "g_synthesis/4x4/Const/Noise/random_uniform/sub"], "attr": {"T": {"type": "DT_FLOAT"}}}, {"name": "g_synthesis/16x16/Conv0_up/StyleMod/add_1", "op": "Add", "input": ["g_synthesis/16x16/Conv0_up/StyleMod/strided_slice", "g_synthesis/4x4/Const/Noise/random_uniform/sub"], "attr": {"T": {"type": "DT_FLOAT"}}}, {"name": "g_synthesis/8x8/Conv1/StyleMod/add_1", "op": "Add", "input": ["g_synthesis/4x4/Const/Noise/random_uniform/sub", "g_synthesis/8x8/Conv1/StyleMod/strided_slice"], "attr": {"T": {"type": "DT_FLOAT"}}}, {"name": "g_synthesis/8x8/Conv0_up/StyleMod/add_1", "op": "Add", "input": ["g_synthesis/4x4/Const/Noise/random_uniform/sub", "g_synthesis/8x8/Conv0_up/StyleMod/strided_slice"], "attr": {"T": {"type": "DT_FLOAT"}}}, {"name": "g_synthesis/4x4/Conv/StyleMod/add_1", "op": "Add", "input": ["g_synthesis/4x4/Const/Noise/random_uniform/sub", "g_synthesis/4x4/Conv/StyleMod/strided_slice"], "attr": {"T": {"type": "DT_FLOAT"}}}, {"name": "g_synthesis/4x4/Const/StyleMod/add_1", "op": "Add", "input": ["g_synthesis/4x4/Const/Noise/random_uniform/sub", "g_synthesis/4x4/Const/StyleMod/strided_slice"], "attr": {"T": {"type": "DT_FLOAT"}}}, {"name": "g_synthesis/4x4/Const/Noise/mul", "op": "Mul", "input": ["g_synthesis/4x4/Const/Noise/Reshape", "g_synthesis/4x4/Const/Noise/random_uniform/RandomUniform"], "attr": {"T": {"type": "DT_FLOAT"}}}, {"name": "g_synthesis/4x4/Const/Noise/add", "op": "Add", "input": ["g_synthesis/4x4/Const/Noise/mul", "g_synthesis/4x4/Const/Reshape"], "attr": {"T": {"type": "DT_FLOAT"}}}, {"name": "g_synthesis/4x4/Const/add", "op": "Add", "input": ["g_synthesis/4x4/Const/Noise/add", "g_synthesis/4x4/Const/Tile"], "attr": {"T": {"type": "DT_FLOAT"}}}, {"name": "g_synthesis/4x4/Const/LeakyRelu", "op": "LeakyRelu", "input": ["g_synthesis/4x4/Const/add"], "attr": {"T": {"type": "DT_FLOAT"}, "alpha": {"f": 0.20000000298023224}}}, {"name": "g_synthesis/4x4/Const/InstanceNorm/Mean", "op": "Mean", "input": ["g_synthesis/4x4/Const/LeakyRelu", "g_synthesis/4x4/Const/InstanceNorm/Mean/reduction_indices"], "attr": {"keep_dims": {"b": true}, "Tidx": {"type": "DT_INT32"}, "T": {"type": "DT_FLOAT"}}}, {"name": "g_synthesis/4x4/Const/InstanceNorm/sub_1", "op": "Sub", "input": ["g_synthesis/4x4/Const/LeakyRelu", "g_synthesis/4x4/Const/InstanceNorm/Mean"], "attr": {"T": {"type": "DT_FLOAT"}}}, {"name": "g_synthesis/4x4/Const/InstanceNorm/Square", "op": "Square", "input": ["g_synthesis/4x4/Const/InstanceNorm/sub_1"], "attr": {"T": {"type": "DT_FLOAT"}}}, {"name": "g_synthesis/4x4/Const/InstanceNorm/Mean_1", "op": "Mean", "input": ["g_synthesis/4x4/Const/InstanceNorm/Square", "g_synthesis/4x4/Const/InstanceNorm/Mean/reduction_indices"], "attr": {"keep_dims": {"b": true}, "Tidx": {"type": "DT_INT32"}, "T": {"type": "DT_FLOAT"}}}, {"name": "g_synthesis/4x4/Const/InstanceNorm/add", "op": "Add", "input": ["g_synthesis/4x4/Const/InstanceNorm/Mean_1", "g_synthesis/4x4/Const/InstanceNorm/epsilon"], "attr": {"T": {"type": "DT_FLOAT"}}}, {"name": "g_synthesis/4x4/Const/InstanceNorm/Rsqrt", "op": "Rsqrt", "input": ["g_synthesis/4x4/Const/InstanceNorm/add"], "attr": {"T": {"type": "DT_FLOAT"}}}, {"name": "g_synthesis/4x4/Const/InstanceNorm/mul", "op": "Mul", "input": ["g_synthesis/4x4/Const/InstanceNorm/Rsqrt", "g_synthesis/4x4/Const/InstanceNorm/sub_1"], "attr": {"T": {"type": "DT_FLOAT"}}}, {"name": "g_synthesis/4x4/Const/StyleMod/mul_2", "op": "Mul", "input": ["g_synthesis/4x4/Const/InstanceNorm/mul", "g_synthesis/4x4/Const/StyleMod/add_1"], "attr": {"T": {"type": "DT_FLOAT"}}}, {"name": "g_synthesis/4x4/Const/StyleMod/add_2", "op": "Add", "input": ["g_synthesis/4x4/Const/StyleMod/mul_2", "g_synthesis/4x4/Const/StyleMod/strided_slice_1"], "attr": {"T": {"type": "DT_FLOAT"}}}, {"name": "g_synthesis/4x4/Conv/NCHW_to_NHWC", "op": "Transpose", "input": ["g_synthesis/4x4/Const/StyleMod/add_2", "g_synthesis/4x4_1/ToRGB/NCHW_to_NHWC/perm"], "attr": {"Tperm": {"type": "DT_INT32"}, "T": {"type": "DT_FLOAT"}}}, {"name": "g_synthesis/4x4/Conv/Conv2D", "op": "Conv2D", "input": ["g_synthesis/4x4/Conv/NCHW_to_NHWC", "g_synthesis/4x4/Conv/mul"], "attr": {"dilations": {"list": {"i": ["1", "1", "1", "1"]}}, "T": {"type": "DT_FLOAT"}, "data_format": {"s": "TkhXQw=="}, "strides": {"list": {"i": ["1", "1", "1", "1"]}}, "use_cudnn_on_gpu": {"b": true}, "explicit_paddings": {"list": {}}, "padding": {"s": "U0FNRQ=="}}}, {"name": "g_synthesis/4x4/Conv/NHWC_to_NCHW", "op": "Transpose", "input": ["g_synthesis/4x4/Conv/Conv2D", "g_synthesis/4x4_1/ToRGB/NHWC_to_NCHW/perm"], "attr": {"Tperm": {"type": "DT_INT32"}, "T": {"type": "DT_FLOAT"}}}, {"name": "g_synthesis/4x4/Conv/Noise/Shape", "op": "Shape", "input": ["g_synthesis/4x4/Conv/NHWC_to_NCHW"], "attr": {"T": {"type": "DT_FLOAT"}, "out_type": {"type": "DT_INT32"}}}, {"name": "g_synthesis/4x4/Conv/Noise/strided_slice", "op": "StridedSlice", "input": ["g_synthesis/4x4/Conv/Noise/Shape", "g_synthesis/512x512/Conv0_up/strided_slice_4/stack", "g_synthesis/512x512/Conv0_up/strided_slice_4/stack_1", "g_synthesis/512x512/Conv0_up/strided_slice_4/stack_1"], "attr": {"T": {"type": "DT_INT32"}, "Index": {"type": "DT_INT32"}, "shrink_axis_mask": {"i": "1"}, "begin_mask": {"i": "0"}, "ellipsis_mask": {"i": "0"}, "new_axis_mask": {"i": "0"}, "end_mask": {"i": "0"}}}, {"name": "g_synthesis/4x4/Conv/Noise/random_uniform/shape", "op": "Pack", "input": ["g_synthesis/4x4/Conv/Noise/strided_slice", "g_synthesis/4x4/Const/Tile/multiples/1", "g_synthesis/4x4/Const/Noise/random_uniform/shape/2", "g_synthesis/4x4/Const/Noise/random_uniform/shape/2"], "attr": {"T": {"type": "DT_INT32"}, "axis": {"i": "0"}, "N": {"i": "4"}}}, {"name": "g_synthesis/4x4/Conv/Noise/random_uniform/RandomUniform", "op": "RandomUniform", "input": ["g_synthesis/4x4/Conv/Noise/random_uniform/shape"], "attr": {"seed": {"i": "0"}, "T": {"type": "DT_INT32"}, "dtype": {"type": "DT_FLOAT"}, "seed2": {"i": "0"}}}, {"name": "g_synthesis/4x4/Conv/Noise/mul", "op": "Mul", "input": ["g_synthesis/4x4/Conv/Noise/Reshape", "g_synthesis/4x4/Conv/Noise/random_uniform/RandomUniform"], "attr": {"T": {"type": "DT_FLOAT"}}}, {"name": "g_synthesis/4x4/Conv/Noise/add", "op": "Add", "input": ["g_synthesis/4x4/Conv/Noise/mul", "g_synthesis/4x4/Conv/Reshape"], "attr": {"T": {"type": "DT_FLOAT"}}}, {"name": "g_synthesis/4x4/Conv/add", "op": "Add", "input": ["g_synthesis/4x4/Conv/NHWC_to_NCHW", "g_synthesis/4x4/Conv/Noise/add"], "attr": {"T": {"type": "DT_FLOAT"}}}, {"name": "g_synthesis/4x4/Conv/LeakyRelu", "op": "LeakyRelu", "input": ["g_synthesis/4x4/Conv/add"], "attr": {"T": {"type": "DT_FLOAT"}, "alpha": {"f": 0.20000000298023224}}}, {"name": "g_synthesis/4x4/Conv/InstanceNorm/Mean", "op": "Mean", "input": ["g_synthesis/4x4/Conv/LeakyRelu", "g_synthesis/4x4/Const/InstanceNorm/Mean/reduction_indices"], "attr": {"keep_dims": {"b": true}, "Tidx": {"type": "DT_INT32"}, "T": {"type": "DT_FLOAT"}}}, {"name": "g_synthesis/4x4/Conv/InstanceNorm/sub_1", "op": "Sub", "input": ["g_synthesis/4x4/Conv/LeakyRelu", "g_synthesis/4x4/Conv/InstanceNorm/Mean"], "attr": {"T": {"type": "DT_FLOAT"}}}, {"name": "g_synthesis/4x4/Conv/InstanceNorm/Square", "op": "Square", "input": ["g_synthesis/4x4/Conv/InstanceNorm/sub_1"], "attr": {"T": {"type": "DT_FLOAT"}}}, {"name": "g_synthesis/4x4/Conv/InstanceNorm/Mean_1", "op": "Mean", "input": ["g_synthesis/4x4/Conv/InstanceNorm/Square", "g_synthesis/4x4/Const/InstanceNorm/Mean/reduction_indices"], "attr": {"keep_dims": {"b": true}, "Tidx": {"type": "DT_INT32"}, "T": {"type": "DT_FLOAT"}}}, {"name": "g_synthesis/4x4/Conv/InstanceNorm/add", "op": "Add", "input": ["g_synthesis/4x4/Const/InstanceNorm/epsilon", "g_synthesis/4x4/Conv/InstanceNorm/Mean_1"], "attr": {"T": {"type": "DT_FLOAT"}}}, {"name": "g_synthesis/4x4/Conv/InstanceNorm/Rsqrt", "op": "Rsqrt", "input": ["g_synthesis/4x4/Conv/InstanceNorm/add"], "attr": {"T": {"type": "DT_FLOAT"}}}, {"name": "g_synthesis/4x4/Conv/InstanceNorm/mul", "op": "Mul", "input": ["g_synthesis/4x4/Conv/InstanceNorm/Rsqrt", "g_synthesis/4x4/Conv/InstanceNorm/sub_1"], "attr": {"T": {"type": "DT_FLOAT"}}}, {"name": "g_synthesis/4x4/Conv/StyleMod/mul_2", "op": "Mul", "input": ["g_synthesis/4x4/Conv/InstanceNorm/mul", "g_synthesis/4x4/Conv/StyleMod/add_1"], "attr": {"T": {"type": "DT_FLOAT"}}}, {"name": "g_synthesis/4x4/Conv/StyleMod/add_2", "op": "Add", "input": ["g_synthesis/4x4/Conv/StyleMod/mul_2", "g_synthesis/4x4/Conv/StyleMod/strided_slice_1"], "attr": {"T": {"type": "DT_FLOAT"}}}, {"name": "g_synthesis/8x8/Conv0_up/Reshape", "op": "Reshape", "input": ["g_synthesis/4x4/Conv/StyleMod/add_2", "g_synthesis/8x8/Conv0_up/Reshape/shape"], "attr": {"T": {"type": "DT_FLOAT"}, "Tshape": {"type": "DT_INT32"}}}, {"name": "g_synthesis/4x4_1/ToRGB/NCHW_to_NHWC", "op": "Transpose", "input": ["g_synthesis/4x4/Conv/StyleMod/add_2", "g_synthesis/4x4_1/ToRGB/NCHW_to_NHWC/perm"], "attr": {"Tperm": {"type": "DT_INT32"}, "T": {"type": "DT_FLOAT"}}}, {"name": "g_synthesis/8x8/Conv0_up/Tile", "op": "Tile", "input": ["g_synthesis/8x8/Conv0_up/Reshape", "g_synthesis/Tile/multiples"], "attr": {"Tmultiples": {"type": "DT_INT32"}, "T": {"type": "DT_FLOAT"}}}, {"name": "g_synthesis/4x4_1/ToRGB/Conv2D", "op": "Conv2D", "input": ["g_synthesis/4x4_1/ToRGB/NCHW_to_NHWC", "g_synthesis/4x4_1/ToRGB/mul"], "attr": {"dilations": {"list": {"i": ["1", "1", "1", "1"]}}, "T": {"type": "DT_FLOAT"}, "data_format": {"s": "TkhXQw=="}, "strides": {"list": {"i": ["1", "1", "1", "1"]}}, "use_cudnn_on_gpu": {"b": true}, "explicit_paddings": {"list": {}}, "padding": {"s": "U0FNRQ=="}}}, {"name": "g_synthesis/8x8/Conv0_up/Reshape_1", "op": "Reshape", "input": ["g_synthesis/8x8/Conv0_up/Tile", "g_synthesis/8x8/Conv0_up/Reshape_1/shape"], "attr": {"T": {"type": "DT_FLOAT"}, "Tshape": {"type": "DT_INT32"}}}, {"name": "g_synthesis/4x4_1/ToRGB/NHWC_to_NCHW", "op": "Transpose", "input": ["g_synthesis/4x4_1/ToRGB/Conv2D", "g_synthesis/4x4_1/ToRGB/NHWC_to_NCHW/perm"], "attr": {"Tperm": {"type": "DT_INT32"}, "T": {"type": "DT_FLOAT"}}}, {"name": "g_synthesis/8x8/Conv0_up/NCHW_to_NHWC", "op": "Transpose", "input": ["g_synthesis/8x8/Conv0_up/Reshape_1", "g_synthesis/4x4_1/ToRGB/NCHW_to_NHWC/perm"], "attr": {"Tperm": {"type": "DT_INT32"}, "T": {"type": "DT_FLOAT"}}}, {"name": "g_synthesis/Reshape", "op": "Reshape", "input": ["g_synthesis/4x4_1/ToRGB/NHWC_to_NCHW", "g_synthesis/Reshape/shape"], "attr": {"T": {"type": "DT_FLOAT"}, "Tshape": {"type": "DT_INT32"}}}, {"name": "g_synthesis/8x8/Conv0_up/Conv2D", "op": "Conv2D", "input": ["g_synthesis/8x8/Conv0_up/NCHW_to_NHWC", "g_synthesis/8x8/Conv0_up/mul"], "attr": {"dilations": {"list": {"i": ["1", "1", "1", "1"]}}, "T": {"type": "DT_FLOAT"}, "data_format": {"s": "TkhXQw=="}, "strides": {"list": {"i": ["1", "1", "1", "1"]}}, "use_cudnn_on_gpu": {"b": true}, "explicit_paddings": {"list": {}}, "padding": {"s": "U0FNRQ=="}}}, {"name": "g_synthesis/Tile", "op": "Tile", "input": ["g_synthesis/Reshape", "g_synthesis/Tile/multiples"], "attr": {"Tmultiples": {"type": "DT_INT32"}, "T": {"type": "DT_FLOAT"}}}, {"name": "g_synthesis/8x8/Conv0_up/depthwise", "op": "DepthwiseConv2dNative", "input": ["g_synthesis/8x8/Conv0_up/Conv2D", "g_synthesis/8x8/Conv0_up/filter"], "attr": {"padding": {"s": "U0FNRQ=="}, "dilations": {"list": {"i": ["1", "1", "1", "1"]}}, "T": {"type": "DT_FLOAT"}, "strides": {"list": {"i": ["1", "1", "1", "1"]}}, "data_format": {"s": "TkhXQw=="}}}, {"name": "g_synthesis/Reshape_1", "op": "Reshape", "input": ["g_synthesis/Tile", "g_synthesis/Reshape_1/shape"], "attr": {"T": {"type": "DT_FLOAT"}, "Tshape": {"type": "DT_INT32"}}}, {"name": "g_synthesis/8x8/Conv0_up/NHWC_to_NCHW_1", "op": "Transpose", "input": ["g_synthesis/8x8/Conv0_up/depthwise", "g_synthesis/4x4_1/ToRGB/NHWC_to_NCHW/perm"], "attr": {"Tperm": {"type": "DT_INT32"}, "T": {"type": "DT_FLOAT"}}}, {"name": "g_synthesis/8x8/Conv0_up/Noise/Shape", "op": "Shape", "input": ["g_synthesis/8x8/Conv0_up/NHWC_to_NCHW_1"], "attr": {"T": {"type": "DT_FLOAT"}, "out_type": {"type": "DT_INT32"}}}, {"name": "g_synthesis/8x8/Conv0_up/Noise/strided_slice", "op": "StridedSlice", "input": ["g_synthesis/8x8/Conv0_up/Noise/Shape", "g_synthesis/512x512/Conv0_up/strided_slice_4/stack", "g_synthesis/512x512/Conv0_up/strided_slice_4/stack_1", "g_synthesis/512x512/Conv0_up/strided_slice_4/stack_1"], "attr": {"T": {"type": "DT_INT32"}, "Index": {"type": "DT_INT32"}, "shrink_axis_mask": {"i": "1"}, "begin_mask": {"i": "0"}, "ellipsis_mask": {"i": "0"}, "new_axis_mask": {"i": "0"}, "end_mask": {"i": "0"}}}, {"name": "g_synthesis/8x8/Conv0_up/Noise/random_uniform/shape", "op": "Pack", "input": ["g_synthesis/8x8/Conv0_up/Noise/strided_slice", "g_synthesis/4x4/Const/Tile/multiples/1", "g_synthesis/8x8/Conv0_up/Noise/random_uniform/shape/2", "g_synthesis/8x8/Conv0_up/Noise/random_uniform/shape/2"], "attr": {"T": {"type": "DT_INT32"}, "axis": {"i": "0"}, "N": {"i": "4"}}}, {"name": "g_synthesis/8x8/Conv0_up/Noise/random_uniform/RandomUniform", "op": "RandomUniform", "input": ["g_synthesis/8x8/Conv0_up/Noise/random_uniform/shape"], "attr": {"seed": {"i": "0"}, "T": {"type": "DT_INT32"}, "dtype": {"type": "DT_FLOAT"}, "seed2": {"i": "0"}}}, {"name": "g_synthesis/8x8/Conv0_up/Noise/mul", "op": "Mul", "input": ["g_synthesis/8x8/Conv0_up/Noise/Reshape", "g_synthesis/8x8/Conv0_up/Noise/random_uniform/RandomUniform"], "attr": {"T": {"type": "DT_FLOAT"}}}, {"name": "g_synthesis/8x8/Conv0_up/Noise/add", "op": "Add", "input": ["g_synthesis/8x8/Conv0_up/Noise/mul", "g_synthesis/8x8/Conv0_up/Reshape_2"], "attr": {"T": {"type": "DT_FLOAT"}}}, {"name": "g_synthesis/8x8/Conv0_up/add", "op": "Add", "input": ["g_synthesis/8x8/Conv0_up/NHWC_to_NCHW_1", "g_synthesis/8x8/Conv0_up/Noise/add"], "attr": {"T": {"type": "DT_FLOAT"}}}, {"name": "g_synthesis/8x8/Conv0_up/LeakyRelu", "op": "LeakyRelu", "input": ["g_synthesis/8x8/Conv0_up/add"], "attr": {"T": {"type": "DT_FLOAT"}, "alpha": {"f": 0.20000000298023224}}}, {"name": "g_synthesis/8x8/Conv0_up/InstanceNorm/Mean", "op": "Mean", "input": ["g_synthesis/8x8/Conv0_up/LeakyRelu", "g_synthesis/4x4/Const/InstanceNorm/Mean/reduction_indices"], "attr": {"keep_dims": {"b": true}, "Tidx": {"type": "DT_INT32"}, "T": {"type": "DT_FLOAT"}}}, {"name": "g_synthesis/8x8/Conv0_up/InstanceNorm/sub_1", "op": "Sub", "input": ["g_synthesis/8x8/Conv0_up/LeakyRelu", "g_synthesis/8x8/Conv0_up/InstanceNorm/Mean"], "attr": {"T": {"type": "DT_FLOAT"}}}, {"name": "g_synthesis/8x8/Conv0_up/InstanceNorm/Square", "op": "Square", "input": ["g_synthesis/8x8/Conv0_up/InstanceNorm/sub_1"], "attr": {"T": {"type": "DT_FLOAT"}}}, {"name": "g_synthesis/8x8/Conv0_up/InstanceNorm/Mean_1", "op": "Mean", "input": ["g_synthesis/8x8/Conv0_up/InstanceNorm/Square", "g_synthesis/4x4/Const/InstanceNorm/Mean/reduction_indices"], "attr": {"keep_dims": {"b": true}, "Tidx": {"type": "DT_INT32"}, "T": {"type": "DT_FLOAT"}}}, {"name": "g_synthesis/8x8/Conv0_up/InstanceNorm/add", "op": "Add", "input": ["g_synthesis/4x4/Const/InstanceNorm/epsilon", "g_synthesis/8x8/Conv0_up/InstanceNorm/Mean_1"], "attr": {"T": {"type": "DT_FLOAT"}}}, {"name": "g_synthesis/8x8/Conv0_up/InstanceNorm/Rsqrt", "op": "Rsqrt", "input": ["g_synthesis/8x8/Conv0_up/InstanceNorm/add"], "attr": {"T": {"type": "DT_FLOAT"}}}, {"name": "g_synthesis/8x8/Conv0_up/InstanceNorm/mul", "op": "Mul", "input": ["g_synthesis/8x8/Conv0_up/InstanceNorm/Rsqrt", "g_synthesis/8x8/Conv0_up/InstanceNorm/sub_1"], "attr": {"T": {"type": "DT_FLOAT"}}}, {"name": "g_synthesis/8x8/Conv0_up/StyleMod/mul_2", "op": "Mul", "input": ["g_synthesis/8x8/Conv0_up/InstanceNorm/mul", "g_synthesis/8x8/Conv0_up/StyleMod/add_1"], "attr": {"T": {"type": "DT_FLOAT"}}}, {"name": "g_synthesis/8x8/Conv0_up/StyleMod/add_2", "op": "Add", "input": ["g_synthesis/8x8/Conv0_up/StyleMod/mul_2", "g_synthesis/8x8/Conv0_up/StyleMod/strided_slice_1"], "attr": {"T": {"type": "DT_FLOAT"}}}, {"name": "g_synthesis/8x8/Conv1/NCHW_to_NHWC", "op": "Transpose", "input": ["g_synthesis/8x8/Conv0_up/StyleMod/add_2", "g_synthesis/4x4_1/ToRGB/NCHW_to_NHWC/perm"], "attr": {"Tperm": {"type": "DT_INT32"}, "T": {"type": "DT_FLOAT"}}}, {"name": "g_synthesis/8x8/Conv1/Conv2D", "op": "Conv2D", "input": ["g_synthesis/8x8/Conv1/NCHW_to_NHWC", "g_synthesis/8x8/Conv1/mul"], "attr": {"dilations": {"list": {"i": ["1", "1", "1", "1"]}}, "T": {"type": "DT_FLOAT"}, "data_format": {"s": "TkhXQw=="}, "strides": {"list": {"i": ["1", "1", "1", "1"]}}, "use_cudnn_on_gpu": {"b": true}, "explicit_paddings": {"list": {}}, "padding": {"s": "U0FNRQ=="}}}, {"name": "g_synthesis/8x8/Conv1/NHWC_to_NCHW", "op": "Transpose", "input": ["g_synthesis/8x8/Conv1/Conv2D", "g_synthesis/4x4_1/ToRGB/NHWC_to_NCHW/perm"], "attr": {"Tperm": {"type": "DT_INT32"}, "T": {"type": "DT_FLOAT"}}}, {"name": "g_synthesis/8x8/Conv1/Noise/Shape", "op": "Shape", "input": ["g_synthesis/8x8/Conv1/NHWC_to_NCHW"], "attr": {"T": {"type": "DT_FLOAT"}, "out_type": {"type": "DT_INT32"}}}, {"name": "g_synthesis/8x8/Conv1/Noise/strided_slice", "op": "StridedSlice", "input": ["g_synthesis/8x8/Conv1/Noise/Shape", "g_synthesis/512x512/Conv0_up/strided_slice_4/stack", "g_synthesis/512x512/Conv0_up/strided_slice_4/stack_1", "g_synthesis/512x512/Conv0_up/strided_slice_4/stack_1"], "attr": {"T": {"type": "DT_INT32"}, "Index": {"type": "DT_INT32"}, "shrink_axis_mask": {"i": "1"}, "begin_mask": {"i": "0"}, "ellipsis_mask": {"i": "0"}, "new_axis_mask": {"i": "0"}, "end_mask": {"i": "0"}}}, {"name": "g_synthesis/8x8/Conv1/Noise/random_uniform/shape", "op": "Pack", "input": ["g_synthesis/8x8/Conv1/Noise/strided_slice", "g_synthesis/4x4/Const/Tile/multiples/1", "g_synthesis/8x8/Conv0_up/Noise/random_uniform/shape/2", "g_synthesis/8x8/Conv0_up/Noise/random_uniform/shape/2"], "attr": {"T": {"type": "DT_INT32"}, "axis": {"i": "0"}, "N": {"i": "4"}}}, {"name": "g_synthesis/8x8/Conv1/Noise/random_uniform/RandomUniform", "op": "RandomUniform", "input": ["g_synthesis/8x8/Conv1/Noise/random_uniform/shape"], "attr": {"seed": {"i": "0"}, "T": {"type": "DT_INT32"}, "dtype": {"type": "DT_FLOAT"}, "seed2": {"i": "0"}}}, {"name": "g_synthesis/8x8/Conv1/Noise/mul", "op": "Mul", "input": ["g_synthesis/8x8/Conv1/Noise/Reshape", "g_synthesis/8x8/Conv1/Noise/random_uniform/RandomUniform"], "attr": {"T": {"type": "DT_FLOAT"}}}, {"name": "g_synthesis/8x8/Conv1/Noise/add", "op": "Add", "input": ["g_synthesis/8x8/Conv1/Noise/mul", "g_synthesis/8x8/Conv1/Reshape"], "attr": {"T": {"type": "DT_FLOAT"}}}, {"name": "g_synthesis/8x8/Conv1/add", "op": "Add", "input": ["g_synthesis/8x8/Conv1/NHWC_to_NCHW", "g_synthesis/8x8/Conv1/Noise/add"], "attr": {"T": {"type": "DT_FLOAT"}}}, {"name": "g_synthesis/8x8/Conv1/LeakyRelu", "op": "LeakyRelu", "input": ["g_synthesis/8x8/Conv1/add"], "attr": {"T": {"type": "DT_FLOAT"}, "alpha": {"f": 0.20000000298023224}}}, {"name": "g_synthesis/8x8/Conv1/InstanceNorm/Mean", "op": "Mean", "input": ["g_synthesis/8x8/Conv1/LeakyRelu", "g_synthesis/4x4/Const/InstanceNorm/Mean/reduction_indices"], "attr": {"keep_dims": {"b": true}, "Tidx": {"type": "DT_INT32"}, "T": {"type": "DT_FLOAT"}}}, {"name": "g_synthesis/8x8/Conv1/InstanceNorm/sub_1", "op": "Sub", "input": ["g_synthesis/8x8/Conv1/LeakyRelu", "g_synthesis/8x8/Conv1/InstanceNorm/Mean"], "attr": {"T": {"type": "DT_FLOAT"}}}, {"name": "g_synthesis/8x8/Conv1/InstanceNorm/Square", "op": "Square", "input": ["g_synthesis/8x8/Conv1/InstanceNorm/sub_1"], "attr": {"T": {"type": "DT_FLOAT"}}}, {"name": "g_synthesis/8x8/Conv1/InstanceNorm/Mean_1", "op": "Mean", "input": ["g_synthesis/8x8/Conv1/InstanceNorm/Square", "g_synthesis/4x4/Const/InstanceNorm/Mean/reduction_indices"], "attr": {"keep_dims": {"b": true}, "Tidx": {"type": "DT_INT32"}, "T": {"type": "DT_FLOAT"}}}, {"name": "g_synthesis/8x8/Conv1/InstanceNorm/add", "op": "Add", "input": ["g_synthesis/4x4/Const/InstanceNorm/epsilon", "g_synthesis/8x8/Conv1/InstanceNorm/Mean_1"], "attr": {"T": {"type": "DT_FLOAT"}}}, {"name": "g_synthesis/8x8/Conv1/InstanceNorm/Rsqrt", "op": "Rsqrt", "input": ["g_synthesis/8x8/Conv1/InstanceNorm/add"], "attr": {"T": {"type": "DT_FLOAT"}}}, {"name": "g_synthesis/8x8/Conv1/InstanceNorm/mul", "op": "Mul", "input": ["g_synthesis/8x8/Conv1/InstanceNorm/Rsqrt", "g_synthesis/8x8/Conv1/InstanceNorm/sub_1"], "attr": {"T": {"type": "DT_FLOAT"}}}, {"name": "g_synthesis/8x8/Conv1/StyleMod/mul_2", "op": "Mul", "input": ["g_synthesis/8x8/Conv1/InstanceNorm/mul", "g_synthesis/8x8/Conv1/StyleMod/add_1"], "attr": {"T": {"type": "DT_FLOAT"}}}, {"name": "g_synthesis/8x8/Conv1/StyleMod/add_2", "op": "Add", "input": ["g_synthesis/8x8/Conv1/StyleMod/mul_2", "g_synthesis/8x8/Conv1/StyleMod/strided_slice_1"], "attr": {"T": {"type": "DT_FLOAT"}}}, {"name": "g_synthesis/16x16/Conv0_up/Reshape", "op": "Reshape", "input": ["g_synthesis/8x8/Conv1/StyleMod/add_2", "g_synthesis/16x16/Conv0_up/Reshape/shape"], "attr": {"T": {"type": "DT_FLOAT"}, "Tshape": {"type": "DT_INT32"}}}, {"name": "g_synthesis/8x8_1/ToRGB/NCHW_to_NHWC", "op": "Transpose", "input": ["g_synthesis/8x8/Conv1/StyleMod/add_2", "g_synthesis/4x4_1/ToRGB/NCHW_to_NHWC/perm"], "attr": {"Tperm": {"type": "DT_INT32"}, "T": {"type": "DT_FLOAT"}}}, {"name": "g_synthesis/16x16/Conv0_up/Tile", "op": "Tile", "input": ["g_synthesis/16x16/Conv0_up/Reshape", "g_synthesis/Tile/multiples"], "attr": {"Tmultiples": {"type": "DT_INT32"}, "T": {"type": "DT_FLOAT"}}}, {"name": "g_synthesis/8x8_1/ToRGB/Conv2D", "op": "Conv2D", "input": ["g_synthesis/8x8_1/ToRGB/NCHW_to_NHWC", "g_synthesis/8x8_1/ToRGB/mul"], "attr": {"dilations": {"list": {"i": ["1", "1", "1", "1"]}}, "T": {"type": "DT_FLOAT"}, "data_format": {"s": "TkhXQw=="}, "strides": {"list": {"i": ["1", "1", "1", "1"]}}, "use_cudnn_on_gpu": {"b": true}, "explicit_paddings": {"list": {}}, "padding": {"s": "U0FNRQ=="}}}, {"name": "g_synthesis/16x16/Conv0_up/Reshape_1", "op": "Reshape", "input": ["g_synthesis/16x16/Conv0_up/Tile", "g_synthesis/16x16/Conv0_up/Reshape_1/shape"], "attr": {"T": {"type": "DT_FLOAT"}, "Tshape": {"type": "DT_INT32"}}}, {"name": "g_synthesis/8x8_1/ToRGB/NHWC_to_NCHW", "op": "Transpose", "input": ["g_synthesis/8x8_1/ToRGB/Conv2D", "g_synthesis/4x4_1/ToRGB/NHWC_to_NCHW/perm"], "attr": {"Tperm": {"type": "DT_INT32"}, "T": {"type": "DT_FLOAT"}}}, {"name": "g_synthesis/16x16/Conv0_up/NCHW_to_NHWC", "op": "Transpose", "input": ["g_synthesis/16x16/Conv0_up/Reshape_1", "g_synthesis/4x4_1/ToRGB/NCHW_to_NHWC/perm"], "attr": {"Tperm": {"type": "DT_INT32"}, "T": {"type": "DT_FLOAT"}}}, {"name": "g_synthesis/8x8_1/ToRGB/add", "op": "Add", "input": ["g_synthesis/8x8_1/ToRGB/NHWC_to_NCHW", "g_synthesis/8x8_1/ToRGB/Reshape"], "attr": {"T": {"type": "DT_FLOAT"}}}, {"name": "g_synthesis/16x16/Conv0_up/Conv2D", "op": "Conv2D", "input": ["g_synthesis/16x16/Conv0_up/NCHW_to_NHWC", "g_synthesis/16x16/Conv0_up/mul"], "attr": {"dilations": {"list": {"i": ["1", "1", "1", "1"]}}, "T": {"type": "DT_FLOAT"}, "data_format": {"s": "TkhXQw=="}, "strides": {"list": {"i": ["1", "1", "1", "1"]}}, "use_cudnn_on_gpu": {"b": true}, "explicit_paddings": {"list": {}}, "padding": {"s": "U0FNRQ=="}}}, {"name": "g_synthesis/8x8_2/smooth_transition/LerpClip/sub", "op": "Sub", "input": ["g_synthesis/Reshape_1", "g_synthesis/8x8_1/ToRGB/add"], "attr": {"T": {"type": "DT_FLOAT"}}}, {"name": "g_synthesis/16x16/Conv0_up/depthwise", "op": "DepthwiseConv2dNative", "input": ["g_synthesis/16x16/Conv0_up/Conv2D", "g_synthesis/8x8/Conv0_up/filter"], "attr": {"padding": {"s": "U0FNRQ=="}, "dilations": {"list": {"i": ["1", "1", "1", "1"]}}, "T": {"type": "DT_FLOAT"}, "strides": {"list": {"i": ["1", "1", "1", "1"]}}, "data_format": {"s": "TkhXQw=="}}}, {"name": "g_synthesis/8x8_2/smooth_transition/LerpClip/mul", "op": "Mul", "input": ["g_synthesis/8x8_2/smooth_transition/LerpClip/clip_by_value", "g_synthesis/8x8_2/smooth_transition/LerpClip/sub"], "attr": {"T": {"type": "DT_FLOAT"}}}, {"name": "g_synthesis/16x16/Conv0_up/NHWC_to_NCHW_1", "op": "Transpose", "input": ["g_synthesis/16x16/Conv0_up/depthwise", "g_synthesis/4x4_1/ToRGB/NHWC_to_NCHW/perm"], "attr": {"Tperm": {"type": "DT_INT32"}, "T": {"type": "DT_FLOAT"}}}, {"name": "g_synthesis/8x8_2/smooth_transition/LerpClip/add", "op": "Add", "input": ["g_synthesis/8x8_1/ToRGB/add", "g_synthesis/8x8_2/smooth_transition/LerpClip/mul"], "attr": {"T": {"type": "DT_FLOAT"}}}, {"name": "g_synthesis/16x16/Conv0_up/Noise/Shape", "op": "Shape", "input": ["g_synthesis/16x16/Conv0_up/NHWC_to_NCHW_1"], "attr": {"T": {"type": "DT_FLOAT"}, "out_type": {"type": "DT_INT32"}}}, {"name": "g_synthesis/Reshape_2", "op": "Reshape", "input": ["g_synthesis/8x8_2/smooth_transition/LerpClip/add", "g_synthesis/Reshape_2/shape"], "attr": {"T": {"type": "DT_FLOAT"}, "Tshape": {"type": "DT_INT32"}}}, {"name": "g_synthesis/16x16/Conv0_up/Noise/strided_slice", "op": "StridedSlice", "input": ["g_synthesis/16x16/Conv0_up/Noise/Shape", "g_synthesis/512x512/Conv0_up/strided_slice_4/stack", "g_synthesis/512x512/Conv0_up/strided_slice_4/stack_1", "g_synthesis/512x512/Conv0_up/strided_slice_4/stack_1"], "attr": {"T": {"type": "DT_INT32"}, "Index": {"type": "DT_INT32"}, "shrink_axis_mask": {"i": "1"}, "begin_mask": {"i": "0"}, "ellipsis_mask": {"i": "0"}, "new_axis_mask": {"i": "0"}, "end_mask": {"i": "0"}}}, {"name": "g_synthesis/Tile_1", "op": "Tile", "input": ["g_synthesis/Reshape_2", "g_synthesis/Tile/multiples"], "attr": {"Tmultiples": {"type": "DT_INT32"}, "T": {"type": "DT_FLOAT"}}}, {"name": "g_synthesis/16x16/Conv0_up/Noise/random_uniform/shape", "op": "Pack", "input": ["g_synthesis/16x16/Conv0_up/Noise/strided_slice", "g_synthesis/4x4/Const/Tile/multiples/1", "g_synthesis/16x16/Conv0_up/Noise/random_uniform/shape/2", "g_synthesis/16x16/Conv0_up/Noise/random_uniform/shape/2"], "attr": {"T": {"type": "DT_INT32"}, "axis": {"i": "0"}, "N": {"i": "4"}}}, {"name": "g_synthesis/Reshape_3", "op": "Reshape", "input": ["g_synthesis/Tile_1", "g_synthesis/Reshape_3/shape"], "attr": {"T": {"type": "DT_FLOAT"}, "Tshape": {"type": "DT_INT32"}}}, {"name": "g_synthesis/16x16/Conv0_up/Noise/random_uniform/RandomUniform", "op": "RandomUniform", "input": ["g_synthesis/16x16/Conv0_up/Noise/random_uniform/shape"], "attr": {"seed": {"i": "0"}, "T": {"type": "DT_INT32"}, "dtype": {"type": "DT_FLOAT"}, "seed2": {"i": "0"}}}, {"name": "g_synthesis/16x16/Conv0_up/Noise/mul", "op": "Mul", "input": ["g_synthesis/16x16/Conv0_up/Noise/Reshape", "g_synthesis/16x16/Conv0_up/Noise/random_uniform/RandomUniform"], "attr": {"T": {"type": "DT_FLOAT"}}}, {"name": "g_synthesis/16x16/Conv0_up/Noise/add", "op": "Add", "input": ["g_synthesis/16x16/Conv0_up/Noise/mul", "g_synthesis/16x16/Conv0_up/Reshape_2"], "attr": {"T": {"type": "DT_FLOAT"}}}, {"name": "g_synthesis/16x16/Conv0_up/add", "op": "Add", "input": ["g_synthesis/16x16/Conv0_up/NHWC_to_NCHW_1", "g_synthesis/16x16/Conv0_up/Noise/add"], "attr": {"T": {"type": "DT_FLOAT"}}}, {"name": "g_synthesis/16x16/Conv0_up/LeakyRelu", "op": "LeakyRelu", "input": ["g_synthesis/16x16/Conv0_up/add"], "attr": {"T": {"type": "DT_FLOAT"}, "alpha": {"f": 0.20000000298023224}}}, {"name": "g_synthesis/16x16/Conv0_up/InstanceNorm/Mean", "op": "Mean", "input": ["g_synthesis/16x16/Conv0_up/LeakyRelu", "g_synthesis/4x4/Const/InstanceNorm/Mean/reduction_indices"], "attr": {"keep_dims": {"b": true}, "Tidx": {"type": "DT_INT32"}, "T": {"type": "DT_FLOAT"}}}, {"name": "g_synthesis/16x16/Conv0_up/InstanceNorm/sub_1", "op": "Sub", "input": ["g_synthesis/16x16/Conv0_up/LeakyRelu", "g_synthesis/16x16/Conv0_up/InstanceNorm/Mean"], "attr": {"T": {"type": "DT_FLOAT"}}}, {"name": "g_synthesis/16x16/Conv0_up/InstanceNorm/Square", "op": "Square", "input": ["g_synthesis/16x16/Conv0_up/InstanceNorm/sub_1"], "attr": {"T": {"type": "DT_FLOAT"}}}, {"name": "g_synthesis/16x16/Conv0_up/InstanceNorm/Mean_1", "op": "Mean", "input": ["g_synthesis/16x16/Conv0_up/InstanceNorm/Square", "g_synthesis/4x4/Const/InstanceNorm/Mean/reduction_indices"], "attr": {"keep_dims": {"b": true}, "Tidx": {"type": "DT_INT32"}, "T": {"type": "DT_FLOAT"}}}, {"name": "g_synthesis/16x16/Conv0_up/InstanceNorm/add", "op": "Add", "input": ["g_synthesis/16x16/Conv0_up/InstanceNorm/Mean_1", "g_synthesis/4x4/Const/InstanceNorm/epsilon"], "attr": {"T": {"type": "DT_FLOAT"}}}, {"name": "g_synthesis/16x16/Conv0_up/InstanceNorm/Rsqrt", "op": "Rsqrt", "input": ["g_synthesis/16x16/Conv0_up/InstanceNorm/add"], "attr": {"T": {"type": "DT_FLOAT"}}}, {"name": "g_synthesis/16x16/Conv0_up/InstanceNorm/mul", "op": "Mul", "input": ["g_synthesis/16x16/Conv0_up/InstanceNorm/Rsqrt", "g_synthesis/16x16/Conv0_up/InstanceNorm/sub_1"], "attr": {"T": {"type": "DT_FLOAT"}}}, {"name": "g_synthesis/16x16/Conv0_up/StyleMod/mul_2", "op": "Mul", "input": ["g_synthesis/16x16/Conv0_up/InstanceNorm/mul", "g_synthesis/16x16/Conv0_up/StyleMod/add_1"], "attr": {"T": {"type": "DT_FLOAT"}}}, {"name": "g_synthesis/16x16/Conv0_up/StyleMod/add_2", "op": "Add", "input": ["g_synthesis/16x16/Conv0_up/StyleMod/mul_2", "g_synthesis/16x16/Conv0_up/StyleMod/strided_slice_1"], "attr": {"T": {"type": "DT_FLOAT"}}}, {"name": "g_synthesis/16x16/Conv1/NCHW_to_NHWC", "op": "Transpose", "input": ["g_synthesis/16x16/Conv0_up/StyleMod/add_2", "g_synthesis/4x4_1/ToRGB/NCHW_to_NHWC/perm"], "attr": {"Tperm": {"type": "DT_INT32"}, "T": {"type": "DT_FLOAT"}}}, {"name": "g_synthesis/16x16/Conv1/Conv2D", "op": "Conv2D", "input": ["g_synthesis/16x16/Conv1/NCHW_to_NHWC", "g_synthesis/16x16/Conv1/mul"], "attr": {"dilations": {"list": {"i": ["1", "1", "1", "1"]}}, "T": {"type": "DT_FLOAT"}, "data_format": {"s": "TkhXQw=="}, "strides": {"list": {"i": ["1", "1", "1", "1"]}}, "use_cudnn_on_gpu": {"b": true}, "explicit_paddings": {"list": {}}, "padding": {"s": "U0FNRQ=="}}}, {"name": "g_synthesis/16x16/Conv1/NHWC_to_NCHW", "op": "Transpose", "input": ["g_synthesis/16x16/Conv1/Conv2D", "g_synthesis/4x4_1/ToRGB/NHWC_to_NCHW/perm"], "attr": {"Tperm": {"type": "DT_INT32"}, "T": {"type": "DT_FLOAT"}}}, {"name": "g_synthesis/16x16/Conv1/Noise/Shape", "op": "Shape", "input": ["g_synthesis/16x16/Conv1/NHWC_to_NCHW"], "attr": {"T": {"type": "DT_FLOAT"}, "out_type": {"type": "DT_INT32"}}}, {"name": "g_synthesis/16x16/Conv1/Noise/strided_slice", "op": "StridedSlice", "input": ["g_synthesis/16x16/Conv1/Noise/Shape", "g_synthesis/512x512/Conv0_up/strided_slice_4/stack", "g_synthesis/512x512/Conv0_up/strided_slice_4/stack_1", "g_synthesis/512x512/Conv0_up/strided_slice_4/stack_1"], "attr": {"T": {"type": "DT_INT32"}, "Index": {"type": "DT_INT32"}, "shrink_axis_mask": {"i": "1"}, "begin_mask": {"i": "0"}, "ellipsis_mask": {"i": "0"}, "new_axis_mask": {"i": "0"}, "end_mask": {"i": "0"}}}, {"name": "g_synthesis/16x16/Conv1/Noise/random_uniform/shape", "op": "Pack", "input": ["g_synthesis/16x16/Conv1/Noise/strided_slice", "g_synthesis/4x4/Const/Tile/multiples/1", "g_synthesis/16x16/Conv0_up/Noise/random_uniform/shape/2", "g_synthesis/16x16/Conv0_up/Noise/random_uniform/shape/2"], "attr": {"T": {"type": "DT_INT32"}, "axis": {"i": "0"}, "N": {"i": "4"}}}, {"name": "g_synthesis/16x16/Conv1/Noise/random_uniform/RandomUniform", "op": "RandomUniform", "input": ["g_synthesis/16x16/Conv1/Noise/random_uniform/shape"], "attr": {"seed": {"i": "0"}, "T": {"type": "DT_INT32"}, "dtype": {"type": "DT_FLOAT"}, "seed2": {"i": "0"}}}, {"name": "g_synthesis/16x16/Conv1/Noise/mul", "op": "Mul", "input": ["g_synthesis/16x16/Conv1/Noise/Reshape", "g_synthesis/16x16/Conv1/Noise/random_uniform/RandomUniform"], "attr": {"T": {"type": "DT_FLOAT"}}}, {"name": "g_synthesis/16x16/Conv1/Noise/add", "op": "Add", "input": ["g_synthesis/16x16/Conv1/Noise/mul", "g_synthesis/16x16/Conv1/Reshape"], "attr": {"T": {"type": "DT_FLOAT"}}}, {"name": "g_synthesis/16x16/Conv1/add", "op": "Add", "input": ["g_synthesis/16x16/Conv1/NHWC_to_NCHW", "g_synthesis/16x16/Conv1/Noise/add"], "attr": {"T": {"type": "DT_FLOAT"}}}, {"name": "g_synthesis/16x16/Conv1/LeakyRelu", "op": "LeakyRelu", "input": ["g_synthesis/16x16/Conv1/add"], "attr": {"T": {"type": "DT_FLOAT"}, "alpha": {"f": 0.20000000298023224}}}, {"name": "g_synthesis/16x16/Conv1/InstanceNorm/Mean", "op": "Mean", "input": ["g_synthesis/16x16/Conv1/LeakyRelu", "g_synthesis/4x4/Const/InstanceNorm/Mean/reduction_indices"], "attr": {"keep_dims": {"b": true}, "Tidx": {"type": "DT_INT32"}, "T": {"type": "DT_FLOAT"}}}, {"name": "g_synthesis/16x16/Conv1/InstanceNorm/sub_1", "op": "Sub", "input": ["g_synthesis/16x16/Conv1/LeakyRelu", "g_synthesis/16x16/Conv1/InstanceNorm/Mean"], "attr": {"T": {"type": "DT_FLOAT"}}}, {"name": "g_synthesis/16x16/Conv1/InstanceNorm/Square", "op": "Square", "input": ["g_synthesis/16x16/Conv1/InstanceNorm/sub_1"], "attr": {"T": {"type": "DT_FLOAT"}}}, {"name": "g_synthesis/16x16/Conv1/InstanceNorm/Mean_1", "op": "Mean", "input": ["g_synthesis/16x16/Conv1/InstanceNorm/Square", "g_synthesis/4x4/Const/InstanceNorm/Mean/reduction_indices"], "attr": {"keep_dims": {"b": true}, "Tidx": {"type": "DT_INT32"}, "T": {"type": "DT_FLOAT"}}}, {"name": "g_synthesis/16x16/Conv1/InstanceNorm/add", "op": "Add", "input": ["g_synthesis/16x16/Conv1/InstanceNorm/Mean_1", "g_synthesis/4x4/Const/InstanceNorm/epsilon"], "attr": {"T": {"type": "DT_FLOAT"}}}, {"name": "g_synthesis/16x16/Conv1/InstanceNorm/Rsqrt", "op": "Rsqrt", "input": ["g_synthesis/16x16/Conv1/InstanceNorm/add"], "attr": {"T": {"type": "DT_FLOAT"}}}, {"name": "g_synthesis/16x16/Conv1/InstanceNorm/mul", "op": "Mul", "input": ["g_synthesis/16x16/Conv1/InstanceNorm/Rsqrt", "g_synthesis/16x16/Conv1/InstanceNorm/sub_1"], "attr": {"T": {"type": "DT_FLOAT"}}}, {"name": "g_synthesis/16x16/Conv1/StyleMod/mul_2", "op": "Mul", "input": ["g_synthesis/16x16/Conv1/InstanceNorm/mul", "g_synthesis/16x16/Conv1/StyleMod/add_1"], "attr": {"T": {"type": "DT_FLOAT"}}}, {"name": "g_synthesis/16x16/Conv1/StyleMod/add_2", "op": "Add", "input": ["g_synthesis/16x16/Conv1/StyleMod/mul_2", "g_synthesis/16x16/Conv1/StyleMod/strided_slice_1"], "attr": {"T": {"type": "DT_FLOAT"}}}, {"name": "g_synthesis/32x32/Conv0_up/Reshape", "op": "Reshape", "input": ["g_synthesis/16x16/Conv1/StyleMod/add_2", "g_synthesis/32x32/Conv0_up/Reshape/shape"], "attr": {"T": {"type": "DT_FLOAT"}, "Tshape": {"type": "DT_INT32"}}}, {"name": "g_synthesis/16x16_1/ToRGB/NCHW_to_NHWC", "op": "Transpose", "input": ["g_synthesis/16x16/Conv1/StyleMod/add_2", "g_synthesis/4x4_1/ToRGB/NCHW_to_NHWC/perm"], "attr": {"Tperm": {"type": "DT_INT32"}, "T": {"type": "DT_FLOAT"}}}, {"name": "g_synthesis/32x32/Conv0_up/Tile", "op": "Tile", "input": ["g_synthesis/32x32/Conv0_up/Reshape", "g_synthesis/Tile/multiples"], "attr": {"Tmultiples": {"type": "DT_INT32"}, "T": {"type": "DT_FLOAT"}}}, {"name": "g_synthesis/16x16_1/ToRGB/Conv2D", "op": "Conv2D", "input": ["g_synthesis/16x16_1/ToRGB/NCHW_to_NHWC", "g_synthesis/16x16_1/ToRGB/mul"], "attr": {"dilations": {"list": {"i": ["1", "1", "1", "1"]}}, "T": {"type": "DT_FLOAT"}, "data_format": {"s": "TkhXQw=="}, "strides": {"list": {"i": ["1", "1", "1", "1"]}}, "use_cudnn_on_gpu": {"b": true}, "explicit_paddings": {"list": {}}, "padding": {"s": "U0FNRQ=="}}}, {"name": "g_synthesis/32x32/Conv0_up/Reshape_1", "op": "Reshape", "input": ["g_synthesis/32x32/Conv0_up/Tile", "g_synthesis/32x32/Conv0_up/Reshape_1/shape"], "attr": {"T": {"type": "DT_FLOAT"}, "Tshape": {"type": "DT_INT32"}}}, {"name": "g_synthesis/16x16_1/ToRGB/NHWC_to_NCHW", "op": "Transpose", "input": ["g_synthesis/16x16_1/ToRGB/Conv2D", "g_synthesis/4x4_1/ToRGB/NHWC_to_NCHW/perm"], "attr": {"Tperm": {"type": "DT_INT32"}, "T": {"type": "DT_FLOAT"}}}, {"name": "g_synthesis/32x32/Conv0_up/NCHW_to_NHWC", "op": "Transpose", "input": ["g_synthesis/32x32/Conv0_up/Reshape_1", "g_synthesis/4x4_1/ToRGB/NCHW_to_NHWC/perm"], "attr": {"Tperm": {"type": "DT_INT32"}, "T": {"type": "DT_FLOAT"}}}, {"name": "g_synthesis/16x16_1/ToRGB/add", "op": "Add", "input": ["g_synthesis/16x16_1/ToRGB/NHWC_to_NCHW", "g_synthesis/16x16_1/ToRGB/Reshape"], "attr": {"T": {"type": "DT_FLOAT"}}}, {"name": "g_synthesis/32x32/Conv0_up/Conv2D", "op": "Conv2D", "input": ["g_synthesis/32x32/Conv0_up/NCHW_to_NHWC", "g_synthesis/32x32/Conv0_up/mul"], "attr": {"dilations": {"list": {"i": ["1", "1", "1", "1"]}}, "T": {"type": "DT_FLOAT"}, "data_format": {"s": "TkhXQw=="}, "strides": {"list": {"i": ["1", "1", "1", "1"]}}, "use_cudnn_on_gpu": {"b": true}, "explicit_paddings": {"list": {}}, "padding": {"s": "U0FNRQ=="}}}, {"name": "g_synthesis/16x16_2/smooth_transition/LerpClip/sub", "op": "Sub", "input": ["g_synthesis/Reshape_3", "g_synthesis/16x16_1/ToRGB/add"], "attr": {"T": {"type": "DT_FLOAT"}}}, {"name": "g_synthesis/32x32/Conv0_up/depthwise", "op": "DepthwiseConv2dNative", "input": ["g_synthesis/32x32/Conv0_up/Conv2D", "g_synthesis/8x8/Conv0_up/filter"], "attr": {"padding": {"s": "U0FNRQ=="}, "dilations": {"list": {"i": ["1", "1", "1", "1"]}}, "T": {"type": "DT_FLOAT"}, "strides": {"list": {"i": ["1", "1", "1", "1"]}}, "data_format": {"s": "TkhXQw=="}}}, {"name": "g_synthesis/16x16_2/smooth_transition/LerpClip/mul", "op": "Mul", "input": ["g_synthesis/16x16_2/smooth_transition/LerpClip/sub", "g_synthesis/8x8_2/smooth_transition/LerpClip/clip_by_value"], "attr": {"T": {"type": "DT_FLOAT"}}}, {"name": "g_synthesis/32x32/Conv0_up/NHWC_to_NCHW_1", "op": "Transpose", "input": ["g_synthesis/32x32/Conv0_up/depthwise", "g_synthesis/4x4_1/ToRGB/NHWC_to_NCHW/perm"], "attr": {"Tperm": {"type": "DT_INT32"}, "T": {"type": "DT_FLOAT"}}}, {"name": "g_synthesis/16x16_2/smooth_transition/LerpClip/add", "op": "Add", "input": ["g_synthesis/16x16_1/ToRGB/add", "g_synthesis/16x16_…
duction_indices"], "attr": {"keep_dims": {"b": true}, "Tidx": {"type": "DT_INT32"}, "T": {"type": "DT_FLOAT"}}}, {"name": "g_synthesis/256x256/Conv1/InstanceNorm/add", "op": "Add", "input": ["g_synthesis/256x256/Conv1/InstanceNorm/Mean_1", "g_synthesis/4x4/Const/InstanceNorm/epsilon"], "attr": {"T": {"type": "DT_FLOAT"}}}, {"name": "g_synthesis/256x256/Conv1/InstanceNorm/Rsqrt", "op": "Rsqrt", "input": ["g_synthesis/256x256/Conv1/InstanceNorm/add"], "attr": {"T": {"type": "DT_FLOAT"}}}, {"name": "g_synthesis/256x256/Conv1/InstanceNorm/mul", "op": "Mul", "input": ["g_synthesis/256x256/Conv1/InstanceNorm/Rsqrt", "g_synthesis/256x256/Conv1/InstanceNorm/sub_1"], "attr": {"T": {"type": "DT_FLOAT"}}}, {"name": "g_synthesis/256x256/Conv1/StyleMod/mul_2", "op": "Mul", "input": ["g_synthesis/256x256/Conv1/InstanceNorm/mul", "g_synthesis/256x256/Conv1/StyleMod/add_1"], "attr": {"T": {"type": "DT_FLOAT"}}}, {"name": "g_synthesis/256x256/Conv1/StyleMod/add_2", "op": "Add", "input": ["g_synthesis/256x256/Conv1/StyleMod/mul_2", "g_synthesis/256x256/Conv1/StyleMod/strided_slice_1"], "attr": {"T": {"type": "DT_FLOAT"}}}, {"name": "g_synthesis/256x256_1/ToRGB/NCHW_to_NHWC", "op": "Transpose", "input": ["g_synthesis/256x256/Conv1/StyleMod/add_2", "g_synthesis/4x4_1/ToRGB/NCHW_to_NHWC/perm"], "attr": {"Tperm": {"type": "DT_INT32"}, "T": {"type": "DT_FLOAT"}}}, {"name": "g_synthesis/512x512/Conv0_up/Shape", "op": "Shape", "input": ["g_synthesis/256x256/Conv1/StyleMod/add_2"], "attr": {"T": {"type": "DT_FLOAT"}, "out_type": {"type": "DT_INT32"}}}, {"name": "g_synthesis/256x256_1/ToRGB/Conv2D", "op": "Conv2D", "input": ["g_synthesis/256x256_1/ToRGB/NCHW_to_NHWC", "g_synthesis/256x256_1/ToRGB/mul"], "attr": {"dilations": {"list": {"i": ["1", "1", "1", "1"]}}, "T": {"type": "DT_FLOAT"}, "data_format": {"s": "TkhXQw=="}, "strides": {"list": {"i": ["1", "1", "1", "1"]}}, "use_cudnn_on_gpu": {"b": true}, "explicit_paddings": {"list": {}}, "padding": {"s": "U0FNRQ=="}}}, {"name": "g_synthesis/512x512/Conv0_up/strided_slice_4", "op": "StridedSlice", "input": ["g_synthesis/512x512/Conv0_up/Shape", "g_synthesis/512x512/Conv0_up/strided_slice_4/stack", "g_synthesis/512x512/Conv0_up/strided_slice_4/stack_1", "g_synthesis/512x512/Conv0_up/strided_slice_4/stack_1"], "attr": {"T": {"type": "DT_INT32"}, "Index": {"type": "DT_INT32"}, "shrink_axis_mask": {"i": "1"}, "begin_mask": {"i": "0"}, "ellipsis_mask": {"i": "0"}, "new_axis_mask": {"i": "0"}, "end_mask": {"i": "0"}}}, {"name": "g_synthesis/256x256_1/ToRGB/NHWC_to_NCHW", "op": "Transpose", "input": ["g_synthesis/256x256_1/ToRGB/Conv2D", "g_synthesis/4x4_1/ToRGB/NHWC_to_NCHW/perm"], "attr": {"Tperm": {"type": "DT_INT32"}, "T": {"type": "DT_FLOAT"}}}, {"name": "g_synthesis/512x512/Conv0_up/conv2d_transpose/input_sizes", "op": "Pack", "input": ["g_synthesis/512x512/Conv0_up/strided_slice_4", "g_synthesis/512x512/Conv0_up/conv2d_transpose/input_sizes/1", "g_synthesis/512x512/Conv0_up/conv2d_transpose/input_sizes/1", "g_synthesis/512x512/Conv0_up/conv2d_transpose/input_sizes/3"], "attr": {"T": {"type": "DT_INT32"}, "axis": {"i": "0"}, "N": {"i": "4"}}}, {"name": "g_synthesis/256x256_1/ToRGB/add", "op": "Add", "input": ["g_synthesis/256x256_1/ToRGB/NHWC_to_NCHW", "g_synthesis/256x256_1/ToRGB/Reshape"], "attr": {"T": {"type": "DT_FLOAT"}}}, {"name": "g_synthesis/512x512/Conv0_up/conv2d_transpose", "op": "Conv2DBackpropInput", "input": ["g_synthesis/512x512/Conv0_up/conv2d_transpose/input_sizes", "g_synthesis/512x512/Conv0_up/AddN", "g_synthesis/256x256_1/ToRGB/NCHW_to_NHWC"], "attr": {"dilations": {"list": {"i": ["1", "1", "1", "1"]}}, "T": {"type": "DT_FLOAT"}, "data_format": {"s": "TkhXQw=="}, "strides": {"list": {"i": ["1", "2", "2", "1"]}}, "use_cudnn_on_gpu": {"b": true}, "explicit_paddings": {"list": {}}, "padding": {"s": "U0FNRQ=="}}}, {"name": "g_synthesis/256x256_2/smooth_transition/LerpClip/sub", "op": "Sub", "input": ["g_synthesis/Reshape_11", "g_synthesis/256x256_1/ToRGB/add"], "attr": {"T": {"type": "DT_FLOAT"}}}, {"name": "g_synthesis/512x512/Conv0_up/depthwise", "op": "DepthwiseConv2dNative", "input": ["g_synthesis/512x512/Conv0_up/conv2d_transpose", "g_synthesis/512x512/Conv0_up/filter"], "attr": {"padding": {"s": "U0FNRQ=="}, "dilations": {"list": {"i": ["1", "1", "1", "1"]}}, "T": {"type": "DT_FLOAT"}, "strides": {"list": {"i": ["1", "1", "1", "1"]}}, "data_format": {"s": "TkhXQw=="}}}, {"name": "g_synthesis/256x256_2/smooth_transition/LerpClip/mul", "op": "Mul", "input": ["g_synthesis/256x256_2/smooth_transition/LerpClip/sub", "g_synthesis/8x8_2/smooth_transition/LerpClip/clip_by_value"], "attr": {"T": {"type": "DT_FLOAT"}}}, {"name": "g_synthesis/512x512/Conv0_up/NHWC_to_NCHW_1", "op": "Transpose", "input": ["g_synthesis/512x512/Conv0_up/depthwise", "g_synthesis/4x4_1/ToRGB/NHWC_to_NCHW/perm"], "attr": {"Tperm": {"type": "DT_INT32"}, "T": {"type": "DT_FLOAT"}}}, {"name": "g_synthesis/256x256_2/smooth_transition/LerpClip/add", "op": "Add", "input": ["g_synthesis/256x256_1/ToRGB/add", "g_synthesis/256x256_2/smooth_transition/LerpClip/mul"], "attr": {"T": {"type": "DT_FLOAT"}}}, {"name": "g_synthesis/512x512/Conv0_up/Noise/Shape", "op": "Shape", "input": ["g_synthesis/512x512/Conv0_up/NHWC_to_NCHW_1"], "attr": {"T": {"type": "DT_FLOAT"}, "out_type": {"type": "DT_INT32"}}}, {"name": "g_synthesis/Reshape_12", "op": "Reshape", "input": ["g_synthesis/256x256_2/smooth_transition/LerpClip/add", "g_synthesis/Reshape_12/shape"], "attr": {"T": {"type": "DT_FLOAT"}, "Tshape": {"type": "DT_INT32"}}}, {"name": "g_synthesis/512x512/Conv0_up/Noise/strided_slice", "op": "StridedSlice", "input": ["g_synthesis/512x512/Conv0_up/Noise/Shape", "g_synthesis/512x512/Conv0_up/strided_slice_4/stack", "g_synthesis/512x512/Conv0_up/strided_slice_4/stack_1", "g_synthesis/512x512/Conv0_up/strided_slice_4/stack_1"], "attr": {"T": {"type": "DT_INT32"}, "Index": {"type": "DT_INT32"}, "shrink_axis_mask": {"i": "1"}, "begin_mask": {"i": "0"}, "ellipsis_mask": {"i": "0"}, "new_axis_mask": {"i": "0"}, "end_mask": {"i": "0"}}}, {"name": "g_synthesis/Tile_6", "op": "Tile", "input": ["g_synthesis/Reshape_12", "g_synthesis/Tile/multiples"], "attr": {"Tmultiples": {"type": "DT_INT32"}, "T": {"type": "DT_FLOAT"}}}, {"name": "g_synthesis/512x512/Conv0_up/Noise/random_uniform/shape", "op": "Pack", "input": ["g_synthesis/512x512/Conv0_up/Noise/strided_slice", "g_synthesis/4x4/Const/Tile/multiples/1", "g_synthesis/512x512/Conv0_up/conv2d_transpose/input_sizes/1", "g_synthesis/512x512/Conv0_up/conv2d_transpose/input_sizes/1"], "attr": {"T": {"type": "DT_INT32"}, "axis": {"i": "0"}, "N": {"i": "4"}}}, {"name": "g_synthesis/Reshape_13", "op": "Reshape", "input": ["g_synthesis/Tile_6", "g_synthesis/Reshape_13/shape"], "attr": {"T": {"type": "DT_FLOAT"}, "Tshape": {"type": "DT_INT32"}}}, {"name": "g_synthesis/512x512/Conv0_up/Noise/random_uniform/RandomUniform", "op": "RandomUniform", "input": ["g_synthesis/512x512/Conv0_up/Noise/random_uniform/shape"], "attr": {"seed": {"i": "0"}, "T": {"type": "DT_INT32"}, "dtype": {"type": "DT_FLOAT"}, "seed2": {"i": "0"}}}, {"name": "g_synthesis/512x512/Conv0_up/Noise/mul", "op": "Mul", "input": ["g_synthesis/512x512/Conv0_up/Noise/Reshape", "g_synthesis/512x512/Conv0_up/Noise/random_uniform/RandomUniform"], "attr": {"T": {"type": "DT_FLOAT"}}}, {"name": "g_synthesis/512x512/Conv0_up/Noise/add", "op": "Add", "input": ["g_synthesis/512x512/Conv0_up/Noise/mul", "g_synthesis/512x512/Conv0_up/Reshape"], "attr": {"T": {"type": "DT_FLOAT"}}}, {"name": "g_synthesis/512x512/Conv0_up/add", "op": "Add", "input": ["g_synthesis/512x512/Conv0_up/NHWC_to_NCHW_1", "g_synthesis/512x512/Conv0_up/Noise/add"], "attr": {"T": {"type": "DT_FLOAT"}}}, {"name": "g_synthesis/512x512/Conv0_up/LeakyRelu", "op": "LeakyRelu", "input": ["g_synthesis/512x512/Conv0_up/add"], "attr": {"T": {"type": "DT_FLOAT"}, "alpha": {"f": 0.20000000298023224}}}, {"name": "g_synthesis/512x512/Conv0_up/InstanceNorm/Mean", "op": "Mean", "input": ["g_synthesis/512x512/Conv0_up/LeakyRelu", "g_synthesis/4x4/Const/InstanceNorm/Mean/reduction_indices"], "attr": {"keep_dims": {"b": true}, "Tidx": {"type": "DT_INT32"}, "T": {"type": "DT_FLOAT"}}}, {"name": "g_synthesis/512x512/Conv0_up/InstanceNorm/sub_1", "op": "Sub", "input": ["g_synthesis/512x512/Conv0_up/LeakyRelu", "g_synthesis/512x512/Conv0_up/InstanceNorm/Mean"], "attr": {"T": {"type": "DT_FLOAT"}}}, {"name": "g_synthesis/512x512/Conv0_up/InstanceNorm/Square", "op": "Square", "input": ["g_synthesis/512x512/Conv0_up/InstanceNorm/sub_1"], "attr": {"T": {"type": "DT_FLOAT"}}}, {"name": "g_synthesis/512x512/Conv0_up/InstanceNorm/Mean_1", "op": "Mean", "input": ["g_synthesis/512x512/Conv0_up/InstanceNorm/Square", "g_synthesis/4x4/Const/InstanceNorm/Mean/reduction_indices"], "attr": {"keep_dims": {"b": true}, "Tidx": {"type": "DT_INT32"}, "T": {"type": "DT_FLOAT"}}}, {"name": "g_synthesis/512x512/Conv0_up/InstanceNorm/add", "op": "Add", "input": ["g_synthesis/4x4/Const/InstanceNorm/epsilon", "g_synthesis/512x512/Conv0_up/InstanceNorm/Mean_1"], "attr": {"T": {"type": "DT_FLOAT"}}}, {"name": "g_synthesis/512x512/Conv0_up/InstanceNorm/Rsqrt", "op": "Rsqrt", "input": ["g_synthesis/512x512/Conv0_up/InstanceNorm/add"], "attr": {"T": {"type": "DT_FLOAT"}}}, {"name": "g_synthesis/512x512/Conv0_up/InstanceNorm/mul", "op": "Mul", "input": ["g_synthesis/512x512/Conv0_up/InstanceNorm/Rsqrt", "g_synthesis/512x512/Conv0_up/InstanceNorm/sub_1"], "attr": {"T": {"type": "DT_FLOAT"}}}, {"name": "g_synthesis/512x512/Conv0_up/StyleMod/mul_2", "op": "Mul", "input": ["g_synthesis/512x512/Conv0_up/InstanceNorm/mul", "g_synthesis/512x512/Conv0_up/StyleMod/add_1"], "attr": {"T": {"type": "DT_FLOAT"}}}, {"name": "g_synthesis/512x512/Conv0_up/StyleMod/add_2", "op": "Add", "input": ["g_synthesis/512x512/Conv0_up/StyleMod/mul_2", "g_synthesis/512x512/Conv0_up/StyleMod/strided_slice_1"], "attr": {"T": {"type": "DT_FLOAT"}}}, {"name": "g_synthesis/512x512/Conv1/NCHW_to_NHWC", "op": "Transpose", "input": ["g_synthesis/512x512/Conv0_up/StyleMod/add_2", "g_synthesis/4x4_1/ToRGB/NCHW_to_NHWC/perm"], "attr": {"Tperm": {"type": "DT_INT32"}, "T": {"type": "DT_FLOAT"}}}, {"name": "g_synthesis/512x512/Conv1/Conv2D", "op": "Conv2D", "input": ["g_synthesis/512x512/Conv1/NCHW_to_NHWC", "g_synthesis/512x512/Conv1/mul"], "attr": {"dilations": {"list": {"i": ["1", "1", "1", "1"]}}, "T": {"type": "DT_FLOAT"}, "data_format": {"s": "TkhXQw=="}, "strides": {"list": {"i": ["1", "1", "1", "1"]}}, "use_cudnn_on_gpu": {"b": true}, "explicit_paddings": {"list": {}}, "padding": {"s": "U0FNRQ=="}}}, {"name": "g_synthesis/512x512/Conv1/NHWC_to_NCHW", "op": "Transpose", "input": ["g_synthesis/512x512/Conv1/Conv2D", "g_synthesis/4x4_1/ToRGB/NHWC_to_NCHW/perm"], "attr": {"Tperm": {"type": "DT_INT32"}, "T": {"type": "DT_FLOAT"}}}, {"name": "g_synthesis/512x512/Conv1/Noise/Shape", "op": "Shape", "input": ["g_synthesis/512x512/Conv1/NHWC_to_NCHW"], "attr": {"T": {"type": "DT_FLOAT"}, "out_type": {"type": "DT_INT32"}}}, {"name": "g_synthesis/512x512/Conv1/Noise/strided_slice", "op": "StridedSlice", "input": ["g_synthesis/512x512/Conv1/Noise/Shape", "g_synthesis/512x512/Conv0_up/strided_slice_4/stack", "g_synthesis/512x512/Conv0_up/strided_slice_4/stack_1", "g_synthesis/512x512/Conv0_up/strided_slice_4/stack_1"], "attr": {"T": {"type": "DT_INT32"}, "Index": {"type": "DT_INT32"}, "shrink_axis_mask": {"i": "1"}, "begin_mask": {"i": "0"}, "ellipsis_mask": {"i": "0"}, "new_axis_mask": {"i": "0"}, "end_mask": {"i": "0"}}}, {"name": "g_synthesis/512x512/Conv1/Noise/random_uniform/shape", "op": "Pack", "input": ["g_synthesis/512x512/Conv1/Noise/strided_slice", "g_synthesis/4x4/Const/Tile/multiples/1", "g_synthesis/512x512/Conv0_up/conv2d_transpose/input_sizes/1", "g_synthesis/512x512/Conv0_up/conv2d_transpose/input_sizes/1"], "attr": {"T": {"type": "DT_INT32"}, "axis": {"i": "0"}, "N": {"i": "4"}}}, {"name": "g_synthesis/512x512/Conv1/Noise/random_uniform/RandomUniform", "op": "RandomUniform", "input": ["g_synthesis/512x512/Conv1/Noise/random_uniform/shape"], "attr": {"seed": {"i": "0"}, "T": {"type": "DT_INT32"}, "dtype": {"type": "DT_FLOAT"}, "seed2": {"i": "0"}}}, {"name": "g_synthesis/512x512/Conv1/Noise/mul", "op": "Mul", "input": ["g_synthesis/512x512/Conv1/Noise/Reshape", "g_synthesis/512x512/Conv1/Noise/random_uniform/RandomUniform"], "attr": {"T": {"type": "DT_FLOAT"}}}, {"name": "g_synthesis/512x512/Conv1/Noise/add", "op": "Add", "input": ["g_synthesis/512x512/Conv1/Noise/mul", "g_synthesis/512x512/Conv1/Reshape"], "attr": {"T": {"type": "DT_FLOAT"}}}, {"name": "g_synthesis/512x512/Conv1/add", "op": "Add", "input": ["g_synthesis/512x512/Conv1/NHWC_to_NCHW", "g_synthesis/512x512/Conv1/Noise/add"], "attr": {"T": {"type": "DT_FLOAT"}}}, {"name": "g_synthesis/512x512/Conv1/LeakyRelu", "op": "LeakyRelu", "input": ["g_synthesis/512x512/Conv1/add"], "attr": {"T": {"type": "DT_FLOAT"}, "alpha": {"f": 0.20000000298023224}}}, {"name": "g_synthesis/512x512/Conv1/InstanceNorm/Mean", "op": "Mean", "input": ["g_synthesis/512x512/Conv1/LeakyRelu", "g_synthesis/4x4/Const/InstanceNorm/Mean/reduction_indices"], "attr": {"keep_dims": {"b": true}, "Tidx": {"type": "DT_INT32"}, "T": {"type": "DT_FLOAT"}}}, {"name": "g_synthesis/512x512/Conv1/InstanceNorm/sub_1", "op": "Sub", "input": ["g_synthesis/512x512/Conv1/LeakyRelu", "g_synthesis/512x512/Conv1/InstanceNorm/Mean"], "attr": {"T": {"type": "DT_FLOAT"}}}, {"name": "g_synthesis/512x512/Conv1/InstanceNorm/Square", "op": "Square", "input": ["g_synthesis/512x512/Conv1/InstanceNorm/sub_1"], "attr": {"T": {"type": "DT_FLOAT"}}}, {"name": "g_synthesis/512x512/Conv1/InstanceNorm/Mean_1", "op": "Mean", "input": ["g_synthesis/512x512/Conv1/InstanceNorm/Square", "g_synthesis/4x4/Const/InstanceNorm/Mean/reduction_indices"], "attr": {"keep_dims": {"b": true}, "Tidx": {"type": "DT_INT32"}, "T": {"type": "DT_FLOAT"}}}, {"name": "g_synthesis/512x512/Conv1/InstanceNorm/add", "op": "Add", "input": ["g_synthesis/4x4/Const/InstanceNorm/epsilon", "g_synthesis/512x512/Conv1/InstanceNorm/Mean_1"], "attr": {"T": {"type": "DT_FLOAT"}}}, {"name": "g_synthesis/512x512/Conv1/InstanceNorm/Rsqrt", "op": "Rsqrt", "input": ["g_synthesis/512x512/Conv1/InstanceNorm/add"], "attr": {"T": {"type": "DT_FLOAT"}}}, {"name": "g_synthesis/512x512/Conv1/InstanceNorm/mul", "op": "Mul", "input": ["g_synthesis/512x512/Conv1/InstanceNorm/Rsqrt", "g_synthesis/512x512/Conv1/InstanceNorm/sub_1"], "attr": {"T": {"type": "DT_FLOAT"}}}, {"name": "g_synthesis/512x512/Conv1/StyleMod/mul_2", "op": "Mul", "input": ["g_synthesis/512x512/Conv1/InstanceNorm/mul", "g_synthesis/512x512/Conv1/StyleMod/add_1"], "attr": {"T": {"type": "DT_FLOAT"}}}, {"name": "g_synthesis/512x512/Conv1/StyleMod/add_2", "op": "Add", "input": ["g_synthesis/512x512/Conv1/StyleMod/mul_2", "g_synthesis/512x512/Conv1/StyleMod/strided_slice_1"], "attr": {"T": {"type": "DT_FLOAT"}}}, {"name": "g_synthesis/512x512_1/ToRGB/NCHW_to_NHWC", "op": "Transpose", "input": ["g_synthesis/512x512/Conv1/StyleMod/add_2", "g_synthesis/4x4_1/ToRGB/NCHW_to_NHWC/perm"], "attr": {"Tperm": {"type": "DT_INT32"}, "T": {"type": "DT_FLOAT"}}}, {"name": "g_synthesis/512x512_1/ToRGB/Conv2D", "op": "Conv2D", "input": ["g_synthesis/512x512_1/ToRGB/NCHW_to_NHWC", "g_synthesis/512x512_1/ToRGB/mul"], "attr": {"dilations": {"list": {"i": ["1", "1", "1", "1"]}}, "T": {"type": "DT_FLOAT"}, "data_format": {"s": "TkhXQw=="}, "strides": {"list": {"i": ["1", "1", "1", "1"]}}, "use_cudnn_on_gpu": {"b": true}, "explicit_paddings": {"list": {}}, "padding": {"s": "U0FNRQ=="}}}, {"name": "g_synthesis/512x512_1/ToRGB/NHWC_to_NCHW", "op": "Transpose", "input": ["g_synthesis/512x512_1/ToRGB/Conv2D", "g_synthesis/4x4_1/ToRGB/NHWC_to_NCHW/perm"], "attr": {"Tperm": {"type": "DT_INT32"}, "T": {"type": "DT_FLOAT"}}}, {"name": "g_synthesis/512x512_1/ToRGB/add", "op": "Add", "input": ["g_synthesis/512x512_1/ToRGB/NHWC_to_NCHW", "g_synthesis/512x512_1/ToRGB/Reshape"], "attr": {"T": {"type": "DT_FLOAT"}}}, {"name": "g_synthesis/512x512_2/smooth_transition/LerpClip/sub", "op": "Sub", "input": ["g_synthesis/Reshape_13", "g_synthesis/512x512_1/ToRGB/add"], "attr": {"T": {"type": "DT_FLOAT"}}}, {"name": "g_synthesis/512x512_2/smooth_transition/LerpClip/mul", "op": "Mul", "input": ["g_synthesis/512x512_2/smooth_transition/LerpClip/sub", "g_synthesis/8x8_2/smooth_transition/LerpClip/clip_by_value"], "attr": {"T": {"type": "DT_FLOAT"}}}, {"name": "g_synthesis/512x512_2/smooth_transition/LerpClip/add", "op": "Add", "input": ["g_synthesis/512x512_1/ToRGB/add", "g_synthesis/512x512_2/smooth_transition/LerpClip/mul"], "attr": {"T": {"type": "DT_FLOAT"}}}, {"name": "images_out", "op": "Identity", "input": ["g_synthesis/512x512_2/smooth_transition/LerpClip/add"], "attr": {"T": {"type": "DT_FLOAT"}}}], "library": {}, "versions": {"producer": 38}}, "weightsManifest": [{"paths": ["group1-shard1of13.bin", "group1-shard2of13.bin", "group1-shard3of13.bin", "group1-shard4of13.bin", "group1-shard5of13.bin", "group1-shard6of13.bin", "group1-shard7of13.bin", "group1-shard8of13.bin", "group1-shard9of13.bin", "group1-shard10of13.bin", "group1-shard11of13.bin", "group1-shard12of13.bin", "group1-shard13of13.bin"], "weights": [{"name": "g_synthesis/8x8_2/smooth_transition/LerpClip/clip_by_value", "shape": [], "dtype": "float32", "quantization": {"min": 0.0, "scale": 1.0, "dtype": "uint16"}}, {"name": "g_synthesis/512x512_1/ToRGB/Reshape", "shape": [1, 3, 1, 1], "dtype": "float32", "quantization": {"min": -0.37842845916748047, "scale": 4.35722675059365e-06, "dtype": "uint16"}}, {"name": "g_synthesis/4x4_1/ToRGB/NHWC_to_NCHW/perm", "shape": [4], "dtype": "int32", "quantization": {"min": -0.0, "scale": 4.5777065690089265e-05, "dtype": "uint16"}}, {"name": "g_synthesis/512x512_1/ToRGB/mul", "shape": [1, 1, 32, 3], "dtype": "float32", "quantization": {"min": -0.09066771856739582, "scale": 3.196464606641841e-06, "dtype": "uint16"}}, {"name": "g_synthesis/4x4_1/ToRGB/NCHW_to_NHWC/perm", "shape": [4], "dtype": "int32", "quantization": {"min": -0.0, "scale": 4.5777065690089265e-05, "dtype": "uint16"}}, {"name": "g_synthesis/4x4/Const/StyleMod/strided_slice/stack_2", "shape": [2], "dtype": "int32", "quantization": {"min": 1.0, "scale": 1.0, "dtype": "uint16"}}, {"name": "g_synthesis/4x4/Const/StyleMod/strided_slice_1/stack_1", "shape": [2], "dtype": "int32", "quantization": {"min": -0.0, "scale": 3.0518043793392844e-05, "dtype": "uint16"}}, {"name": "g_synthesis/4x4/Const/StyleMod/strided_slice/stack_1", "shape": [2], "dtype": "int32", "quantization": {"min": -0.0, "scale": 1.5259021896696422e-05, "dtype": "uint16"}}, {"name": "g_synthesis/512x512/Conv0_up/StyleMod/Reshape/shape", "shape": [5], "dtype": "int32", "quantization": {"min": -1.00004577706569, "scale": 0.000503547722590982, "dtype": "uint16"}}, {"name": "g_synthesis/512x512/Conv1/StyleMod/mul_1", "shape": [64], "dtype": "float32", "quantization": {"min": -2.274643436372803, "scale": 0.00012935870316041874, "dtype": "uint16"}}, {"name": "g_synthesis/512x512/Conv1/StyleMod/mul", "shape": [512, 64], "dtype": "float32", "quantization": {"min": -1.935036739404809, "scale": 4.925637620987168e-05, "dtype": "uint16"}}, {"name": "g_synthesis/4x4/Const/StyleMod/flatten/Reshape/shape/1", "shape": [], "dtype": "int32", "quantization": {"min": -1.0, "scale": 1.0, "dtype": "uint16"}}, {"name": "g_synthesis/512x512/Conv0_up/strided_slice_4/stack_1", "shape": [1], "dtype": "int32", "quantization": {"min": 1.0, "scale": 1.0, "dtype": "uint16"}}, {"name": "g_synthesis/512x512/Conv0_up/strided_slice_4/stack", "shape": [1], "dtype": "int32", "quantization": {"min": 0.0, "scale": 1.0, "dtype": "uint16"}}, {"name": "g_synthesis/strided_slice_16/stack_1", "shape": [2], "dtype": "int32", "quantization": {"min": -0.0, "scale": 0.00024414435034714275, "dtype": "uint16"}}, {"name": "g_synthesis/strided_slice_15/stack_1", "shape": [2], "dtype": "int32", "quantization": {"min": -0.0, "scale": 0.00022888532845044633, "dtype": "uint16"}}, {"name": "w_avg", "shape": [512], "dtype": "float32", "quantization": {"min": -0.3959284404877204, "scale": 2.5303792451442474e-05, "dtype": "uint16"}}, {"name": "Truncation/Select", "shape": [1, 16, 1], "dtype": "float32", "quantization": {"min": 0.699999988079071, "scale": 4.577706750910642e-06, "dtype": "uint16"}}, {"name": "g_mapping/Broadcast/Tile/multiples", "shape": [3], "dtype": "int32", "quantization": {"min": 1.0, "scale": 0.00022888532845044633, "dtype": "uint16"}}, {"name": "g_synthesis/4x4/Const/Tile/multiples/1", "shape": [], "dtype": "int32", "quantization": {"min": 1.0, "scale": 1.0, "dtype": "uint16"}}, {"name": "g_mapping/Dense7/mul_1", "shape": [512], "dtype": "float32", "quantization": {"min": -0.24810834618421299, "scale": 6.20239853467859e-06, "dtype": "uint16"}}, {"name": "g_mapping/Dense7/mul", "shape": [512, 512], "dtype": "float32", "quantization": {"min": -0.29883939937203885, "scale": 8.778034290096312e-06, "dtype": "uint16"}}, {"name": "g_mapping/Dense6/mul_1", "shape": [512], "dtype": "float32", "quantization": {"min": -0.216959201450787, "scale": 5.141944386661303e-06, "dtype": "uint16"}}, {"name": "g_mapping/Dense6/mul", "shape": [512, 512], "dtype": "float32", "quantization": {"min": -0.2722649273814531, "scale": 8.887961589836225e-06, "dtype": "uint16"}}, {"name": "g_mapping/Dense5/mul_1", "shape": [512], "dtype": "float32", "quantization": {"min": -0.19983532734995732, "scale": 5.469096782888347e-06, "dtype": "uint16"}}, {"name": "g_mapping/Dense5/mul", "shape": [512, 512], "dtype": "float32", "quantization": {"min": -0.28238170706471816, "scale": 8.720868037823291e-06, "dtype": "uint16"}}, {"name": "g_mapping/Dense4/mul_1", "shape": [512], "dtype": "float32", "quantization": {"min": -0.19806707637155593, "scale": 5.066042826087831e-06, "dtype": "uint16"}}, {"name": "g_mapping/Dense4/mul", "shape": [512, 512], "dtype": "float32", "quantization": {"min": -0.27961178201372877, "scale": 8.541415628474119e-06, "dtype": "uint16"}}, {"name": "g_mapping/Dense3/mul_1", "shape": [512], "dtype": "float32", "quantization": {"min": -0.15568917386044515, "scale": 4.651603640885723e-06, "dtype": "uint16"}}, {"name": "g_mapping/Dense3/mul", "shape": [512, 512], "dtype": "float32", "quantization": {"min": -0.26999524264966107, "scale": 8.247151403557366e-06, "dtype": "uint16"}}, {"name": "g_mapping/Dense2/mul_1", "shape": [512], "dtype": "float32", "quantization": {"min": -0.19505128752128423, "scale": 6.006568149579165e-06, "dtype": "uint16"}}, {"name": "g_mapping/Dense2/mul", "shape": [512, 512], "dtype": "float32", "quantization": {"min": -0.2758608466401802, "scale": 8.603444568368893e-06, "dtype": "uint16"}}, {"name": "g_mapping/Dense1/mul_1", "shape": [512], "dtype": "float32", "quantization": {"min": -0.18790257819650047, "scale": 6.150254588783074e-06, "dtype": "uint16"}}, {"name": "g_mapping/Dense1/mul", "shape": [512, 512], "dtype": "float32", "quantization": {"min": -0.31146200426821574, "scale": 9.235070991763499e-06, "dtype": "uint16"}}, {"name": "g_mapping/Dense0/mul_1", "shape": [512], "dtype": "float32", "quantization": {"min": -0.16744091258293123, "scale": 4.745923091265305e-06, "dtype": "uint16"}}, {"name": "g_mapping/Dense0/mul", "shape": [512, 512], "dtype": "float32", "quantization": {"min": -0.3011859892525516, "scale": 8.882708268279459e-06, "dtype": "uint16"}}, {"name": "g_synthesis/4x4/Const/InstanceNorm/epsilon", "shape": [], "dtype": "float32", "quantization": {"min": 9.99999993922529e-09, "scale": 1.0, "dtype": "uint16"}}, {"name": "g_synthesis/4x4/Const/StyleMod/strided_slice/stack", "shape": [2], "dtype": "int32", "quantization": {"min": 0.0, "scale": 1.0, "dtype": "uint16"}}, {"name": "g_synthesis/4x4/Const/Noise/random_uniform/sub", "shape": [], "dtype": "float32", "quantization": {"min": 1.0, "scale": 1.0, "dtype": "uint16"}}, {"name": "g_synthesis/4x4/Const/InstanceNorm/Mean/reduction_indices", "shape": [2], "dtype": "int32", "quantization": {"min": 2.0, "scale": 1.5259021896696422e-05, "dtype": "uint16"}}, {"name": "g_synthesis/512x512/Conv1/Reshape", "shape": [1, 32, 1, 1], "dtype": "float32", "quantization": {"min": -34.095665217031645, "scale": 0.0008274441881529789, "dtype": "uint16"}}, {"name": "g_synthesis/512x512/Conv0_up/conv2d_transpose/input_sizes/1", "shape": [], "dtype": "int32", "quantization": {"min": 512.0, "scale": 1.0, "dtype": "uint16"}}, {"name": "g_synthesis/512x512/Conv1/mul", "shape": [3, 3, 32, 32], "dtype": "float32", "quantization": {"min": -2.579753158290226, "scale": 6.693182051968518e-05, "dtype": "uint16"}}, {"name": "g_synthesis/512x512/Conv0_up/StyleMod/mul_1", "shape": [64], "dtype": "float32", "quantization": {"min": -6.761364493614169, "scale": 0.0004104263987868258, "dtype": "uint16"}}, {"name": "g_synthesis/512x512/Conv0_up/StyleMod/mul", "shape": [512, 64], "dtype": "float32", "quantization": {"min": -0.8618761311581854, "scale": 3.0348819717531793e-05, "dtype": "uint16"}}, {"name": "g_synthesis/strided_slice_14/stack_1", "shape": [2], "dtype": "int32", "quantization": {"min": -0.0, "scale": 0.0002136263065537499, "dtype": "uint16"}}, {"name": "g_synthesis/512x512/Conv0_up/Reshape", "shape": [1, 32, 1, 1], "dtype": "float32", "quantization": {"min": -18.896192112959994, "scale": 0.0007119623267005762, "dtype": "uint16"}}, {"name": "g_synthesis/512x512/Conv0_up/filter", "shape": [3, 3, 32, 1], "dtype": "float32", "quantization": {"min": 0.0625, "scale": 2.861066605630579e-06, "dtype": "uint16"}}, {"name": "g_synthesis/256x256/Conv0_up/StyleMod/Reshape/shape", "shape": [5], "dtype": "int32", "quantization": {"min": -0.9997711146715496, "scale": 0.0009918364232852674, "dtype": "uint16"}}, {"name": "g_synthesis/256x256/Conv1/StyleMod/mul_1", "shape": [128], "dtype": "float32", "quantization": {"min": -12.073221509320389, "scale": 0.0006104369253372631, "dtype": "uint16"}}, {"name": "g_synthesis/256x256/Conv1/StyleMod/mul", "shape": [512, 128], "dtype": "float32", "quantization": {"min": -1.731602453150465, "scale": 5.8800042553243406e-05, "dtype": "uint16"}}, {"name": "g_synthesis/strided_slice_13/stack_1", "shape": [2], "dtype": "int32", "quantization": {"min": -0.0, "scale": 0.00019836728465705348, "dtype": "uint16"}}, {"name": "g_synthesis/256x256/Conv1/Reshape", "shape": [1, 64, 1, 1], "dtype": "float32", "quantization": {"min": -269.9746246342547, "scale": 0.00466874113087979, "dtype": "uint16"}}, {"name": "g_synthesis/256x256/Conv0_up/conv2d_transpose/input_sizes/1", "shape": [], "dtype": "int32", "quantization": {"min": 256.0, "scale": 1.0, "dtype": "uint16"}}, {"name": "g_synthesis/256x256/Conv1/mul", "shape": [3, 3, 64, 64], "dtype": "float32", "quantization": {"min": -3.263537961903522, "scale": 9.912939559879479e-05, "dtype": "uint16"}}, {"name": "g_synthesis/256x256/Conv0_up/StyleMod/mul_1", "shape": [128], "dtype": "float32", "quantization": {"min": -5.1421281789108955, "scale": 0.0005545867319791734, "dtype": "uint16"}}, {"name": "g_synthesis/256x256/Conv0_up/StyleMod/mul", "shape": [512, 128], "dtype": "float32", "quantization": {"min": -1.477626944996176, "scale": 5.5945287937156445e-05, "dtype": "uint16"}}, {"name": "g_synthesis/strided_slice_12/stack_1", "shape": [2], "dtype": "int32", "quantization": {"min": -0.0, "scale": 0.00018310826276035706, "dtype": "uint16"}}, {"name": "g_synthesis/256x256/Conv0_up/Reshape", "shape": [1, 64, 1, 1], "dtype": "float32", "quantization": {"min": -95.07402731040581, "scale": 0.0019161197007216296, "dtype": "uint16"}}, {"name": "g_synthesis/256x256/Conv0_up/filter", "shape": [3, 3, 64, 1], "dtype": "float32", "quantization": {"min": 0.0625, "scale": 2.861066605630579e-06, "dtype": "uint16"}}, {"name": "g_synthesis/128x128/Conv0_up/StyleMod/Reshape/shape", "shape": [5], "dtype": "int32", "quantization": {"min": -0.9999542229343099, "scale": 0.0019684138246738384, "dtype": "uint16"}}, {"name": "g_synthesis/128x128/Conv1/StyleMod/mul_1", "shape": [256], "dtype": "float32", "quantization": {"min": -26.010658761406685, "scale": 0.0007019473420970634, "dtype": "uint16"}}, {"name": "g_synthesis/128x128/Conv1/StyleMod/mul", "shape": [512, 256], "dtype": "float32", "quantization": {"min": -1.798939493576158, "scale": 5.5048792606143335e-05, "dtype": "uint16"}}, {"name": "g_synthesis/strided_slice_11/stack_1", "shape": [2], "dtype": "int32", "quantization": {"min": -0.0, "scale": 0.00016784924086366064, "dtype": "uint16"}}, {"name": "g_synthesis/128x128/Conv1/Reshape", "shape": [1, 128, 1, 1], "dtype": "float32", "quantization": {"min": -66.70968772345098, "scale": 0.0017127005834005385, "dtype": "uint16"}}, {"name": "g_synthesis/128x128/Conv0_up/conv2d_transpose/input_sizes/1", "shape": [], "dtype": "int32", "quantization": {"min": 128.0, "scale": 1.0, "dtype": "uint16"}}, {"name": "g_synthesis/128x128/Conv1/mul", "shape": [3, 3, 128, 128], "dtype": "float32", "quantization": {"min": -1.755608043785616, "scale": 6.32902427551684e-05, "dtype": "uint16"}}, {"name": "g_synthesis/128x128/Conv0_up/StyleMod/mul_1", "shape": [256], "dtype": "float32", "quantization": {"min": -5.830111812470188, "scale": 0.0005474283391990786, "dtype": "uint16"}}, {"name": "g_synthesis/128x128/Conv0_up/StyleMod/mul", "shape": [512, 256], "dtype": "float32", "quantization": {"min": -1.4108016150197984, "scale": 4.586630303390222e-05, "dtype": "uint16"}}, {"name": "g_synthesis/strided_slice_10/stack_1", "shape": [2], "dtype": "int32", "quantization": {"min": -0.0, "scale": 0.00015259021896696422, "dtype": "uint16"}}, {"name": "g_synthesis/128x128/Conv0_up/Reshape", "shape": [1, 128, 1, 1], "dtype": "float32", "quantization": {"min": -38.30257666731823, "scale": 0.0014095821833186703, "dtype": "uint16"}}, {"name": "g_synthesis/128x128/Conv0_up/filter", "shape": [3, 3, 128, 1], "dtype": "float32", "quantization": {"min": 0.0625, "scale": 2.861066605630579e-06, "dtype": "uint16"}}, {"name": "g_synthesis/64x64/Conv0_up/StyleMod/Reshape/shape", "shape": [5], "dtype": "int32", "quantization": {"min": -1.0, "scale": 0.00392156862745098, "dtype": "uint16"}}, {"name": "g_synthesis/64x64/Conv1/StyleMod/mul_1", "shape": [512], "dtype": "float32", "quantization": {"min": -7.342166901071329, "scale": 0.00041943255647365493, "dtype": "uint16"}}, {"name": "g_synthesis/64x64/Conv1/StyleMod/mul", "shape": [512, 512], "dtype": "float32", "quantization": {"min": -1.6189671475108576, "scale": 5.925724342120924e-05, "dtype": "uint16"}}, {"name": "g_synthesis/strided_slice_9/stack_1", "shape": [2], "dtype": "int32", "quantization": {"min": -0.0, "scale": 0.0001373311970702678, "dtype": "uint16"}}, {"name": "g_synthesis/64x64/Conv1/Reshape", "shape": [1, 256, 1, 1], "dtype": "float32", "quantization": {"min": -87.88317663871315, "scale": 0.0019016570008809702, "dtype": "uint16"}}, {"name": "g_synthesis/256x256/Conv0_up/conv2d_transpose/input_sizes/3", "shape": [], "dtype": "int32", "quantization": {"min": 64.0, "scale": 1.0, "dtype": "uint16"}}, {"name": "g_synthesis/64x64/Conv1/mul", "shape": [3, 3, 256, 256], "dtype": "float32", "quantization": {"min": -1.7095798657380115, "scale": 4.39593691370021e-05, "dtype": "uint16"}}, {"name": "g_synthesis/64x64/Conv0_up/StyleMod/mul_1", "shape": [512], "dtype": "float32", "quantization": {"min": -6.679814734574976, "scale": 0.000533531528320685, "dtype": "uint16"}}, {"name": "g_synthesis/64x64/Conv0_up/StyleMod/mul", "shape": [512, 512], "dtype": "float32", "quantization": {"min": -1.6490242593646949, "scale": 5.607781607034942e-05, "dtype": "uint16"}}, {"name": "g_synthesis/strided_slice_8/stack_1", "shape": [2], "dtype": "int32", "quantization": {"min": -0.0, "scale": 0.00012207217517357137, "dtype": "uint16"}}, {"name": "g_synthesis/64x64/Conv0_up/Reshape_2", "shape": [1, 256, 1, 1], "dtype": "float32", "quantization": {"min": -39.87669394092847, "scale": 0.000841085274323015, "dtype": "uint16"}}, {"name": "g_synthesis/64x64/Conv0_up/filter", "shape": [3, 3, 256, 1], "dtype": "float32", "quantization": {"min": 0.0625, "scale": 2.861066605630579e-06, "dtype": "uint16"}}, {"name": "g_synthesis/64x64/Conv0_up/mul", "shape": [3, 3, 512, 256], "dtype": "float32", "quantization": {"min": -0.8458311917116614, "scale": 2.3800084181087298e-05, "dtype": "uint16"}}, {"name": "g_synthesis/64x64/Conv0_up/Reshape_1/shape", "shape": [4], "dtype": "int32", "quantization": {"min": -1.0019684138246738, "scale": 0.007827878233005264, "dtype": "uint16"}}, {"name": "g_synthesis/Tile/multiples", "shape": [6], "dtype": "int32", "quantization": {"min": 1.0, "scale": 1.5259021896696422e-05, "dtype": "uint16"}}, {"name": "g_synthesis/64x64/Conv0_up/Reshape/shape", "shape": [6], "dtype": "int32", "quantization": {"min": -1.0019684138246738, "scale": 0.007827878233005264, "dtype": "uint16"}}, {"name": "g_synthesis/4x4/Const/StyleMod/Reshape/shape", "shape": [5], "dtype": "int32", "quantization": {"min": -1.0019684138246738, "scale": 0.007827878233005264, "dtype": "uint16"}}, {"name": "g_synthesis/32x32/Conv1/StyleMod/mul_1", "shape": [1024], "dtype": "float32", "quantization": {"min": -7.460587857194667, "scale": 0.000514097840214627, "dtype": "uint16"}}, {"name": "g_synthesis/32x32/Conv1/StyleMod/mul", "shape": [512, 1024], "dtype": "float32", "quantization": {"min": -2.1151088061063126, "scale": 6.605792829589658e-05, "dtype": "uint16"}}, {"name": "g_synthesis/strided_slice_7/stack_1", "shape": [2], "dtype": "int32", "quantization": {"min": -0.0, "scale": 0.00010681315327687495, "dtype": "uint16"}}, {"name": "g_synthesis/32x32/Conv1/Reshape", "shape": [1, 512, 1, 1], "dtype": "float32", "quantization": {"min": -31.096221595008032, "scale": 0.0007607079992907684, "dtype": "uint16"}}, {"name": "g_synthesis/512x512/Conv0_up/conv2d_transpose/input_sizes/3", "shape": [], "dtype": "int32", "quantization": {"min": 32.0, "scale": 1.0, "dtype": "uint16"}}, {"name": "g_synthesis/32x32/Conv1/mul", "shape": [3, 3, 512, 512], "dtype": "float32", "quantization": {"min": -0.9133088529123597, "scale": 2.842896261322168e-05, "dtype": "uint16"}}, {"name": "g_synthesis/32x32/Conv0_up/StyleMod/mul_1", "shape": [1024], "dtype": "float32", "quantization": {"min": -8.359193684968012, "scale": 0.0005440058365851889, "dtype": "uint16"}}, {"name": "g_synthesis/32x32/Conv0_up/StyleMod/mul", "shape": [512, 1024], "dtype": "float32", "quantization": {"min": -2.0754700644625457, "scale": 7.703474368875902e-05, "dtype": "uint16"}}, {"name": "g_synthesis/strided_slice_6/stack_1", "shape": [2], "dtype": "int32", "quantization": {"min": -0.0, "scale": 9.155413138017853e-05, "dtype": "uint16"}}, {"name": "g_synthesis/32x32/Conv0_up/Reshape_2", "shape": [1, 512, 1, 1], "dtype": "float32", "quantization": {"min": -20.360276384412575, "scale": 0.0005406914272469878, "dtype": "uint16"}}, {"name": "g_synthesis/8x8/Conv0_up/filter", "shape": [3, 3, 512, 1], "dtype": "float32", "quantization": {"min": 0.0625, "scale": 2.861066605630579e-06, "dtype": "uint16"}}, {"name": "g_synthesis/32x32/Conv0_up/mul", "shape": [3, 3, 512, 512], "dtype": "float32", "quantization": {"min": -0.8744058523005658, "scale": 2.894616830973801e-05, "dtype": "uint16"}}, {"name": "g_synthesis/32x32/Conv0_up/Reshape_1/shape", "shape": [4], "dtype": "int32", "quantization": {"min": -1.0019684138246738, "scale": 0.007827878233005264, "dtype": "uint16"}}, {"name": "g_synthesis/32x32/Conv0_up/Reshape/shape", "shape": [6], "dtype": "int32", "quantization": {"min": -1.0019684138246738, "scale": 0.007827878233005264, "dtype": "uint16"}}, {"name": "g_synthesis/16x16/Conv1/StyleMod/mul_1", "shape": [1024], "dtype": "float32", "quantization": {"min": -28.558520076370737, "scale": 0.0007540004244474268, "dtype": "uint16"}}, {"name": "g_synthesis/16x16/Conv1/StyleMod/mul", "shape": [512, 1024], "dtype": "float32", "quantization": {"min": -2.344647601035146, "scale": 6.792732859272665e-05, "dtype": "uint16"}}, {"name": "g_synthesis/strided_slice_5/stack_1", "shape": [2], "dtype": "int32", "quantization": {"min": -0.0, "scale": 7.629510948348211e-05, "dtype": "uint16"}}, {"name": "g_synthesis/16x16/Conv1/Reshape", "shape": [1, 512, 1, 1], "dtype": "float32", "quantization": {"min": -17.26612995407024, "scale": 0.0005300423623659322, "dtype": "uint16"}}, {"name": "g_synthesis/16x16/Conv0_up/Noise/random_uniform/shape/2", "shape": [], "dtype": "int32", "quantization": {"min": 16.0, "scale": 1.0, "dtype": "uint16"}}, {"name": "g_synthesis/16x16/Conv1/mul", "shape": [3, 3, 512, 512], "dtype": "float32", "quantization": {"min": -0.7145351968132095, "scale": 2.1584557661104688e-05, "dtype": "uint16"}}, {"name": "g_synthesis/16x16/Conv0_up/StyleMod/mul_1", "shape": [1024], "dtype": "float32", "quantization": {"min": -4.579235916242471, "scale": 0.00029376673827575514, "dtype": "uint16"}}, {"name": "g_synthesis/16x16/Conv0_up/StyleMod/mul", "shape": [512, 1024], "dtype": "float32", "quantization": {"min": -1.3848013544533757, "scale": 4.5746799063571596e-05, "dtype": "uint16"}}, {"name": "g_synthesis/strided_slice_4/stack_1", "shape": [2], "dtype": "int32", "quantization": {"min": -0.0, "scale": 6.103608758678569e-05, "dtype": "uint16"}}, {"name": "g_synthesis/16x16/Conv0_up/Reshape_2", "shape": [1, 512, 1, 1], "dtype": "float32", "quantization": {"min": -15.108144121249351, "scale": 0.0005452825683491303, "dtype": "uint16"}}, {"name": "g_synthesis/16x16/Conv0_up/mul", "shape": [3, 3, 512, 512], "dtype": "float32", "quantization": {"min": -0.7145479292639281, "scale": 1.9553084754376315e-05, "dtype": "uint16"}}, {"name": "g_synthesis/16x16/Conv0_up/Reshape_1/shape", "shape": [4], "dtype": "int32", "quantization": {"min": -1.0019684138246738, "scale": 0.007827878233005264, "dtype": "uint16"}}, {"name": "g_synthesis/16x16/Conv0_up/Reshape/shape", "shape": [6], "dtype": "int32", "quantization": {"min": -1.0019684138246738, "scale": 0.007827878233005264, "dtype": "uint16"}}, {"name": "g_synthesis/8x8/Conv1/StyleMod/mul_1", "shape": [1024], "dtype": "float32", "quantization": {"min": -5.753096625100396, "scale": 0.0003310372648081245, "dtype": "uint16"}}, {"name": "g_synthesis/8x8/Conv1/StyleMod/mul", "shape": [512, 1024], "dtype": "float32", "quantization": {"min": -1.216716179418793, "scale": 3.872179299276918e-05, "dtype": "uint16"}}, {"name": "g_synthesis/strided_slice_3/stack_1", "shape": [2], "dtype": "int32", "quantization": {"min": -0.0, "scale": 4.5777065690089265e-05, "dtype": "uint16"}}, {"name": "g_synthesis/8x8/Conv1/Reshape", "shape": [1, 512, 1, 1], "dtype": "float32", "quantization": {"min": -17.288831809042357, "scale": 0.000662712044198189, "dtype": "uint16"}}, {"name": "g_synthesis/8x8/Conv0_up/Noise/random_uniform/shape/2", "shape": [], "dtype": "int32", "quantization": {"min": 8.0, "scale": 1.0, "dtype": "uint16"}}, {"name": "g_synthesis/8x8/Conv1/mul", "shape": [3, 3, 512, 512], "dtype": "float32", "quantization": {"min": -0.5095646271809675, "scale": 1.695553279808896e-05, "dtype": "uint16"}}, {"name": "g_synthesis/8x8/Conv0_up/StyleMod/mul_1", "shape": [1024], "dtype": "float32", "quantization": {"min": -4.207471756466904, "scale": 0.00022323173580575682, "dtype": "uint16"}}, {"name": "g_synthesis/8x8/Conv0_up/StyleMod/mul", "shape": [512, 1024], "dtype": "float32", "quantization": {"min": -0.9993204383507396, "scale": 3.343662590259108e-05, "dtype": "uint16"}}, {"name": "g_synthesis/8x8/Conv0_up/Reshape_2", "shape": [1, 512, 1, 1], "dtype": "float32", "quantization": {"min": -14.593625196708805, "scale": 0.0003598566157890419, "dtype": "uint16"}}, {"name": "g_synthesis/8x8/Conv0_up/mul", "shape": [3, 3, 512, 512], "dtype": "float32", "quantization": {"min": -0.44688571943583366, "scale": 1.4375324715663579e-05, "dtype": "uint16"}}, {"name": "g_synthesis/8x8/Conv0_up/Reshape_1/shape", "shape": [4], "dtype": "int32", "quantization": {"min": -1.0019684138246738, "scale": 0.007827878233005264, "dtype": "uint16"}}, {"name": "g_synthesis/8x8/Conv0_up/Reshape/shape", "shape": [6], "dtype": "int32", "quantization": {"min": -1.0019684138246738, "scale": 0.007827878233005264, "dtype": "uint16"}}, {"name": "g_synthesis/4x4/Conv/StyleMod/mul_1", "shape": [1024], "dtype": "float32", "quantization": {"min": -5.4602860988809905, "scale": 0.00022108211591549885, "dtype": "uint16"}}, {"name": "g_synthesis/4x4/Conv/StyleMod/mul", "shape": [512, 1024], "dtype": "float32", "quantization": {"min": -1.0919351425961807, "scale": 3.181536501256318e-05, "dtype": "uint16"}}, {"name": "g_synthesis/4x4/Conv/Reshape", "shape": [1, 512, 1, 1], "dtype": "float32", "quantization": {"min": -12.59569469756626, "scale": 0.0003244640571243241, "dtype": "uint16"}}, {"name": "g_synthesis/4x4/Const/Noise/random_uniform/shape/2", "shape": [], "dtype": "int32", "quantization": {"min": 4.0, "scale": 1.0, "dtype": "uint16"}}, {"name": "g_synthesis/4x4/Conv/mul", "shape": [3, 3, 512, 512], "dtype": "float32", "quantization": {"min": -0.41178350282441184, "scale": 1.3560229947785814e-05, "dtype": "uint16"}}, {"name": "g_synthesis/4x4/Const/StyleMod/mul_1", "shape": [1024], "dtype": "float32", "quantization": {"min": -3.1533914659683044, "scale": 0.0001303000481785176, "dtype": "uint16"}}, {"name": "g_synthesis/4x4/Const/StyleMod/mul", "shape": [512, 1024], "dtype": "float32", "quantization": {"min": -1.0439739988007897, "scale": 3.080114471000147e-05, "dtype": "uint16"}}, {"name": "g_synthesis/4x4/Const/const", "shape": [1, 512, 4, 4], "dtype": "float32", "quantization": {"min": -15.138978371242187, "scale": 0.0005022885989131449, "dtype": "uint16"}}, {"name": "g_synthesis/4x4/Const/Reshape", "shape": [1, 512, 1, 1], "dtype": "float32", "quantization": {"min": -9.126267255266626, "scale": 0.00033407523447055514, "dtype": "uint16"}}, {"name": "g_synthesis/4x4/Const/Noise/Reshape", "shape": [1, 512, 1, 1], "dtype": "float32", "quantization": {"min": -3.9133687892039815, "scale": 0.00012242284893962277, "dtype": "uint16"}}, {"name": "g_synthesis/4x4/Conv/Noise/Reshape", "shape": [1, 512, 1, 1], "dtype": "float32", "quantization": {"min": -7.145832800608693, "scale": 0.00023277086552033266, "dtype": "uint16"}}, {"name": "g_synthesis/8x8/Conv0_up/Noise/Reshape", "shape": [1, 512, 1, 1], "dtype": "float32", "quantization": {"min": -5.116940869911772, "scale": 0.00015755098435592623, "dtype": "uint16"}}, {"name": "g_synthesis/8x8/Conv1/Noise/Reshape", "shape": [1, 512, 1, 1], "dtype": "float32", "quantization": {"min": -4.738815433056611, "scale": 0.00016534596765724392, "dtype": "uint16"}}, {"name": "g_synthesis/16x16/Conv0_up/Noise/Reshape", "shape": [1, 512, 1, 1], "dtype": "float32", "quantization": {"min": -39.032329979300854, "scale": 0.0010046931783603823, "dtype": "uint16"}}, {"name": "g_synthesis/16x16/Conv1/Noise/Reshape", "shape": [1, 512, 1, 1], "dtype": "float32", "quantization": {"min": -3.998956154045273, "scale": 0.00011424609759292841, "dtype": "uint16"}}, {"name": "g_synthesis/32x32/Conv0_up/Noise/Reshape", "shape": [1, 512, 1, 1], "dtype": "float32", "quantization": {"min": -19.978242189030887, "scale": 0.0008799049631812766, "dtype": "uint16"}}, {"name": "g_synthesis/32x32/Conv1/Noise/Reshape", "shape": [1, 512, 1, 1], "dtype": "float32", "quantization": {"min": -2.385123280084787, "scale": 7.298195526712117e-05, "dtype": "uint16"}}, {"name": "g_synthesis/64x64/Conv0_up/Noise/Reshape", "shape": [1, 256, 1, 1], "dtype": "float32", "quantization": {"min": -1.5273218551125545, "scale": 4.548172642603122e-05, "dtype": "uint16"}}, {"name": "g_synthesis/64x64/Conv1/Noise/Reshape", "shape": [1, 256, 1, 1], "dtype": "float32", "quantization": {"min": -1.5487947313374637, "scale": 4.710876087652352e-05, "dtype": "uint16"}}, {"name": "g_synthesis/128x128/Conv0_up/AddN", "shape": [4, 4, 128, 256], "dtype": "float32", "quantization": {"min": -3.918564175620835, "scale": 0.00014611149467246487, "dtype": "uint16"}}, {"name": "g_synthesis/128x128/Conv0_up/Noise/Reshape", "shape": [1, 128, 1, 1], "dtype": "float32", "quantization": {"min": -39.67571086957761, "scale": 0.0012767315893157938, "dtype": "uint16"}}, {"name": "g_synthesis/128x128/Conv1/Noise/Reshape", "shape": [1, 128, 1, 1], "dtype": "float32", "quantization": {"min": -1.4272802981557604, "scale": 4.188766502775607e-05, "dtype": "uint16"}}, {"name": "g_synthesis/256x256/Conv0_up/AddN", "shape": [4, 4, 64, 128], "dtype": "float32", "quantization": {"min": -4.865399612132223, "scale": 0.00015550369509499562, "dtype": "uint16"}}, {"name": "g_synthesis/256x256/Conv0_up/Noise/Reshape", "shape": [1, 64, 1, 1], "dtype": "float32", "quantization": {"min": -0.8904060141412873, "scale": 2.674213161164366e-05, "dtype": "uint16"}}, {"name": "g_synthesis/256x256/Conv1/Noise/Reshape", "shape": [1, 64, 1, 1], "dtype": "float32", "quantization": {"min": -1.6048173956097223, "scale": 6.548404111518024e-05, "dtype": "uint16"}}, {"name": "g_synthesis/512x512/Conv0_up/AddN", "shape": [4, 4, 32, 64], "dtype": "float32", "quantization": {"min": -6.677267737347501, "scale": 0.00020686104703824472, "dtype": "uint16"}}, {"name": "g_synthesis/512x512/Conv0_up/Noise/Reshape", "shape": [1, 32, 1, 1], "dtype": "float32", "quantization": {"min": -12.576449774080514, "scale": 0.00031235749383008005, "dtype": "uint16"}}, {"name": "g_synthesis/512x512/Conv1/Noise/Reshape", "shape": [1, 32, 1, 1], "dtype": "float32", "quantization": {"min": -19.348665215336613, "scale": 0.0006374337884738952, "dtype": "uint16"}}, {"name": "g_synthesis/Reshape_13/shape", "shape": [4], "dtype": "int32", "quantization": {"min": -1.0019684138246738, "scale": 0.007827878233005264, "dtype": "uint16"}}, {"name": "g_synthesis/Reshape_12/shape", "shape": [6], "dtype": "int32", "quantization": {"min": -1.0, "scale": 0.00392156862745098, "dtype": "uint16"}}, {"name": "g_synthesis/256x256_1/ToRGB/Reshape", "shape": [1, 3, 1, 1], "dtype": "float32", "quantization": {"min": 0.542483925819397, "scale": 3.6065325799209898e-06, "dtype": "uint16"}}, {"name": "g_synthesis/256x256_1/ToRGB/mul", "shape": [1, 1, 64, 3], "dtype": "float32", "quantization": {"min": -0.7821504415932423, "scale": 1.820436265782014e-05, "dtype": "uint16"}}, {"name": "g_synthesis/Reshape_11/shape", "shape": [4], "dtype": "int32", "quantization": {"min": -1.0, "scale": 0.00392156862745098, "dtype": "uint16"}}, {"name": "g_synthesis/Reshape_10/shape", "shape": [6], "dtype": "int32", "quantization": {"min": -0.9999542229343099, "scale": 0.0019684138246738384, "dtype": "uint16"}}, {"name": "g_synthesis/128x128_1/ToRGB/Reshape", "shape": [1, 3, 1, 1], "dtype": "float32", "quantization": {"min": 0.3476170599460602, "scale": 3.5522599291945157e-06, "dtype": "uint16"}}, {"name": "g_synthesis/128x128_1/ToRGB/mul", "shape": [1, 1, 128, 3], "dtype": "float32", "quantization": {"min": -0.39455744801992276, "scale": 1.0691454802187372e-05, "dtype": "uint16"}}, {"name": "g_synthesis/Reshape_9/shape", "shape": [4], "dtype": "int32", "quantization": {"min": -0.9999542229343099, "scale": 0.0019684138246738384, "dtype": "uint16"}}, {"name": "g_synthesis/Reshape_8/shape", "shape": [6], "dtype": "int32", "quantization": {"min": -0.9997711146715496, "scale": 0.0009918364232852674, "dtype": "uint16"}}, {"name": "g_synthesis/64x64_1/ToRGB/Reshape", "shape": [1, 3, 1, 1], "dtype": "float32", "quantization": {"min": 0.09193149209022522, "scale": 9.895250982265773e-07, "dtype": "uint16"}}, {"name": "g_synthesis/64x64_1/ToRGB/mul", "shape": [1, 1, 256, 3], "dtype": "float32", "quantization": {"min": -0.14509209087632238, "scale": 4.6447304845483825e-06, "dtype": "uint16"}}, {"name": "g_synthesis/Reshape_7/shape", "shape": [4], "dtype": "int32", "quantization": {"min": -0.9997711146715496, "scale": 0.0009918364232852674, "dtype": "uint16"}}, {"name": "g_synthesis/Reshape_6/shape", "shape": [6], "dtype": "int32", "quantization": {"min": -1.00004577706569, "scale": 0.000503547722590982, "dtype": "uint16"}}, {"name": "g_synthesis/32x32_1/ToRGB/Reshape", "shape": [1, 3, 1, 1], "dtype": "float32", "quantization": {"min": 0.03684820234775543, "scale": 8.846081675640586e-07, "dtype": "uint16"}}, {"name": "g_synthesis/32x32_1/ToRGB/mul", "shape": [1, 1, 512, 3], "dtype": "float32", "quantization": {"min": -0.1233438385630478, "scale": 3.487540321855057e-06, "dtype": "uint16"}}, {"name": "g_synthesis/Reshape_5/shape", "shape": [4], "dtype": "int32", "quantization": {"min": -1.00004577706569, "scale": 0.000503547722590982, "dtype": "uint16"}}, {"name": "g_synthesis/Reshape_4/shape", "shape": [6], "dtype": "int32", "quantization": {"min": -1.0, "scale": 0.00025940337224383917, "dtype": "uint16"}}, {"name": "g_synthesis/16x16_1/ToRGB/Reshape", "shape": [1, 3, 1, 1], "dtype": "float32", "quantization": {"min": -0.018711573378268002, "scale": 1.188564655927587e-06, "dtype": "uint16"}}, {"name": "g_synthesis/16x16_1/ToRGB/mul", "shape": [1, 1, 512, 3], "dtype": "float32", "quantization": {"min": -0.11650217976669812, "scale": 3.54023884060709e-06, "dtype": "uint16"}}, {"name": "g_synthesis/Reshape_3/shape", "shape": [4], "dtype": "int32", "quantization": {"min": -1.0, "scale": 0.00025940337224383917, "dtype": "uint16"}}, {"name": "g_synthesis/Reshape_2/shape", "shape": [6], "dtype": "int32", "quantization": {"min": -1.00004577706569, "scale": 0.0001373311970702678, "dtype": "uint16"}}, {"name": "g_synthesis/8x8_1/ToRGB/Reshape", "shape": [1, 3, 1, 1], "dtype": "float32", "quantization": {"min": -0.016554964446835945, "scale": 1.2549245335685222e-06, "dtype": "uint16"}}, {"name": "g_synthesis/8x8_1/ToRGB/mul", "shape": [1, 1, 512, 3], "dtype": "float32", "quantization": {"min": -0.11258626809127545, "scale": 3.7921879514727828e-06, "dtype": "uint16"}}, {"name": "g_synthesis/Reshape_1/shape", "shape": [4], "dtype": "int32", "quantization": {"min": -1.00004577706569, "scale": 0.0001373311970702678, "dtype": "uint16"}}, {"name": "g_synthesis/Reshape/shape", "shape": [6], "dtype": "int32", "quantization": {"min": -1.0, "scale": 7.629510948348211e-05, "dtype": "uint16"}}, {"name": "g_synthesis/4x4_1/ToRGB/mul", "shape": [1, 1, 512, 3], "dtype": "float32", "quantization": {"min": -0.1486268524329777, "scale": 4.6617794502533626e-06, "dtype": "uint16"}}]}]}