{"format": "graph-model", "generatedBy": "1.14.0", "convertedBy": "TensorFlow.js Converter v1.2.6", "modelTopology": {"node": [{"name": "z", "op": "Placeholder", "attr": {"shape": {"shape": {"dim": [{"size": "-1"}, {"size": "512"}]}}, "dtype": {"type": "DT_FLOAT"}}}, {"name": "g_synthesis/8x8_2/smooth_transition/LerpClip/clip_by_value", "op": "Const", "attr": {"value": {"tensor": {"dtype": "DT_FLOAT", "tensorShape": {}}}, "dtype": {"type": "DT_FLOAT"}}}, {"name": "g_synthesis/512x512_1/ToRGB/Reshape", "op": "Const", "attr": {"value": {"tensor": {"dtype": "DT_FLOAT", "tensorShape": {"dim": [{"size": "1"}, {"size": "3"}, {"size": "1"}, {"size": "1"}]}}}, "dtype": {"type": "DT_FLOAT"}}}, {"name": "g_synthesis/4x4_1/ToRGB/NHWC_to_NCHW/perm", "op": "Const", "attr": {"value": {"tensor": {"dtype": "DT_INT32", "tensorShape": {"dim": [{"size": "4"}]}}}, "dtype": {"type": "DT_INT32"}}}, {"name": "g_synthesis/512x512_1/ToRGB/mul", "op": "Const", "attr": {"value": {"tensor": {"dtype": "DT_FLOAT", "tensorShape": {"dim": [{"size": "1"}, {"size": "1"}, {"size": "32"}, {"size": "3"}]}}}, "dtype": {"type": "DT_FLOAT"}}}, {"name": "g_synthesis/4x4_1/ToRGB/NCHW_to_NHWC/perm", "op": "Const", "attr": {"value": {"tensor": {"dtype": "DT_INT32", "tensorShape": {"dim": [{"size": "4"}]}}}, "dtype": {"type": "DT_INT32"}}}, {"name": "g_synthesis/4x4/Const/StyleMod/strided_slice/stack_2", "op": "Const", "attr": {"value": {"tensor": {"dtype": "DT_INT32", "tensorShape": {"dim": [{"size": "2"}]}}}, "dtype": {"type": "DT_INT32"}}}, {"name": "g_synthesis/4x4/Const/StyleMod/strided_slice_1/stack_1", "op": "Const", "attr": {"value": {"tensor": {"dtype": "DT_INT32", "tensorShape": {"dim": [{"size": "2"}]}}}, "dtype": {"type": "DT_INT32"}}}, {"name": "g_synthesis/4x4/Const/StyleMod/strided_slice/stack_1", "op": "Const", "attr": {"value": {"tensor": {"dtype": "DT_INT32", "tensorShape": {"dim": [{"size": "2"}]}}}, "dtype": {"type": "DT_INT32"}}}, {"name": "g_synthesis/512x512/Conv0_up/StyleMod/Reshape/shape", "op": "Const", "attr": {"value": {"tensor": {"dtype": "DT_INT32", "tensorShape": {"dim": [{"size": "5"}]}}}, "dtype": {"type": "DT_INT32"}}}, {"name": "g_synthesis/512x512/Conv1/StyleMod/mul_1", "op": "Const", "attr": {"value": {"tensor": {"dtype": "DT_FLOAT", "tensorShape": {"dim": [{"size": "64"}]}}}, "dtype": {"type": "DT_FLOAT"}}}, {"name": "g_synthesis/512x512/Conv1/StyleMod/mul", "op": "Const", "attr": {"value": {"tensor": {"dtype": "DT_FLOAT", "tensorShape": {"dim": [{"size": "512"}, {"size": "64"}]}}}, "dtype": {"type": "DT_FLOAT"}}}, {"name": "g_synthesis/4x4/Const/StyleMod/flatten/Reshape/shape/1", "op": "Const", "attr": {"value": {"tensor": {"dtype": "DT_INT32", "tensorShape": {}}}, "dtype": {"type": "DT_INT32"}}}, {"name": "g_synthesis/512x512/Conv0_up/strided_slice_4/stack_1", "op": "Const", "attr": {"value": {"tensor": {"dtype": "DT_INT32", "tensorShape": {"dim": [{"size": "1"}]}}}, "dtype": {"type": "DT_INT32"}}}, {"name": "g_synthesis/512x512/Conv0_up/strided_slice_4/stack", "op": "Const", "attr": {"value": {"tensor": {"dtype": "DT_INT32", "tensorShape": {"dim": [{"size": "1"}]}}}, "dtype": {"type": "DT_INT32"}}}, {"name": "g_synthesis/strided_slice_16/stack_1", "op": "Const", "attr": {"value": {"tensor": {"dtype": "DT_INT32", "tensorShape": {"dim": [{"size": "2"}]}}}, "dtype": {"type": "DT_INT32"}}}, {"name": "g_synthesis/strided_slice_15/stack_1", "op": "Const", "attr": {"value": {"tensor": {"dtype": "DT_INT32", "tensorShape": {"dim": [{"size": "2"}]}}}, "dtype": {"type": "DT_INT32"}}}, {"name": "w_avg", "op": "Const", "attr": {"value": {"tensor": {"dtype": "DT_FLOAT", "tensorShape": {"dim": [{"size": "512"}]}}}, "dtype": {"type": "DT_FLOAT"}}}, {"name": "Truncation/Select", "op": "Const", "attr": {"value": {"tensor": {"dtype": "DT_FLOAT", "tensorShape": {"dim": [{"size": "1"}, {"size": "16"}, {"size": "1"}]}}}, "dtype": {"type": "DT_FLOAT"}}}, {"name": "g_mapping/Broadcast/Tile/multiples", "op": "Const", "attr": {"value": {"tensor": {"dtype": "DT_INT32", "tensorShape": {"dim": [{"size": "3"}]}}}, "dtype": {"type": "DT_INT32"}}}, {"name": "g_synthesis/4x4/Const/Tile/multiples/1", "op": "Const", "attr": {"value": {"tensor": {"dtype": "DT_INT32", "tensorShape": {}}}, "dtype": {"type": "DT_INT32"}}}, {"name": "g_mapping/Dense7/mul_1", "op": "Const", "attr": {"value": {"tensor": {"dtype": "DT_FLOAT", "tensorShape": {"dim": [{"size": "512"}]}}}, "dtype": {"type": "DT_FLOAT"}}}, {"name": "g_mapping/Dense7/mul", "op": "Const", "attr": {"value": {"tensor": {"dtype": "DT_FLOAT", "tensorShape": {"dim": [{"size": "512"}, {"size": "512"}]}}}, "dtype": {"type": "DT_FLOAT"}}}, {"name": "g_mapping/Dense6/mul_1", "op": "Const", "attr": {"value": {"tensor": {"dtype": "DT_FLOAT", "tensorShape": {"dim": [{"size": "512"}]}}}, "dtype": {"type": "DT_FLOAT"}}}, {"name": "g_mapping/Dense6/mul", "op": "Const", "attr": {"value": {"tensor": {"dtype": "DT_FLOAT", "tensorShape": {"dim": [{"size": "512"}, {"size": "512"}]}}}, "dtype": {"type": "DT_FLOAT"}}}, {"name": "g_mapping/Dense5/mul_1", "op": "Const", "attr": {"value": {"tensor": {"dtype": "DT_FLOAT", "tensorShape": {"dim": [{"size": "512"}]}}}, "dtype": {"type": "DT_FLOAT"}}}, {"name": "g_mapping/Dense5/mul", "op": "Const", "attr": {"value": {"tensor": {"dtype": "DT_FLOAT", "tensorShape": {"dim": [{"size": "512"}, {"size": "512"}]}}}, "dtype": {"type": "DT_FLOAT"}}}, {"name": "g_mapping/Dense4/mul_1", "op": "Const", "attr": {"value": {"tensor": {"dtype": "DT_FLOAT", "tensorShape": {"dim": [{"size": "512"}]}}}, "dtype": {"type": "DT_FLOAT"}}}, {"name": "g_mapping/Dense4/mul", "op": "Const", "attr": {"value": {"tensor": {"dtype": "DT_FLOAT", "tensorShape": {"dim": [{"size": "512"}, {"size": "512"}]}}}, "dtype": {"type": "DT_FLOAT"}}}, {"name": "g_mapping/Dense3/mul_1", "op": "Const", "attr": {"value": {"tensor": {"dtype": "DT_FLOAT", "tensorShape": {"dim": [{"size": "512"}]}}}, "dtype": {"type": "DT_FLOAT"}}}, {"name": "g_mapping/Dense3/mul", "op": "Const", "attr": {"value": {"tensor": {"dtype": "DT_FLOAT", "tensorShape": {"dim": [{"size": "512"}, {"size": "512"}]}}}, "dtype": {"type": "DT_FLOAT"}}}, {"name": "g_mapping/Dense2/mul_1", "op": "Const", "attr": {"value": {"tensor": {"dtype": "DT_FLOAT", "tensorShape": {"dim": [{"size": "512"}]}}}, "dtype": {"type": "DT_FLOAT"}}}, {"name": "g_mapping/Dense2/mul", "op": "Const", "attr": {"value": {"tensor": {"dtype": "DT_FLOAT", "tensorShape": {"dim": [{"size": "512"}, {"size": "512"}]}}}, "dtype": {"type": "DT_FLOAT"}}}, {"name": "g_mapping/Dense1/mul_1", "op": "Const", "attr": {"value": {"tensor": {"dtype": "DT_FLOAT", "tensorShape": {"dim": [{"size": "512"}]}}}, "dtype": {"type": "DT_FLOAT"}}}, {"name": "g_mapping/Dense1/mul", "op": "Const", "attr": {"value": {"tensor": {"dtype": "DT_FLOAT", "tensorShape": {"dim": [{"size": "512"}, {"size": "512"}]}}}, "dtype": {"type": "DT_FLOAT"}}}, {"name": "g_mapping/Dense0/mul_1", "op": "Const", "attr": {"value": {"tensor": {"dtype": "DT_FLOAT", "tensorShape": {"dim": [{"size": "512"}]}}}, "dtype": {"type": "DT_FLOAT"}}}, {"name": "g_mapping/Dense0/mul", "op": "Const", "attr": {"value": {"tensor": {"dtype": "DT_FLOAT", "tensorShape": {"dim": [{"size": "512"}, {"size": "512"}]}}}, "dtype": {"type": "DT_FLOAT"}}}, {"name": "g_synthesis/4x4/Const/InstanceNorm/epsilon", "op": "Const", "attr": {"value": {"tensor": {"dtype": "DT_FLOAT", "tensorShape": {}}}, "dtype": {"type": "DT_FLOAT"}}}, {"name": "g_synthesis/4x4/Const/StyleMod/strided_slice/stack", "op": "Const", "attr": {"value": {"tensor": {"dtype": "DT_INT32", "tensorShape": {"dim": [{"size": "2"}]}}}, "dtype": {"type": "DT_INT32"}}}, {"name": "g_synthesis/4x4/Const/Noise/random_uniform/sub", "op": "Const", "attr": {"value": {"tensor": {"dtype": "DT_FLOAT", "tensorShape": {}}}, "dtype": {"type": "DT_FLOAT"}}}, {"name": "g_synthesis/4x4/Const/InstanceNorm/Mean/reduction_indices", "op": "Const", "attr": {"value": {"tensor": {"dtype": "DT_INT32", "tensorShape": {"dim": [{"size": "2"}]}}}, "dtype": {"type": "DT_INT32"}}}, {"name": "g_synthesis/512x512/Conv1/Reshape", "op": "Const", "attr": {"value": {"tensor": {"dtype": "DT_FLOAT", "tensorShape": {"dim": [{"size": "1"}, {"size": "32"}, {"size": "1"}, {"size": "1"}]}}}, "dtype": {"type": "DT_FLOAT"}}}, {"name": "g_synthesis/512x512/Conv0_up/conv2d_transpose/input_sizes/1", "op": "Const", "attr": {"value": {"tensor": {"dtype": "DT_INT32", "tensorShape": {}}}, "dtype": {"type": "DT_INT32"}}}, {"name": "g_synthesis/512x512/Conv1/mul", "op": "Const", "attr": {"value": {"tensor": {"dtype": "DT_FLOAT", "tensorShape": {"dim": [{"size": "3"}, {"size": "3"}, {"size": "32"}, {"size": "32"}]}}}, "dtype": {"type": "DT_FLOAT"}}}, {"name": "g_synthesis/512x512/Conv0_up/StyleMod/mul_1", "op": "Const", "attr": {"value": {"tensor": {"dtype": "DT_FLOAT", "tensorShape": {"dim": [{"size": "64"}]}}}, "dtype": {"type": "DT_FLOAT"}}}, {"name": "g_synthesis/512x512/Conv0_up/StyleMod/mul", "op": "Const", "attr": {"value": {"tensor": {"dtype": "DT_FLOAT", "tensorShape": {"dim": [{"size": "512"}, {"size": "64"}]}}}, "dtype": {"type": "DT_FLOAT"}}}, {"name": "g_synthesis/strided_slice_14/stack_1", "op": "Const", "attr": {"value": {"tensor": {"dtype": "DT_INT32", "tensorShape": {"dim": [{"size": "2"}]}}}, "dtype": {"type": "DT_INT32"}}}, {"name": "g_synthesis/512x512/Conv0_up/Reshape", "op": "Const", "attr": {"value": {"tensor": {"dtype": "DT_FLOAT", "tensorShape": {"dim": [{"size": "1"}, {"size": "32"}, {"size": "1"}, {"size": "1"}]}}}, "dtype": {"type": "DT_FLOAT"}}}, {"name": "g_synthesis/512x512/Conv0_up/filter", "op": "Const", "attr": {"value": {"tensor": {"dtype": "DT_FLOAT", "tensorShape": {"dim": [{"size": "3"}, {"size": "3"}, {"size": "32"}, {"size": "1"}]}}}, "dtype": {"type": "DT_FLOAT"}}}, {"name": "g_synthesis/256x256/Conv0_up/StyleMod/Reshape/shape", "op": "Const", "attr": {"value": {"tensor": {"dtype": "DT_INT32", "tensorShape": {"dim": [{"size": "5"}]}}}, "dtype": {"type": "DT_INT32"}}}, {"name": "g_synthesis/256x256/Conv1/StyleMod/mul_1", "op": "Const", "attr": {"value": {"tensor": {"dtype": "DT_FLOAT", "tensorShape": {"dim": [{"size": "128"}]}}}, "dtype": {"type": "DT_FLOAT"}}}, {"name": "g_synthesis/256x256/Conv1/StyleMod/mul", "op": "Const", "attr": {"value": {"tensor": {"dtype": "DT_FLOAT", "tensorShape": {"dim": [{"size": "512"}, {"size": "128"}]}}}, "dtype": {"type": "DT_FLOAT"}}}, {"name": "g_synthesis/strided_slice_13/stack_1", "op": "Const", "attr": {"value": {"tensor": {"dtype": "DT_INT32", "tensorShape": {"dim": [{"size": "2"}]}}}, "dtype": {"type": "DT_INT32"}}}, {"name": "g_synthesis/256x256/Conv1/Reshape", "op": "Const", "attr": {"value": {"tensor": {"dtype": "DT_FLOAT", "tensorShape": {"dim": [{"size": "1"}, {"size": "64"}, {"size": "1"}, {"size": "1"}]}}}, "dtype": {"type": "DT_FLOAT"}}}, {"name": "g_synthesis/256x256/Conv0_up/conv2d_transpose/input_sizes/1", "op": "Const", "attr": {"value": {"tensor": {"dtype": "DT_INT32", "tensorShape": {}}}, "dtype": {"type": "DT_INT32"}}}, {"name": "g_synthesis/256x256/Conv1/mul", "op": "Const", "attr": {"value": {"tensor": {"dtype": "DT_FLOAT", "tensorShape": {"dim": [{"size": "3"}, {"size": "3"}, {"size": "64"}, {"size": "64"}]}}}, "dtype": {"type": "DT_FLOAT"}}}, {"name": "g_synthesis/256x256/Conv0_up/StyleMod/mul_1", "op": "Const", "attr": {"value": {"tensor": {"dtype": "DT_FLOAT", "tensorShape": {"dim": [{"size": "128"}]}}}, "dtype": {"type": "DT_FLOAT"}}}, {"name": "g_synthesis/256x256/Conv0_up/StyleMod/mul", "op": "Const", "attr": {"value": {"tensor": {"dtype": "DT_FLOAT", "tensorShape": {"dim": [{"size": "512"}, {"size": "128"}]}}}, "dtype": {"type": "DT_FLOAT"}}}, {"name": "g_synthesis/strided_slice_12/stack_1", "op": "Const", "attr": {"value": {"tensor": {"dtype": "DT_INT32", "tensorShape": {"dim": [{"size": "2"}]}}}, "dtype": {"type": "DT_INT32"}}}, {"name": "g_synthesis/256x256/Conv0_up/Reshape", "op": "Const", "attr": {"value": {"tensor": {"dtype": "DT_FLOAT", "tensorShape": {"dim": [{"size": "1"}, {"size": "64"}, {"size": "1"}, {"size": "1"}]}}}, "dtype": {"type": "DT_FLOAT"}}}, {"name": "g_synthesis/256x256/Conv0_up/filter", "op": "Const", "attr": {"value": {"tensor": {"dtype": "DT_FLOAT", "tensorShape": {"dim": [{"size": "3"}, {"size": "3"}, {"size": "64"}, {"size": "1"}]}}}, "dtype": {"type": "DT_FLOAT"}}}, {"name": "g_synthesis/128x128/Conv0_up/StyleMod/Reshape/shape", "op": "Const", "attr": {"value": {"tensor": {"dtype": "DT_INT32", "tensorShape": {"dim": [{"size": "5"}]}}}, "dtype": {"type": "DT_INT32"}}}, {"name": "g_synthesis/128x128/Conv1/StyleMod/mul_1", "op": "Const", "attr": {"value": {"tensor": {"dtype": "DT_FLOAT", "tensorShape": {"dim": [{"size": "256"}]}}}, "dtype": {"type": "DT_FLOAT"}}}, {"name": "g_synthesis/128x128/Conv1/StyleMod/mul", "op": "Const", "attr": {"value": {"tensor": {"dtype": "DT_FLOAT", "tensorShape": {"dim": [{"size": "512"}, {"size": "256"}]}}}, "dtype": {"type": "DT_FLOAT"}}}, {"name": "g_synthesis/strided_slice_11/stack_1", "op": "Const", "attr": {"value": {"tensor": {"dtype": "DT_INT32", "tensorShape": {"dim": [{"size": "2"}]}}}, "dtype": {"type": "DT_INT32"}}}, {"name": "g_synthesis/128x128/Conv1/Reshape", "op": "Const", "attr": {"value": {"tensor": {"dtype": "DT_FLOAT", "tensorShape": {"dim": [{"size": "1"}, {"size": "128"}, {"size": "1"}, {"size": "1"}]}}}, "dtype": {"type": "DT_FLOAT"}}}, {"name": "g_synthesis/128x128/Conv0_up/conv2d_transpose/input_sizes/1", "op": "Const", "attr": {"value": {"tensor": {"dtype": "DT_INT32", "tensorShape": {}}}, "dtype": {"type": "DT_INT32"}}}, {"name": "g_synthesis/128x128/Conv1/mul", "op": "Const", "attr": {"value": {"tensor": {"dtype": "DT_FLOAT", "tensorShape": {"dim": [{"size": "3"}, {"size": "3"}, {"size": "128"}, {"size": "128"}]}}}, "dtype": {"type": "DT_FLOAT"}}}, {"name": "g_synthesis/128x128/Conv0_up/StyleMod/mul_1", "op": "Const", "attr": {"value": {"tensor": {"dtype": "DT_FLOAT", "tensorShape": {"dim": [{"size": "256"}]}}}, "dtype": {"type": "DT_FLOAT"}}}, {"name": "g_synthesis/128x128/Conv0_up/StyleMod/mul", "op": "Const", "attr": {"value": {"tensor": {"dtype": "DT_FLOAT", "tensorShape": {"dim": [{"size": "512"}, {"size": "256"}]}}}, "dtype": {"type": "DT_FLOAT"}}}, {"name": "g_synthesis/strided_slice_10/stack_1", "op": "Const", "attr": {"value": {"tensor": {"dtype": "DT_INT32", "tensorShape": {"dim": [{"size": "2"}]}}}, "dtype": {"type": "DT_INT32"}}}, {"name": "g_synthesis/128x128/Conv0_up/Reshape", "op": "Const", "attr": {"value": {"tensor": {"dtype": "DT_FLOAT", "tensorShape": {"dim": [{"size": "1"}, {"size": "128"}, {"size": "1"}, {"size": "1"}]}}}, "dtype": {"type": "DT_FLOAT"}}}, {"name": "g_synthesis/128x128/Conv0_up/filter", "op": "Const", "attr": {"value": {"tensor": {"dtype": "DT_FLOAT", "tensorShape": {"dim": [{"size": "3"}, {"size": "3"}, {"size": "128"}, {"size": "1"}]}}}, "dtype": {"type": "DT_FLOAT"}}}, {"name": "g_synthesis/64x64/Conv0_up/StyleMod/Reshape/shape", "op": "Const", "attr": {"value": {"tensor": {"dtype": "DT_INT32", "tensorShape": {"dim": [{"size": "5"}]}}}, "dtype": {"type": "DT_INT32"}}}, {"name": "g_synthesis/64x64/Conv1/StyleMod/mul_1", "op": "Const", "attr": {"value": {"tensor": {"dtype": "DT_FLOAT", "tensorShape": {"dim": [{"size": "512"}]}}}, "dtype": {"type": "DT_FLOAT"}}}, {"name": "g_synthesis/64x64/Conv1/StyleMod/mul", "op": "Const", "attr": {"value": {"tensor": {"dtype": "DT_FLOAT", "tensorShape": {"dim": [{"size": "512"}, {"size": "512"}]}}}, "dtype": {"type": "DT_FLOAT"}}}, {"name": "g_synthesis/strided_slice_9/stack_1", "op": "Const", "attr": {"value": {"tensor": {"dtype": "DT_INT32", "tensorShape": {"dim": [{"size": "2"}]}}}, "dtype": {"type": "DT_INT32"}}}, {"name": "g_synthesis/64x64/Conv1/Reshape", "op": "Const", "attr": {"value": {"tensor": {"dtype": "DT_FLOAT", "tensorShape": {"dim": [{"size": "1"}, {"size": "256"}, {"size": "1"}, {"size": "1"}]}}}, "dtype": {"type": "DT_FLOAT"}}}, {"name": "g_synthesis/256x256/Conv0_up/conv2d_transpose/input_sizes/3", "op": "Const", "attr": {"value": {"tensor": {"dtype": "DT_INT32", "tensorShape": {}}}, "dtype": {"type": "DT_INT32"}}}, {"name": "g_synthesis/64x64/Conv1/mul", "op": "Const", "attr": {"value": {"tensor": {"dtype": "DT_FLOAT", "tensorShape": {"dim": [{"size": "3"}, {"size": "3"}, {"size": "256"}, {"size": "256"}]}}}, "dtype": {"type": "DT_FLOAT"}}}, {"name": "g_synthesis/64x64/Conv0_up/StyleMod/mul_1", "op": "Const", "attr": {"value": {"tensor": {"dtype": "DT_FLOAT", "tensorShape": {"dim": [{"size": "512"}]}}}, "dtype": {"type": "DT_FLOAT"}}}, {"name": "g_synthesis/64x64/Conv0_up/StyleMod/mul", "op": "Const", "attr": {"value": {"tensor": {"dtype": "DT_FLOAT", "tensorShape": {"dim": [{"size": "512"}, {"size": "512"}]}}}, "dtype": {"type": "DT_FLOAT"}}}, {"name": "g_synthesis/strided_slice_8/stack_1", "op": "Const", "attr": {"value": {"tensor": {"dtype": "DT_INT32", "tensorShape": {"dim": [{"size": "2"}]}}}, "dtype": {"type": "DT_INT32"}}}, {"name": "g_synthesis/64x64/Conv0_up/Reshape_2", "op": "Const", "attr": {"value": {"tensor": {"dtype": "DT_FLOAT", "tensorShape": {"dim": [{"size": "1"}, {"size": "256"}, {"size": "1"}, {"size": "1"}]}}}, "dtype": {"type": "DT_FLOAT"}}}, {"name": "g_synthesis/64x64/Conv0_up/filter", "op": "Const", "attr": {"value": {"tensor": {"dtype": "DT_FLOAT", "tensorShape": {"dim": [{"size": "3"}, {"size": "3"}, {"size": "256"}, {"size": "1"}]}}}, "dtype": {"type": "DT_FLOAT"}}}, {"name": "g_synthesis/64x64/Conv0_up/mul", "op": "Const", "attr": {"value": {"tensor": {"dtype": "DT_FLOAT", "tensorShape": {"dim": [{"size": "3"}, {"size": "3"}, {"size": "512"}, {"size": "256"}]}}}, "dtype": {"type": "DT_FLOAT"}}}, {"name": "g_synthesis/64x64/Conv0_up/Reshape_1/shape", "op": "Const", "attr": {"value": {"tensor": {"dtype": "DT_INT32", "tensorShape": {"dim": [{"size": "4"}]}}}, "dtype": {"type": "DT_INT32"}}}, {"name": "g_synthesis/Tile/multiples", "op": "Const", "attr": {"value": {"tensor": {"dtype": "DT_INT32", "tensorShape": {"dim": [{"size": "6"}]}}}, "dtype": {"type": "DT_INT32"}}}, {"name": "g_synthesis/64x64/Conv0_up/Reshape/shape", "op": "Const", "attr": {"value": {"tensor": {"dtype": "DT_INT32", "tensorShape": {"dim": [{"size": "6"}]}}}, "dtype": {"type": "DT_INT32"}}}, {"name": "g_synthesis/4x4/Const/StyleMod/Reshape/shape", "op": "Const", "attr": {"value": {"tensor": {"dtype": "DT_INT32", "tensorShape": {"dim": [{"size": "5"}]}}}, "dtype": {"type": "DT_INT32"}}}, {"name": "g_synthesis/32x32/Conv1/StyleMod/mul_1", "op": "Const", "attr": {"value": {"tensor": {"dtype": "DT_FLOAT", "tensorShape": {"dim": [{"size": "1024"}]}}}, "dtype": {"type": "DT_FLOAT"}}}, {"name": "g_synthesis/32x32/Conv1/StyleMod/mul", "op": "Const", "attr": {"value": {"tensor": {"dtype": "DT_FLOAT", "tensorShape": {"dim": [{"size": "512"}, {"size": "1024"}]}}}, "dtype": {"type": "DT_FLOAT"}}}, {"name": "g_synthesis/strided_slice_7/stack_1", "op": "Const", "attr": {"value": {"tensor": {"dtype": "DT_INT32", "tensorShape": {"dim": [{"size": "2"}]}}}, "dtype": {"type": "DT_INT32"}}}, {"name": "g_synthesis/32x32/Conv1/Reshape", "op": "Const", "attr": {"value": {"tensor": {"dtype": "DT_FLOAT", "tensorShape": {"dim": [{"size": "1"}, {"size": "512"}, {"size": "1"}, {"size": "1"}]}}}, "dtype": {"type": "DT_FLOAT"}}}, {"name": "g_synthesis/512x512/Conv0_up/conv2d_transpose/input_sizes/3", "op": "Const", "attr": {"value": {"tensor": {"dtype": "DT_INT32", "tensorShape": {}}}, "dtype": {"type": "DT_INT32"}}}, {"name": "g_synthesis/32x32/Conv1/mul", "op": "Const", "attr": {"value": {"tensor": {"dtype": "DT_FLOAT", "tensorShape": {"dim": [{"size": "3"}, {"size": "3"}, {"size": "512"}, {"size": "512"}]}}}, "dtype": {"type": "DT_FLOAT"}}}, {"name": "g_synthesis/32x32/Conv0_up/StyleMod/mul_1", "op": "Const", "attr": {"value": {"tensor": {"dtype": "DT_FLOAT", "tensorShape": {"dim": [{"size": "1024"}]}}}, "dtype": {"type": "DT_FLOAT"}}}, {"name": "g_synthesis/32x32/Conv0_up/StyleMod/mul", "op": "Const", "attr": {"value": {"tensor": {"dtype": "DT_FLOAT", "tensorShape": {"dim": [{"size": "512"}, {"size": "1024"}]}}}, "dtype": {"type": "DT_FLOAT"}}}, {"name": "g_synthesis/strided_slice_6/stack_1", "op": "Const", "attr": {"value": {"tensor": {"dtype": "DT_INT32", "tensorShape": {"dim": [{"size": "2"}]}}}, "dtype": {"type": "DT_INT32"}}}, {"name": "g_synthesis/32x32/Conv0_up/Reshape_2", "op": "Const", "attr": {"value": {"tensor": {"dtype": "DT_FLOAT", "tensorShape": {"dim": [{"size": "1"}, {"size": "512"}, {"size": "1"}, {"size": "1"}]}}}, "dtype": {"type": "DT_FLOAT"}}}, {"name": "g_synthesis/8x8/Conv0_up/filter", "op": "Const", "attr": {"value": {"tensor": {"dtype": "DT_FLOAT", "tensorShape": {"dim": [{"size": "3"}, {"size": "3"}, {"size": "512"}, {"size": "1"}]}}}, "dtype": {"type": "DT_FLOAT"}}}, {"name": "g_synthesis/32x32/Conv0_up/mul", "op": "Const", "attr": {"value": {"tensor": {"dtype": "DT_FLOAT", "tensorShape": {"dim": [{"size": "3"}, {"size": "3"}, {"size": "512"}, {"size": "512"}]}}}, "dtype": {"type": "DT_FLOAT"}}}, {"name": "g_synthesis/32x32/Conv0_up/Reshape_1/shape", "op": "Const", "attr": {"value": {"tensor": {"dtype": "DT_INT32", "tensorShape": {"dim": [{"size": "4"}]}}}, "dtype": {"type": "DT_INT32"}}}, {"name": "g_synthesis/32x32/Conv0_up/Reshape/shape", "op": "Const", "attr": {"value": {"tensor": {"dtype": "DT_INT32", "tensorShape": {"dim": [{"size": "6"}]}}}, "dtype": {"type": "DT_INT32"}}}, {"name": "g_synthesis/16x16/Conv1/StyleMod/mul_1", "op": "Const", "attr": {"value": {"tensor": {"dtype": "DT_FLOAT", "tensorShape": {"dim": [{"size": "1024"}]}}}, "dtype": {"type": "DT_FLOAT"}}}, {"name": "g_synthesis/16x16/Conv1/StyleMod/mul", "op": "Const", "attr": {"value": {"tensor": {"dtype": "DT_FLOAT", "tensorShape": {"dim": [{"size": "512"}, {"size": "1024"}]}}}, "dtype": {"type": "DT_FLOAT"}}}, {"name": "g_synthesis/strided_slice_5/stack_1", "op": "Const", "attr": {"value": {"tensor": {"dtype": "DT_INT32", "tensorShape": {"dim": [{"size": "2"}]}}}, "dtype": {"type": "DT_INT32"}}}, {"name": "g_synthesis/16x16/Conv1/Reshape", "op": "Const", "attr": {"value": {"tensor": {"dtype": "DT_FLOAT", "tensorShape": {"dim": [{"size": "1"}, {"size": "512"}, {"size": "1"}, {"size": "1"}]}}}, "dtype": {"type": "DT_FLOAT"}}}, {"name": "g_synthesis/16x16/Conv0_up/Noise/random_uniform/shape/2", "op": "Const", "attr": {"value": {"tensor": {"dtype": "DT_INT32", "tensorShape": {}}}, "dtype": {"type": "DT_INT32"}}}, {"name": "g_synthesis/16x16/Conv1/mul", "op": "Const", "attr": {"value": {"tensor": {"dtype": "DT_FLOAT", "tensorShape": {"dim": [{"size": "3"}, {"size": "3"}, {"size": "512"}, {"size": "512"}]}}}, "dtype": {"type": "DT_FLOAT"}}}, {"name": "g_synthesis/16x16/Conv0_up/StyleMod/mul_1", "op": "Const", "attr": {"value": {"tensor": {"dtype": "DT_FLOAT", "tensorShape": {"dim": [{"size": "1024"}]}}}, "dtype": {"type": "DT_FLOAT"}}}, {"name": "g_synthesis/16x16/Conv0_up/StyleMod/mul", "op": "Const", "attr": {"value": {"tensor": {"dtype": "DT_FLOAT", "tensorShape": {"dim": [{"size": "512"}, {"size": "1024"}]}}}, "dtype": {"type": "DT_FLOAT"}}}, {"name": "g_synthesis/strided_slice_4/stack_1", "op": "Const", "attr": {"value": {"tensor": {"dtype": "DT_INT32", "tensorShape": {"dim": [{"size": "2"}]}}}, "dtype": {"type": "DT_INT32"}}}, {"name": "g_synthesis/16x16/Conv0_up/Reshape_2", "op": "Const", "attr": {"value": {"tensor": {"dtype": "DT_FLOAT", "tensorShape": {"dim": [{"size": "1"}, {"size": "512"}, {"size": "1"}, {"size": "1"}]}}}, "dtype": {"type": "DT_FLOAT"}}}, {"name": "g_synthesis/16x16/Conv0_up/mul", "op": "Const", "attr": {"value": {"tensor": {"dtype": "DT_FLOAT", "tensorShape": {"dim": [{"size": "3"}, {"size": "3"}, {"size": "512"}, {"size": "512"}]}}}, "dtype": {"type": "DT_FLOAT"}}}, {"name": "g_synthesis/16x16/Conv0_up/Reshape_1/shape", "op": "Const", "attr": {"value": {"tensor": {"dtype": "DT_INT32", "tensorShape": {"dim": [{"size": "4"}]}}}, "dtype": {"type": "DT_INT32"}}}, {"name": "g_synthesis/16x16/Conv0_up/Reshape/shape", "op": "Const", "attr": {"value": {"tensor": {"dtype": "DT_INT32", "tensorShape": {"dim": [{"size": "6"}]}}}, "dtype": {"type": "DT_INT32"}}}, {"name": "g_synthesis/8x8/Conv1/StyleMod/mul_1", "op": "Const", "attr": {"value": {"tensor": {"dtype": "DT_FLOAT", "tensorShape": {"dim": [{"size": "1024"}]}}}, "dtype": {"type": "DT_FLOAT"}}}, {"name": "g_synthesis/8x8/Conv1/StyleMod/mul", "op": "Const", "attr": {"value": {"tensor": {"dtype": "DT_FLOAT", "tensorShape": {"dim": [{"size": "512"}, {"size": "1024"}]}}}, "dtype": {"type": "DT_FLOAT"}}}, {"name": "g_synthesis/strided_slice_3/stack_1", "op": "Const", "attr": {"value": {"tensor": {"dtype": "DT_INT32", "tensorShape": {"dim": [{"size": "2"}]}}}, "dtype": {"type": "DT_INT32"}}}, {"name": "g_synthesis/8x8/Conv1/Reshape", "op": "Const", "attr": {"value": {"tensor": {"dtype": "DT_FLOAT", "tensorShape": {"dim": [{"size": "1"}, {"size": "512"}, {"size": "1"}, {"size": "1"}]}}}, "dtype": {"type": "DT_FLOAT"}}}, {"name": "g_synthesis/8x8/Conv0_up/Noise/random_uniform/shape/2", "op": "Const", "attr": {"value": {"tensor": {"dtype": "DT_INT32", "tensorShape": {}}}, "dtype": {"type": "DT_INT32"}}}, {"name": "g_synthesis/8x8/Conv1/mul", "op": "Const", "attr": {"value": {"tensor": {"dtype": "DT_FLOAT", "tensorShape": {"dim": [{"size": "3"}, {"size": "3"}, {"size": "512"}, {"size": "512"}]}}}, "dtype": {"type": "DT_FLOAT"}}}, {"name": "g_synthesis/8x8/Conv0_up/StyleMod/mul_1", "op": "Const", "attr": {"value": {"tensor": {"dtype": "DT_FLOAT", "tensorShape": {"dim": [{"size": "1024"}]}}}, "dtype": {"type": "DT_FLOAT"}}}, {"name": "g_synthesis/8x8/Conv0_up/StyleMod/mul", "op": "Const", "attr": {"value": {"tensor": {"dtype": "DT_FLOAT", "tensorShape": {"dim": [{"size": "512"}, {"size": "1024"}]}}}, "dtype": {"type": "DT_FLOAT"}}}, {"name": "g_synthesis/8x8/Conv0_up/Reshape_2", "op": "Const", "attr": {"value": {"tensor": {"dtype": "DT_FLOAT", "tensorShape": {"dim": [{"size": "1"}, {"size": "512"}, {"size": "1"}, {"size": "1"}]}}}, "dtype": {"type": "DT_FLOAT"}}}, {"name": "g_synthesis/8x8/Conv0_up/mul", "op": "Const", "attr": {"value": {"tensor": {"dtype": "DT_FLOAT", "tensorShape": {"dim": [{"size": "3"}, {"size": "3"}, {"size": "512"}, {"size": "512"}]}}}, "dtype": {"type": "DT_FLOAT"}}}, {"name": "g_synthesis/8x8/Conv0_up/Reshape_1/shape", "op": "Const", "attr": {"value": {"tensor": {"dtype": "DT_INT32", "tensorShape": {"dim": [{"size": "4"}]}}}, "dtype": {"type": "DT_INT32"}}}, {"name": "g_synthesis/8x8/Conv0_up/Reshape/shape", "op": "Const", "attr": {"value": {"tensor": {"dtype": "DT_INT32", "tensorShape": {"dim": [{"size": "6"}]}}}, "dtype": {"type": "DT_INT32"}}}, {"name": "g_synthesis/4x4/Conv/StyleMod/mul_1", "op": "Const", "attr": {"value": {"tensor": {"dtype": "DT_FLOAT", "tensorShape": {"dim": [{"size": "1024"}]}}}, "dtype": {"type": "DT_FLOAT"}}}, {"name": "g_synthesis/4x4/Conv/StyleMod/mul", "op": "Const", "attr": {"value": {"tensor": {"dtype": "DT_FLOAT", "tensorShape": {"dim": [{"size": "512"}, {"size": "1024"}]}}}, "dtype": {"type": "DT_FLOAT"}}}, {"name": "g_synthesis/4x4/Conv/Reshape", "op": "Const", "attr": {"value": {"tensor": {"dtype": "DT_FLOAT", "tensorShape": {"dim": [{"size": "1"}, {"size": "512"}, {"size": "1"}, {"size": "1"}]}}}, "dtype": {"type": "DT_FLOAT"}}}, {"name": "g_synthesis/4x4/Const/Noise/random_uniform/shape/2", "op": "Const", "attr": {"value": {"tensor": {"dtype": "DT_INT32", "tensorShape": {}}}, "dtype": {"type": "DT_INT32"}}}, {"name": "g_synthesis/4x4/Conv/mul", "op": "Const", "attr": {"value": {"tensor": {"dtype": "DT_FLOAT", "tensorShape": {"dim": [{"size": "3"}, {"size": "3"}, {"size": "512"}, {"size": "512"}]}}}, "dtype": {"type": "DT_FLOAT"}}}, {"name": "g_synthesis/4x4/Const/StyleMod/mul_1", "op": "Const", "attr": {"value": {"tensor": {"dtype": "DT_FLOAT", "tensorShape": {"dim": [{"size": "1024"}]}}}, "dtype": {"type": "DT_FLOAT"}}}, {"name": "g_synthesis/4x4/Const/StyleMod/mul", "op": "Const", "attr": {"value": {"tensor": {"dtype": "DT_FLOAT", "tensorShape": {"dim": [{"size": "512"}, {"size": "1024"}]}}}, "dtype": {"type": "DT_FLOAT"}}}, {"name": "g_synthesis/4x4/Const/const", "op": "Const", "attr": {"value": {"tensor": {"dtype": "DT_FLOAT", "tensorShape": {"dim": [{"size": "1"}, {"size": "512"}, {"size": "4"}, {"size": "4"}]}}}, "dtype": {"type": "DT_FLOAT"}}}, {"name": "g_synthesis/4x4/Const/Reshape", "op": "Const", "attr": {"value": {"tensor": {"dtype": "DT_FLOAT", "tensorShape": {"dim": [{"size": "1"}, {"size": "512"}, {"size": "1"}, {"size": "1"}]}}}, "dtype": {"type": "DT_FLOAT"}}}, {"name": "g_synthesis/4x4/Const/Noise/Reshape", "op": "Const", "attr": {"value": {"tensor": {"dtype": "DT_FLOAT", "tensorShape": {"dim": [{"size": "1"}, {"size": "512"}, {"size": "1"}, {"size": "1"}]}}}, "dtype": {"type": "DT_FLOAT"}}}, {"name": "g_synthesis/4x4/Conv/Noise/Reshape", "op": "Const", "attr": {"value": {"tensor": {"dtype": "DT_FLOAT", "tensorShape": {"dim": [{"size": "1"}, {"size": "512"}, {"size": "1"}, {"size": "1"}]}}}, "dtype": {"type": "DT_FLOAT"}}}, {"name": "g_synthesis/8x8/Conv0_up/Noise/Reshape", "op": "Const", "attr": {"value": {"tensor": {"dtype": "DT_FLOAT", "tensorShape": {"dim": [{"size": "1"}, {"size": "512"}, {"size": "1"}, {"size": "1"}]}}}, "dtype": {"type": "DT_FLOAT"}}}, {"name": "g_synthesis/8x8/Conv1/Noise/Reshape", "op": "Const", "attr": {"value": {"tensor": {"dtype": "DT_FLOAT", "tensorShape": {"dim": [{"size": "1"}, {"size": "512"}, {"size": "1"}, {"size": "1"}]}}}, "dtype": {"type": "DT_FLOAT"}}}, {"name": "g_synthesis/16x16/Conv0_up/Noise/Reshape", "op": "Const", "attr": {"value": {"tensor": {"dtype": "DT_FLOAT", "tensorShape": {"dim": [{"size": "1"}, {"size": "512"}, {"size": "1"}, {"size": "1"}]}}}, "dtype": {"type": "DT_FLOAT"}}}, {"name": "g_synthesis/16x16/Conv1/Noise/Reshape", "op": "Const", "attr": {"value": {"tensor": {"dtype": "DT_FLOAT", "tensorShape": {"dim": [{"size": "1"}, {"size": "512"}, {"size": "1"}, {"size": "1"}]}}}, "dtype": {"type": "DT_FLOAT"}}}, {"name": "g_synthesis/32x32/Conv0_up/Noise/Reshape", "op": "Const", "attr": {"value": {"tensor": {"dtype": "DT_FLOAT", "tensorShape": {"dim": [{"size": "1"}, {"size": "512"}, {"size": "1"}, {"size": "1"}]}}}, "dtype": {"type": "DT_FLOAT"}}}, {"name": "g_synthesis/32x32/Conv1/Noise/Reshape", "op": "Const", "attr": {"value": {"tensor": {"dtype": "DT_FLOAT", "tensorShape": {"dim": [{"size": "1"}, {"size": "512"}, {"size": "1"}, {"size": "1"}]}}}, "dtype": {"type": "DT_FLOAT"}}}, {"name": "g_synthesis/64x64/Conv0_up/Noise/Reshape", "op": "Const", "attr": {"value": {"tensor": {"dtype": "DT_FLOAT", "tensorShape": {"dim": [{"size": "1"}, {"size": "256"}, {"size": "1"}, {"size": "1"}]}}}, "dtype": {"type": "DT_FLOAT"}}}, {"name": "g_synthesis/64x64/Conv1/Noise/Reshape", "op": "Const", "attr": {"value": {"tensor": {"dtype": "DT_FLOAT", "tensorShape": {"dim": [{"size": "1"}, {"size": "256"}, {"size": "1"}, {"size": "1"}]}}}, "dtype": {"type": "DT_FLOAT"}}}, {"name": "g_synthesis/128x128/Conv0_up/AddN", "op": "Const", "attr": {"value": {"tensor": {"dtype": "DT_FLOAT", "tensorShape": {"dim": [{"size": "4"}, {"size": "4"}, {"size": "128"}, {"size": "256"}]}}}, "dtype": {"type": "DT_FLOAT"}}}, {"name": "g_synthesis/128x128/Conv0_up/Noise/Reshape", "op": "Const", "attr": {"value": {"tensor": {"dtype": "DT_FLOAT", "tensorShape": {"dim": [{"size": "1"}, {"size": "128"}, {"size": "1"}, {"size": "1"}]}}}, "dtype": {"type": "DT_FLOAT"}}}, {"name": "g_synthesis/128x128/Conv1/Noise/Reshape", "op": "Const", "attr": {"value": {"tensor": {"dtype": "DT_FLOAT", "tensorShape": {"dim": [{"size": "1"}, {"size": "128"}, {"size": "1"}, {"size": "1"}]}}}, "dtype": {"type": "DT_FLOAT"}}}, {"name": "g_synthesis/256x256/Conv0_up/AddN", "op": "Const", "attr": {"value": {"tensor": {"dtype": "DT_FLOAT", "tensorShape": {"dim": [{"size": "4"}, {"size": "4"}, {"size": "64"}, {"size": "128"}]}}}, "dtype": {"type": "DT_FLOAT"}}}, {"name": "g_synthesis/256x256/Conv0_up/Noise/Reshape", "op": "Const", "attr": {"value": {"tensor": {"dtype": "DT_FLOAT", "tensorShape": {"dim": [{"size": "1"}, {"size": "64"}, {"size": "1"}, {"size": "1"}]}}}, "dtype": {"type": "DT_FLOAT"}}}, {"name": "g_synthesis/256x256/Conv1/Noise/Reshape", "op": "Const", "attr": {"value": {"tensor": {"dtype": "DT_FLOAT", "tensorShape": {"dim": [{"size": "1"}, {"size": "64"}, {"size": "1"}, {"size": "1"}]}}}, "dtype": {"type": "DT_FLOAT"}}}, {"name": "g_synthesis/512x512/Conv0_up/AddN", "op": "Const", "attr": {"value": {"tensor": {"dtype": "DT_FLOAT", "tensorShape": {"dim": [{"size": "4"}, {"size": "4"}, {"size": "32"}, {"size": "64"}]}}}, "dtype": {"type": "DT_FLOAT"}}}, {"name": "g_synthesis/512x512/Conv0_up/Noise/Reshape", "op": "Const", "attr": {"value": {"tensor": {"dtype": "DT_FLOAT", "tensorShape": {"dim": [{"size": "1"}, {"size": "32"}, {"size": "1"}, {"size": "1"}]}}}, "dtype": {"type": "DT_FLOAT"}}}, {"name": "g_synthesis/512x512/Conv1/Noise/Reshape", "op": "Const", "attr": {"value": {"tensor": {"dtype": "DT_FLOAT", "tensorShape": {"dim": [{"size": "1"}, {"size": "32"}, {"size": "1"}, {"size": "1"}]}}}, "dtype": {"type": "DT_FLOAT"}}}, {"name": "g_synthesis/Reshape_13/shape", "op": "Const", "attr": {"value": {"tensor": {"dtype": "DT_INT32", "tensorShape": {"dim": [{"size": "4"}]}}}, "dtype": {"type": "DT_INT32"}}}, {"name": "g_synthesis/Reshape_12/shape", "op": "Const", "attr": {"value": {"tensor": {"dtype": "DT_INT32", "tensorShape": {"dim": [{"size": "6"}]}}}, "dtype": {"type": "DT_INT32"}}}, {"name": "g_synthesis/256x256_1/ToRGB/Reshape", "op": "Const", "attr": {"value": {"tensor": {"dtype": "DT_FLOAT", "tensorShape": {"dim": [{"size": "1"}, {"size": "3"}, {"size": "1"}, {"size": "1"}]}}}, "dtype": {"type": "DT_FLOAT"}}}, {"name": "g_synthesis/256x256_1/ToRGB/mul", "op": "Const", "attr": {"value": {"tensor": {"dtype": "DT_FLOAT", "tensorShape": {"dim": [{"size": "1"}, {"size": "1"}, {"size": "64"}, {"size": "3"}]}}}, "dtype": {"type": "DT_FLOAT"}}}, {"name": "g_synthesis/Reshape_11/shape", "op": "Const", "attr": {"value": {"tensor": {"dtype": "DT_INT32", "tensorShape": {"dim": [{"size": "4"}]}}}, "dtype": {"type": "DT_INT32"}}}, {"name": "g_synthesis/Reshape_10/shape", "op": "Const", "attr": {"value": {"tensor": {"dtype": "DT_INT32", "tensorShape": {"dim": [{"size": "6"}]}}}, "dtype": {"type": "DT_INT32"}}}, {"name": "g_synthesis/128x128_1/ToRGB/Reshape", "op": "Const", "attr": {"value": {"tensor": {"dtype": "DT_FLOAT", "tensorShape": {"dim": [{"size": "1"}, {"size": "3"}, {"size": "1"}, {"size": "1"}]}}}, "dtype": {"type": "DT_FLOAT"}}}, {"name": "g_synthesis/128x128_1/ToRGB/mul", "op": "Const", "attr": {"value": {"tensor": {"dtype": "DT_FLOAT", "tensorShape": {"dim": [{"size": "1"}, {"size": "1"}, {"size": "128"}, {"size": "3"}]}}}, "dtype": {"type": "DT_FLOAT"}}}, {"name": "g_synthesis/Reshape_9/shape", "op": "Const", "attr": {"value": {"tensor": {"dtype": "DT_INT32", "tensorShape": {"dim": [{"size": "4"}]}}}, "dtype": {"type": "DT_INT32"}}}, {"name": "g_synthesis/Reshape_8/shape", "op": "Const", "attr": {"value": {"tensor": {"dtype": "DT_INT32", "tensorShape": {"dim": [{"size": "6"}]}}}, "dtype": {"type": "DT_INT32"}}}, {"name": "g_synthesis/64x64_1/ToRGB/Reshape", "op": "Const", "attr": {"value": {"tensor": {"dtype": "DT_FLOAT", "tensorShape": {"dim": [{"size": "1"}, {"size": "3"}, {"size": "1"}, {"size": "1"}]}}}, "dtype": {"type": "DT_FLOAT"}}}, {"name": "g_synthesis/64x64_1/ToRGB/mul", "op": "Const", "attr": {"value": {"tensor": {"dtype": "DT_FLOAT", "tensorShape": {"dim": [{"size": "1"}, {"size": "1"}, {"size": "256"}, {"size": "3"}]}}}, "dtype": {"type": "DT_FLOAT"}}}, {"name": "g_synthesis/Reshape_7/shape", "op": "Const", "attr": {"value": {"tensor": {"dtype": "DT_INT32", "tensorShape": {"dim": [{"size": "4"}]}}}, "dtype": {"type": "DT_INT32"}}}, {"name": "g_synthesis/Reshape_6/shape", "op": "Const", "attr": {"value": {"tensor": {"dtype": "DT_INT32", "tensorShape": {"dim": [{"size": "6"}]}}}, "dtype": {"type": "DT_INT32"}}}, {"name": "g_synthesis/32x32_1/ToRGB/Reshape", "op": "Const", "attr": {"value": {"tensor": {"dtype": "DT_FLOAT", "tensorShape": {"dim": [{"size": "1"}, {"size": "3"}, {"size": "1"}, {"size": "1"}]}}}, "dtype": {"type": "DT_FLOAT"}}}, {"name": "g_synthesis/32x32_1/ToRGB/mul", "op": "Const", "attr": {"value": {"tensor": {"dtype": "DT_FLOAT", "tensorShape": {"dim": [{"size": "1"}, {"size": "1"}, {"size": "512"}, {"size": "3"}]}}}, "dtype": {"type": "DT_FLOAT"}}}, {"name": "g_synthesis/Reshape_5/shape", "op": "Const", "attr": {"value": {"tensor": {"dtype": "DT_INT32", "tensorShape": {"dim": [{"size": "4"}]}}}, "dtype": {"type": "DT_INT32"}}}, {"name": "g_synthesis/Reshape_4/shape", "op": "Const", "attr": {"value": {"tensor": {"dtype": "DT_INT32", "tensorShape": {"dim": [{"size": "6"}]}}}, "dtype": {"type": "DT_INT32"}}}, {"name": "g_synthesis/16x16_1/ToRGB/Reshape", "op": "Const", "attr": {"value": {"tensor": {"dtype": "DT_FLOAT", "tensorShape": {"dim": [{"size": "1"}, {"size": "3"}, {"size": "1"}, {"size": "1"}]}}}, "dtype": {"type": "DT_FLOAT"}}}, {"name": "g_synthesis/16x16_1/ToRGB/mul", "op": "Const", "attr": {"value": {"tensor": {"dtype": "DT_FLOAT", "tensorShape": {"dim": [{"size": "1"}, {"size": "1"}, {"size": "512"}, {"size": "3"}]}}}, "dtype": {"type": "DT_FLOAT"}}}, {"name": "g_synthesis/Reshape_3/shape", "op": "Const", "attr": {"value": {"tensor": {"dtype": "DT_INT32", "tensorShape": {"dim": [{"size": "4"}]}}}, "dtype": {"type": "DT_INT32"}}}, {"name": "g_synthesis/Reshape_2/shape", "op": "Const", "attr": {"value": {"tensor": {"dtype": "DT_INT32", "tensorShape": {"dim": [{"size": "6"}]}}}, "dtype": {"type": "DT_INT32"}}}, {"name": "g_synthesis/8x8_1/ToRGB/Reshape", "op": "Const", "attr": {"value": {"tensor": {"dtype": "DT_FLOAT", "tensorShape": {"dim": [{"size": "1"}, {"size": "3"}, {"size": "1"}, {"size": "1"}]}}}, "dtype": {"type": "DT_FLOAT"}}}, {"name": "g_synthesis/8x8_1/ToRGB/mul", "op": "Const", "attr": {"value": {"tensor": {"dtype": "DT_FLOAT", "tensorShape": {"dim": [{"size": "1"}, {"size": "1"}, {"size": "512"}, {"size": "3"}]}}}, "dtype": {"type": "DT_FLOAT"}}}, {"name": "g_synthesis/Reshape_1/shape", "op": "Const", "attr": {"value": {"tensor": {"dtype": "DT_INT32", "tensorShape": {"dim": [{"size": "4"}]}}}, "dtype": {"type": "DT_INT32"}}}, {"name": "g_synthesis/Reshape/shape", "op": "Const", "attr": {"value": {"tensor": {"dtype": "DT_INT32", "tensorShape": {"dim": [{"size": "6"}]}}}, "dtype": {"type": "DT_INT32"}}}, {"name": "g_synthesis/4x4_1/ToRGB/mul", "op": "Const", "attr": {"value": {"tensor": {"dtype": "DT_FLOAT", "tensorShape": {"dim": [{"size": "1"}, {"size": "1"}, {"size": "512"}, {"size": "3"}]}}}, "dtype": {"type": "DT_FLOAT"}}}, {"name": "g_mapping/PixelNorm/Square", "op": "Square", "input": ["z"], "attr": {"T": {"type": "DT_FLOAT"}}}, {"name": "g_mapping/PixelNorm/Mean", "op": "Mean", "input": ["g_mapping/PixelNorm/Square", "g_synthesis/4x4/Const/Tile/multiples/1"], "attr": {"keep_dims": {"b": true}, "Tidx": {"type": "DT_INT32"}, "T": {"type": "DT_FLOAT"}}}, {"name": "g_mapping/PixelNorm/add", "op": "Add", "input": ["g_mapping/PixelNorm/Mean", "g_synthesis/4x4/Const/InstanceNorm/epsilon"], "attr": {"T": {"type": "DT_FLOAT"}}}, {"name": "g_mapping/PixelNorm/Rsqrt", "op": "Rsqrt", "input": ["g_mapping/PixelNorm/add"], "attr": {"T": {"type": "DT_FLOAT"}}}, {"name": "g_mapping/PixelNorm/mul", "op": "Mul", "input": ["g_mapping/PixelNorm/Rsqrt", "z"], "attr": {"T": {"type": "DT_FLOAT"}}}, {"name": "g_mapping/Dense0/flatten/Shape", "op": "Shape", "input": ["g_mapping/PixelNorm/mul"], "attr": {"T": {"type": "DT_FLOAT"}, "out_type": {"type": "DT_INT32"}}}, {"name": "g_mapping/Dense0/flatten/strided_slice", "op": "StridedSlice", "input": ["g_mapping/Dense0/flatten/Shape", "g_synthesis/512x512/Conv0_up/strided_slice_4/stack", "g_synthesis/512x512/Conv0_up/strided_slice_4/stack_1", "g_synthesis/512x512/Conv0_up/strided_slice_4/stack_1"], "attr": {"T": {"type": "DT_INT32"}, "Index": {"type": "DT_INT32"}, "shrink_axis_mask": {"i": "1"}, "begin_mask": {"i": "0"}, "ellipsis_mask": {"i": "0"}, "new_axis_mask": {"i": "0"}, "end_mask": {"i": "0"}}}, {"name": "g_mapping/Dense0/flatten/Reshape/shape", "op": "Pack", "input": ["g_mapping/Dense0/flatten/strided_slice", "g_synthesis/4x4/Const/StyleMod/flatten/Reshape/shape/1"], "attr": {"T": {"type": "DT_INT32"}, "axis": {"i": "0"}, "N": {"i": "2"}}}, {"name": "g_mapping/Dense0/flatten/Reshape", "op": "Reshape", "input": ["g_mapping/PixelNorm/mul", "g_mapping/Dense0/flatten/Reshape/shape"], "attr": {"T": {"type": "DT_FLOAT"}, "Tshape": {"type": "DT_INT32"}}}, {"name": "g_mapping/Dense0/MatMul", "op": "MatMul", "input": ["g_mapping/Dense0/flatten/Reshape", "g_mapping/Dense0/mul"], "attr": {"transpose_b": {"b": false}, "T": {"type": "DT_FLOAT"}, "transpose_a": {"b": false}}}, {"name": "g_mapping/Dense0/add", "op": "Add", "input": ["g_mapping/Dense0/MatMul", "g_mapping/Dense0/mul_1"], "attr": {"T": {"type": "DT_FLOAT"}}}, {"name": "g_mapping/Dense0/LeakyRelu", "op": "LeakyRelu", "input": ["g_mapping/Dense0/add"], "attr": {"T": {"type": "DT_FLOAT"}, "alpha": {"f": 0.20000000298023224}}}, {"name": "g_mapping/Dense1/flatten/Shape", "op": "Shape", "input": ["g_mapping/Dense0/LeakyRelu"], "attr": {"T": {"type": "DT_FLOAT"}, "out_type": {"type": "DT_INT32"}}}, {"name": "g_mapping/Dense1/flatten/strided_slice", "op": "StridedSlice", "input": ["g_mapping/Dense1/flatten/Shape", "g_synthesis/512x512/Conv0_up/strided_slice_4/stack", "g_synthesis/512x512/Conv0_up/strided_slice_4/stack_1", "g_synthesis/512x512/Conv0_up/strided_slice_4/stack_1"], "attr": {"T": {"type": "DT_INT32"}, "Index": {"type": "DT_INT32"}, "shrink_axis_mask": {"i": "1"}, "begin_mask": {"i": "0"}, "ellipsis_mask": {"i": "0"}, "new_axis_mask": {"i": "0"}, "end_mask": {"i": "0"}}}, {"name": "g_mapping/Dense1/flatten/Reshape/shape", "op": "Pack", "input": ["g_mapping/Dense1/flatten/strided_slice", "g_synthesis/4x4/Const/StyleMod/flatten/Reshape/shape/1"], "attr": {"T": {"type": "DT_INT32"}, "axis": {"i": "0"}, "N": {"i": "2"}}}, {"name": "g_mapping/Dense1/flatten/Reshape", "op": "Reshape", "input": ["g_mapping/Dense0/LeakyRelu", "g_mapping/Dense1/flatten/Reshape/shape"], "attr": {"T": {"type": "DT_FLOAT"}, "Tshape": {"type": "DT_INT32"}}}, {"name": "g_mapping/Dense1/MatMul", "op": "MatMul", "input": ["g_mapping/Dense1/flatten/Reshape", "g_mapping/Dense1/mul"], "attr": {"transpose_b": {"b": false}, "T": {"type": "DT_FLOAT"}, "transpose_a": {"b": false}}}, {"name": "g_mapping/Dense1/add", "op": "Add", "input": ["g_mapping/Dense1/MatMul", "g_mapping/Dense1/mul_1"], "attr": {"T": {"type": "DT_FLOAT"}}}, {"name": "g_mapping/Dense1/LeakyRelu", "op": "LeakyRelu", "input": ["g_mapping/Dense1/add"], "attr": {"T": {"type": "DT_FLOAT"}, "alpha": {"f": 0.20000000298023224}}}, {"name": "g_mapping/Dense2/flatten/Shape", "op": "Shape", "input": ["g_mapping/Dense1/LeakyRelu"], "attr": {"T": {"type": "DT_FLOAT"}, "out_type": {"type": "DT_INT32"}}}, {"name": "g_mapping/Dense2/flatten/strided_slice", "op": "StridedSlice", "input": ["g_mapping/Dense2/flatten/Shape", "g_synthesis/512x512/Conv0_up/strided_slice_4/stack", "g_synthesis/512x512/Conv0_up/strided_slice_4/stack_1", "g_synthesis/512x512/Conv0_up/strided_slice_4/stack_1"], "attr": {"T": {"type": "DT_INT32"}, "Index": {"type": "DT_INT32"}, "shrink_axis_mask": {"i": "1"}, "begin_mask": {"i": "0"}, "ellipsis_mask": {"i": "0"}, "new_axis_mask": {"i": "0"}, "end_mask": {"i": "0"}}}, {"name": "g_mapping/Dense2/flatten/Reshape/shape", "op": "Pack", "input": ["g_mapping/Dense2/flatten/strided_slice", "g_synthesis/4x4/Const/StyleMod/flatten/Reshape/shape/1"], "attr": {"T": {"type": "DT_INT32"}, "axis": {"i": "0"}, "N": {"i": "2"}}}, {"name": "g_mapping/Dense2/flatten/Reshape", "op": "Reshape", "input": ["g_mapping/Dense1/LeakyRelu", "g_mapping/Dense2/flatten/Reshape/shape"], "attr": {"T": {"type": "DT_FLOAT"}, "Tshape": {"type": "DT_INT32"}}}, {"name": "g_mapping/Dense2/MatMul", "op": "MatMul", "input": ["g_mapping/Dense2/flatten/Reshape", "g_mapping/Dense2/mul"], "attr": {"transpose_b": {"b": false}, "T": {"type": "DT_FLOAT"}, "transpose_a": {"b": false}}}, {"name": "g_mapping/Dense2/add", "op": "Add", "input": ["g_mapping/Dense2/MatMul", "g_mapping/Dense2/mul_1"], "attr": {"T": {"type": "DT_FLOAT"}}}, {"name": "g_mapping/Dense2/LeakyRelu", "op": "LeakyRelu", "input": ["g_mapping/Dense2/add"], "attr": {"T": {"type": "DT_FLOAT"}, "alpha": {"f": 0.20000000298023224}}}, {"name": "g_mapping/Dense3/flatten/Shape", "op": "Shape", "input": ["g_mapping/Dense2/LeakyRelu"], "attr": {"T": {"type": "DT_FLOAT"}, "out_type": {"type": "DT_INT32"}}}, {"name": "g_mapping/Dense3/flatten/strided_slice", "op": "StridedSlice", "input": ["g_mapping/Dense3/flatten/Shape", "g_synthesis/512x512/Conv0_up/strided_slice_4/stack", "g_synthesis/512x512/Conv0_up/strided_slice_4/stack_1", "g_synthesis/512x512/Conv0_up/strided_slice_4/stack_1"], "attr": {"T": {"type": "DT_INT32"}, "Index": {"type": "DT_INT32"}, "shrink_axis_mask": {"i": "1"}, "begin_mask": {"i": "0"}, "ellipsis_mask": {"i": "0"}, "new_axis_mask": {"i": "0"}, "end_mask": {"i": "0"}}}, {"name": "g_mapping/Dense3/flatten/Reshape/shape", "op": "Pack", "input": ["g_mapping/Dense3/flatten/strided_slice", "g_synthesis/4x4/Const/StyleMod/flatten/Reshape/shape/1"], "attr": {"T": {"type": "DT_INT32"}, "axis": {"i": "0"}, "N": {"i": "2"}}}, {"name": "g_mapping/Dense3/flatten/Reshape", "op": "Reshape", "input": ["g_mapping/Dense2/LeakyRelu", "g_mapping/Dense3/flatten/Reshape/shape"], "attr": {"T": {"type": "DT_FLOAT"}, "Tshape": {"type": "DT_INT32"}}}, {"name": "g_mapping/Dense3/MatMul", "op": "MatMul", "input": ["g_mapping/Dense3/flatten/Reshape", "g_mapping/Dense3/mul"], "attr": {"transpose_b": {"b": false}, "T": {"type": "DT_FLOAT"}, "transpose_a": {"b": false}}}, {"name": "g_mapping/Dense3/add", "op": "Add", "input": ["g_mapping/Dense3/MatMul", "g_mapping/Dense3/mul_1"], "attr": {"T": {"type": "DT_FLOAT"}}}, {"name": "g_mapping/Dense3/LeakyRelu", "op": "LeakyRelu", "input": ["g_mapping/Dense3/add"], "attr": {"T": {"type": "DT_FLOAT"}, "alpha": {"f": 0.20000000298023224}}}, {"name": "g_mapping/Dense4/flatten/Shape", "op": "Shape", "input": ["g_mapping/Dense3/LeakyRelu"], "attr": {"T": {"type": "DT_FLOAT"}, "out_type": {"type": "DT_INT32"}}}, {"name": "g_mapping/Dense4/flatten/strided_slice", "op": "StridedSlice", "input": ["g_mapping/Dense4/flatten/Shape", "g_synthesis/512x512/Conv0_up/strided_slice_4/stack", "g_synthesis/512x512/Conv0_up/strided_slice_4/stack_1", "g_synthesis/512x512/Conv0_up/strided_slice_4/stack_1"], "attr": {"T": {"type": "DT_INT32"}, "Index": {"type": "DT_INT32"}, "shrink_axis_mask": {"i": "1"}, "begin_mask": {"i": "0"}, "ellipsis_mask": {"i": "0"}, "new_axis_mask": {"i": "0"}, "end_mask": {"i": "0"}}}, {"name": "g_mapping/Dense4/flatten/Reshape/shape", "op": "Pack", "input": ["g_mapping/Dense4/flatten/strided_slice", "g_synthesis/4x4/Const/StyleMod/flatten/Reshape/shape/1"], "attr": {"T": {"type": "DT_INT32"}, "axis": {"i": "0"}, "N": {"i": "2"}}}, {"name": "g_mapping/Dense4/flatten/Reshape", "op": "Reshape", "input": ["g_mapping/Dense3/LeakyRelu", "g_mapping/Dense4/flatten/Reshape/shape"], "attr": {"T": {"type": "DT_FLOAT"}, "Tshape": {"type": "DT_INT32"}}}, {"name": "g_mapping/Dense4/MatMul", "op": "MatMul", "input": ["g_mapping/Dense4/flatten/Reshape", "g_mapping/Dense4/mul"], "attr": {"transpose_b": {"b": false}, "T": {"type": "DT_FLOAT"}, "transpose_a": {"b": false}}}, {"name": "g_mapping/Dense4/add", "op": "Add", "input": ["g_mapping/Dense4/MatMul", "g_mapping/Dense4/mul_1"], "attr": {"T": {"type": "DT_FLOAT"}}}, {"name": "g_mapping/Dense4/LeakyRelu", "op": "LeakyRelu", "input": ["g_mapping/Dense4/add"], "attr": {"T": {"type": "DT_FLOAT"}, "alpha": {"f": 0.20000000298023224}}}, {"name": "g_mapping/Dense5/flatten/Shape", "op": "Shape", "input": ["g_mapping/Dense4/LeakyRelu"], "attr": {"T": {"type": "DT_FLOAT"}, "out_type": {"type": "DT_INT32"}}}, {"name": "g_mapping/Dense5/flatten/strided_slice", "op": "StridedSlice", "input": ["g_mapping/Dense5/flatten/Shape", "g_synthesis/512x512/Conv0_up/strided_slice_4/stack", "g_synthesis/512x512/Conv0_up/strided_slice_4/stack_1", "g_synthesis/512x512/Conv0_up/strided_slice_4/stack_1"], "attr": {"T": {"type": "DT_INT32"}, "Index": {"type": "DT_INT32"}, "shrink_axis_mask": {"i": "1"}, "begin_mask": {"i": "0"}, "ellipsis_mask": {"i": "0"}, "new_axis_mask": {"i": "0"}, "end_mask": {"i": "0"}}}, {"name": "g_mapping/Dense5/flatten/Reshape/shape", "op": "Pack", "input": ["g_mapping/Dense5/flatten/strided_slice", "g_synthesis/4x4/Const/StyleMod/flatten/Reshape/shape/1"], "attr": {"T": {"type": "DT_INT32"}, "axis": {"i": "0"}, "N": {"i": "2"}}}, {"name": "g_mapping/Dense5/flatten/Reshape", "op": "Reshape", "input": ["g_mapping/Dense4/LeakyRelu", "g_mapping/Dense5/flatten/Reshape/shape"], "attr": {"T": {"type": "DT_FLOAT"}, "Tshape": {"type": "DT_INT32"}}}, {"name": "g_mapping/Dense5/MatMul", "op": "MatMul", "input": ["g_mapping/Dense5/flatten/Reshape", "g_mapping/Dense5/mul"], "attr": {"transpose_b": {"b": false}, "T": {"type": "DT_FLOAT"}, "transpose_a": {"b": false}}}, {"name": "g_mapping/Dense5/add", "op": "Add", "input": ["g_mapping/Dense5/MatMul", "g_mapping/Dense5/mul_1"], "attr": {"T": {"type": "DT_FLOAT"}}}, {"name": "g_mapping/Dense5/LeakyRelu", "op": "LeakyRelu", "input": ["g_mapping/Dense5/add"], "attr": {"T": {"type": "DT_FLOAT"}, "alpha": {"f": 0.20000000298023224}}}, {"name": "g_mapping/Dense6/flatten/Shape", "op": "Shape", "input": ["g_mapping/Dense5/LeakyRelu"], "attr": {"T": {"type": "DT_FLOAT"}, "out_type": {"type": "DT_INT32"}}}, {"name": "g_mapping/Dense6/flatten/strided_slice", "op": "StridedSlice", "input": ["g_mapping/Dense6/flatten/Shape", "g_synthesis/512x512/Conv0_up/strided_slice_4/stack", "g_synthesis/512x512/Conv0_up/strided_slice_4/stack_1", "g_synthesis/512x512/Conv0_up/strided_slice_4/stack_1"], "attr": {"T": {"type": "DT_INT32"}, "Index": {"type": "DT_INT32"}, "shrink_axis_mask": {"i": "1"}, "begin_mask": {"i": "0"}, "ellipsis_mask": {"i": "0"}, "new_axis_mask": {"i": "0"}, "end_mask": {"i": "0"}}}, {"name": "g_mapping/Dense6/flatten/Reshape/shape", "op": "Pack", "input": ["g_mapping/Dense6/flatten/strided_slice", "g_synthesis/4x4/Const/StyleMod/flatten/Reshape/shape/1"], "attr": {"T": {"type": "DT_INT32"}, "axis": {"i": "0"}, "N": {"i": "2"}}}, {"name": "g_mapping/Dense6/flatten/Reshape", "op": "Reshape", "input": ["g_mapping/Dense5/LeakyRelu", "g_mapping/Dense6/flatten/Reshape/shape"], "attr": {"T": {"type": "DT_FLOAT"}, "Tshape": {"type": "DT_INT32"}}}, {"name": "g_mapping/Dense6/MatMul", "op": "MatMul", "input": ["g_mapping/Dense6/flatten/Reshape", "g_mapping/Dense6/mul"], "attr": {"transpose_b": {"b": false}, "T": {"type": "DT_FLOAT"}, "transpose_a": {"b": false}}}, {"name": "g_mapping/Dense6/add", "op": "Add", "input": ["g_mapping/Dense6/MatMul", "g_mapping/Dense6/mul_1"], "attr": {"T": {"type": "DT_FLOAT"}}}, {"name": "g_mapping/Dense6/LeakyRelu", "op": "LeakyRelu", "input": ["g_mapping/Dense6/add"], "attr": {"T": {"type": "DT_FLOAT"}, "alpha": {"f": 0.20000000298023224}}}, {"name": "g_mapping/Dense7/flatten/Shape", "op": "Shape", "input": ["g_mapping/Dense6/LeakyRelu"], "attr": {"T": {"type": "DT_FLOAT"}, "out_type": {"type": "DT_INT32"}}}, {"name": "g_mapping/Dense7/flatten/strided_slice", "op": "StridedSlice", "input": ["g_mapping/Dense7/flatten/Shape", "g_synthesis/512x512/Conv0_up/strided_slice_4/stack", "g_synthesis/512x512/Conv0_up/strided_slice_4/stack_1", "g_synthesis/512x512/Conv0_up/strided_slice_4/stack_1"], "attr": {"T": {"type": "DT_INT32"}, "Index": {"type": "DT_INT32"}, "shrink_axis_mask": {"i": "1"}, "begin_mask": {"i": "0"}, "ellipsis_mask": {"i": "0"}, "new_axis_mask": {"i": "0"}, "end_mask": {"i": "0"}}}, {"name": "g_mapping/Dense7/flatten/Reshape/shape", "op": "Pack", "input": ["g_mapping/Dense7/flatten/strided_slice", "g_synthesis/4x4/Const/StyleMod/flatten/Reshape/shape/1"], "attr": {"T": {"type": "DT_INT32"}, "axis": {"i": "0"}, "N": {"i": "2"}}}, {"name": "g_mapping/Dense7/flatten/Reshape", "op": "Reshape", "input": ["g_mapping/Dense6/LeakyRelu", "g_mapping/Dense7/flatten/Reshape/shape"], "attr": {"T": {"type": "DT_FLOAT"}, "Tshape": {"type": "DT_INT32"}}}, {"name": "g_mapping/Dense7/MatMul", "op": "MatMul", "input": ["g_mapping/Dense7/flatten/Reshape", "g_mapping/Dense7/mul"], "attr": {"transpose_b": {"b": false}, "T": {"type": "DT_FLOAT"}, "transpose_a": {"b": false}}}, {"name": "g_mapping/Dense7/add", "op": "Add", "input": ["g_mapping/Dense7/MatMul", "g_mapping/Dense7/mul_1"], "attr": {"T": {"type": "DT_FLOAT"}}}, {"name": "g_mapping/Dense7/LeakyRelu", "op": "LeakyRelu", "input": ["g_mapping/Dense7/add"], "attr": {"T": {"type": "DT_FLOAT"}, "alpha": {"f": 0.20000000298023224}}}, {"name": "g_mapping/Broadcast/ExpandDims", "op": "ExpandDims", "input": ["g_mapping/Dense7/LeakyRelu", "g_synthesis/4x4/Const/Tile/multiples/1"], "attr": {"Tdim": {"type": "DT_INT32"}, "T": {"type": "DT_FLOAT"}}}, {"name": "g_mapping/Broadcast/Tile", "op": "Tile", "input": ["g_mapping/Broadcast/ExpandDims", "g_mapping/Broadcast/Tile/multiples"], "attr": {"Tmultiples": {"type": "DT_INT32"}, "T": {"type": "DT_FLOAT"}}}, {"name": "Truncation/Lerp/sub", "op": "Sub", "input": ["g_mapping/Broadcast/Tile", "w_avg"], "attr": {"T": {"type": "DT_FLOAT"}}}, {"name": "Truncation/Lerp/mul", "op": "Mul", "input": ["Truncation/Lerp/sub", "Truncation/Select"], "attr": {"T": {"type": "DT_FLOAT"}}}, {"name": "Truncation/Lerp/add", "op": "Add", "input": ["Truncation/Lerp/mul", "w_avg"], "attr": {"T": {"type": "DT_FLOAT"}}}, {"name": "g_synthesis/strided_slice_16", "op": "StridedSlice", "input": ["Truncation/Lerp/add", "g_synthesis/strided_slice_15/stack_1", "g_synthesis/strided_slice_16/stack_1", "g_synthesis/4x4/Const/StyleMod/strided_slice/stack_2"], "attr": {"T": {"type": "DT_FLOAT"}, "Index": {"type": "DT_INT32"}, "shrink_axis_mask": {"i": "2"}, "begin_mask": {"i": "1"}, "ellipsis_mask": {"i": "0"}, "new_axis_mask": {"i": "0"}, "end_mask": {"i": "1"}}}, {"name": "g_synthesis/strided_slice_15", "op": "StridedSlice", "input": ["Truncation/Lerp/add", "g_synthesis/strided_slice_14/stack_1", "g_synthesis/strided_slice_15/stack_1", "g_synthesis/4x4/Const/StyleMod/strided_slice/stack_2"], "attr": {"T": {"type": "DT_FLOAT"}, "Index": {"type": "DT_INT32"}, "shrink_axis_mask": {"i": "2"}, "begin_mask": {"i": "1"}, "ellipsis_mask": {"i": "0"}, "new_axis_mask": {"i": "0"}, "end_mask": {"i": "1"}}}, {"name": "g_synthesis/strided_slice_14", "op": "StridedSlice", "input": ["Truncation/Lerp/add", "g_synthesis/strided_slice_13/stack_1", "g_synthesis/strided_slice_14/stack_1", "g_synthesis/4x4/Const/StyleMod/strided_slice/stack_2"], "attr": {"T": {"type": "DT_FLOAT"}, "Index": {"type": "DT_INT32"}, "shrink_axis_mask": {"i": "2"}, "begin_mask": {"i": "1"}, "ellipsis_mask": {"i": "0"}, "new_axis_mask": {"i": "0"}, "end_mask": {"i": "1"}}}, {"name": "g_synthesis/strided_slice_13", "op": "StridedSlice", "input": ["Truncation/Lerp/add", "g_synthesis/strided_slice_12/stack_1", "g_synthesis/strided_slice_13/stack_1", "g_synthesis/4x4/Const/StyleMod/strided_slice/stack_2"], "attr": {"T": {"type": "DT_FLOAT"}, "Index": {"type": "DT_INT32"}, "shrink_axis_mask": {"i": "2"}, "begin_mask": {"i": "1"}, "ellipsis_mask": {"i": "0"}, "new_axis_mask": {"i": "0"}, "end_mask": {"i": "1"}}}, {"name": "g_synthesis/strided_slice_12", "op": "StridedSlice", "input": ["Truncation/Lerp/add", "g_synthesis/strided_slice_11/stack_1", "g_synthesis/strided_slice_12/stack_1", "g_synthesis/4x4/Const/StyleMod/strided_slice/stack_2"], "attr": {"T": {"type": "DT_FLOAT"}, "Index": {"type": "DT_INT32"}, "shrink_axis_mask": {"i": "2"}, "begin_mask": {"i": "1"}, "ellipsis_mask": {"i": "0"}, "new_axis_mask": {"i": "0"}, "end_mask": {"i": "1"}}}, {"name": "g_synthesis/strided_slice_11", "op": "StridedSlice", "input": ["Truncation/Lerp/add", "g_synthesis/strided_slice_10/stack_1", "g_synthesis/strided_slice_11/stack_1", "g_synthesis/4x4/Const/StyleMod/strided_slice/stack_2"], "attr": {"T": {"type": "DT_FLOAT"}, "Index": {"type": "DT_INT32"}, "shrink_axis_mask": {"i": "2"}, "begin_mask": {"i": "1"}, "ellipsis_mask": {"i": "0"}, "new_axis_mask": {"i": "0"}, "end_mask": {"i": "1"}}}, {"name": "g_synthesis/strided_slice_10", "op": "StridedSlice", "input": ["Truncation/Lerp/add", "g_synthesis/strided_slice_9/stack_1", "g_synthesis/strided_slice_10/stack_1", "g_synthesis/4x4/Const/StyleMod/strided_slice/stack_2"], "attr": {"T": {"type": "DT_FLOAT"}, "Index": {"type": "DT_INT32"}, "shrink_axis_mask": {"i": "2"}, "begin_mask": {"i": "1"}, "ellipsis_mask": {"i": "0"}, "new_axis_mask": {"i": "0"}, "end_mask": {"i": "1"}}}, {"name": "g_synthesis/strided_slice_9", "op": "StridedSlice", "input": ["Truncation/Lerp/add", "g_synthesis/strided_slice_8/stack_1", "g_synthesis/strided_slice_9/stack_1", "g_synthesis/4x4/Const/StyleMod/strided_slice/stack_2"], "attr": {"T": {"type": "DT_FLOAT"}, "Index": {"type": "DT_INT32"}, "shrink_axis_mask": {"i": "2"}, "begin_mask": {"i": "1"}, "ellipsis_mask": {"i": "0"}, "new_axis_mask": {"i": "0"}, "end_mask": {"i": "1"}}}, {"name": "g_synthesis/strided_slice_8", "op": "StridedSlice", "input": ["Truncation/Lerp/add", "g_synthesis/strided_slice_7/stack_1", "g_synthesis/strided_slice_8/stack_1", "g_synthesis/4x4/Const/StyleMod/strided_slice/stack_2"], "attr": {"T": {"type": "DT_FLOAT"}, "Index": {"type": "DT_INT32"}, "shrink_axis_mask": {"i": "2"}, "begin_mask": {"i": "1"}, "ellipsis_mask": {"i": "0"}, "new_axis_mask": {"i": "0"}, "end_mask": {"i": "1"}}}, {"name": "g_synthesis/strided_slice_7", "op": "StridedSlice", "input": ["Truncation/Lerp/add", "g_synthesis/strided_slice_6/stack_1", "g_synthesis/strided_slice_7/stack_1", "g_synthesis/4x4/Const/StyleMod/strided_slice/stack_2"], "attr": {"T": {"type": "DT_FLOAT"}, "Index": {"type": "DT_INT32"}, "shrink_axis_mask": {"i": "2"}, "begin_mask": {"i": "1"}, "ellipsis_mask": {"i": "0"}, "new_axis_mask": {"i": "0"}, "end_mask": {"i": "1"}}}, {"name": "g_synthesis/strided_slice_6", "op": "StridedSlice", "input": ["Truncation/Lerp/add", "g_synthesis/strided_slice_5/stack_1", "g_synthesis/strided_slice_6/stack_1", "g_synthesis/4x4/Const/StyleMod/strided_slice/stack_2"], "attr": {"T": {"type": "DT_FLOAT"}, "Index": {"type": "DT_INT32"}, "shrink_axis_mask": {"i": "2"}, "begin_mask": {"i": "1"}, "ellipsis_mask": {"i": "0"}, "new_axis_mask": {"i": "0"}, "end_mask": {"i": "1"}}}, {"name": "g_synthesis/strided_slice_5", "op": "StridedSlice", "input": ["Truncation/Lerp/add", "g_synthesis/strided_slice_4/stack_1", "g_synthesis/strided_slice_5/stack_1", "g_synthesis/4x4/Const/StyleMod/strided_slice/stack_2"], "attr": {"T": {"type": "DT_FLOAT"}, "Index": {"type": "DT_INT32"}, "shrink_axis_mask": {"i": "2"}, "begin_mask": {"i": "1"}, "ellipsis_mask": {"i": "0"}, "new_axis_mask": {"i": "0"}, "end_mask": {"i": "1"}}}, {"name": "g_synthesis/strided_slice_4", "op": "StridedSlice", "input": ["Truncation/Lerp/add", "g_synthesis/strided_slice_3/stack_1", "g_synthesis/strided_slice_4/stack_1", "g_synthesis/4x4/Const/StyleMod/strided_slice/stack_2"], "attr": {"T": {"type": "DT_FLOAT"}, "Index": {"type": "DT_INT32"}, "shrink_axis_mask": {"i": "2"}, "begin_mask": {"i": "1"}, "ellipsis_mask": {"i": "0"}, "new_axis_mask": {"i": "0"}, "end_mask": {"i": "1"}}}, {"name": "g_synthesis/strided_slice_3", "op": "StridedSlice", "input": ["Truncation/Lerp/add", "g_synthesis/4x4/Const/StyleMod/strided_slice_1/stack_1", "g_synthesis/strided_slice_3/stack_1", "g_synthesis/4x4/Const/StyleMod/strided_slice/stack_2"], "attr": {"T": {"type": "DT_FLOAT"}, "Index": {"type": "DT_INT32"}, "shrink_axis_mask": {"i": "2"}, "begin_mask": {"i": "1"}, "ellipsis_mask": {"i": "0"}, "new_axis_mask": {"i": "0"}, "end_mask": {"i": "1"}}}, {"name": "g_synthesis/strided_slice_1", "op": "StridedSlice", "input": ["Truncation/Lerp/add", "g_synthesis/4x4/Const/StyleMod/strided_slice/stack_1", "g_synthesis/4x4/Const/StyleMod/strided_slice_1/stack_1", "g_synthesis/4x4/Const/StyleMod/strided_slice/stack_2"], "attr": {"T": {"type": "DT_FLOAT"}, "Index": {"type": "DT_INT32"}, "shrink_axis_mask": {"i": "2"}, "begin_mask": {"i": "1"}, "ellipsis_mask": {"i": "0"}, "new_axis_mask": {"i": "0"}, "end_mask": {"i": "1"}}}, {"name": "g_synthesis/strided_slice", "op": "StridedSlice", "input": ["Truncation/Lerp/add", "g_synthesis/4x4/Const/StyleMod/strided_slice/stack", "g_synthesis/4x4/Const/StyleMod/strided_slice/stack_1", "g_synthesis/4x4/Const/StyleMod/strided_slice/stack_2"], "attr": {"T": {"type": "DT_FLOAT"}, "Index": {"type": "DT_INT32"}, "shrink_axis_mask": {"i": "2"}, "begin_mask": {"i": "1"}, "ellipsis_mask": {"i": "0"}, "new_axis_mask": {"i": "0"}, "end_mask": {"i": "1"}}}, {"name": "g_synthesis/512x512/Conv1/StyleMod/flatten/Shape", "op": "Shape", "input": ["g_synthesis/strided_slice_16"], "attr": {"T": {"type": "DT_FLOAT"}, "out_type": {"type": "DT_INT32"}}}, {"name": "g_synthesis/512x512/Conv0_up/StyleMod/flatten/Shape", "op": "Shape", "input": ["g_synthesis/strided_slice_15"], "attr": {"T": {"type": "DT_FLOAT"}, "out_type": {"type": "DT_INT32"}}}, {"name": "g_synthesis/256x256/Conv1/StyleMod/flatten/Shape", "op": "Shape", "input": ["g_synthesis/strided_slice_14"], "attr": {"T": {"type": "DT_FLOAT"}, "out_type": {"type": "DT_INT32"}}}, {"name": "g_synthesis/256x256/Conv0_up/StyleMod/flatten/Shape", "op": "Shape", "input": ["g_synthesis/strided_slice_13"], "attr": {"T": {"type": "DT_FLOAT"}, "out_type": {"type": "DT_INT32"}}}, {"name": "g_synthesis/128x128/Conv1/StyleMod/flatten/Shape", "op": "Shape", "input": ["g_synthesis/strided_slice_12"], "attr": {"T": {"type": "DT_FLOAT"}, "out_type": {"type": "DT_INT32"}}}, {"name": "g_synthesis/128x128/Conv0_up/StyleMod/flatten/Shape", "op": "Shape", "input": ["g_synthesis/strided_slice_11"], "attr": {"T": {"type": "DT_FLOAT"}, "out_type": {"type": "DT_INT32"}}}, {"name": "g_synthesis/64x64/Conv1/StyleMod/flatten/Shape", "op": "Shape", "input": ["g_synthesis/strided_slice_10"], "attr": {"T": {"type": "DT_FLOAT"}, "out_type": {"type": "DT_INT32"}}}, {"name": "g_synthesis/64x64/Conv0_up/StyleMod/flatten/Shape", "op": "Shape", "input": ["g_synthesis/strided_slice_9"], "attr": {"T": {"type": "DT_FLOAT"}, "out_type": {"type": "DT_INT32"}}}, {"name": "g_synthesis/32x32/Conv1/StyleMod/flatten/Shape", "op": "Shape", "input": ["g_synthesis/strided_slice_8"], "attr": {"T": {"type": "DT_FLOAT"}, "out_type": {"type": "DT_INT32"}}}, {"name": "g_synthesis/32x32/Conv0_up/StyleMod/flatten/Shape", "op": "Shape", "input": ["g_synthesis/strided_slice_7"], "attr": {"T": {"type": "DT_FLOAT"}, "out_type": {"type": "DT_INT32"}}}, {"name": "g_synthesis/16x16/Conv1/StyleMod/flatten/Shape", "op": "Shape", "input": ["g_synthesis/strided_slice_6"], "attr": {"T": {"type": "DT_FLOAT"}, "out_type": {"type": "DT_INT32"}}}, {"name": "g_synthesis/16x16/Conv0_up/StyleMod/flatten/Shape", "op": "Shape", "input": ["g_synthesis/strided_slice_5"], "attr": {"T": {"type": "DT_FLOAT"}, "out_type": {"type": "DT_INT32"}}}, {"name": "g_synthesis/8x8/Conv1/StyleMod/flatten/Shape", "op": "Shape", "input": ["g_synthesis/strided_slice_4"], "attr": {"T": {"type": "DT_FLOAT"}, "out_type": {"type": "DT_INT32"}}}, {"name": "g_synthesis/8x8/Conv0_up/StyleMod/flatten/Shape", "op": "Shape", "input": ["g_synthesis/strided_slice_3"], "attr": {"T": {"type": "DT_FLOAT"}, "out_type": {"type": "DT_INT32"}}}, {"name": "g_synthesis/4x4/Conv/StyleMod/flatten/Shape", "op": "Shape", "input": ["g_synthesis/strided_slice_1"], "attr": {"T": {"type": "DT_FLOAT"}, "out_type": {"type": "DT_INT32"}}}, {"name": "g_synthesis/Shape", "op": "Shape", "input": ["g_synthesis/strided_slice"], "attr": {"T": {"type": "DT_FLOAT"}, "out_type": {"type": "DT_INT32"}}}, {"name": "g_synthesis/512x512/Conv1/StyleMod/flatten/strided_slice", "op": "StridedSlice", "input": ["g_synthesis/512x512/Conv1/StyleMod/flatten/Shape", "g_synthesis/512x512/Conv0_up/strided_slice_4/stack", "g_synthesis/512x512/Conv0_up/strided_slice_4/stack_1", "g_synthesis/512x512/Conv0_up/strided_slice_4/stack_1"], "attr": {"T": {"type": "DT_INT32"}, "Index": {"type": "DT_INT32"}, "shrink_axis_mask": {"i": "1"}, "begin_mask": {"i": "0"}, "ellipsis_mask": {"i": "0"}, "new_axis_mask": {"i": "0"}, "end_mask": {"i": "0"}}}, {"name": "g_synthesis/512x512/Conv0_up/StyleMod/flatten/strided_slice", "op": "StridedSlice", "input": ["g_synthesis/512x512/Conv0_up/StyleMod/flatten/Shape", "g_synthesis/512x512/Conv0_up/strided_slice_4/stack", "g_synthesis/512x512/Conv0_up/strided_slice_4/stack_1", "g_synthesis/512x512/Conv0_up/strided_slice_4/stack_1"], "attr": {"T": {"type": "DT_INT32"}, "Index": {"type": "DT_INT32"}, "shrink_axis_mask": {"i": "1"}, "begin_mask": {"i": "0"}, "ellipsis_mask": {"i": "0"}, "new_axis_mask": {"i": "0"}, "end_mask": {"i": "0"}}}, {"name": "g_synthesis/256x256/Conv1/StyleMod/flatten/strided_slice", "op": "StridedSlice", "input": ["g_synthesis/256x256/Conv1/StyleMod/flatten/Shape", "g_synthesis/512x512/Conv0_up/strided_slice_4/stack", "g_synthesis/512x512/Conv0_up/strided_slice_4/stack_1", "g_synthesis/512x512/Conv0_up/strided_slice_4/stack_1"], "attr": {"T": {"type": "DT_INT32"}, "Index": {"type": "DT_INT32"}, "shrink_axis_mask": {"i": "1"}, "begin_mask": {"i": "0"}, "ellipsis_mask": {"i": "0"}, "new_axis_mask": {"i": "0"}, "end_mask": {"i": "0"}}}, {"name": "g_synthesis/256x256/Conv0_up/StyleMod/flatten/strided_slice", "op": "StridedSlice", "input": ["g_synthesis/256x256/Conv0_up/StyleMod/flatten/Shape", "g_synthesis/512x512/Conv0_up/strided_slice_4/stack", "g_synthesis/512x512/Conv0_up/strided_slice_4/stack_1", "g_synthesis/512x512/Conv0_up/strided_slice_4/stack_1"], "attr": {"T": {"type": "DT_INT32"}, "Index": {"type": "DT_INT32"}, "shrink_axis_mask": {"i": "1"}, "begin_mask": {"i": "0"}, "ellipsis_mask": {"i": "0"}, "new_axis_mask": {"i": "0"}, "end_mask": {"i": "0"}}}, {"name": "g_synthesis/128x128/Conv1/StyleMod/flatten/strided_slice", "op": "StridedSlice", "input": ["g_synthesis/128x128/Conv1/StyleMod/flatten/Shape", "g_synthesis/512x512/Conv0_up/strided_slice_4/stack", "g_synthesis/512x512/Conv0_up/strided_slice_4/stack_1", "g_synthesis/512x512/Conv0_up/strided_slice_4/stack_1"], "attr": {"T": {"type": "DT_INT32"}, "Index": {"type": "DT_INT32"}, "shrink_axis_mask": {"i": "1"}, "begin_mask": {"i": "0"}, "ellipsis_mask": {"i": "0"}, "new_axis_mask": {"i": "0"}, "end_mask": {"i": "0"}}}, {"name": "g_synthesis/128x128/Conv0_up/StyleMod/flatten/strided_slice", "op": "StridedSlice", "input": ["g_synthesis/128x128/Conv0_up/StyleMod/flatten/Shape", "g_synthesis/512x512/Conv0_up/strided_slice_4/stack", "g_synthesis/512x512/Conv0_up/strided_slice_4/stack_1", "g_synthesis/512x512/Conv0_up/strided_slice_4/stack_1"], "attr": {"T": {"type": "DT_INT32"}, "Index": {"type": "DT_INT32"}, "shrink_axis_mask": {"i": "1"}, "begin_mask": {"i": "0"}, "ellipsis_mask": {"i": "0"}, "new_axis_mask": {"i": "0"}, "end_mask": {"i": "0"}}}, {"name": "g_synthesis/64x64/Conv1/StyleMod/flatten/strided_slice", "op": "StridedSlice", "input": ["g_synthesis/64x64/Conv1/StyleMod/flatten/Shape", "g_synthesis/512x512/Conv0_up/strided_slice_4/stack", "g_synthesis/512x512/Conv0_up/strided_slice_4/stack_1", "g_synthesis/512x512/Conv0_up/strided_slice_4/stack_1"], "attr": {"T": {"type": "DT_INT32"}, "Index": {"type": "DT_INT32"}, "shrink_axis_mask": {"i": "1"}, "begin_mask": {"i": "0"}, "ellipsis_mask": {"i": "0"}, "new_axis_mask": {"i": "0"}, "end_mask": {"i": "0"}}}, {"name": "g_synthesis/64x64/Conv0_up/StyleMod/flatten/strided_slice", "op": "StridedSlice", "input": ["g_synthesis/64x64/Conv0_up/StyleMod/flatten/Shape", "g_synthesis/512x512/Conv0_up/strided_slice_4/stack", "g_synthesis/512x512/Conv0_up/strided_slice_4/stack_1", "g_synthesis/512x512/Conv0_up/strided_slice_4/stack_1"], "attr": {"T": {"type": "DT_INT32"}, "Index": {"type": "DT_INT32"}, "shrink_axis_mask": {"i": "1"}, "begin_mask": {"i": "0"}, "ellipsis_mask": {"i": "0"}, "new_axis_mask": {"i": "0"}, "end_mask": {"i": "0"}}}, {"name": "g_synthesis/32x32/Conv1/StyleMod/flatten/strided_slice", "op": "StridedSlice", "input": ["g_synthesis/32x32/Conv1/StyleMod/flatten/Shape", "g_synthesis/512x512/Conv0_up/strided_slice_4/stack", "g_synthesis/512x512/Conv0_up/strided_slice_4/stack_1", "g_synthesis/512x512/Conv0_up/strided_slice_4/stack_1"], "attr": {"T": {"type": "DT_INT32"}, "Index": {"type": "DT_INT32"}, "shrink_axis_mask": {"i": "1"}, "begin_mask": {"i": "0"}, "ellipsis_mask": {"i": "0"}, "new_axis_mask": {"i": "0"}, "end_mask": {"i": "0"}}}, {"name": "g_synthesis/32x32/Conv0_up/StyleMod/flatten/strided_slice", "op": "StridedSlice", "input": ["g_synthesis/32x32/Conv0_up/StyleMod/flatten/Shape", "g_synthesis/512x512/Conv0_up/strided_slice_4/stack", "g_synthesis/512x512/Conv0_up/strided_slice_4/stack_1", "g_synthesis/512x512/Conv0_up/strided_slice_4/stack_1"], "attr": {"T": {"type": "DT_INT32"}, "Index": {"type": "DT_INT32"}, "shrink_axis_mask": {"i": "1"}, "begin_mask": {"i": "0"}, "ellipsis_mask": {"i": "0"}, "new_axis_mask": {"i": "0"}, "end_mask": {"i": "0"}}}, {"name": "g_synthesis/16x16/Conv1/StyleMod/flatten/strided_slice", "op": "StridedSlice", "input": ["g_synthesis/16x16/Conv1/StyleMod/flatten/Shape", "g_synthesis/512x512/Conv0_up/strided_slice_4/stack", "g_synthesis/512x512/Conv0_up/strided_slice_4/stack_1", "g_synthesis/512x512/Conv0_up/strided_slice_4/stack_1"], "attr": {"T": {"type": "DT_INT32"}, "Index": {"type": "DT_INT32"}, "shrink_axis_mask": {"i": "1"}, "begin_mask": {"i": "0"}, "ellipsis_mask": {"i": "0"}, "new_axis_mask": {"i": "0"}, "end_mask": {"i": "0"}}}, {"name": "g_synthesis/16x16/Conv0_up/StyleMod/flatten/strided_slice", "op": "StridedSlice", "input": ["g_synthesis/16x16/Conv0_up/StyleMod/flatten/Shape", "g_synthesis/512x512/Conv0_up/strided_slice_4/stack", "g_synthesis/512x512/Conv0_up/strided_slice_4/stack_1", "g_synthesis/512x512/Conv0_up/strided_slice_4/stack_1"], "attr": {"T": {"type": "DT_INT32"}, "Index": {"type": "DT_INT32"}, "shrink_axis_mask": {"i": "1"}, "begin_mask": {"i": "0"}, "ellipsis_mask": {"i": "0"}, "new_axis_mask": {"i": "0"}, "end_mask": {"i": "0"}}}, {"name": "g_synthesis/8x8/Conv1/StyleMod/flatten/strided_slice", "op": "StridedSlice", "input": ["g_synthesis/8x8/Conv1/StyleMod/flatten/Shape", "g_synthesis/512x512/Conv0_up/strided_slice_4/stack", "g_synthesis/512x512/Conv0_up/strided_slice_4/stack_1", "g_synthesis/512x512/Conv0_up/strided_slice_4/stack_1"], "attr": {"T": {"type": "DT_INT32"}, "Index": {"type": "DT_INT32"}, "shrink_axis_mask": {"i": "1"}, "begin_mask": {"i": "0"}, "ellipsis_mask": {"i": "0"}, "new_axis_mask": {"i": "0"}, "end_mask": {"i": "0"}}}, {"name": "g_synthesis/8x8/Conv0_up/StyleMod/flatten/strided_slice", "op": "StridedSlice", "input": ["g_synthesis/8x8/Conv0_up/StyleMod/flatten/Shape", "g_synthesis/512x512/Conv0_up/strided_slice_4/stack", "g_synthesis/512x512/Conv0_up/strided_slice_4/stack_1", "g_synthesis/512x512/Conv0_up/strided_slice_4/stack_1"], "attr": {"T": {"type": "DT_INT32"}, "Index": {"type": "DT_INT32"}, "shrink_axis_mask": {"i": "1"}, "begin_mask": {"i": "0"}, "ellipsis_mask": {"i": "0"}, "new_axis_mask": {"i": "0"}, "end_mask": {"i": "0"}}}, {"name": "g_synthesis/4x4/Conv/StyleMod/flatten/strided_slice", "op": "StridedSlice", "input": ["g_synthesis/4x4/Conv/StyleMod/flatten/Shape", "g_synthesis/512x512/Conv0_up/strided_slice_4/stack", "g_synthesis/512x512/Conv0_up/strided_slice_4/stack_1", "g_synthesis/512x512/Conv0_up/strided_slice_4/stack_1"], "attr": {"T": {"type": "DT_INT32"}, "Index": {"type": "DT_INT32"}, "shrink_axis_mask": {"i": "1"}, "begin_mask": {"i": "0"}, "ellipsis_mask": {"i": "0"}, "new_axis_mask": {"i": "0"}, "end_mask": {"i": "0"}}}, {"name": "g_synthesis/strided_slice_2", "op": "StridedSlice", "input": ["g_synthesis/Shape", "g_synthesis/512x512/Conv0_up/strided_slice_4/stack", "g_synthesis/512x512/Conv0_up/strided_slice_4/stack_1", "g_synthesis/512x512/Conv0_up/strided_slice_4/stack_1"], "attr": {"T": {"type": "DT_INT32"}, "Index": {"type": "DT_INT32"}, "shrink_axis_mask": {"i": "1"}, "begin_mask": {"i": "0"}, "ellipsis_mask": {"i": "0"}, "new_axis_mask": {"i": "0"}, "end_mask": {"i": "0"}}}, {"name": "g_synthesis/512x512/Conv1/StyleMod/flatten/Reshape/shape", "op": "Pack", "input": ["g_synthesis/512x512/Conv1/StyleMod/flatten/strided_slice", "g_synthesis/4x4/Const/StyleMod/flatten/Reshape/shape/1"], "attr": {"T": {"type": "DT_INT32"}, "axis": {"i": "0"}, "N": {"i": "2"}}}, {"name": "g_synthesis/512x512/Conv0_up/StyleMod/flatten/Reshape/shape", "op": "Pack", "input": ["g_synthesis/512x512/Conv0_up/StyleMod/flatten/strided_slice", "g_synthesis/4x4/Const/StyleMod/flatten/Reshape/shape/1"], "attr": {"T": {"type": "DT_INT32"}, "axis": {"i": "0"}, "N": {"i": "2"}}}, {"name": "g_synthesis/256x256/Conv1/StyleMod/flatten/Reshape/shape", "op": "Pack", "input": ["g_synthesis/256x256/Conv1/StyleMod/flatten/strided_slice", "g_synthesis/4x4/Const/StyleMod/flatten/Reshape/shape/1"], "attr": {"T": {"type": "DT_INT32"}, "axis": {"i": "0"}, "N": {"i": "2"}}}, {"name": "g_synthesis/256x256/Conv0_up/StyleMod/flatten/Reshape/shape", "op": "Pack", "input": ["g_synthesis/256x256/Conv0_up/StyleMod/flatten/strided_slice", "g_synthesis/4x4/Const/StyleMod/flatten/Reshape/shape/1"], "attr": {"T": {"type": "DT_INT32"}, "axis": {"i": "0"}, "N": {"i": "2"}}}, {"name": "g_synthesis/128x128/Conv1/StyleMod/flatten/Reshape/shape", "op": "Pack", "input": ["g_synthesis/128x128/Conv1/StyleMod/flatten/strided_slice", "g_synthesis/4x4/Const/StyleMod/flatten/Reshape/shape/1"], "attr": {"T": {"type": "DT_INT32"}, "axis": {"i": "0"}, "N": {"i": "2"}}}, {"name": "g_synthesis/128x128/Conv0_up/StyleMod/flatten/Reshape/shape", "op": "Pack", "input": ["g_synthesis/128x128/Conv0_up/StyleMod/flatten/strided_slice", "g_synthesis/4x4/Const/StyleMod/flatten/Reshape/shape/1"], "attr": {"T": {"type": "DT_INT32"}, "axis": {"i": "0"}, "N": {"i": "2"}}}, {"name": "g_synthesis/64x64/Conv1/StyleMod/flatten/Reshape/shape", "op": "Pack", "input": ["g_synthesis/64x64/Conv1/StyleMod/flatten/strided_slice", "g_synthesis/4x4/Const/StyleMod/flatten/Reshape/shape/1"], "attr": {"T": {"type": "DT_INT32"}, "axis": {"i": "0"}, "N": {"i": "2"}}}, {"name": "g_synthesis/64x64/Conv0_up/StyleMod/flatten/Reshape/shape", "op": "Pack", "input": ["g_synthesis/64x64/Conv0_up/StyleMod/flatten/strided_slice", "g_synthesis/4x4/Const/StyleMod/flatten/Reshape/shape/1"], "attr": {"T": {"type": "DT_INT32"}, "axis": {"i": "0"}, "N": {"i": "2"}}}, {"name": "g_synthesis/32x32/Conv1/StyleMod/flatten/Reshape/shape", "op": "Pack", "input": ["g_synthesis/32x32/Conv1/StyleMod/flatten/strided_slice", "g_synthesis/4x4/Const/StyleMod/flatten/Reshape/shape/1"], "attr": {"T": {"type": "DT_INT32"}, "axis": {"i": "0"}, "N": {"i": "2"}}}, {"name": "g_synthesis/32x32/Conv0_up/StyleMod/flatten/Reshape/shape", "op": "Pack", "input": ["g_synthesis/32x32/Conv0_up/StyleMod/flatten/strided_slice", "g_synthesis/4x4/Const/StyleMod/flatten/Reshape/shape/1"], "attr": {"T": {"type": "DT_INT32"}, "axis": {"i": "0"}, "N": {"i": "2"}}}, {"name": "g_synthesis/16x16/Conv1/StyleMod/flatten/Reshape/shape", "op": "Pack", "input": ["g_synthesis/16x16/Conv1/StyleMod/flatten/strided_slice", "g_synthesis/4x4/Const/StyleMod/flatten/Reshape/shape/1"], "attr": {"T": {"type": "DT_INT32"}, "axis": {"i": "0"}, "N": {"i": "2"}}}, {"name": "g_synthesis/16x16/Conv0_up/StyleMod/flatten/Reshape/shape", "op": "Pack", "input": ["g_synthesis/16x16/Conv0_up/StyleMod/flatten/strided_slice", "g_synthesis/4x4/Const/StyleMod/flatten/Reshape/shape/1"], "attr": {"T": {"type": "DT_INT32"}, "axis": {"i": "0"}, "N": {"i": "2"}}}, {"name": "g_synthesis/8x8/Conv1/StyleMod/flatten/Reshape/shape", "op": "Pack", "input": ["g_synthesis/8x8/Conv1/StyleMod/flatten/strided_slice", "g_synthesis/4x4/Const/StyleMod/flatten/Reshape/shape/1"], "attr": {"T": {"type": "DT_INT32"}, "axis": {"i": "0"}, "N": {"i": "2"}}}, {"name": "g_synthesis/8x8/Conv0_up/StyleMod/flatten/Reshape/shape", "op": "Pack", "input": ["g_synthesis/8x8/Conv0_up/StyleMod/flatten/strided_slice", "g_synthesis/4x4/Const/StyleMod/flatten/Reshape/shape/1"], "attr": {"T": {"type": "DT_INT32"}, "axis": {"i": "0"}, "N": {"i": "2"}}}, {"name": "g_synthesis/4x4/Conv/StyleMod/flatten/Reshape/shape", "op": "Pack", "input": ["g_synthesis/4x4/Conv/StyleMod/flatten/strided_slice", "g_synthesis/4x4/Const/StyleMod/flatten/Reshape/shape/1"], "attr": {"T": {"type": "DT_INT32"}, "axis": {"i": "0"}, "N": {"i": "2"}}}, {"name": "g_synthesis/4x4/Const/StyleMod/flatten/Reshape/shape", "op": "Pack", "input": ["g_synthesis/strided_slice_2", "g_synthesis/4x4/Const/StyleMod/flatten/Reshape/shape/1"], "attr": {"T": {"type": "DT_INT32"}, "axis": {"i": "0"}, "N": {"i": "2"}}}, {"name": "g_synthesis/4x4/Const/Tile/multiples", "op": "Pack", "input": ["g_synthesis/strided_slice_2", "g_synthesis/4x4/Const/Tile/multiples/1", "g_synthesis/4x4/Const/Tile/multiples/1", "g_synthesis/4x4/Const/Tile/multiples/1"], "attr": {"T": {"type": "DT_INT32"}, "axis": {"i": "0"}, "N": {"i": "4"}}}, {"name": "g_synthesis/512x512/Conv1/StyleMod/flatten/Reshape", "op": "Reshape", "input": ["g_synthesis/strided_slice_16", "g_synthesis/512x512/Conv1/StyleMod/flatten/Reshape/shape"], "attr": {"T": {"type": "DT_FLOAT"}, "Tshape": {"type": "DT_INT32"}}}, {"name": "g_synthesis/512x512/Conv0_up/StyleMod/flatten/Reshape", "op": "Reshape", "input": ["g_synthesis/strided_slice_15", "g_synthesis/512x512/Conv0_up/StyleMod/flatten/Reshape/shape"], "attr": {"T": {"type": "DT_FLOAT"}, "Tshape": {"type": "DT_INT32"}}}, {"name": "g_synthesis/256x256/Conv1/StyleMod/flatten/Reshape", "op": "Reshape", "input": ["g_synthesis/strided_slice_14", "g_synthesis/256x256/Conv1/StyleMod/flatten/Reshape/shape"], "attr": {"T": {"type": "DT_FLOAT"}, "Tshape": {"type": "DT_INT32"}}}, {"name": "g_synthesis/256x256/Conv0_up/StyleMod/flatten/Reshape", "op": "Reshape", "input": ["g_synthesis/strided_slice_13", "g_synthesis/256x256/Conv0_up/StyleMod/flatten/Reshape/shape"], "attr": {"T": {"type": "DT_FLOAT"}, "Tshape": {"type": "DT_INT32"}}}, {"name": "g_synthesis/128x128/Conv1/StyleMod/flatten/Reshape", "op": "Reshape", "input": ["g_synthesis/strided_slice_12", "g_synthesis/128x128/Conv1/StyleMod/flatten/Reshape/shape"], "attr": {"T": {"type": "DT_FLOAT"}, "Tshape": {"type": "DT_INT32"}}}, {"name": "g_synthesis/128x128/Conv0_up/StyleMod/flatten/Reshape", "op": "Reshape", "input": ["g_synthesis/strided_slice_11", "g_synthesis/128x128/Conv0_up/StyleMod/flatten/Reshape/shape"], "attr": {"T": {"type": "DT_FLOAT"}, "Tshape": {"type": "DT_INT32"}}}, {"name": "g_synthesis/64x64/Conv1/StyleMod/flatten/Reshape", "op": "Reshape", "input": ["g_synthesis/strided_slice_10", "g_synthesis/64x64/Conv1/StyleMod/flatten/Reshape/shape"], "attr": {"T": {"type": "DT_FLOAT"}, "Tshape": {"type": "DT_INT32"}}}, {"name": "g_synthesis/64x64/Conv0_up/StyleMod/flatten/Reshape", "op": "Reshape", "input": ["g_synthesis/strided_slice_9", "g_synthesis/64x64/Conv0_up/StyleMod/flatten/Reshape/shape"], "attr": {"T": {"type": "DT_FLOAT"}, "Tshape": {"type": "DT_INT32"}}}, {"name": "g_synthesis/32x32/Conv1/StyleMod/flatten/Reshape", "op": "Reshape", "input": ["g_synthesis/strided_slice_8", "g_synthesis/32x32/Conv1/StyleMod/flatten/Reshape/shape"], "attr": {"T": {"type": "DT_FLOAT"}, "Tshape": {"type": "DT_INT32"}}}, {"name": "g_synthesis/32x32/Conv0_up/StyleMod/flatten/Reshape", "op": "Reshape", "input": ["g_synthesis/strided_slice_7", "g_synthesis/32x32/Conv0_up/StyleMod/flatten/Reshape/shape"], "attr": {"T": {"type": "DT_FLOAT"}, "Tshape": {"type": "DT_INT32"}}}, {"name": "g_synthesis/16x16/Conv1/StyleMod/flatten/Reshape", "op": "Reshape", "input": ["g_synthesis/strided_slice_6", "g_synthesis/16x16/Conv1/StyleMod/flatten/Reshape/shape"], "attr": {"T": {"type": "DT_FLOAT"}, "Tshape": {"type": "DT_INT32"}}}, {"name": "g_synthesis/16x16/Conv0_up/StyleMod/flatten/Reshape", "op": "Reshape", "input": ["g_synthesis/strided_slice_5", "g_synthesis/16x16/Conv0_up/StyleMod/flatten/Reshape/shape"], "attr": {"T": {"type": "DT_FLOAT"}, "Tshape": {"type": "DT_INT32"}}}, {"name": "g_synthesis/8x8/Conv1/StyleMod/flatten/Reshape", "op": "Reshape", "input": ["g_synthesis/strided_slice_4", "g_synthesis/8x8/Conv1/StyleMod/flatten/Reshape/shape"], "attr": {"T": {"type": "DT_FLOAT"}, "Tshape": {"type": "DT_INT32"}}}, {"name": "g_synthesis/8x8/Conv0_up/StyleMod/flatten/Reshape", "op": "Reshape", "input": ["g_synthesis/strided_slice_3", "g_synthesis/8x8/Conv0_up/StyleMod/flatten/Reshape/shape"], "attr": {"T": {"type": "DT_FLOAT"}, "Tshape": {"type": "DT_INT32"}}}, {"name": "g_synthesis/4x4/Conv/StyleMod/flatten/Reshape", "op": "Reshape", "input": ["g_synthesis/strided_slice_1", "g_synthesis/4x4/Conv/StyleMod/flatten/Reshape/shape"], "attr": {"T": {"type": "DT_FLOAT"}, "Tshape": {"type": "DT_INT32"}}}, {"name": "g_synthesis/4x4/Const/StyleMod/flatten/Reshape", "op": "Reshape", "input": ["g_synthesis/strided_slice", "g_synthesis/4x4/Const/StyleMod/flatten/Reshape/shape"], "attr": {"T": {"type": "DT_FLOAT"}, "Tshape": {"type": "DT_INT32"}}}, {"name": "g_synthesis/4x4/Const/Tile", "op": "Tile", "input": ["g_synthesis/4x4/Const/const", "g_synthesis/4x4/Const/Tile/multiples"], "attr": {"Tmultiples": {"type": "DT_INT32"}, "T": {"type": "DT_FLOAT"}}}, {"name": "g_synthesis/512x512/Conv1/StyleMod/MatMul", "op": "MatMul", "input": ["g_synthesis/512x512/Conv1/StyleMod/flatten/Reshape", "g_synthesis/512x512/Conv1/StyleMod/mul"], "attr": {"transpose_b": {"b": false}, "T": {"type": "DT_FLOAT"}, "transpose_a": {"b": false}}}, {"name": "g_synthesis/512x512/Conv0_up/StyleMod/MatMul", "op": "MatMul", "input": ["g_synthesis/512x512/Conv0_up/StyleMod/flatten/Reshape", "g_synthesis/512x512/Conv0_up/StyleMod/mul"], "attr": {"transpose_b": {"b": false}, "T": {"type": "DT_FLOAT"}, "transpose_a": {"b": false}}}, {"name": "g_synthesis/256x256/Conv1/StyleMod/MatMul", "op": "MatMul", "input": ["g_synthesis/256x256/Conv1/StyleMod/flatten/Reshape", "g_synthesis/256x256/Conv1/StyleMod/mul"], "attr": {"transpose_b": {"b": false}, "T": {"type": "DT_FLOAT"}, "transpose_a": {"b": false}}}, {"name": "g_synthesis/256x256/Conv0_up/StyleMod/MatMul", "op": "MatMul", "input": ["g_synthesis/256x256/Conv0_up/StyleMod/flatten/Reshape", "g_synthesis/256x256/Conv0_up/StyleMod/mul"], "attr": {"transpose_b": {"b": false}, "T": {"type": "DT_FLOAT"}, "transpose_a": {"b": false}}}, {"name": "g_synthesis/128x128/Conv1/StyleMod/MatMul", "op": "MatMul", "input": ["g_synthesis/128x128/Conv1/StyleMod/flatten/Reshape", "g_synthesis/128x128/Conv1/StyleMod/mul"], "attr": {"transpose_b": {"b": false}, "T": {"type": "DT_FLOAT"}, "transpose_a": {"b": false}}}, {"name": "g_synthesis/128x128/Conv0_up/StyleMod/MatMul", "op": "MatMul", "input": ["g_synthesis/128x128/Conv0_up/StyleMod/flatten/Reshape", "g_synthesis/128x128/Conv0_up/StyleMod/mul"], "attr": {"transpose_b": {"b": false}, "T": {"type": "DT_FLOAT"}, "transpose_a": {"b": false}}}, {"name": "g_synthesis/64x64/Conv1/StyleMod/MatMul", "op": "MatMul", "input": ["g_synthesis/64x64/Conv1/StyleMod/flatten/Reshape", "g_synthesis/64x64/Conv1/StyleMod/mul"], "attr": {"transpose_b": {"b": false}, "T": {"type": "DT_FLOAT"}, "transpose_a": {"b": false}}}, {"name": "g_synthesis/64x64/Conv0_up/StyleMod/MatMul", "op": "MatMul", "input": ["g_synthesis/64x64/Conv0_up/StyleMod/flatten/Reshape", "g_synthesis/64x64/Conv0_up/StyleMod/mul"], "attr": {"transpose_b": {"b": false}, "T": {"type": "DT_FLOAT"}, "transpose_a": {"b": false}}}, {"name": "g_synthesis/32x32/Conv1/StyleMod/MatMul", "op": "MatMul", "input": ["g_synthesis/32x32/Conv1/StyleMod/flatten/Reshape", "g_synthesis/32x32/Conv1/StyleMod/mul"], "attr": {"transpose_b": {"b": false}, "T": {"type": "DT_FLOAT"}, "transpose_a": {"b": false}}}, {"name": "g_synthesis/32x32/Conv0_up/StyleMod/MatMul", "op": "MatMul", "input": ["g_synthesis/32x32/Conv0_up/StyleMod/flatten/Reshape", "g_synthesis/32x32/Conv0_up/StyleMod/mul"], "attr": {"transpose_b": {"b": false}, "T": {"type": "DT_FLOAT"}, "transpose_a": {"b": false}}}, {"name": "g_synthesis/16x16/Conv1/StyleMod/MatMul", "op": "MatMul", "input": ["g_synthesis/16x16/Conv1/StyleMod/flatten/Reshape", "g_synthesis/16x16/Conv1/StyleMod/mul"], "attr": {"transpose_b": {"b": false}, "T": {"type": "DT_FLOAT"}, "transpose_a": {"b": false}}}, {"name": "g_synthesis/16x16/Conv0_up/StyleMod/MatMul", "op": "MatMul", "input": ["g_synthesis/16x16/Conv0_up/StyleMod/flatten/Reshape", "g_synthesis/16x16/Conv0_up/StyleMod/mul"], "attr": {"transpose_b": {"b": false}, "T": {"type": "DT_FLOAT"}, "transpose_a": {"b": false}}}, {"name": "g_synthesis/8x8/Conv1/StyleMod/MatMul", "op": "MatMul", "input": ["g_synthesis/8x8/Conv1/StyleMod/flatten/Reshape", "g_synthesis/8x8/Conv1/StyleMod/mul"], "attr": {"transpose_b": {"b": false}, "T": {"type": "DT_FLOAT"}, "transpose_a": {"b": false}}}, {"name": "g_synthesis/8x8/Conv0_up/StyleMod/MatMul", "op": "MatMul", "input": ["g_synthesis/8x8/Conv0_up/StyleMod/flatten/Reshape", "g_synthesis/8x8/Conv0_up/StyleMod/mul"], "attr": {"transpose_b": {"b": false}, "T": {"type": "DT_FLOAT"}, "transpose_a": {"b": false}}}, {"name": "g_synthesis/4x4/Conv/StyleMod/MatMul", "op": "MatMul", "input": ["g_synthesis/4x4/Conv/StyleMod/flatten/Reshape", "g_synthesis/4x4/Conv/StyleMod/mul"], "attr": {"transpose_b": {"b": false}, "T": {"type": "DT_FLOAT"}, "transpose_a": {"b": false}}}, {"name": "g_synthesis/4x4/Const/StyleMod/MatMul", "op": "MatMul", "input": ["g_synthesis/4x4/Const/StyleMod/flatten/Reshape", "g_synthesis/4x4/Const/StyleMod/mul"], "attr": {"transpose_b": {"b": false}, "T": {"type": "DT_FLOAT"}, "transpose_a": {"b": false}}}, {"name": "g_synthesis/4x4/Const/Noise/Shape", "op": "Shape", "input": ["g_synthesis/4x4/Const/Tile"], "attr": {"T": {"type": "DT_FLOAT"}, "out_type": {"type": "DT_INT32"}}}, {"name": "g_synthesis/512x512/Conv1/StyleMod/add", "op": "Add", "input": ["g_synthesis/512x512/Conv1/StyleMod/MatMul", "g_synthesis/512x512/Conv1/StyleMod/mul_1"], "attr": {"T": {"type": "DT_FLOAT"}}}, {"name": "g_synthesis/512x512/Conv0_up/StyleMod/add", "op": "Add", "input": ["g_synthesis/512x512/Conv0_up/StyleMod/MatMul", "g_synthesis/512x512/Conv0_up/StyleMod/mul_1"], "attr": {"T": {"type": "DT_FLOAT"}}}, {"name": "g_synthesis/256x256/Conv1/StyleMod/add", "op": "Add", "input": ["g_synthesis/256x256/Conv1/StyleMod/MatMul", "g_synthesis/256x256/Conv1/StyleMod/mul_1"], "attr": {"T": {"type": "DT_FLOAT"}}}, {"name": "g_synthesis/256x256/Conv0_up/StyleMod/add", "op": "Add", "input": ["g_synthesis/256x256/Conv0_up/StyleMod/MatMul", "g_synthesis/256x256/Conv0_up/StyleMod/mul_1"], "attr": {"T": {"type": "DT_FLOAT"}}}, {"name": "g_synthesis/128x128/Conv1/StyleMod/add", "op": "Add", "input": ["g_synthesis/128x128/Conv1/StyleMod/MatMul", "g_synthesis/128x128/Conv1/StyleMod/mul_1"], "attr": {"T": {"type": "DT_FLOAT"}}}, {"name": "g_synthesis/128x128/Conv0_up/StyleMod/add", "op": "Add", "input": ["g_synthesis/128x128/Conv0_up/StyleMod/MatMul", "g_synthesis/128x128/Conv0_up/StyleMod/mul_1"], "attr": {"T": {"type": "DT_FLOAT"}}}, {"name": "g_synthesis/64x64/Conv1/StyleMod/add", "op": "Add", "input": ["g_synthesis/64x64/Conv1/StyleMod/MatMul", "g_synthesis/64x64/Conv1/StyleMod/mul_1"], "attr": {"T": {"type": "DT_FLOAT"}}}, {"name": "g_synthesis/64x64/Conv0_up/StyleMod/add", "op": "Add", "input": ["g_synthesis/64x64/Conv0_up/StyleMod/MatMul", "g_synthesis/64x64/Conv0_up/StyleMod/mul_1"], "attr": {"T": {"type": "DT_FLOAT"}}}, {"name": "g_synthesis/32x32/Conv1/StyleMod/add", "op": "Add", "input": ["g_synthesis/32x32/Conv1/StyleMod/MatMul", "g_synthesis/32x32/Conv1/StyleMod/mul_1"], "attr": {"T": {"type": "DT_FLOAT"}}}, {"name": "g_synthesis/32x32/Conv0_up/StyleMod/add", "op": "Add", "input": ["g_synthesis/32x32/Conv0_up/StyleMod/MatMul", "g_synthesis/32x32/Conv0_up/StyleMod/mul_1"], "attr": {"T": {"type": "DT_FLOAT"}}}, {"name": "g_synthesis/16x16/Conv1/StyleMod/add", "op": "Add", "input": ["g_synthesis/16x16/Conv1/StyleMod/MatMul", "g_synthesis/16x16/Conv1/StyleMod/mul_1"], "attr": {"T": {"type": "DT_FLOAT"}}}, {"name": "g_synthesis/16x16/Conv0_up/StyleMod/add", "op": "Add", "input": ["g_synthesis/16x16/Conv0_up/StyleMod/MatMul", "g_synthesis/16x16/Conv0_up/StyleMod/mul_1"], "attr": {"T": {"type": "DT_FLOAT"}}}, {"name": "g_synthesis/8x8/Conv1/StyleMod/add", "op": "Add", "input": ["g_synthesis/8x8/Conv1/StyleMod/MatMul", "g_synthesis/8x8/Conv1/StyleMod/mul_1"], "attr": {"T": {"type": "DT_FLOAT"}}}, {"name": "g_synthesis/8x8/Conv0_up/StyleMod/add", "op": "Add", "input": ["g_synthesis/8x8/Conv0_up/StyleMod/MatMul", "g_synthesis/8x8/Conv0_up/StyleMod/mul_1"], "attr": {"T": {"type": "DT_FLOAT"}}}, {"name": "g_synthesis/4x4/Conv/StyleMod/add", "op": "Add", "input": ["g_synthesis/4x4/Conv/StyleMod/MatMul", "g_synthesis/4x4/Conv/StyleMod/mul_1"], "attr": {"T": {"type": "DT_FLOAT"}}}, {"name": "g_synthesis/4x4/Const/StyleMod/add", "op": "Add", "input": ["g_synthesis/4x4/Const/StyleMod/MatMul", "g_synthesis/4x4/Const/StyleMod/mul_1"], "attr": {"T": {"type": "DT_FLOAT"}}}, {"name": "g_synthesis/4x4/Const/Noise/strided_slice", "op": "StridedSlice", "input": ["g_synthesis/4x4/Const/Noise/Shape", "g_synthesis/512x512/Conv0_up/strided_slice_4/stack", "g_synthesis/512x512/Conv0_up/strided_slice_4/stack_1", "g_synthesis/512x512/Conv0_up/strided_slice_4/stack_1"], "attr": {"T": {"type": "DT_INT32"}, "Index": {"type": "DT_INT32"}, "shrink_axis_mask": {"i": "1"}, "begin_mask": {"i": "0"}, "ellipsis_mask": {"i": "0"}, "new_axis_mask": {"i": "0"}, "end_mask": {"i": "0"}}}, {"name": "g_synthesis/512x512/Conv1/StyleMod/Reshape", "op": "Reshape", "input": ["g_synthesis/512x512/Conv1/StyleMod/add", "g_synthesis/512x512/Conv0_up/StyleMod/Reshape/shape"], "attr": {"T": {"type": "DT_FLOAT"}, "Tshape": {"type": "DT_INT32"}}}, {"name": "g_synthesis/512x512/Conv0_up/StyleMod/Reshape", "op": "Reshape", "input": ["g_synthesis/512x512/Conv0_up/StyleMod/add", "g_synthesis/512x512/Conv0_up/StyleMod/Reshape/shape"], "attr": {"T": {"type": "DT_FLOAT"}, "Tshape": {"type": "DT_INT32"}}}, {"name": "g_synthesis/256x256/Conv1/StyleMod/Reshape", "op": "Reshape", "input": ["g_synthesis/256x256/Conv1/StyleMod/add", "g_synthesis/256x256/Conv0_up/StyleMod/Reshape/shape"], "attr": {"T": {"type": "DT_FLOAT"}, "Tshape": {"type": "DT_INT32"}}}, {"name": "g_synthesis/256x256/Conv0_up/StyleMod/Reshape", "op": "Reshape", "input": ["g_synthesis/256x256/Conv0_up/StyleMod/add", "g_synthesis/256x256/Conv0_up/StyleMod/Reshape/shape"], "attr": {"T": {"type": "DT_FLOAT"}, "Tshape": {"type": "DT_INT32"}}}, {"name": "g_synthesis/128x128/Conv1/StyleMod/Reshape", "op": "Reshape", "input": ["g_synthesis/128x128/Conv1/StyleMod/add", "g_synthesis/128x128/Conv0_up/StyleMod/Reshape/shape"], "attr": {"T": {"type": "DT_FLOAT"}, "Tshape": {"type": "DT_INT32"}}}, {"name": "g_synthesis/128x128/Conv0_up/StyleMod/Reshape", "op": "Reshape", "input": ["g_synthesis/128x128/Conv0_up/StyleMod/add", "g_synthesis/128x128/Conv0_up/StyleMod/Reshape/shape"], "attr": {"T": {"type": "DT_FLOAT"}, "Tshape": {"type": "DT_INT32"}}}, {"name": "g_synthesis/64x64/Conv1/StyleMod/Reshape", "op": "Reshape", "input": ["g_synthesis/64x64/Conv1/StyleMod/add", "g_synthesis/64x64/Conv0_up/StyleMod/Reshape/shape"], "attr": {"T": {"type": "DT_FLOAT"}, "Tshape": {"type": "DT_INT32"}}}, {"name": "g_synthesis/64x64/Conv0_up/StyleMod/Reshape", "op": "Reshape", "input": ["g_synthesis/64x64/Conv0_up/StyleMod/add", "g_synthesis/64x64/Conv0_up/StyleMod/Reshape/shape"], "attr": {"T": {"type": "DT_FLOAT"}, "Tshape": {"type": "DT_INT32"}}}, {"name": "g_synthesis/32x32/Conv1/StyleMod/Reshape", "op": "Reshape", "input": ["g_synthesis/32x32/Conv1/StyleMod/add", "g_synthesis/4x4/Const/StyleMod/Reshape/shape"], "attr": {"T": {"type": "DT_FLOAT"}, "Tshape": {"type": "DT_INT32"}}}, {"name": "g_synthesis/32x32/Conv0_up/StyleMod/Reshape", "op": "Reshape", "input": ["g_synthesis/32x32/Conv0_up/StyleMod/add", "g_synthesis/4x4/Const/StyleMod/Reshape/shape"], "attr": {"T": {"type": "DT_FLOAT"}, "Tshape": {"type": "DT_INT32"}}}, {"name": "g_synthesis/16x16/Conv1/StyleMod/Reshape", "op": "Reshape", "input": ["g_synthesis/16x16/Conv1/StyleMod/add", "g_synthesis/4x4/Const/StyleMod/Reshape/shape"], "attr": {"T": {"type": "DT_FLOAT"}, "Tshape": {"type": "DT_INT32"}}}, {"name": "g_synthesis/16x16/Conv0_up/StyleMod/Reshape", "op": "Reshape", "input": ["g_synthesis/16x16/Conv0_up/StyleMod/add", "g_synthesis/4x4/Const/StyleMod/Reshape/shape"], "attr": {"T": {"type": "DT_FLOAT"}, "Tshape": {"type": "DT_INT32"}}}, {"name": "g_synthesis/8x8/Conv1/StyleMod/Reshape", "op": "Reshape", "input": ["g_synthesis/8x8/Conv1/StyleMod/add", "g_synthesis/4x4/Const/StyleMod/Reshape/shape"], "attr": {"T": {"type": "DT_FLOAT"}, "Tshape": {"type": "DT_INT32"}}}, {"name": "g_synthesis/8x8/Conv0_up/StyleMod/Reshape", "op": "Reshape", "input": ["g_synthesis/8x8/Conv0_up/StyleMod/add", "g_synthesis/4x4/Const/StyleMod/Reshape/shape"], "attr": {"T": {"type": "DT_FLOAT"}, "Tshape": {"type": "DT_INT32"}}}, {"name": "g_synthesis/4x4/Conv/StyleMod/Reshape", "op": "Reshape", "input": ["g_synthesis/4x4/Conv/StyleMod/add", "g_synthesis/4x4/Const/StyleMod/Reshape/shape"], "attr": {"T": {"type": "DT_FLOAT"}, "Tshape": {"type": "DT_INT32"}}}, {"name": "g_synthesis/4x4/Const/StyleMod/Reshape", "op": "Reshape", "input": ["g_synthesis/4x4/Const/StyleMod/add", "g_synthesis/4x4/Const/StyleMod/Reshape/shape"], "attr": {"T": {"type": "DT_FLOAT"}, "Tshape": {"type": "DT_INT32"}}}, {"name": "g_synthesis/4x4/Const/Noise/random_uniform/shape", "op": "Pack", "input": ["g_synthesis/4x4/Const/Noise/strided_slice", "g_synthesis/4x4/Const/Tile/multiples/1", "g_synthesis/4x4/Const/Noise/random_uniform/shape/2", "g_synthesis/4x4/Const/Noise/random_uniform/shape/2"], "attr": {"T": {"type": "DT_INT32"}, "axis": {"i": "0"}, "N": {"i": "4"}}}, {"name": "g_synthesis/512x512/Conv1/StyleMod/strided_slice_1", "op": "StridedSlice", "input": ["g_synthesis/512x512/Conv1/StyleMod/Reshape", "g_synthesis/4x4/Const/StyleMod/strided_slice/stack_1", "g_synthesis/4x4/Const/StyleMod/strided_slice_1/stack_1", "g_synthesis/4x4/Const/StyleMod/strided_slice/stack_2"], "attr": {"T": {"type": "DT_FLOAT"}, "Index": {"type": "DT_INT32"}, "shrink_axis_mask": {"i": "2"}, "begin_mask": {"i": "1"}, "ellipsis_mask": {"i": "0"}, "new_axis_mask": {"i": "0"}, "end_mask": {"i": "1"}}}, {"name": "g_synthesis/512x512/Conv1/StyleMod/strided_slice", "op": "StridedSlice", "input": ["g_synthesis/512x512/Conv1/StyleMod/Reshape", "g_synthesis/4x4/Const/StyleMod/strided_slice/stack", "g_synthesis/4x4/Const/StyleMod/strided_slice/stack_1", "g_synthesis/4x4/Const/StyleMod/strided_slice/stack_2"], "attr": {"T": {"type": "DT_FLOAT"}, "Index": {"type": "DT_INT32"}, "shrink_axis_mask": {"i": "2"}, "begin_mask": {"i": "1"}, "ellipsis_mask": {"i": "0"}, "new_axis_mask": {"i": "0"}, "end_mask": {"i": "1"}}}, {"name": "g_synthesis/512x512/Conv0_up/StyleMod/strided_slice_1", "op": "StridedSlice", "input": ["g_synthesis/512x512/Conv0_up/StyleMod/Reshape", "g_synthesis/4x4/Const/StyleMod/strided_slice/stack_1", "g_synthesis/4x4/Const/StyleMod/strided_slice_1/stack_1", "g_synthesis/4x4/Const/StyleMod/strided_slice/stack_2"], "attr": {"T": {"type": "DT_FLOAT"}, "Index": {"type": "DT_INT32"}, "shrink_axis_mask": {"i": "2"}, "begin_mask": {"i": "1"}, "ellipsis_mask": {"i": "0"}, "new_axis_mask": {"i": "0"}, "end_mask": {"i": "1"}}}, {"name": "g_synthesis/512x512/Conv0_up/StyleMod/strided_slice", "op": "StridedSlice", "input": ["g_synthesis/512x512/Conv0_up/StyleMod/Reshape", "g_synthesis/4x4/Const/StyleMod/strided_slice/stack", "g_synthesis/4x4/Const/StyleMod/strided_slice/stack_1", "g_synthesis/4x4/Const/StyleMod/strided_slice/stack_2"], "attr": {"T": {"type": "DT_FLOAT"}, "Index": {"type": "DT_INT32"}, "shrink_axis_mask": {"i": "2"}, "begin_mask": {"i": "1"}, "ellipsis_mask": {"i": "0"}, "new_axis_mask": {"i": "0"}, "end_mask": {"i": "1"}}}, {"name": "g_synthesis/256x256/Conv1/StyleMod/strided_slice_1", "op": "StridedSlice", "input": ["g_synthesis/256x256/Conv1/StyleMod/Reshape", "g_synthesis/4x4/Const/StyleMod/strided_slice/stack_1", "g_synthesis/4x4/Const/StyleMod/strided_slice_1/stack_1", "g_synthesis/4x4/Const/StyleMod/strided_slice/stack_2"], "attr": {"T": {"type": "DT_FLOAT"}, "Index": {"type": "DT_INT32"}, "shrink_axis_mask": {"i": "2"}, "begin_mask": {"i": "1"}, "ellipsis_mask": {"i": "0"}, "new_axis_mask": {"i": "0"}, "end_mask": {"i": "1"}}}, {"name": "g_synthesis/256x256/Conv1/StyleMod/strided_slice", "op": "StridedSlice", "input": ["g_synthesis/256x256/Conv1/StyleMod/Reshape", "g_synthesis/4x4/Const/StyleMod/strided_slice/stack", "g_synthesis/4x4/Const/StyleMod/strided_slice/stack_1", "g_synthesis/4x4/Const/StyleMod/strided_slice/stack_2"], "attr": {"T": {"type": "DT_FLOAT"}, "Index": {"type": "DT_INT32"}, "shrink_axis_mask": {"i": "2"}, "begin_mask": {"i": "1"}, "ellipsis_mask": {"i": "0"}, "new_axis_mask": {"i": "0"}, "end_mask": {"i": "1"}}}, {"name": "g_synthesis/256x256/Conv0_up/StyleMod/strided_slice_1", "op": "StridedSlice", "input": ["g_synthesis/256x256/Conv0_up/StyleMod/Reshape", "g_synthesis/4x4/Const/StyleMod/strided_slice/stack_1", "g_synthesis/4x4/Const/StyleMod/strided_slice_1/stack_1", "g_synthesis/4x4/Const/StyleMod/strided_slice/stack_2"], "attr": {"T": {"type": "DT_FLOAT"}, "Index": {"type": "DT_INT32"}, "shrink_axis_mask": {"i": "2"}, "begin_mask": {"i": "1"}, "ellipsis_mask": {"i": "0"}, "new_axis_mask": {"i": "0"}, "end_mask": {"i": "1"}}}, {"name": "g_synthesis/256x256/Conv0_up/StyleMod/strided_slice", "op": "StridedSlice", "input": ["g_synthesis/256x256/Conv0_up/StyleMod/Reshape", "g_synthesis/4x4/Const/StyleMod/strided_slice/stack", "g_synthesis/4x4/Const/StyleMod/strided_slice/stack_1", "g_synthesis/4x4/Const/StyleMod/strided_slice/stack_2"], "attr": {"T": {"type": "DT_FLOAT"}, "Index": {"type": "DT_INT32"}, "shrink_axis_mask": {"i": "2"}, "begin_mask": {"i": "1"}, "ellipsis_mask": {"i": "0"}, "new_axis_mask": {"i": "0"}, "end_mask": {"i": "1"}}}, {"name": "g_synthesis/128x128/Conv1/StyleMod/strided_slice_1", "op": "StridedSlice", "input": ["g_synthesis/128x128/Conv1/StyleMod/Reshape", "g_synthesis/4x4/Const/StyleMod/strided_slice/stack_1", "g_synthesis/4x4/Const/StyleMod/strided_slice_1/stack_1", "g_synthesis/4x4/Const/StyleMod/strided_slice/stack_2"], "attr": {"T": {"type": "DT_FLOAT"}, "Index": {"type": "DT_INT32"}, "shrink_axis_mask": {"i": "2"}, "begin_mask": {"i": "1"}, "ellipsis_mask": {"i": "0"}, "new_axis_mask": {"i": "0"}, "end_mask": {"i": "1"}}}, {"name": "g_synthesis/128x128/Conv1/StyleMod/strided_slice", "op": "StridedSlice", "input": ["g_synthesis/128x128/Conv1/StyleMod/Reshape", "g_synthesis/4x4/Const/StyleMod/strided_slice/stack", "g_synthesis/4x4/Const/StyleMod/strided_slice/stack_1", "g_synthesis/4x4/Const/StyleMod/strided_slice/stack_2"], "attr": {"T": {"type": "DT_FLOAT"}, "Index": {"type": "DT_INT32"}, "shrink_axis_mask": {"i": "2"}, "begin_mask": {"i": "1"}, "ellipsis_mask": {"i": "0"}, "new_axis_mask": {"i": "0"}, "end_mask": {"i": "1"}}}, {"name": "g_synthesis/128x128/Conv0_up/StyleMod/strided_slice_1", "op": "StridedSlice", "input": ["g_synthesis/128x128/Conv0_up/StyleMod/Reshape", "g_synthesis/4x4/Const/StyleMod/strided_slice/stack_1", "g_synthesis/4x4/Const/StyleMod/strided_slice_1/stack_1", "g_synthesis/4x4/Const/StyleMod/strided_slice/stack_2"], "attr": {"T": {"type": "DT_FLOAT"}, "Index": {"type": "DT_INT32"}, "shrink_axis_mask": {"i": "2"}, "begin_mask": {"i": "1"}, "ellipsis_mask": {"i": "0"}, "new_axis_mask": {"i": "0"}, "end_mask": {"i": "1"}}}, {"name": "g_synthesis/128x128/Conv0_up/StyleMod/strided_slice", "op": "StridedSlice", "input": ["g_synthesis/128x128/Conv0_up/StyleMod/Reshape", "g_synthesis/4x4/Const/StyleMod/strided_slice/stack", "g_synthesis/4x4/Const/StyleMod/strided_slice/stack_1", "g_synthesis/4x4/Const/StyleMod/strided_slice/stack_2"], "attr": {"T": {"type": "DT_FLOAT"}, "Index": {"type": "DT_INT32"}, "shrink_axis_mask": {"i": "2"}, "begin_mask": {"i": "1"}, "ellipsis_mask": {"i": "0"}, "new_axis_mask": {"i": "0"}, "end_mask": {"i": "1"}}}, {"name": "g_synthesis/64x64/Conv1/StyleMod/strided_slice_1", "op": "StridedSlice", "input": ["g_synthesis/64x64/Conv1/StyleMod/Reshape", "g_synthesis/4x4/Const/StyleMod/strided_slice/stack_1", "g_synthesis/4x4/Const/StyleMod/strided_slice_1/stack_1", "g_synthesis/4x4/Const/StyleMod/strided_slice/stack_2"], "attr": {"T": {"type": "DT_FLOAT"}, "Index": {"type": "DT_INT32"}, "shrink_axis_mask": {"i": "2"}, "begin_mask": {"i": "1"}, "ellipsis_mask": {"i": "0"}, "new_axis_mask": {"i": "0"}, "end_mask": {"i": "1"}}}, {"name": "g_synthesis/64x64/Conv1/StyleMod/strided_slice", "op": "StridedSlice", "input": ["g_synthesis/64x64/Conv1/StyleMod/Reshape", "g_synthesis/4x4/Const/StyleMod/strided_slice/stack", "g_synthesis/4x4/Const/StyleMod/strided_slice/stack_1", "g_synthesis/4x4/Const/StyleMod/strided_slice/stack_2"], "attr": {"T": {"type": "DT_FLOAT"}, "Index": {"type": "DT_INT32"}, "shrink_axis_mask": {"i": "2"}, "begin_mask": {"i": "1"}, "ellipsis_mask": {"i": "0"}, "new_axis_mask": {"i": "0"}, "end_mask": {"i": "1"}}}, {"name": "g_synthesis/64x64/Conv0_up/StyleMod/strided_slice_1", "op": "StridedSlice", "input": ["g_synthesis/64x64/Conv0_up/StyleMod/Reshape", "g_synthesis/4x4/Const/StyleMod/strided_slice/stack_1", "g_synthesis/4x4/Const/StyleMod/strided_slice_1/stack_1", "g_synthesis/4x4/Const/StyleMod/strided_slice/stack_2"], "attr": {"T": {"type": "DT_FLOAT"}, "Index": {"type": "DT_INT32"}, "shrink_axis_mask": {"i": "2"}, "begin_mask": {"i": "1"}, "ellipsis_mask": {"i": "0"}, "new_axis_mask": {"i": "0"}, "end_mask": {"i": "1"}}}, {"name": "g_synthesis/64x64/Conv0_up/StyleMod/strided_slice", "op": "StridedSlice", "input": ["g_synthesis/64x64/Conv0_up/StyleMod/Reshape", "g_synthesis/4x4/Const/StyleMod/strided_slice/stack", "g_synthesis/4x4/Const/StyleMod/strided_slice/stack_1", "g_synthesis/4x4/Const/StyleMod/strided_slice/stack_2"], "attr": {"T": {"type": "DT_FLOAT"}, "Index": {"type": "DT_INT32"}, "shrink_axis_mask": {"i": "2"}, "begin_mask": {"i": "1"}, "ellipsis_mask": {"i": "0"}, "new_axis_mask": {"i": "0"}, "end_mask": {"i": "1"}}}, {"name": "g_synthesis/32x32/Conv1/StyleMod/strided_slice_1", "op": "StridedSlice", "input": ["g_synthesis/32x32/Conv1/StyleMod/Reshape", "g_synthesis/4x4/Const/StyleMod/strided_slice/stack_1", "g_synthesis/4x4/Const/StyleMod/strided_slice_1/stack_1", "g_synthesis/4x4/Const/StyleMod/strided_slice/stack_2"], "attr": {"T": {"type": "DT_FLOAT"}, "Index": {"type": "DT_INT32"}, "shrink_axis_mask": {"i": "2"}, "begin_mask": {"i": "1"}, "ellipsis_mask": {"i": "0"}, "new_axis_mask": {"i": "0"}, "end_mask": {"i": "1"}}}, {"name": "g_synthesis/32x32/Conv1/StyleMod/strided_slice", "op": "StridedSlice", "input": ["g_synthesis/32x32/Conv1/StyleMod/Reshape", "g_synthesis/4x4/Const/StyleMod/strided_slice/stack", "g_synthesis/4x4/Const/StyleMod/strided_slice/stack_1", "g_synthesis/4x4/Const/StyleMod/strided_slice/stack_2"], "attr": {"T": {"type": "DT_FLOAT"}, "Index": {"type": "DT_INT32"}, "shrink_axis_mask": {"i": "2"}, "begin_mask": {"i": "1"}, "ellipsis_mask": {"i": "0"}, "new_axis_mask": {"i": "0"}, "end_mask": {"i": "1"}}}, {"name": "g_synthesis/32x32/Conv0_up/StyleMod/strided_slice_1", "op": "StridedSlice", "input": ["g_synthesis/32x32/Conv0_up/StyleMod/Reshape", "g_synthesis/4x4/Const/StyleMod/strided_slice/stack_1", "g_synthesis/4x4/Const/StyleMod/strided_slice_1/stack_1", "g_synthesis/4x4/Const/StyleMod/strided_slice/stack_2"], "attr": {"T": {"type": "DT_FLOAT"}, "Index": {"type": "DT_INT32"}, "shrink_axis_mask": {"i": "2"}, "begin_mask": {"i": "1"}, "ellipsis_mask": {"i": "0"}, "new_axis_mask": {"i": "0"}, "end_mask": {"i": "1"}}}, {"name": "g_synthesis/32x32/Conv0_up/StyleMod/strided_slice", "op": "StridedSlice", "input": ["g_synthesis/32x32/Conv0_up/StyleMod/Reshape", "g_synthesis/4x4/Const/StyleMod/strided_slice/stack", "g_synthesis/4x4/Const/StyleMod/strided_slice/stack_1", "g_synthesis/4x4/Const/StyleMod/strided_slice/stack_2"], "attr": {"T": {"type": "DT_FLOAT"}, "Index": {"type": "DT_INT32"}, "shrink_axis_mask": {"i": "2"}, "begin_mask": {"i": "1"}, "ellipsis_mask": {"i": "0"}, "new_axis_mask": {"i": "0"}, "end_mask": {"i": "1"}}}, {"name": "g_synthesis/16x16/Conv1/StyleMod/strided_slice_1", "op": "StridedSlice", "input": ["g_synthesis/16x16/Conv1/StyleMod/Reshape", "g_synthesis/4x4/Const/StyleMod/strided_slice/stack_1", "g_synthesis/4x4/Const/StyleMod/strided_slice_1/stack_1", "g_synthesis/4x4/Const/StyleMod/strided_slice/stack_2"], "attr": {"T": {"type": "DT_FLOAT"}, "Index": {"type": "DT_INT32"}, "shrink_axis_mask": {"i": "2"}, "begin_mask": {"i": "1"}, "ellipsis_mask": {"i": "0"}, "new_axis_mask": {"i": "0"}, "end_mask": {"i": "1"}}}, {"name": "g_synthesis/16x16/Conv1/StyleMod/strided_slice", "op": "StridedSlice", "input": ["g_synthesis/16x16/Conv1/StyleMod/Reshape", "g_synthesis/4x4/Const/StyleMod/strided_slice/stack", "g_synthesis/4x4/Const/StyleMod/strided_slice/stack_1", "g_synthesis/4x4/Const/StyleMod/strided_slice/stack_2"], "attr": {"T": {"type": "DT_FLOAT"}, "Index": {"type": "DT_INT32"}, "shrink_axis_mask": {"i": "2"}, "begin_mask": {"i": "1"}, "ellipsis_mask": {"i": "0"}, "new_axis_mask": {"i": "0"}, "end_mask": {"i": "1"}}}, {"name": "g_synthesis/16x16/Conv0_up/StyleMod/strided_slice_1", "op": "StridedSlice", "input": ["g_synthesis/16x16/Conv0_up/StyleMod/Reshape", "g_synthesis/4x4/Const/StyleMod/strided_slice/stack_1", "g_synthesis/4x4/Const/StyleMod/strided_slice_1/stack_1", "g_synthesis/4x4/Const/StyleMod/strided_slice/stack_2"], "attr": {"T": {"type": "DT_FLOAT"}, "Index": {"type": "DT_INT32"}, "shrink_axis_mask": {"i": "2"}, "begin_mask": {"i": "1"}, "ellipsis_mask": {"i": "0"}, "new_axis_mask": {"i": "0"}, "end_mask": {"i": "1"}}}, {"name": "g_synthesis/16x16/Conv0_up/StyleMod/strided_slice", "op": "StridedSlice", "input": ["g_synthesis/16x16/Conv0_up/StyleMod/Reshape", "g_synthesis/4x4/Const/StyleMod/strided_slice/stack", "g_synthesis/4x4/Const/StyleMod/strided_slice/stack_1", "g_synthesis/4x4/Const/StyleMod/strided_slice/stack_2"], "attr": {"T": {"type": "DT_FLOAT"}, "Index": {"type": "DT_INT32"}, "shrink_axis_mask": {"i": "2"}, "begin_mask": {"i": "1"}, "ellipsis_mask": {"i": "0"}, "new_axis_mask": {"i": "0"}, "end_mask": {"i": "1"}}}, {"name": "g_synthesis/8x8/Conv1/StyleMod/strided_slice_1", "op": "StridedSlice", "input": ["g_synthesis/8x8/Conv1/StyleMod/Reshape", "g_synthesis/4x4/Const/StyleMod/strided_slice/stack_1", "g_synthesis/4x4/Const/StyleMod/strided_slice_1/stack_1", "g_synthesis/4x4/Const/StyleMod/strided_slice/stack_2"], "attr": {"T": {"type": "DT_FLOAT"}, "Index": {"type": "DT_INT32"}, "shrink_axis_mask": {"i": "2"}, "begin_mask": {"i": "1"}, "ellipsis_mask": {"i": "0"}, "new_axis_mask": {"i": "0"}, "end_mask": {"i": "1"}}}, {"name": "g_synthesis/8x8/Conv1/StyleMod/strided_slice", "op": "StridedSlice", "input": ["g_synthesis/8x8/Conv1/StyleMod/Reshape", "g_synthesis/4x4/Const/StyleMod/strided_slice/stack", "g_synthesis/4x4/Const/StyleMod/strided_slice/stack_1", "g_synthesis/4x4/Const/StyleMod/strided_slice/stack_2"], "attr": {"T": {"type": "DT_FLOAT"}, "Index": {"type": "DT_INT32"}, "shrink_axis_mask": {"i": "2"}, "begin_mask": {"i": "1"}, "ellipsis_mask": {"i": "0"}, "new_axis_mask": {"i": "0"}, "end_mask": {"i": "1"}}}, {"name": "g_synthesis/8x8/Conv0_up/StyleMod/strided_slice_1", "op": "StridedSlice", "input": ["g_synthesis/8x8/Conv0_up/StyleMod/Reshape", "g_synthesis/4x4/Const/StyleMod/strided_slice/stack_1", "g_synthesis/4x4/Const/StyleMod/strided_slice_1/stack_1", "g_synthesis/4x4/Const/StyleMod/strided_slice/stack_2"], "attr": {"T": {"type": "DT_FLOAT"}, "Index": {"type": "DT_INT32"}, "shrink_axis_mask": {"i": "2"}, "begin_mask": {"i": "1"}, "ellipsis_mask": {"i": "0"}, "new_axis_mask": {"i": "0"}, "end_mask": {"i": "1"}}}, {"name": "g_synthesis/8x8/Conv0_up/StyleMod/strided_slice", "op": "StridedSlice", "input": ["g_synthesis/8x8/Conv0_up/StyleMod/Reshape", "g_synthesis/4x4/Const/StyleMod/strided_slice/stack", "g_synthesis/4x4/Const/StyleMod/strided_slice/stack_1", "g_synthesis/4x4/Const/StyleMod/strided_slice/stack_2"], "attr": {"T": {"type": "DT_FLOAT"}, "Index": {"type": "DT_INT32"}, "shrink_axis_mask": {"i": "2"}, "begin_mask": {"i": "1"}, "ellipsis_mask": {"i": "0"}, "new_axis_mask": {"i": "0"}, "end_mask": {"i": "1"}}}, {"name": "g_synthesis/4x4/Conv/StyleMod/strided_slice_1", "op": "StridedSlice", "input": ["g_synthesis/4x4/Conv/StyleMod/Reshape", "g_synthesis/4x4/Const/StyleMod/strided_slice/stack_1", "g_synthesis/4x4/Const/StyleMod/strided_slice_1/stack_1", "g_synthesis/4x4/Const/StyleMod/strided_slice/stack_2"], "attr": {"T": {"type": "DT_FLOAT"}, "Index": {"type": "DT_INT32"}, "shrink_axis_mask": {"i": "2"}, "begin_mask": {"i": "1"}, "ellipsis_mask": {"i": "0"}, "new_axis_mask": {"i": "0"}, "end_mask": {"i": "1"}}}, {"name": "g_synthesis/4x4/Conv/StyleMod/strided_slice", "op": "StridedSlice", "input": ["g_synthesis/4x4/Conv/StyleMod/Reshape", "g_synthesis/4x4/Const/StyleMod/strided_slice/stack", "g_synthesis/4x4/Const/StyleMod/strided_slice/stack_1", "g_synthesis/4x4/Const/StyleMod/strided_slice/stack_2"], "attr": {"T": {"type": "DT_FLOAT"}, "Index": {"type": "DT_INT32"}, "shrink_axis_mask": {"i": "2"}, "begin_mask": {"i": "1"}, "ellipsis_mask": {"i": "0"}, "new_axis_mask": {"i": "0"}, "end_mask": {"i": "1"}}}, {"name": "g_synthesis/4x4/Const/StyleMod/strided_slice_1", "op": "StridedSlice", "input": ["g_synthesis/4x4/Const/StyleMod/Reshape", "g_synthesis/4x4/Const/StyleMod/strided_slice/stack_1", "g_synthesis/4x4/Const/StyleMod/strided_slice_1/stack_1", "g_synthesis/4x4/Const/StyleMod/strided_slice/stack_2"], "attr": {"T": {"type": "DT_FLOAT"}, "Index": {"type": "DT_INT32"}, "shrink_axis_mask": {"i": "2"}, "begin_mask": {"i": "1"}, "ellipsis_mask": {"i": "0"}, "new_axis_mask": {"i": "0"}, "end_mask": {"i": "1"}}}, {"name": "g_synthesis/4x4/Const/StyleMod/strided_slice", "op": "StridedSlice", "input": ["g_synthesis/4x4/Const/StyleMod/Reshape", "g_synthesis/4x4/Const/StyleMod/strided_slice/stack", "g_synthesis/4x4/Const/StyleMod/strided_slice/stack_1", "g_synthesis/4x4/Const/StyleMod/strided_slice/stack_2"], "attr": {"T": {"type": "DT_FLOAT"}, "Index": {"type": "DT_INT32"}, "shrink_axis_mask": {"i": "2"}, "begin_mask": {"i": "1"}, "ellipsis_mask": {"i": "0"}, "new_axis_mask": {"i": "0"}, "end_mask": {"i": "1"}}}, {"name": "g_synthesis/4x4/Const/Noise/random_uniform/RandomUniform", "op": "RandomUniform", "input": ["g_synthesis/4x4/Const/Noise/random_uniform/shape"], "attr": {"seed": {"i": "0"}, "T": {"type": "DT_INT32"}, "dtype": {"type": "DT_FLOAT"}, "seed2": {"i": "0"}}}, {"name": "g_synthesis/512x512/Conv1/StyleMod/add_1", "op": "Add", "input": ["g_synthesis/4x4/Const/Noise/random_uniform/sub", "g_synthesis/512x512/Conv1/StyleMod/strided_slice"], "attr": {"T": {"type": "DT_FLOAT"}}}, {"name": "g_synthesis/512x512/Conv0_up/StyleMod/add_1", "op": "Add", "input": ["g_synthesis/4x4/Const/Noise/random_uniform/sub", "g_synthesis/512x512/Conv0_up/StyleMod/strided_slice"], "attr": {"T": {"type": "DT_FLOAT"}}}, {"name": "g_synthesis/256x256/Conv1/StyleMod/add_1", "op": "Add", "input": ["g_synthesis/256x256/Conv1/StyleMod/strided_slice", "g_synthesis/4x4/Const/Noise/random_uniform/sub"], "attr": {"T": {"type": "DT_FLOAT"}}}, {"name": "g_synthesis/256x256/Conv0_up/StyleMod/add_1", "op": "Add", "input": ["g_synthesis/256x256/Conv0_up/StyleMod/strided_slice", "g_synthesis/4x4/Const/Noise/random_uniform/sub"], "attr": {"T": {"type": "DT_FLOAT"}}}, {"name": "g_synthesis/128x128/Conv1/StyleMod/add_1", "op": "Add", "input": ["g_synthesis/128x128/Conv1/StyleMod/strided_slice", "g_synthesis/4x4/Const/Noise/random_uniform/sub"], "attr": {"T": {"type": "DT_FLOAT"}}}, {"name": "g_synthesis/128x128/Conv0_up/StyleMod/add_1", "op": "Add", "input": ["g_synthesis/128x128/Conv0_up/StyleMod/strided_slice", "g_synthesis/4x4/Const/Noise/random_uniform/sub"], "attr": {"T": {"type": "DT_FLOAT"}}}, {"name": "g_synthesis/64x64/Conv1/StyleMod/add_1", "op": "Add", "input": ["g_synthesis/4x4/Const/Noise/random_uniform/sub", "g_synthesis/64x64/Conv1/StyleMod/strided_slice"], "attr": {"T": {"type": "DT_FLOAT"}}}, {"name": "g_synthesis/64x64/Conv0_up/StyleMod/add_1", "op": "Add", "input": ["g_synthesis/4x4/Const/Noise/random_uniform/sub", "g_synthesis/64x64/Conv0_up/StyleMod/strided_slice"], "attr": {"T": {"type": "DT_FLOAT"}}}, {"name": "g_synthesis/32x32/Conv1/StyleMod/add_1", "op": "Add", "input": ["g_synthesis/32x32/Conv1/StyleMod/strided_slice", "g_synthesis/4x4/Const/Noise/random_uniform/sub"], "attr": {"T": {"type": "DT_FLOAT"}}}, {"name": "g_synthesis/32x32/Conv0_up/StyleMod/add_1", "op": "Add", "input": ["g_synthesis/32x32/Conv0_up/StyleMod/strided_slice", "g_synthesis/4x4/Const/Noise/random_uniform/sub"], "attr": {"T": {"type": "DT_FLOAT"}}}, {"name": "g_synthesis/16x16/Conv1/StyleMod/add_1", "op": "Add", "input": ["g_synthesis/16x16/Conv1/StyleMod/strided_slice", "g_synthesis/4x4/Const/Noise/random_uniform/sub"], "attr": {"T": {"type": "DT_FLOAT"}}}, {"name": "g_synthesis/16x16/Conv0_up/StyleMod/add_1", "op": "Add", "input": ["g_synthesis/16x16/Conv0_up/StyleMod/strided_slice", "g_synthesis/4x4/Const/Noise/random_uniform/sub"], "attr": {"T": {"type": "DT_FLOAT"}}}, {"name": "g_synthesis/8x8/Conv1/StyleMod/add_1", "op": "Add", "input": ["g_synthesis/4x4/Const/Noise/random_uniform/sub", "g_synthesis/8x8/Conv1/StyleMod/strided_slice"], "attr": {"T": {"type": "DT_FLOAT"}}}, {"name": "g_synthesis/8x8/Conv0_up/StyleMod/add_1", "op": "Add", "input": ["g_synthesis/4x4/Const/Noise/random_uniform/sub", "g_synthesis/8x8/Conv0_up/StyleMod/strided_slice"], "attr": {"T": {"type": "DT_FLOAT"}}}, {"name": "g_synthesis/4x4/Conv/StyleMod/add_1", "op": "Add", "input": ["g_synthesis/4x4/Const/Noise/random_uniform/sub", "g_synthesis/4x4/Conv/StyleMod/strided_slice"], "attr": {"T": {"type": "DT_FLOAT"}}}, {"name": "g_synthesis/4x4/Const/StyleMod/add_1", "op": "Add", "input": ["g_synthesis/4x4/Const/Noise/random_uniform/sub", "g_synthesis/4x4/Const/StyleMod/strided_slice"], "attr": {"T": {"type": "DT_FLOAT"}}}, {"name": "g_synthesis/4x4/Const/Noise/mul", "op": "Mul", "input": ["g_synthesis/4x4/Const/Noise/Reshape", "g_synthesis/4x4/Const/Noise/random_uniform/RandomUniform"], "attr": {"T": {"type": "DT_FLOAT"}}}, {"name": "g_synthesis/4x4/Const/Noise/add", "op": "Add", "input": ["g_synthesis/4x4/Const/Noise/mul", "g_synthesis/4x4/Const/Reshape"], "attr": {"T": {"type": "DT_FLOAT"}}}, {"name": "g_synthesis/4x4/Const/add", "op": "Add", "input": ["g_synthesis/4x4/Const/Noise/add", "g_synthesis/4x4/Const/Tile"], "attr": {"T": {"type": "DT_FLOAT"}}}, {"name": "g_synthesis/4x4/Const/LeakyRelu", "op": "LeakyRelu", "input": ["g_synthesis/4x4/Const/add"], "attr": {"T": {"type": "DT_FLOAT"}, "alpha": {"f": 0.20000000298023224}}}, {"name": "g_synthesis/4x4/Const/InstanceNorm/Mean", "op": "Mean", "input": ["g_synthesis/4x4/Const/LeakyRelu", "g_synthesis/4x4/Const/InstanceNorm/Mean/reduction_indices"], "attr": {"keep_dims": {"b": true}, "Tidx": {"type": "DT_INT32"}, "T": {"type": "DT_FLOAT"}}}, {"name": "g_synthesis/4x4/Const/InstanceNorm/sub_1", "op": "Sub", "input": ["g_synthesis/4x4/Const/LeakyRelu", "g_synthesis/4x4/Const/InstanceNorm/Mean"], "attr": {"T": {"type": "DT_FLOAT"}}}, {"name": "g_synthesis/4x4/Const/InstanceNorm/Square", "op": "Square", "input": ["g_synthesis/4x4/Const/InstanceNorm/sub_1"], "attr": {"T": {"type": "DT_FLOAT"}}}, {"name": "g_synthesis/4x4/Const/InstanceNorm/Mean_1", "op": "Mean", "input": ["g_synthesis/4x4/Const/InstanceNorm/Square", "g_synthesis/4x4/Const/InstanceNorm/Mean/reduction_indices"], "attr": {"keep_dims": {"b": true}, "Tidx": {"type": "DT_INT32"}, "T": {"type": "DT_FLOAT"}}}, {"name": "g_synthesis/4x4/Const/InstanceNorm/add", "op": "Add", "input": ["g_synthesis/4x4/Const/InstanceNorm/Mean_1", "g_synthesis/4x4/Const/InstanceNorm/epsilon"], "attr": {"T": {"type": "DT_FLOAT"}}}, {"name": "g_synthesis/4x4/Const/InstanceNorm/Rsqrt", "op": "Rsqrt", "input": ["g_synthesis/4x4/Const/InstanceNorm/add"], "attr": {"T": {"type": "DT_FLOAT"}}}, {"name": "g_synthesis/4x4/Const/InstanceNorm/mul", "op": "Mul", "input": ["g_synthesis/4x4/Const/InstanceNorm/Rsqrt", "g_synthesis/4x4/Const/InstanceNorm/sub_1"], "attr": {"T": {"type": "DT_FLOAT"}}}, {"name": "g_synthesis/4x4/Const/StyleMod/mul_2", "op": "Mul", "input": ["g_synthesis/4x4/Const/InstanceNorm/mul", "g_synthesis/4x4/Const/StyleMod/add_1"], "attr": {"T": {"type": "DT_FLOAT"}}}, {"name": "g_synthesis/4x4/Const/StyleMod/add_2", "op": "Add", "input": ["g_synthesis/4x4/Const/StyleMod/mul_2", "g_synthesis/4x4/Const/StyleMod/strided_slice_1"], "attr": {"T": {"type": "DT_FLOAT"}}}, {"name": "g_synthesis/4x4/Conv/NCHW_to_NHWC", "op": "Transpose", "input": ["g_synthesis/4x4/Const/StyleMod/add_2", "g_synthesis/4x4_1/ToRGB/NCHW_to_NHWC/perm"], "attr": {"Tperm": {"type": "DT_INT32"}, "T": {"type": "DT_FLOAT"}}}, {"name": "g_synthesis/4x4/Conv/Conv2D", "op": "Conv2D", "input": ["g_synthesis/4x4/Conv/NCHW_to_NHWC", "g_synthesis/4x4/Conv/mul"], "attr": {"dilations": {"list": {"i": ["1", "1", "1", "1"]}}, "T": {"type": "DT_FLOAT"}, "data_format": {"s": "TkhXQw=="}, "strides": {"list": {"i": ["1", "1", "1", "1"]}}, "use_cudnn_on_gpu": {"b": true}, "explicit_paddings": {"list": {}}, "padding": {"s": "U0FNRQ=="}}}, {"name": "g_synthesis/4x4/Conv/NHWC_to_NCHW", "op": "Transpose", "input": ["g_synthesis/4x4/Conv/Conv2D", "g_synthesis/4x4_1/ToRGB/NHWC_to_NCHW/perm"], "attr": {"Tperm": {"type": "DT_INT32"}, "T": {"type": "DT_FLOAT"}}}, {"name": "g_synthesis/4x4/Conv/Noise/Shape", "op": "Shape", "input": ["g_synthesis/4x4/Conv/NHWC_to_NCHW"], "attr": {"T": {"type": "DT_FLOAT"}, "out_type": {"type": "DT_INT32"}}}, {"name": "g_synthesis/4x4/Conv/Noise/strided_slice", "op": "StridedSlice", "input": ["g_synthesis/4x4/Conv/Noise/Shape", "g_synthesis/512x512/Conv0_up/strided_slice_4/stack", "g_synthesis/512x512/Conv0_up/strided_slice_4/stack_1", "g_synthesis/512x512/Conv0_up/strided_slice_4/stack_1"], "attr": {"T": {"type": "DT_INT32"}, "Index": {"type": "DT_INT32"}, "shrink_axis_mask": {"i": "1"}, "begin_mask": {"i": "0"}, "ellipsis_mask": {"i": "0"}, "new_axis_mask": {"i": "0"}, "end_mask": {"i": "0"}}}, {"name": "g_synthesis/4x4/Conv/Noise/random_uniform/shape", "op": "Pack", "input": ["g_synthesis/4x4/Conv/Noise/strided_slice", "g_synthesis/4x4/Const/Tile/multiples/1", "g_synthesis/4x4/Const/Noise/random_uniform/shape/2", "g_synthesis/4x4/Const/Noise/random_uniform/shape/2"], "attr": {"T": {"type": "DT_INT32"}, "axis": {"i": "0"}, "N": {"i": "4"}}}, {"name": "g_synthesis/4x4/Conv/Noise/random_uniform/RandomUniform", "op": "RandomUniform", "input": ["g_synthesis/4x4/Conv/Noise/random_uniform/shape"], "attr": {"seed": {"i": "0"}, "T": {"type": "DT_INT32"}, "dtype": {"type": "DT_FLOAT"}, "seed2": {"i": "0"}}}, {"name": "g_synthesis/4x4/Conv/Noise/mul", "op": "Mul", "input": ["g_synthesis/4x4/Conv/Noise/Reshape", "g_synthesis/4x4/Conv/Noise/random_uniform/RandomUniform"], "attr": {"T": {"type": "DT_FLOAT"}}}, {"name": "g_synthesis/4x4/Conv/Noise/add", "op": "Add", "input": ["g_synthesis/4x4/Conv/Noise/mul", "g_synthesis/4x4/Conv/Reshape"], "attr": {"T": {"type": "DT_FLOAT"}}}, {"name": "g_synthesis/4x4/Conv/add", "op": "Add", "input": ["g_synthesis/4x4/Conv/NHWC_to_NCHW", "g_synthesis/4x4/Conv/Noise/add"], "attr": {"T": {"type": "DT_FLOAT"}}}, {"name": "g_synthesis/4x4/Conv/LeakyRelu", "op": "LeakyRelu", "input": ["g_synthesis/4x4/Conv/add"], "attr": {"T": {"type": "DT_FLOAT"}, "alpha": {"f": 0.20000000298023224}}}, {"name": "g_synthesis/4x4/Conv/InstanceNorm/Mean", "op": "Mean", "input": ["g_synthesis/4x4/Conv/LeakyRelu", "g_synthesis/4x4/Const/InstanceNorm/Mean/reduction_indices"], "attr": {"keep_dims": {"b": true}, "Tidx": {"type": "DT_INT32"}, "T": {"type": "DT_FLOAT"}}}, {"name": "g_synthesis/4x4/Conv/InstanceNorm/sub_1", "op": "Sub", "input": ["g_synthesis/4x4/Conv/LeakyRelu", "g_synthesis/4x4/Conv/InstanceNorm/Mean"], "attr": {"T": {"type": "DT_FLOAT"}}}, {"name": "g_synthesis/4x4/Conv/InstanceNorm/Square", "op": "Square", "input": ["g_synthesis/4x4/Conv/InstanceNorm/sub_1"], "attr": {"T": {"type": "DT_FLOAT"}}}, {"name": "g_synthesis/4x4/Conv/InstanceNorm/Mean_1", "op": "Mean", "input": ["g_synthesis/4x4/Conv/InstanceNorm/Square", "g_synthesis/4x4/Const/InstanceNorm/Mean/reduction_indices"], "attr": {"keep_dims": {"b": true}, "Tidx": {"type": "DT_INT32"}, "T": {"type": "DT_FLOAT"}}}, {"name": "g_synthesis/4x4/Conv/InstanceNorm/add", "op": "Add", "input": ["g_synthesis/4x4/Const/InstanceNorm/epsilon", "g_synthesis/4x4/Conv/InstanceNorm/Mean_1"], "attr": {"T": {"type": "DT_FLOAT"}}}, {"name": "g_synthesis/4x4/Conv/InstanceNorm/Rsqrt", "op": "Rsqrt", "input": ["g_synthesis/4x4/Conv/InstanceNorm/add"], "attr": {"T": {"type": "DT_FLOAT"}}}, {"name": "g_synthesis/4x4/Conv/InstanceNorm/mul", "op": "Mul", "input": ["g_synthesis/4x4/Conv/InstanceNorm/Rsqrt", "g_synthesis/4x4/Conv/InstanceNorm/sub_1"], "attr": {"T": {"type": "DT_FLOAT"}}}, {"name": "g_synthesis/4x4/Conv/StyleMod/mul_2", "op": "Mul", "input": ["g_synthesis/4x4/Conv/InstanceNorm/mul", "g_synthesis/4x4/Conv/StyleMod/add_1"], "attr": {"T": {"type": "DT_FLOAT"}}}, {"name": "g_synthesis/4x4/Conv/StyleMod/add_2", "op": "Add", "input": ["g_synthesis/4x4/Conv/StyleMod/mul_2", "g_synthesis/4x4/Conv/StyleMod/strided_slice_1"], "attr": {"T": {"type": "DT_FLOAT"}}}, {"name": "g_synthesis/8x8/Conv0_up/Reshape", "op": "Reshape", "input": ["g_synthesis/4x4/Conv/StyleMod/add_2", "g_synthesis/8x8/Conv0_up/Reshape/shape"], "attr": {"T": {"type": "DT_FLOAT"}, "Tshape": {"type": "DT_INT32"}}}, {"name": "g_synthesis/4x4_1/ToRGB/NCHW_to_NHWC", "op": "Transpose", "input": ["g_synthesis/4x4/Conv/StyleMod/add_2", "g_synthesis/4x4_1/ToRGB/NCHW_to_NHWC/perm"], "attr": {"Tperm": {"type": "DT_INT32"}, "T": {"type": "DT_FLOAT"}}}, {"name": "g_synthesis/8x8/Conv0_up/Tile", "op": "Tile", "input": ["g_synthesis/8x8/Conv0_up/Reshape", "g_synthesis/Tile/multiples"], "attr": {"Tmultiples": {"type": "DT_INT32"}, "T": {"type": "DT_FLOAT"}}}, {"name": "g_synthesis/4x4_1/ToRGB/Conv2D", "op": "Conv2D", "input": ["g_synthesis/4x4_1/ToRGB/NCHW_to_NHWC", "g_synthesis/4x4_1/ToRGB/mul"], "attr": {"dilations": {"list": {"i": ["1", "1", "1", "1"]}}, "T": {"type": "DT_FLOAT"}, "data_format": {"s": "TkhXQw=="}, "strides": {"list": {"i": ["1", "1", "1", "1"]}}, "use_cudnn_on_gpu": {"b": true}, "explicit_paddings": {"list": {}}, "padding": {"s": "U0FNRQ=="}}}, {"name": "g_synthesis/8x8/Conv0_up/Reshape_1", "op": "Reshape", "input": ["g_synthesis/8x8/Conv0_up/Tile", "g_synthesis/8x8/Conv0_up/Reshape_1/shape"], "attr": {"T": {"type": "DT_FLOAT"}, "Tshape": {"type": "DT_INT32"}}}, {"name": "g_synthesis/4x4_1/ToRGB/NHWC_to_NCHW", "op": "Transpose", "input": ["g_synthesis/4x4_1/ToRGB/Conv2D", "g_synthesis/4x4_1/ToRGB/NHWC_to_NCHW/perm"], "attr": {"Tperm": {"type": "DT_INT32"}, "T": {"type": "DT_FLOAT"}}}, {"name": "g_synthesis/8x8/Conv0_up/NCHW_to_NHWC", "op": "Transpose", "input": ["g_synthesis/8x8/Conv0_up/Reshape_1", "g_synthesis/4x4_1/ToRGB/NCHW_to_NHWC/perm"], "attr": {"Tperm": {"type": "DT_INT32"}, "T": {"type": "DT_FLOAT"}}}, {"name": "g_synthesis/Reshape", "op": "Reshape", "input": ["g_synthesis/4x4_1/ToRGB/NHWC_to_NCHW", "g_synthesis/Reshape/shape"], "attr": {"T": {"type": "DT_FLOAT"}, "Tshape": {"type": "DT_INT32"}}}, {"name": "g_synthesis/8x8/Conv0_up/Conv2D", "op": "Conv2D", "input": ["g_synthesis/8x8/Conv0_up/NCHW_to_NHWC", "g_synthesis/8x8/Conv0_up/mul"], "attr": {"dilations": {"list": {"i": ["1", "1", "1", "1"]}}, "T": {"type": "DT_FLOAT"}, "data_format": {"s": "TkhXQw=="}, "strides": {"list": {"i": ["1", "1", "1", "1"]}}, "use_cudnn_on_gpu": {"b": true}, "explicit_paddings": {"list": {}}, "padding": {"s": "U0FNRQ=="}}}, {"name": "g_synthesis/Tile", "op": "Tile", "input": ["g_synthesis/Reshape", "g_synthesis/Tile/multiples"], "attr": {"Tmultiples": {"type": "DT_INT32"}, "T": {"type": "DT_FLOAT"}}}, {"name": "g_synthesis/8x8/Conv0_up/depthwise", "op": "DepthwiseConv2dNative", "input": ["g_synthesis/8x8/Conv0_up/Conv2D", "g_synthesis/8x8/Conv0_up/filter"], "attr": {"padding": {"s": "U0FNRQ=="}, "dilations": {"list": {"i": ["1", "1", "1", "1"]}}, "T": {"type": "DT_FLOAT"}, "strides": {"list": {"i": ["1", "1", "1", "1"]}}, "data_format": {"s": "TkhXQw=="}}}, {"name": "g_synthesis/Reshape_1", "op": "Reshape", "input": ["g_synthesis/Tile", "g_synthesis/Reshape_1/shape"], "attr": {"T": {"type": "DT_FLOAT"}, "Tshape": {"type": "DT_INT32"}}}, {"name": "g_synthesis/8x8/Conv0_up/NHWC_to_NCHW_1", "op": "Transpose", "input": ["g_synthesis/8x8/Conv0_up/depthwise", "g_synthesis/4x4_1/ToRGB/NHWC_to_NCHW/perm"], "attr": {"Tperm": {"type": "DT_INT32"}, "T": {"type": "DT_FLOAT"}}}, {"name": "g_synthesis/8x8/Conv0_up/Noise/Shape", "op": "Shape", "input": ["g_synthesis/8x8/Conv0_up/NHWC_to_NCHW_1"], "attr": {"T": {"type": "DT_FLOAT"}, "out_type": {"type": "DT_INT32"}}}, {"name": "g_synthesis/8x8/Conv0_up/Noise/strided_slice", "op": "StridedSlice", "input": ["g_synthesis/8x8/Conv0_up/Noise/Shape", "g_synthesis/512x512/Conv0_up/strided_slice_4/stack", "g_synthesis/512x512/Conv0_up/strided_slice_4/stack_1", "g_synthesis/512x512/Conv0_up/strided_slice_4/stack_1"], "attr": {"T": {"type": "DT_INT32"}, "Index": {"type": "DT_INT32"}, "shrink_axis_mask": {"i": "1"}, "begin_mask": {"i": "0"}, "ellipsis_mask": {"i": "0"}, "new_axis_mask": {"i": "0"}, "end_mask": {"i": "0"}}}, {"name": "g_synthesis/8x8/Conv0_up/Noise/random_uniform/shape", "op": "Pack", "input": ["g_synthesis/8x8/Conv0_up/Noise/strided_slice", "g_synthesis/4x4/Const/Tile/multiples/1", "g_synthesis/8x8/Conv0_up/Noise/random_uniform/shape/2", "g_synthesis/8x8/Conv0_up/Noise/random_uniform/shape/2"], "attr": {"T": {"type": "DT_INT32"}, "axis": {"i": "0"}, "N": {"i": "4"}}}, {"name": "g_synthesis/8x8/Conv0_up/Noise/random_uniform/RandomUniform", "op": "RandomUniform", "input": ["g_synthesis/8x8/Conv0_up/Noise/random_uniform/shape"], "attr": {"seed": {"i": "0"}, "T": {"type": "DT_INT32"}, "dtype": {"type": "DT_FLOAT"}, "seed2": {"i": "0"}}}, {"name": "g_synthesis/8x8/Conv0_up/Noise/mul", "op": "Mul", "input": ["g_synthesis/8x8/Conv0_up/Noise/Reshape", "g_synthesis/8x8/Conv0_up/Noise/random_uniform/RandomUniform"], "attr": {"T": {"type": "DT_FLOAT"}}}, {"name": "g_synthesis/8x8/Conv0_up/Noise/add", "op": "Add", "input": ["g_synthesis/8x8/Conv0_up/Noise/mul", "g_synthesis/8x8/Conv0_up/Reshape_2"], "attr": {"T": {"type": "DT_FLOAT"}}}, {"name": "g_synthesis/8x8/Conv0_up/add", "op": "Add", "input": ["g_synthesis/8x8/Conv0_up/NHWC_to_NCHW_1", "g_synthesis/8x8/Conv0_up/Noise/add"], "attr": {"T": {"type": "DT_FLOAT"}}}, {"name": "g_synthesis/8x8/Conv0_up/LeakyRelu", "op": "LeakyRelu", "input": ["g_synthesis/8x8/Conv0_up/add"], "attr": {"T": {"type": "DT_FLOAT"}, "alpha": {"f": 0.20000000298023224}}}, {"name": "g_synthesis/8x8/Conv0_up/InstanceNorm/Mean", "op": "Mean", "input": ["g_synthesis/8x8/Conv0_up/LeakyRelu", "g_synthesis/4x4/Const/InstanceNorm/Mean/reduction_indices"], "attr": {"keep_dims": {"b": true}, "Tidx": {"type": "DT_INT32"}, "T": {"type": "DT_FLOAT"}}}, {"name": "g_synthesis/8x8/Conv0_up/InstanceNorm/sub_1", "op": "Sub", "input": ["g_synthesis/8x8/Conv0_up/LeakyRelu", "g_synthesis/8x8/Conv0_up/InstanceNorm/Mean"], "attr": {"T": {"type": "DT_FLOAT"}}}, {"name": "g_synthesis/8x8/Conv0_up/InstanceNorm/Square", "op": "Square", "input": ["g_synthesis/8x8/Conv0_up/InstanceNorm/sub_1"], "attr": {"T": {"type": "DT_FLOAT"}}}, {"name": "g_synthesis/8x8/Conv0_up/InstanceNorm/Mean_1", "op": "Mean", "input": ["g_synthesis/8x8/Conv0_up/InstanceNorm/Square", "g_synthesis/4x4/Const/InstanceNorm/Mean/reduction_indices"], "attr": {"keep_dims": {"b": true}, "Tidx": {"type": "DT_INT32"}, "T": {"type": "DT_FLOAT"}}}, {"name": "g_synthesis/8x8/Conv0_up/InstanceNorm/add", "op": "Add", "input": ["g_synthesis/4x4/Const/InstanceNorm/epsilon", "g_synthesis/8x8/Conv0_up/InstanceNorm/Mean_1"], "attr": {"T": {"type": "DT_FLOAT"}}}, {"name": "g_synthesis/8x8/Conv0_up/InstanceNorm/Rsqrt", "op": "Rsqrt", "input": ["g_synthesis/8x8/Conv0_up/InstanceNorm/add"], "attr": {"T": {"type": "DT_FLOAT"}}}, {"name": "g_synthesis/8x8/Conv0_up/InstanceNorm/mul", "op": "Mul", "input": ["g_synthesis/8x8/Conv0_up/InstanceNorm/Rsqrt", "g_synthesis/8x8/Conv0_up/InstanceNorm/sub_1"], "attr": {"T": {"type": "DT_FLOAT"}}}, {"name": "g_synthesis/8x8/Conv0_up/StyleMod/mul_2", "op": "Mul", "input": ["g_synthesis/8x8/Conv0_up/InstanceNorm/mul", "g_synthesis/8x8/Conv0_up/StyleMod/add_1"], "attr": {"T": {"type": "DT_FLOAT"}}}, {"name": "g_synthesis/8x8/Conv0_up/StyleMod/add_2", "op": "Add", "input": ["g_synthesis/8x8/Conv0_up/StyleMod/mul_2", "g_synthesis/8x8/Conv0_up/StyleMod/strided_slice_1"], "attr": {"T": {"type": "DT_FLOAT"}}}, {"name": "g_synthesis/8x8/Conv1/NCHW_to_NHWC", "op": "Transpose", "input": ["g_synthesis/8x8/Conv0_up/StyleMod/add_2", "g_synthesis/4x4_1/ToRGB/NCHW_to_NHWC/perm"], "attr": {"Tperm": {"type": "DT_INT32"}, "T": {"type": "DT_FLOAT"}}}, {"name": "g_synthesis/8x8/Conv1/Conv2D", "op": "Conv2D", "input": ["g_synthesis/8x8/Conv1/NCHW_to_NHWC", "g_synthesis/8x8/Conv1/mul"], "attr": {"dilations": {"list": {"i": ["1", "1", "1", "1"]}}, "T": {"type": "DT_FLOAT"}, "data_format": {"s": "TkhXQw=="}, "strides": {"list": {"i": ["1", "1", "1", "1"]}}, "use_cudnn_on_gpu": {"b": true}, "explicit_paddings": {"list": {}}, "padding": {"s": "U0FNRQ=="}}}, {"name": "g_synthesis/8x8/Conv1/NHWC_to_NCHW", "op": "Transpose", "input": ["g_synthesis/8x8/Conv1/Conv2D", "g_synthesis/4x4_1/ToRGB/NHWC_to_NCHW/perm"], "attr": {"Tperm": {"type": "DT_INT32"}, "T": {"type": "DT_FLOAT"}}}, {"name": "g_synthesis/8x8/Conv1/Noise/Shape", "op": "Shape", "input": ["g_synthesis/8x8/Conv1/NHWC_to_NCHW"], "attr": {"T": {"type": "DT_FLOAT"}, "out_type": {"type": "DT_INT32"}}}, {"name": "g_synthesis/8x8/Conv1/Noise/strided_slice", "op": "StridedSlice", "input": ["g_synthesis/8x8/Conv1/Noise/Shape", "g_synthesis/512x512/Conv0_up/strided_slice_4/stack", "g_synthesis/512x512/Conv0_up/strided_slice_4/stack_1", "g_synthesis/512x512/Conv0_up/strided_slice_4/stack_1"], "attr": {"T": {"type": "DT_INT32"}, "Index": {"type": "DT_INT32"}, "shrink_axis_mask": {"i": "1"}, "begin_mask": {"i": "0"}, "ellipsis_mask": {"i": "0"}, "new_axis_mask": {"i": "0"}, "end_mask": {"i": "0"}}}, {"name": "g_synthesis/8x8/Conv1/Noise/random_uniform/shape", "op": "Pack", "input": ["g_synthesis/8x8/Conv1/Noise/strided_slice", "g_synthesis/4x4/Const/Tile/multiples/1", "g_synthesis/8x8/Conv0_up/Noise/random_uniform/shape/2", "g_synthesis/8x8/Conv0_up/Noise/random_uniform/shape/2"], "attr": {"T": {"type": "DT_INT32"}, "axis": {"i": "0"}, "N": {"i": "4"}}}, {"name": "g_synthesis/8x8/Conv1/Noise/random_uniform/RandomUniform", "op": "RandomUniform", "input": ["g_synthesis/8x8/Conv1/Noise/random_uniform/shape"], "attr": {"seed": {"i": "0"}, "T": {"type": "DT_INT32"}, "dtype": {"type": "DT_FLOAT"}, "seed2": {"i": "0"}}}, {"name": "g_synthesis/8x8/Conv1/Noise/mul", "op": "Mul", "input": ["g_synthesis/8x8/Conv1/Noise/Reshape", "g_synthesis/8x8/Conv1/Noise/random_uniform/RandomUniform"], "attr": {"T": {"type": "DT_FLOAT"}}}, {"name": "g_synthesis/8x8/Conv1/Noise/add", "op": "Add", "input": ["g_synthesis/8x8/Conv1/Noise/mul", "g_synthesis/8x8/Conv1/Reshape"], "attr": {"T": {"type": "DT_FLOAT"}}}, {"name": "g_synthesis/8x8/Conv1/add", "op": "Add", "input": ["g_synthesis/8x8/Conv1/NHWC_to_NCHW", "g_synthesis/8x8/Conv1/Noise/add"], "attr": {"T": {"type": "DT_FLOAT"}}}, {"name": "g_synthesis/8x8/Conv1/LeakyRelu", "op": "LeakyRelu", "input": ["g_synthesis/8x8/Conv1/add"], "attr": {"T": {"type": "DT_FLOAT"}, "alpha": {"f": 0.20000000298023224}}}, {"name": "g_synthesis/8x8/Conv1/InstanceNorm/Mean", "op": "Mean", "input": ["g_synthesis/8x8/Conv1/LeakyRelu", "g_synthesis/4x4/Const/InstanceNorm/Mean/reduction_indices"], "attr": {"keep_dims": {"b": true}, "Tidx": {"type": "DT_INT32"}, "T": {"type": "DT_FLOAT"}}}, {"name": "g_synthesis/8x8/Conv1/InstanceNorm/sub_1", "op": "Sub", "input": ["g_synthesis/8x8/Conv1/LeakyRelu", "g_synthesis/8x8/Conv1/InstanceNorm/Mean"], "attr": {"T": {"type": "DT_FLOAT"}}}, {"name": "g_synthesis/8x8/Conv1/InstanceNorm/Square", "op": "Square", "input": ["g_synthesis/8x8/Conv1/InstanceNorm/sub_1"], "attr": {"T": {"type": "DT_FLOAT"}}}, {"name": "g_synthesis/8x8/Conv1/InstanceNorm/Mean_1", "op": "Mean", "input": ["g_synthesis/8x8/Conv1/InstanceNorm/Square", "g_synthesis/4x4/Const/InstanceNorm/Mean/reduction_indices"], "attr": {"keep_dims": {"b": true}, "Tidx": {"type": "DT_INT32"}, "T": {"type": "DT_FLOAT"}}}, {"name": "g_synthesis/8x8/Conv1/InstanceNorm/add", "op": "Add", "input": ["g_synthesis/4x4/Const/InstanceNorm/epsilon", "g_synthesis/8x8/Conv1/InstanceNorm/Mean_1"], "attr": {"T": {"type": "DT_FLOAT"}}}, {"name": "g_synthesis/8x8/Conv1/InstanceNorm/Rsqrt", "op": "Rsqrt", "input": ["g_synthesis/8x8/Conv1/InstanceNorm/add"], "attr": {"T": {"type": "DT_FLOAT"}}}, {"name": "g_synthesis/8x8/Conv1/InstanceNorm/mul", "op": "Mul", "input": ["g_synthesis/8x8/Conv1/InstanceNorm/Rsqrt", "g_synthesis/8x8/Conv1/InstanceNorm/sub_1"], "attr": {"T": {"type": "DT_FLOAT"}}}, {"name": "g_synthesis/8x8/Conv1/StyleMod/mul_2", "op": "Mul", "input": ["g_synthesis/8x8/Conv1/InstanceNorm/mul", "g_synthesis/8x8/Conv1/StyleMod/add_1"], "attr": {"T": {"type": "DT_FLOAT"}}}, {"name": "g_synthesis/8x8/Conv1/StyleMod/add_2", "op": "Add", "input": ["g_synthesis/8x8/Conv1/StyleMod/mul_2", "g_synthesis/8x8/Conv1/StyleMod/strided_slice_1"], "attr": {"T": {"type": "DT_FLOAT"}}}, {"name": "g_synthesis/16x16/Conv0_up/Reshape", "op": "Reshape", "input": ["g_synthesis/8x8/Conv1/StyleMod/add_2", "g_synthesis/16x16/Conv0_up/Reshape/shape"], "attr": {"T": {"type": "DT_FLOAT"}, "Tshape": {"type": "DT_INT32"}}}, {"name": "g_synthesis/8x8_1/ToRGB/NCHW_to_NHWC", "op": "Transpose", "input": ["g_synthesis/8x8/Conv1/StyleMod/add_2", "g_synthesis/4x4_1/ToRGB/NCHW_to_NHWC/perm"], "attr": {"Tperm": {"type": "DT_INT32"}, "T": {"type": "DT_FLOAT"}}}, {"name": "g_synthesis/16x16/Conv0_up/Tile", "op": "Tile", "input": ["g_synthesis/16x16/Conv0_up/Reshape", "g_synthesis/Tile/multiples"], "attr": {"Tmultiples": {"type": "DT_INT32"}, "T": {"type": "DT_FLOAT"}}}, {"name": "g_synthesis/8x8_1/ToRGB/Conv2D", "op": "Conv2D", "input": ["g_synthesis/8x8_1/ToRGB/NCHW_to_NHWC", "g_synthesis/8x8_1/ToRGB/mul"], "attr": {"dilations": {"list": {"i": ["1", "1", "1", "1"]}}, "T": {"type": "DT_FLOAT"}, "data_format": {"s": "TkhXQw=="}, "strides": {"list": {"i": ["1", "1", "1", "1"]}}, "use_cudnn_on_gpu": {"b": true}, "explicit_paddings": {"list": {}}, "padding": {"s": "U0FNRQ=="}}}, {"name": "g_synthesis/16x16/Conv0_up/Reshape_1", "op": "Reshape", "input": ["g_synthesis/16x16/Conv0_up/Tile", "g_synthesis/16x16/Conv0_up/Reshape_1/shape"], "attr": {"T": {"type": "DT_FLOAT"}, "Tshape": {"type": "DT_INT32"}}}, {"name": "g_synthesis/8x8_1/ToRGB/NHWC_to_NCHW", "op": "Transpose", "input": ["g_synthesis/8x8_1/ToRGB/Conv2D", "g_synthesis/4x4_1/ToRGB/NHWC_to_NCHW/perm"], "attr": {"Tperm": {"type": "DT_INT32"}, "T": {"type": "DT_FLOAT"}}}, {"name": "g_synthesis/16x16/Conv0_up/NCHW_to_NHWC", "op": "Transpose", "input": ["g_synthesis/16x16/Conv0_up/Reshape_1", "g_synthesis/4x4_1/ToRGB/NCHW_to_NHWC/perm"], "attr": {"Tperm": {"type": "DT_INT32"}, "T": {"type": "DT_FLOAT"}}}, {"name": "g_synthesis/8x8_1/ToRGB/add", "op": "Add", "input": ["g_synthesis/8x8_1/ToRGB/NHWC_to_NCHW", "g_synthesis/8x8_1/ToRGB/Reshape"], "attr": {"T": {"type": "DT_FLOAT"}}}, {"name": "g_synthesis/16x16/Conv0_up/Conv2D", "op": "Conv2D", "input": ["g_synthesis/16x16/Conv0_up/NCHW_to_NHWC", "g_synthesis/16x16/Conv0_up/mul"], "attr": {"dilations": {"list": {"i": ["1", "1", "1", "1"]}}, "T": {"type": "DT_FLOAT"}, "data_format": {"s": "TkhXQw=="}, "strides": {"list": {"i": ["1", "1", "1", "1"]}}, "use_cudnn_on_gpu": {"b": true}, "explicit_paddings": {"list": {}}, "padding": {"s": "U0FNRQ=="}}}, {"name": "g_synthesis/8x8_2/smooth_transition/LerpClip/sub", "op": "Sub", "input": ["g_synthesis/Reshape_1", "g_synthesis/8x8_1/ToRGB/add"], "attr": {"T": {"type": "DT_FLOAT"}}}, {"name": "g_synthesis/16x16/Conv0_up/depthwise", "op": "DepthwiseConv2dNative", "input": ["g_synthesis/16x16/Conv0_up/Conv2D", "g_synthesis/8x8/Conv0_up/filter"], "attr": {"padding": {"s": "U0FNRQ=="}, "dilations": {"list": {"i": ["1", "1", "1", "1"]}}, "T": {"type": "DT_FLOAT"}, "strides": {"list": {"i": ["1", "1", "1", "1"]}}, "data_format": {"s": "TkhXQw=="}}}, {"name": "g_synthesis/8x8_2/smooth_transition/LerpClip/mul", "op": "Mul", "input": ["g_synthesis/8x8_2/smooth_transition/LerpClip/clip_by_value", "g_synthesis/8x8_2/smooth_transition/LerpClip/sub"], "attr": {"T": {"type": "DT_FLOAT"}}}, {"name": "g_synthesis/16x16/Conv0_up/NHWC_to_NCHW_1", "op": "Transpose", "input": ["g_synthesis/16x16/Conv0_up/depthwise", "g_synthesis/4x4_1/ToRGB/NHWC_to_NCHW/perm"], "attr": {"Tperm": {"type": "DT_INT32"}, "T": {"type": "DT_FLOAT"}}}, {"name": "g_synthesis/8x8_2/smooth_transition/LerpClip/add", "op": "Add", "input": ["g_synthesis/8x8_1/ToRGB/add", "g_synthesis/8x8_2/smooth_transition/LerpClip/mul"], "attr": {"T": {"type": "DT_FLOAT"}}}, {"name": "g_synthesis/16x16/Conv0_up/Noise/Shape", "op": "Shape", "input": ["g_synthesis/16x16/Conv0_up/NHWC_to_NCHW_1"], "attr": {"T": {"type": "DT_FLOAT"}, "out_type": {"type": "DT_INT32"}}}, {"name": "g_synthesis/Reshape_2", "op": "Reshape", "input": ["g_synthesis/8x8_2/smooth_transition/LerpClip/add", "g_synthesis/Reshape_2/shape"], "attr": {"T": {"type": "DT_FLOAT"}, "Tshape": {"type": "DT_INT32"}}}, {"name": "g_synthesis/16x16/Conv0_up/Noise/strided_slice", "op": "StridedSlice", "input": ["g_synthesis/16x16/Conv0_up/Noise/Shape", "g_synthesis/512x512/Conv0_up/strided_slice_4/stack", "g_synthesis/512x512/Conv0_up/strided_slice_4/stack_1", "g_synthesis/512x512/Conv0_up/strided_slice_4/stack_1"], "attr": {"T": {"type": "DT_INT32"}, "Index": {"type": "DT_INT32"}, "shrink_axis_mask": {"i": "1"}, "begin_mask": {"i": "0"}, "ellipsis_mask": {"i": "0"}, "new_axis_mask": {"i": "0"}, "end_mask": {"i": "0"}}}, {"name": "g_synthesis/Tile_1", "op": "Tile", "input": ["g_synthesis/Reshape_2", "g_synthesis/Tile/multiples"], "attr": {"Tmultiples": {"type": "DT_INT32"}, "T": {"type": "DT_FLOAT"}}}, {"name": "g_synthesis/16x16/Conv0_up/Noise/random_uniform/shape", "op": "Pack", "input": ["g_synthesis/16x16/Conv0_up/Noise/strided_slice", "g_synthesis/4x4/Const/Tile/multiples/1", "g_synthesis/16x16/Conv0_up/Noise/random_uniform/shape/2", "g_synthesis/16x16/Conv0_up/Noise/random_uniform/shape/2"], "attr": {"T": {"type": "DT_INT32"}, "axis": {"i": "0"}, "N": {"i": "4"}}}, {"name": "g_synthesis/Reshape_3", "op": "Reshape", "input": ["g_synthesis/Tile_1", "g_synthesis/Reshape_3/shape"], "attr": {"T": {"type": "DT_FLOAT"}, "Tshape": {"type": "DT_INT32"}}}, {"name": "g_synthesis/16x16/Conv0_up/Noise/random_uniform/RandomUniform", "op": "RandomUniform", "input": ["g_synthesis/16x16/Conv0_up/Noise/random_uniform/shape"], "attr": {"seed": {"i": "0"}, "T": {"type": "DT_INT32"}, "dtype": {"type": "DT_FLOAT"}, "seed2": {"i": "0"}}}, {"name": "g_synthesis/16x16/Conv0_up/Noise/mul", "op": "Mul", "input": ["g_synthesis/16x16/Conv0_up/Noise/Reshape", "g_synthesis/16x16/Conv0_up/Noise/random_uniform/RandomUniform"], "attr": {"T": {"type": "DT_FLOAT"}}}, {"name": "g_synthesis/16x16/Conv0_up/Noise/add", "op": "Add", "input": ["g_synthesis/16x16/Conv0_up/Noise/mul", "g_synthesis/16x16/Conv0_up/Reshape_2"], "attr": {"T": {"type": "DT_FLOAT"}}}, {"name": "g_synthesis/16x16/Conv0_up/add", "op": "Add", "input": ["g_synthesis/16x16/Conv0_up/NHWC_to_NCHW_1", "g_synthesis/16x16/Conv0_up/Noise/add"], "attr": {"T": {"type": "DT_FLOAT"}}}, {"name": "g_synthesis/16x16/Conv0_up/LeakyRelu", "op": "LeakyRelu", "input": ["g_synthesis/16x16/Conv0_up/add"], "attr": {"T": {"type": "DT_FLOAT"}, "alpha": {"f": 0.20000000298023224}}}, {"name": "g_synthesis/16x16/Conv0_up/InstanceNorm/Mean", "op": "Mean", "input": ["g_synthesis/16x16/Conv0_up/LeakyRelu", "g_synthesis/4x4/Const/InstanceNorm/Mean/reduction_indices"], "attr": {"keep_dims": {"b": true}, "Tidx": {"type": "DT_INT32"}, "T": {"type": "DT_FLOAT"}}}, {"name": "g_synthesis/16x16/Conv0_up/InstanceNorm/sub_1", "op": "Sub", "input": ["g_synthesis/16x16/Conv0_up/LeakyRelu", "g_synthesis/16x16/Conv0_up/InstanceNorm/Mean"], "attr": {"T": {"type": "DT_FLOAT"}}}, {"name": "g_synthesis/16x16/Conv0_up/InstanceNorm/Square", "op": "Square", "input": ["g_synthesis/16x16/Conv0_up/InstanceNorm/sub_1"], "attr": {"T": {"type": "DT_FLOAT"}}}, {"name": "g_synthesis/16x16/Conv0_up/InstanceNorm/Mean_1", "op": "Mean", "input": ["g_synthesis/16x16/Conv0_up/InstanceNorm/Square", "g_synthesis/4x4/Const/InstanceNorm/Mean/reduction_indices"], "attr": {"keep_dims": {"b": true}, "Tidx": {"type": "DT_INT32"}, "T": {"type": "DT_FLOAT"}}}, {"name": "g_synthesis/16x16/Conv0_up/InstanceNorm/add", "op": "Add", "input": ["g_synthesis/16x16/Conv0_up/InstanceNorm/Mean_1", "g_synthesis/4x4/Const/InstanceNorm/epsilon"], "attr": {"T": {"type": "DT_FLOAT"}}}, {"name": "g_synthesis/16x16/Conv0_up/InstanceNorm/Rsqrt", "op": "Rsqrt", "input": ["g_synthesis/16x16/Conv0_up/InstanceNorm/add"], "attr": {"T": {"type": "DT_FLOAT"}}}, {"name": "g_synthesis/16x16/Conv0_up/InstanceNorm/mul", "op": "Mul", "input": ["g_synthesis/16x16/Conv0_up/InstanceNorm/Rsqrt", "g_synthesis/16x16/Conv0_up/InstanceNorm/sub_1"], "attr": {"T": {"type": "DT_FLOAT"}}}, {"name": "g_synthesis/16x16/Conv0_up/StyleMod/mul_2", "op": "Mul", "input": ["g_synthesis/16x16/Conv0_up/InstanceNorm/mul", "g_synthesis/16x16/Conv0_up/StyleMod/add_1"], "attr": {"T": {"type": "DT_FLOAT"}}}, {"name": "g_synthesis/16x16/Conv0_up/StyleMod/add_2", "op": "Add", "input": ["g_synthesis/16x16/Conv0_up/StyleMod/mul_2", "g_synthesis/16x16/Conv0_up/StyleMod/strided_slice_1"], "attr": {"T": {"type": "DT_FLOAT"}}}, {"name": "g_synthesis/16x16/Conv1/NCHW_to_NHWC", "op": "Transpose", "input": ["g_synthesis/16x16/Conv0_up/StyleMod/add_2", "g_synthesis/4x4_1/ToRGB/NCHW_to_NHWC/perm"], "attr": {"Tperm": {"type": "DT_INT32"}, "T": {"type": "DT_FLOAT"}}}, {"name": "g_synthesis/16x16/Conv1/Conv2D", "op": "Conv2D", "input": ["g_synthesis/16x16/Conv1/NCHW_to_NHWC", "g_synthesis/16x16/Conv1/mul"], "attr": {"dilations": {"list": {"i": ["1", "1", "1", "1"]}}, "T": {"type": "DT_FLOAT"}, "data_format": {"s": "TkhXQw=="}, "strides": {"list": {"i": ["1", "1", "1", "1"]}}, "use_cudnn_on_gpu": {"b": true}, "explicit_paddings": {"list": {}}, "padding": {"s": "U0FNRQ=="}}}, {"name": "g_synthesis/16x16/Conv1/NHWC_to_NCHW", "op": "Transpose", "input": ["g_synthesis/16x16/Conv1/Conv2D", "g_synthesis/4x4_1/ToRGB/NHWC_to_NCHW/perm"], "attr": {"Tperm": {"type": "DT_INT32"}, "T": {"type": "DT_FLOAT"}}}, {"name": "g_synthesis/16x16/Conv1/Noise/Shape", "op": "Shape", "input": ["g_synthesis/16x16/Conv1/NHWC_to_NCHW"], "attr": {"T": {"type": "DT_FLOAT"}, "out_type": {"type": "DT_INT32"}}}, {"name": "g_synthesis/16x16/Conv1/Noise/strided_slice", "op": "StridedSlice", "input": ["g_synthesis/16x16/Conv1/Noise/Shape", "g_synthesis/512x512/Conv0_up/strided_slice_4/stack", "g_synthesis/512x512/Conv0_up/strided_slice_4/stack_1", "g_synthesis/512x512/Conv0_up/strided_slice_4/stack_1"], "attr": {"T": {"type": "DT_INT32"}, "Index": {"type": "DT_INT32"}, "shrink_axis_mask": {"i": "1"}, "begin_mask": {"i": "0"}, "ellipsis_mask": {"i": "0"}, "new_axis_mask": {"i": "0"}, "end_mask": {"i": "0"}}}, {"name": "g_synthesis/16x16/Conv1/Noise/random_uniform/shape", "op": "Pack", "input": ["g_synthesis/16x16/Conv1/Noise/strided_slice", "g_synthesis/4x4/Const/Tile/multiples/1", "g_synthesis/16x16/Conv0_up/Noise/random_uniform/shape/2", "g_synthesis/16x16/Conv0_up/Noise/random_uniform/shape/2"], "attr": {"T": {"type": "DT_INT32"}, "axis": {"i": "0"}, "N": {"i": "4"}}}, {"name": "g_synthesis/16x16/Conv1/Noise/random_uniform/RandomUniform", "op": "RandomUniform", "input": ["g_synthesis/16x16/Conv1/Noise/random_uniform/shape"], "attr": {"seed": {"i": "0"}, "T": {"type": "DT_INT32"}, "dtype": {"type": "DT_FLOAT"}, "seed2": {"i": "0"}}}, {"name": "g_synthesis/16x16/Conv1/Noise/mul", "op": "Mul", "input": ["g_synthesis/16x16/Conv1/Noise/Reshape", "g_synthesis/16x16/Conv1/Noise/random_uniform/RandomUniform"], "attr": {"T": {"type": "DT_FLOAT"}}}, {"name": "g_synthesis/16x16/Conv1/Noise/add", "op": "Add", "input": ["g_synthesis/16x16/Conv1/Noise/mul", "g_synthesis/16x16/Conv1/Reshape"], "attr": {"T": {"type": "DT_FLOAT"}}}, {"name": "g_synthesis/16x16/Conv1/add", "op": "Add", "input": ["g_synthesis/16x16/Conv1/NHWC_to_NCHW", "g_synthesis/16x16/Conv1/Noise/add"], "attr": {"T": {"type": "DT_FLOAT"}}}, {"name": "g_synthesis/16x16/Conv1/LeakyRelu", "op": "LeakyRelu", "input": ["g_synthesis/16x16/Conv1/add"], "attr": {"T": {"type": "DT_FLOAT"}, "alpha": {"f": 0.20000000298023224}}}, {"name": "g_synthesis/16x16/Conv1/InstanceNorm/Mean", "op": "Mean", "input": ["g_synthesis/16x16/Conv1/LeakyRelu", "g_synthesis/4x4/Const/InstanceNorm/Mean/reduction_indices"], "attr": {"keep_dims": {"b": true}, "Tidx": {"type": "DT_INT32"}, "T": {"type": "DT_FLOAT"}}}, {"name": "g_synthesis/16x16/Conv1/InstanceNorm/sub_1", "op": "Sub", "input": ["g_synthesis/16x16/Conv1/LeakyRelu", "g_synthesis/16x16/Conv1/InstanceNorm/Mean"], "attr": {"T": {"type": "DT_FLOAT"}}}, {"name": "g_synthesis/16x16/Conv1/InstanceNorm/Square", "op": "Square", "input": ["g_synthesis/16x16/Conv1/InstanceNorm/sub_1"], "attr": {"T": {"type": "DT_FLOAT"}}}, {"name": "g_synthesis/16x16/Conv1/InstanceNorm/Mean_1", "op": "Mean", "input": ["g_synthesis/16x16/Conv1/InstanceNorm/Square", "g_synthesis/4x4/Const/InstanceNorm/Mean/reduction_indices"], "attr": {"keep_dims": {"b": true}, "Tidx": {"type": "DT_INT32"}, "T": {"type": "DT_FLOAT"}}}, {"name": "g_synthesis/16x16/Conv1/InstanceNorm/add", "op": "Add", "input": ["g_synthesis/16x16/Conv1/InstanceNorm/Mean_1", "g_synthesis/4x4/Const/InstanceNorm/epsilon"], "attr": {"T": {"type": "DT_FLOAT"}}}, {"name": "g_synthesis/16x16/Conv1/InstanceNorm/Rsqrt", "op": "Rsqrt", "input": ["g_synthesis/16x16/Conv1/InstanceNorm/add"], "attr": {"T": {"type": "DT_FLOAT"}}}, {"name": "g_synthesis/16x16/Conv1/InstanceNorm/mul", "op": "Mul", "input": ["g_synthesis/16x16/Conv1/InstanceNorm/Rsqrt", "g_synthesis/16x16/Conv1/InstanceNorm/sub_1"], "attr": {"T": {"type": "DT_FLOAT"}}}, {"name": "g_synthesis/16x16/Conv1/StyleMod/mul_2", "op": "Mul", "input": ["g_synthesis/16x16/Conv1/InstanceNorm/mul", "g_synthesis/16x16/Conv1/StyleMod/add_1"], "attr": {"T": {"type": "DT_FLOAT"}}}, {"name": "g_synthesis/16x16/Conv1/StyleMod/add_2", "op": "Add", "input": ["g_synthesis/16x16/Conv1/StyleMod/mul_2", "g_synthesis/16x16/Conv1/StyleMod/strided_slice_1"], "attr": {"T": {"type": "DT_FLOAT"}}}, {"name": "g_synthesis/32x32/Conv0_up/Reshape", "op": "Reshape", "input": ["g_synthesis/16x16/Conv1/StyleMod/add_2", "g_synthesis/32x32/Conv0_up/Reshape/shape"], "attr": {"T": {"type": "DT_FLOAT"}, "Tshape": {"type": "DT_INT32"}}}, {"name": "g_synthesis/16x16_1/ToRGB/NCHW_to_NHWC", "op": "Transpose", "input": ["g_synthesis/16x16/Conv1/StyleMod/add_2", "g_synthesis/4x4_1/ToRGB/NCHW_to_NHWC/perm"], "attr": {"Tperm": {"type": "DT_INT32"}, "T": {"type": "DT_FLOAT"}}}, {"name": "g_synthesis/32x32/Conv0_up/Tile", "op": "Tile", "input": ["g_synthesis/32x32/Conv0_up/Reshape", "g_synthesis/Tile/multiples"], "attr": {"Tmultiples": {"type": "DT_INT32"}, "T": {"type": "DT_FLOAT"}}}, {"name": "g_synthesis/16x16_1/ToRGB/Conv2D", "op": "Conv2D", "input": ["g_synthesis/16x16_1/ToRGB/NCHW_to_NHWC", "g_synthesis/16x16_1/ToRGB/mul"], "attr": {"dilations": {"list": {"i": ["1", "1", "1", "1"]}}, "T": {"type": "DT_FLOAT"}, "data_format": {"s": "TkhXQw=="}, "strides": {"list": {"i": ["1", "1", "1", "1"]}}, "use_cudnn_on_gpu": {"b": true}, "explicit_paddings": {"list": {}}, "padding": {"s": "U0FNRQ=="}}}, {"name": "g_synthesis/32x32/Conv0_up/Reshape_1", "op": "Reshape", "input": ["g_synthesis/32x32/Conv0_up/Tile", "g_synthesis/32x32/Conv0_up/Reshape_1/shape"], "attr": {"T": {"type": "DT_FLOAT"}, "Tshape": {"type": "DT_INT32"}}}, {"name": "g_synthesis/16x16_1/ToRGB/NHWC_to_NCHW", "op": "Transpose", "input": ["g_synthesis/16x16_1/ToRGB/Conv2D", "g_synthesis/4x4_1/ToRGB/NHWC_to_NCHW/perm"], "attr": {"Tperm": {"type": "DT_INT32"}, "T": {"type": "DT_FLOAT"}}}, {"name": "g_synthesis/32x32/Conv0_up/NCHW_to_NHWC", "op": "Transpose", "input": ["g_synthesis/32x32/Conv0_up/Reshape_1", "g_synthesis/4x4_1/ToRGB/NCHW_to_NHWC/perm"], "attr": {"Tperm": {"type": "DT_INT32"}, "T": {"type": "DT_FLOAT"}}}, {"name": "g_synthesis/16x16_1/ToRGB/add", "op": "Add", "input": ["g_synthesis/16x16_1/ToRGB/NHWC_to_NCHW", "g_synthesis/16x16_1/ToRGB/Reshape"], "attr": {"T": {"type": "DT_FLOAT"}}}, {"name": "g_synthesis/32x32/Conv0_up/Conv2D", "op": "Conv2D", "input": ["g_synthesis/32x32/Conv0_up/NCHW_to_NHWC", "g_synthesis/32x32/Conv0_up/mul"], "attr": {"dilations": {"list": {"i": ["1", "1", "1", "1"]}}, "T": {"type": "DT_FLOAT"}, "data_format": {"s": "TkhXQw=="}, "strides": {"list": {"i": ["1", "1", "1", "1"]}}, "use_cudnn_on_gpu": {"b": true}, "explicit_paddings": {"list": {}}, "padding": {"s": "U0FNRQ=="}}}, {"name": "g_synthesis/16x16_2/smooth_transition/LerpClip/sub", "op": "Sub", "input": ["g_synthesis/Reshape_3", "g_synthesis/16x16_1/ToRGB/add"], "attr": {"T": {"type": "DT_FLOAT"}}}, {"name": "g_synthesis/32x32/Conv0_up/depthwise", "op": "DepthwiseConv2dNative", "input": ["g_synthesis/32x32/Conv0_up/Conv2D", "g_synthesis/8x8/Conv0_up/filter"], "attr": {"padding": {"s": "U0FNRQ=="}, "dilations": {"list": {"i": ["1", "1", "1", "1"]}}, "T": {"type": "DT_FLOAT"}, "strides": {"list": {"i": ["1", "1", "1", "1"]}}, "data_format": {"s": "TkhXQw=="}}}, {"name": "g_synthesis/16x16_2/smooth_transition/LerpClip/mul", "op": "Mul", "input": ["g_synthesis/16x16_2/smooth_transition/LerpClip/sub", "g_synthesis/8x8_2/smooth_transition/LerpClip/clip_by_value"], "attr": {"T": {"type": "DT_FLOAT"}}}, {"name": "g_synthesis/32x32/Conv0_up/NHWC_to_NCHW_1", "op": "Transpose", "input": ["g_synthesis/32x32/Conv0_up/depthwise", "g_synthesis/4x4_1/ToRGB/NHWC_to_NCHW/perm"], "attr": {"Tperm": {"type": "DT_INT32"}, "T": {"type": "DT_FLOAT"}}}, {"name": "g_synthesis/16x16_2/smooth_transition/LerpClip/add", "op": "Add", "input": ["g_synthesis/16x16_1/ToRGB/add", "g_synthesis/16x16_…
InstanceNorm/Mean/reduction_indices"], "attr": {"keep_dims": {"b": true}, "Tidx": {"type": "DT_INT32"}, "T": {"type": "DT_FLOAT"}}}, {"name": "g_synthesis/256x256/Conv1/InstanceNorm/add", "op": "Add", "input": ["g_synthesis/256x256/Conv1/InstanceNorm/Mean_1", "g_synthesis/4x4/Const/InstanceNorm/epsilon"], "attr": {"T": {"type": "DT_FLOAT"}}}, {"name": "g_synthesis/256x256/Conv1/InstanceNorm/Rsqrt", "op": "Rsqrt", "input": ["g_synthesis/256x256/Conv1/InstanceNorm/add"], "attr": {"T": {"type": "DT_FLOAT"}}}, {"name": "g_synthesis/256x256/Conv1/InstanceNorm/mul", "op": "Mul", "input": ["g_synthesis/256x256/Conv1/InstanceNorm/Rsqrt", "g_synthesis/256x256/Conv1/InstanceNorm/sub_1"], "attr": {"T": {"type": "DT_FLOAT"}}}, {"name": "g_synthesis/256x256/Conv1/StyleMod/mul_2", "op": "Mul", "input": ["g_synthesis/256x256/Conv1/InstanceNorm/mul", "g_synthesis/256x256/Conv1/StyleMod/add_1"], "attr": {"T": {"type": "DT_FLOAT"}}}, {"name": "g_synthesis/256x256/Conv1/StyleMod/add_2", "op": "Add", "input": ["g_synthesis/256x256/Conv1/StyleMod/mul_2", "g_synthesis/256x256/Conv1/StyleMod/strided_slice_1"], "attr": {"T": {"type": "DT_FLOAT"}}}, {"name": "g_synthesis/256x256_1/ToRGB/NCHW_to_NHWC", "op": "Transpose", "input": ["g_synthesis/256x256/Conv1/StyleMod/add_2", "g_synthesis/4x4_1/ToRGB/NCHW_to_NHWC/perm"], "attr": {"Tperm": {"type": "DT_INT32"}, "T": {"type": "DT_FLOAT"}}}, {"name": "g_synthesis/512x512/Conv0_up/Shape", "op": "Shape", "input": ["g_synthesis/256x256/Conv1/StyleMod/add_2"], "attr": {"T": {"type": "DT_FLOAT"}, "out_type": {"type": "DT_INT32"}}}, {"name": "g_synthesis/256x256_1/ToRGB/Conv2D", "op": "Conv2D", "input": ["g_synthesis/256x256_1/ToRGB/NCHW_to_NHWC", "g_synthesis/256x256_1/ToRGB/mul"], "attr": {"dilations": {"list": {"i": ["1", "1", "1", "1"]}}, "T": {"type": "DT_FLOAT"}, "data_format": {"s": "TkhXQw=="}, "strides": {"list": {"i": ["1", "1", "1", "1"]}}, "use_cudnn_on_gpu": {"b": true}, "explicit_paddings": {"list": {}}, "padding": {"s": "U0FNRQ=="}}}, {"name": "g_synthesis/512x512/Conv0_up/strided_slice_4", "op": "StridedSlice", "input": ["g_synthesis/512x512/Conv0_up/Shape", "g_synthesis/512x512/Conv0_up/strided_slice_4/stack", "g_synthesis/512x512/Conv0_up/strided_slice_4/stack_1", "g_synthesis/512x512/Conv0_up/strided_slice_4/stack_1"], "attr": {"T": {"type": "DT_INT32"}, "Index": {"type": "DT_INT32"}, "shrink_axis_mask": {"i": "1"}, "begin_mask": {"i": "0"}, "ellipsis_mask": {"i": "0"}, "new_axis_mask": {"i": "0"}, "end_mask": {"i": "0"}}}, {"name": "g_synthesis/256x256_1/ToRGB/NHWC_to_NCHW", "op": "Transpose", "input": ["g_synthesis/256x256_1/ToRGB/Conv2D", "g_synthesis/4x4_1/ToRGB/NHWC_to_NCHW/perm"], "attr": {"Tperm": {"type": "DT_INT32"}, "T": {"type": "DT_FLOAT"}}}, {"name": "g_synthesis/512x512/Conv0_up/conv2d_transpose/input_sizes", "op": "Pack", "input": ["g_synthesis/512x512/Conv0_up/strided_slice_4", "g_synthesis/512x512/Conv0_up/conv2d_transpose/input_sizes/1", "g_synthesis/512x512/Conv0_up/conv2d_transpose/input_sizes/1", "g_synthesis/512x512/Conv0_up/conv2d_transpose/input_sizes/3"], "attr": {"T": {"type": "DT_INT32"}, "axis": {"i": "0"}, "N": {"i": "4"}}}, {"name": "g_synthesis/256x256_1/ToRGB/add", "op": "Add", "input": ["g_synthesis/256x256_1/ToRGB/NHWC_to_NCHW", "g_synthesis/256x256_1/ToRGB/Reshape"], "attr": {"T": {"type": "DT_FLOAT"}}}, {"name": "g_synthesis/512x512/Conv0_up/conv2d_transpose", "op": "Conv2DBackpropInput", "input": ["g_synthesis/512x512/Conv0_up/conv2d_transpose/input_sizes", "g_synthesis/512x512/Conv0_up/AddN", "g_synthesis/256x256_1/ToRGB/NCHW_to_NHWC"], "attr": {"dilations": {"list": {"i": ["1", "1", "1", "1"]}}, "T": {"type": "DT_FLOAT"}, "data_format": {"s": "TkhXQw=="}, "strides": {"list": {"i": ["1", "2", "2", "1"]}}, "use_cudnn_on_gpu": {"b": true}, "explicit_paddings": {"list": {}}, "padding": {"s": "U0FNRQ=="}}}, {"name": "g_synthesis/256x256_2/smooth_transition/LerpClip/sub", "op": "Sub", "input": ["g_synthesis/Reshape_11", "g_synthesis/256x256_1/ToRGB/add"], "attr": {"T": {"type": "DT_FLOAT"}}}, {"name": "g_synthesis/512x512/Conv0_up/depthwise", "op": "DepthwiseConv2dNative", "input": ["g_synthesis/512x512/Conv0_up/conv2d_transpose", "g_synthesis/512x512/Conv0_up/filter"], "attr": {"padding": {"s": "U0FNRQ=="}, "dilations": {"list": {"i": ["1", "1", "1", "1"]}}, "T": {"type": "DT_FLOAT"}, "strides": {"list": {"i": ["1", "1", "1", "1"]}}, "data_format": {"s": "TkhXQw=="}}}, {"name": "g_synthesis/256x256_2/smooth_transition/LerpClip/mul", "op": "Mul", "input": ["g_synthesis/256x256_2/smooth_transition/LerpClip/sub", "g_synthesis/8x8_2/smooth_transition/LerpClip/clip_by_value"], "attr": {"T": {"type": "DT_FLOAT"}}}, {"name": "g_synthesis/512x512/Conv0_up/NHWC_to_NCHW_1", "op": "Transpose", "input": ["g_synthesis/512x512/Conv0_up/depthwise", "g_synthesis/4x4_1/ToRGB/NHWC_to_NCHW/perm"], "attr": {"Tperm": {"type": "DT_INT32"}, "T": {"type": "DT_FLOAT"}}}, {"name": "g_synthesis/256x256_2/smooth_transition/LerpClip/add", "op": "Add", "input": ["g_synthesis/256x256_1/ToRGB/add", "g_synthesis/256x256_2/smooth_transition/LerpClip/mul"], "attr": {"T": {"type": "DT_FLOAT"}}}, {"name": "g_synthesis/512x512/Conv0_up/Noise/Shape", "op": "Shape", "input": ["g_synthesis/512x512/Conv0_up/NHWC_to_NCHW_1"], "attr": {"T": {"type": "DT_FLOAT"}, "out_type": {"type": "DT_INT32"}}}, {"name": "g_synthesis/Reshape_12", "op": "Reshape", "input": ["g_synthesis/256x256_2/smooth_transition/LerpClip/add", "g_synthesis/Reshape_12/shape"], "attr": {"T": {"type": "DT_FLOAT"}, "Tshape": {"type": "DT_INT32"}}}, {"name": "g_synthesis/512x512/Conv0_up/Noise/strided_slice", "op": "StridedSlice", "input": ["g_synthesis/512x512/Conv0_up/Noise/Shape", "g_synthesis/512x512/Conv0_up/strided_slice_4/stack", "g_synthesis/512x512/Conv0_up/strided_slice_4/stack_1", "g_synthesis/512x512/Conv0_up/strided_slice_4/stack_1"], "attr": {"T": {"type": "DT_INT32"}, "Index": {"type": "DT_INT32"}, "shrink_axis_mask": {"i": "1"}, "begin_mask": {"i": "0"}, "ellipsis_mask": {"i": "0"}, "new_axis_mask": {"i": "0"}, "end_mask": {"i": "0"}}}, {"name": "g_synthesis/Tile_6", "op": "Tile", "input": ["g_synthesis/Reshape_12", "g_synthesis/Tile/multiples"], "attr": {"Tmultiples": {"type": "DT_INT32"}, "T": {"type": "DT_FLOAT"}}}, {"name": "g_synthesis/512x512/Conv0_up/Noise/random_uniform/shape", "op": "Pack", "input": ["g_synthesis/512x512/Conv0_up/Noise/strided_slice", "g_synthesis/4x4/Const/Tile/multiples/1", "g_synthesis/512x512/Conv0_up/conv2d_transpose/input_sizes/1", "g_synthesis/512x512/Conv0_up/conv2d_transpose/input_sizes/1"], "attr": {"T": {"type": "DT_INT32"}, "axis": {"i": "0"}, "N": {"i": "4"}}}, {"name": "g_synthesis/Reshape_13", "op": "Reshape", "input": ["g_synthesis/Tile_6", "g_synthesis/Reshape_13/shape"], "attr": {"T": {"type": "DT_FLOAT"}, "Tshape": {"type": "DT_INT32"}}}, {"name": "g_synthesis/512x512/Conv0_up/Noise/random_uniform/RandomUniform", "op": "RandomUniform", "input": ["g_synthesis/512x512/Conv0_up/Noise/random_uniform/shape"], "attr": {"seed": {"i": "0"}, "T": {"type": "DT_INT32"}, "dtype": {"type": "DT_FLOAT"}, "seed2": {"i": "0"}}}, {"name": "g_synthesis/512x512/Conv0_up/Noise/mul", "op": "Mul", "input": ["g_synthesis/512x512/Conv0_up/Noise/Reshape", "g_synthesis/512x512/Conv0_up/Noise/random_uniform/RandomUniform"], "attr": {"T": {"type": "DT_FLOAT"}}}, {"name": "g_synthesis/512x512/Conv0_up/Noise/add", "op": "Add", "input": ["g_synthesis/512x512/Conv0_up/Noise/mul", "g_synthesis/512x512/Conv0_up/Reshape"], "attr": {"T": {"type": "DT_FLOAT"}}}, {"name": "g_synthesis/512x512/Conv0_up/add", "op": "Add", "input": ["g_synthesis/512x512/Conv0_up/NHWC_to_NCHW_1", "g_synthesis/512x512/Conv0_up/Noise/add"], "attr": {"T": {"type": "DT_FLOAT"}}}, {"name": "g_synthesis/512x512/Conv0_up/LeakyRelu", "op": "LeakyRelu", "input": ["g_synthesis/512x512/Conv0_up/add"], "attr": {"T": {"type": "DT_FLOAT"}, "alpha": {"f": 0.20000000298023224}}}, {"name": "g_synthesis/512x512/Conv0_up/InstanceNorm/Mean", "op": "Mean", "input": ["g_synthesis/512x512/Conv0_up/LeakyRelu", "g_synthesis/4x4/Const/InstanceNorm/Mean/reduction_indices"], "attr": {"keep_dims": {"b": true}, "Tidx": {"type": "DT_INT32"}, "T": {"type": "DT_FLOAT"}}}, {"name": "g_synthesis/512x512/Conv0_up/InstanceNorm/sub_1", "op": "Sub", "input": ["g_synthesis/512x512/Conv0_up/LeakyRelu", "g_synthesis/512x512/Conv0_up/InstanceNorm/Mean"], "attr": {"T": {"type": "DT_FLOAT"}}}, {"name": "g_synthesis/512x512/Conv0_up/InstanceNorm/Square", "op": "Square", "input": ["g_synthesis/512x512/Conv0_up/InstanceNorm/sub_1"], "attr": {"T": {"type": "DT_FLOAT"}}}, {"name": "g_synthesis/512x512/Conv0_up/InstanceNorm/Mean_1", "op": "Mean", "input": ["g_synthesis/512x512/Conv0_up/InstanceNorm/Square", "g_synthesis/4x4/Const/InstanceNorm/Mean/reduction_indices"], "attr": {"keep_dims": {"b": true}, "Tidx": {"type": "DT_INT32"}, "T": {"type": "DT_FLOAT"}}}, {"name": "g_synthesis/512x512/Conv0_up/InstanceNorm/add", "op": "Add", "input": ["g_synthesis/4x4/Const/InstanceNorm/epsilon", "g_synthesis/512x512/Conv0_up/InstanceNorm/Mean_1"], "attr": {"T": {"type": "DT_FLOAT"}}}, {"name": "g_synthesis/512x512/Conv0_up/InstanceNorm/Rsqrt", "op": "Rsqrt", "input": ["g_synthesis/512x512/Conv0_up/InstanceNorm/add"], "attr": {"T": {"type": "DT_FLOAT"}}}, {"name": "g_synthesis/512x512/Conv0_up/InstanceNorm/mul", "op": "Mul", "input": ["g_synthesis/512x512/Conv0_up/InstanceNorm/Rsqrt", "g_synthesis/512x512/Conv0_up/InstanceNorm/sub_1"], "attr": {"T": {"type": "DT_FLOAT"}}}, {"name": "g_synthesis/512x512/Conv0_up/StyleMod/mul_2", "op": "Mul", "input": ["g_synthesis/512x512/Conv0_up/InstanceNorm/mul", "g_synthesis/512x512/Conv0_up/StyleMod/add_1"], "attr": {"T": {"type": "DT_FLOAT"}}}, {"name": "g_synthesis/512x512/Conv0_up/StyleMod/add_2", "op": "Add", "input": ["g_synthesis/512x512/Conv0_up/StyleMod/mul_2", "g_synthesis/512x512/Conv0_up/StyleMod/strided_slice_1"], "attr": {"T": {"type": "DT_FLOAT"}}}, {"name": "g_synthesis/512x512/Conv1/NCHW_to_NHWC", "op": "Transpose", "input": ["g_synthesis/512x512/Conv0_up/StyleMod/add_2", "g_synthesis/4x4_1/ToRGB/NCHW_to_NHWC/perm"], "attr": {"Tperm": {"type": "DT_INT32"}, "T": {"type": "DT_FLOAT"}}}, {"name": "g_synthesis/512x512/Conv1/Conv2D", "op": "Conv2D", "input": ["g_synthesis/512x512/Conv1/NCHW_to_NHWC", "g_synthesis/512x512/Conv1/mul"], "attr": {"dilations": {"list": {"i": ["1", "1", "1", "1"]}}, "T": {"type": "DT_FLOAT"}, "data_format": {"s": "TkhXQw=="}, "strides": {"list": {"i": ["1", "1", "1", "1"]}}, "use_cudnn_on_gpu": {"b": true}, "explicit_paddings": {"list": {}}, "padding": {"s": "U0FNRQ=="}}}, {"name": "g_synthesis/512x512/Conv1/NHWC_to_NCHW", "op": "Transpose", "input": ["g_synthesis/512x512/Conv1/Conv2D", "g_synthesis/4x4_1/ToRGB/NHWC_to_NCHW/perm"], "attr": {"Tperm": {"type": "DT_INT32"}, "T": {"type": "DT_FLOAT"}}}, {"name": "g_synthesis/512x512/Conv1/Noise/Shape", "op": "Shape", "input": ["g_synthesis/512x512/Conv1/NHWC_to_NCHW"], "attr": {"T": {"type": "DT_FLOAT"}, "out_type": {"type": "DT_INT32"}}}, {"name": "g_synthesis/512x512/Conv1/Noise/strided_slice", "op": "StridedSlice", "input": ["g_synthesis/512x512/Conv1/Noise/Shape", "g_synthesis/512x512/Conv0_up/strided_slice_4/stack", "g_synthesis/512x512/Conv0_up/strided_slice_4/stack_1", "g_synthesis/512x512/Conv0_up/strided_slice_4/stack_1"], "attr": {"T": {"type": "DT_INT32"}, "Index": {"type": "DT_INT32"}, "shrink_axis_mask": {"i": "1"}, "begin_mask": {"i": "0"}, "ellipsis_mask": {"i": "0"}, "new_axis_mask": {"i": "0"}, "end_mask": {"i": "0"}}}, {"name": "g_synthesis/512x512/Conv1/Noise/random_uniform/shape", "op": "Pack", "input": ["g_synthesis/512x512/Conv1/Noise/strided_slice", "g_synthesis/4x4/Const/Tile/multiples/1", "g_synthesis/512x512/Conv0_up/conv2d_transpose/input_sizes/1", "g_synthesis/512x512/Conv0_up/conv2d_transpose/input_sizes/1"], "attr": {"T": {"type": "DT_INT32"}, "axis": {"i": "0"}, "N": {"i": "4"}}}, {"name": "g_synthesis/512x512/Conv1/Noise/random_uniform/RandomUniform", "op": "RandomUniform", "input": ["g_synthesis/512x512/Conv1/Noise/random_uniform/shape"], "attr": {"seed": {"i": "0"}, "T": {"type": "DT_INT32"}, "dtype": {"type": "DT_FLOAT"}, "seed2": {"i": "0"}}}, {"name": "g_synthesis/512x512/Conv1/Noise/mul", "op": "Mul", "input": ["g_synthesis/512x512/Conv1/Noise/Reshape", "g_synthesis/512x512/Conv1/Noise/random_uniform/RandomUniform"], "attr": {"T": {"type": "DT_FLOAT"}}}, {"name": "g_synthesis/512x512/Conv1/Noise/add", "op": "Add", "input": ["g_synthesis/512x512/Conv1/Noise/mul", "g_synthesis/512x512/Conv1/Reshape"], "attr": {"T": {"type": "DT_FLOAT"}}}, {"name": "g_synthesis/512x512/Conv1/add", "op": "Add", "input": ["g_synthesis/512x512/Conv1/NHWC_to_NCHW", "g_synthesis/512x512/Conv1/Noise/add"], "attr": {"T": {"type": "DT_FLOAT"}}}, {"name": "g_synthesis/512x512/Conv1/LeakyRelu", "op": "LeakyRelu", "input": ["g_synthesis/512x512/Conv1/add"], "attr": {"T": {"type": "DT_FLOAT"}, "alpha": {"f": 0.20000000298023224}}}, {"name": "g_synthesis/512x512/Conv1/InstanceNorm/Mean", "op": "Mean", "input": ["g_synthesis/512x512/Conv1/LeakyRelu", "g_synthesis/4x4/Const/InstanceNorm/Mean/reduction_indices"], "attr": {"keep_dims": {"b": true}, "Tidx": {"type": "DT_INT32"}, "T": {"type": "DT_FLOAT"}}}, {"name": "g_synthesis/512x512/Conv1/InstanceNorm/sub_1", "op": "Sub", "input": ["g_synthesis/512x512/Conv1/LeakyRelu", "g_synthesis/512x512/Conv1/InstanceNorm/Mean"], "attr": {"T": {"type": "DT_FLOAT"}}}, {"name": "g_synthesis/512x512/Conv1/InstanceNorm/Square", "op": "Square", "input": ["g_synthesis/512x512/Conv1/InstanceNorm/sub_1"], "attr": {"T": {"type": "DT_FLOAT"}}}, {"name": "g_synthesis/512x512/Conv1/InstanceNorm/Mean_1", "op": "Mean", "input": ["g_synthesis/512x512/Conv1/InstanceNorm/Square", "g_synthesis/4x4/Const/InstanceNorm/Mean/reduction_indices"], "attr": {"keep_dims": {"b": true}, "Tidx": {"type": "DT_INT32"}, "T": {"type": "DT_FLOAT"}}}, {"name": "g_synthesis/512x512/Conv1/InstanceNorm/add", "op": "Add", "input": ["g_synthesis/4x4/Const/InstanceNorm/epsilon", "g_synthesis/512x512/Conv1/InstanceNorm/Mean_1"], "attr": {"T": {"type": "DT_FLOAT"}}}, {"name": "g_synthesis/512x512/Conv1/InstanceNorm/Rsqrt", "op": "Rsqrt", "input": ["g_synthesis/512x512/Conv1/InstanceNorm/add"], "attr": {"T": {"type": "DT_FLOAT"}}}, {"name": "g_synthesis/512x512/Conv1/InstanceNorm/mul", "op": "Mul", "input": ["g_synthesis/512x512/Conv1/InstanceNorm/Rsqrt", "g_synthesis/512x512/Conv1/InstanceNorm/sub_1"], "attr": {"T": {"type": "DT_FLOAT"}}}, {"name": "g_synthesis/512x512/Conv1/StyleMod/mul_2", "op": "Mul", "input": ["g_synthesis/512x512/Conv1/InstanceNorm/mul", "g_synthesis/512x512/Conv1/StyleMod/add_1"], "attr": {"T": {"type": "DT_FLOAT"}}}, {"name": "g_synthesis/512x512/Conv1/StyleMod/add_2", "op": "Add", "input": ["g_synthesis/512x512/Conv1/StyleMod/mul_2", "g_synthesis/512x512/Conv1/StyleMod/strided_slice_1"], "attr": {"T": {"type": "DT_FLOAT"}}}, {"name": "g_synthesis/512x512_1/ToRGB/NCHW_to_NHWC", "op": "Transpose", "input": ["g_synthesis/512x512/Conv1/StyleMod/add_2", "g_synthesis/4x4_1/ToRGB/NCHW_to_NHWC/perm"], "attr": {"Tperm": {"type": "DT_INT32"}, "T": {"type": "DT_FLOAT"}}}, {"name": "g_synthesis/512x512_1/ToRGB/Conv2D", "op": "Conv2D", "input": ["g_synthesis/512x512_1/ToRGB/NCHW_to_NHWC", "g_synthesis/512x512_1/ToRGB/mul"], "attr": {"dilations": {"list": {"i": ["1", "1", "1", "1"]}}, "T": {"type": "DT_FLOAT"}, "data_format": {"s": "TkhXQw=="}, "strides": {"list": {"i": ["1", "1", "1", "1"]}}, "use_cudnn_on_gpu": {"b": true}, "explicit_paddings": {"list": {}}, "padding": {"s": "U0FNRQ=="}}}, {"name": "g_synthesis/512x512_1/ToRGB/NHWC_to_NCHW", "op": "Transpose", "input": ["g_synthesis/512x512_1/ToRGB/Conv2D", "g_synthesis/4x4_1/ToRGB/NHWC_to_NCHW/perm"], "attr": {"Tperm": {"type": "DT_INT32"}, "T": {"type": "DT_FLOAT"}}}, {"name": "g_synthesis/512x512_1/ToRGB/add", "op": "Add", "input": ["g_synthesis/512x512_1/ToRGB/NHWC_to_NCHW", "g_synthesis/512x512_1/ToRGB/Reshape"], "attr": {"T": {"type": "DT_FLOAT"}}}, {"name": "g_synthesis/512x512_2/smooth_transition/LerpClip/sub", "op": "Sub", "input": ["g_synthesis/Reshape_13", "g_synthesis/512x512_1/ToRGB/add"], "attr": {"T": {"type": "DT_FLOAT"}}}, {"name": "g_synthesis/512x512_2/smooth_transition/LerpClip/mul", "op": "Mul", "input": ["g_synthesis/512x512_2/smooth_transition/LerpClip/sub", "g_synthesis/8x8_2/smooth_transition/LerpClip/clip_by_value"], "attr": {"T": {"type": "DT_FLOAT"}}}, {"name": "g_synthesis/512x512_2/smooth_transition/LerpClip/add", "op": "Add", "input": ["g_synthesis/512x512_1/ToRGB/add", "g_synthesis/512x512_2/smooth_transition/LerpClip/mul"], "attr": {"T": {"type": "DT_FLOAT"}}}, {"name": "images_out", "op": "Identity", "input": ["g_synthesis/512x512_2/smooth_transition/LerpClip/add"], "attr": {"T": {"type": "DT_FLOAT"}}}], "library": {}, "versions": {"producer": 38}}, "weightsManifest": [{"paths": ["group1-shard1of13.bin", "group1-shard2of13.bin", "group1-shard3of13.bin", "group1-shard4of13.bin", "group1-shard5of13.bin", "group1-shard6of13.bin", "group1-shard7of13.bin", "group1-shard8of13.bin", "group1-shard9of13.bin", "group1-shard10of13.bin", "group1-shard11of13.bin", "group1-shard12of13.bin", "group1-shard13of13.bin"], "weights": [{"name": "g_synthesis/8x8_2/smooth_transition/LerpClip/clip_by_value", "shape": [], "dtype": "float32", "quantization": {"min": 0.0, "scale": 1.0, "dtype": "uint16"}}, {"name": "g_synthesis/512x512_1/ToRGB/Reshape", "shape": [1, 3, 1, 1], "dtype": "float32", "quantization": {"min": -0.3924296796321869, "scale": 5.043804318115241e-06, "dtype": "uint16"}}, {"name": "g_synthesis/4x4_1/ToRGB/NHWC_to_NCHW/perm", "shape": [4], "dtype": "int32", "quantization": {"min": -0.0, "scale": 4.5777065690089265e-05, "dtype": "uint16"}}, {"name": "g_synthesis/512x512_1/ToRGB/mul", "shape": [1, 1, 32, 3], "dtype": "float32", "quantization": {"min": -0.08583512982251107, "scale": 3.032293419384289e-06, "dtype": "uint16"}}, {"name": "g_synthesis/4x4_1/ToRGB/NCHW_to_NHWC/perm", "shape": [4], "dtype": "int32", "quantization": {"min": -0.0, "scale": 4.5777065690089265e-05, "dtype": "uint16"}}, {"name": "g_synthesis/4x4/Const/StyleMod/strided_slice/stack_2", "shape": [2], "dtype": "int32", "quantization": {"min": 1.0, "scale": 1.0, "dtype": "uint16"}}, {"name": "g_synthesis/4x4/Const/StyleMod/strided_slice_1/stack_1", "shape": [2], "dtype": "int32", "quantization": {"min": -0.0, "scale": 3.0518043793392844e-05, "dtype": "uint16"}}, {"name": "g_synthesis/4x4/Const/StyleMod/strided_slice/stack_1", "shape": [2], "dtype": "int32", "quantization": {"min": -0.0, "scale": 1.5259021896696422e-05, "dtype": "uint16"}}, {"name": "g_synthesis/512x512/Conv0_up/StyleMod/Reshape/shape", "shape": [5], "dtype": "int32", "quantization": {"min": -1.00004577706569, "scale": 0.000503547722590982, "dtype": "uint16"}}, {"name": "g_synthesis/512x512/Conv1/StyleMod/mul_1", "shape": [64], "dtype": "float32", "quantization": {"min": -2.3683335078774888, "scale": 0.00013279133769988723, "dtype": "uint16"}}, {"name": "g_synthesis/512x512/Conv1/StyleMod/mul", "shape": [512, 64], "dtype": "float32", "quantization": {"min": -1.8663835472579298, "scale": 4.896331253628023e-05, "dtype": "uint16"}}, {"name": "g_synthesis/4x4/Const/StyleMod/flatten/Reshape/shape/1", "shape": [], "dtype": "int32", "quantization": {"min": -1.0, "scale": 1.0, "dtype": "uint16"}}, {"name": "g_synthesis/512x512/Conv0_up/strided_slice_4/stack_1", "shape": [1], "dtype": "int32", "quantization": {"min": 1.0, "scale": 1.0, "dtype": "uint16"}}, {"name": "g_synthesis/512x512/Conv0_up/strided_slice_4/stack", "shape": [1], "dtype": "int32", "quantization": {"min": 0.0, "scale": 1.0, "dtype": "uint16"}}, {"name": "g_synthesis/strided_slice_16/stack_1", "shape": [2], "dtype": "int32", "quantization": {"min": -0.0, "scale": 0.00024414435034714275, "dtype": "uint16"}}, {"name": "g_synthesis/strided_slice_15/stack_1", "shape": [2], "dtype": "int32", "quantization": {"min": -0.0, "scale": 0.00022888532845044633, "dtype": "uint16"}}, {"name": "w_avg", "shape": [512], "dtype": "float32", "quantization": {"min": -0.38201111215852784, "scale": 2.318872843016437e-05, "dtype": "uint16"}}, {"name": "Truncation/Select", "shape": [1, 16, 1], "dtype": "float32", "quantization": {"min": 0.699999988079071, "scale": 4.577706750910642e-06, "dtype": "uint16"}}, {"name": "g_mapping/Broadcast/Tile/multiples", "shape": [3], "dtype": "int32", "quantization": {"min": 1.0, "scale": 0.00022888532845044633, "dtype": "uint16"}}, {"name": "g_synthesis/4x4/Const/Tile/multiples/1", "shape": [], "dtype": "int32", "quantization": {"min": 1.0, "scale": 1.0, "dtype": "uint16"}}, {"name": "g_mapping/Dense7/mul_1", "shape": [512], "dtype": "float32", "quantization": {"min": -0.23518044738299496, "scale": 6.208237352383585e-06, "dtype": "uint16"}}, {"name": "g_mapping/Dense7/mul", "shape": [512, 512], "dtype": "float32", "quantization": {"min": -0.2989526476022935, "scale": 8.761800926210243e-06, "dtype": "uint16"}}, {"name": "g_mapping/Dense6/mul_1", "shape": [512], "dtype": "float32", "quantization": {"min": -0.22216734839318372, "scale": 5.2730009349722e-06, "dtype": "uint16"}}, {"name": "g_mapping/Dense6/mul", "shape": [512, 512], "dtype": "float32", "quantization": {"min": -0.2709889940696367, "scale": 8.853824094803043e-06, "dtype": "uint16"}}, {"name": "g_mapping/Dense5/mul_1", "shape": [512], "dtype": "float32", "quantization": {"min": -0.22187858882217412, "scale": 5.711748669674461e-06, "dtype": "uint16"}}, {"name": "g_mapping/Dense5/mul", "shape": [512, 512], "dtype": "float32", "quantization": {"min": -0.2821453251590934, "scale": 8.717336870762325e-06, "dtype": "uint16"}}, {"name": "g_mapping/Dense4/mul_1", "shape": [512], "dtype": "float32", "quantization": {"min": -0.19578271897554742, "scale": 5.081174092952361e-06, "dtype": "uint16"}}, {"name": "g_mapping/Dense4/mul", "shape": [512, 512], "dtype": "float32", "quantization": {"min": -0.2787073110314468, "scale": 8.527070859153948e-06, "dtype": "uint16"}}, {"name": "g_mapping/Dense3/mul_1", "shape": [512], "dtype": "float32", "quantization": {"min": -0.1628290113669616, "scale": 4.841634544526229e-06, "dtype": "uint16"}}, {"name": "g_mapping/Dense3/mul", "shape": [512, 512], "dtype": "float32", "quantization": {"min": -0.26919429482207324, "scale": 8.23173796165596e-06, "dtype": "uint16"}}, {"name": "g_mapping/Dense2/mul_1", "shape": [512], "dtype": "float32", "quantization": {"min": -0.20569956785819257, "scale": 6.053013796845263e-06, "dtype": "uint16"}}, {"name": "g_mapping/Dense2/mul", "shape": [512, 512], "dtype": "float32", "quantization": {"min": -0.2773637110102665, "scale": 8.643845394236677e-06, "dtype": "uint16"}}, {"name": "g_mapping/Dense1/mul_1", "shape": [512], "dtype": "float32", "quantization": {"min": -0.2081854442837237, "scale": 6.552687805977895e-06, "dtype": "uint16"}}, {"name": "g_mapping/Dense1/mul", "shape": [512, 512], "dtype": "float32", "quantization": {"min": -0.3111989799390407, "scale": 9.228640311350219e-06, "dtype": "uint16"}}, {"name": "g_mapping/Dense0/mul_1", "shape": [512], "dtype": "float32", "quantization": {"min": -0.14950662547625967, "scale": 4.527896831407967e-06, "dtype": "uint16"}}, {"name": "g_mapping/Dense0/mul", "shape": [512, 512], "dtype": "float32", "quantization": {"min": -0.3010852371358468, "scale": 8.871364422518246e-06, "dtype": "uint16"}}, {"name": "g_synthesis/4x4/Const/InstanceNorm/epsilon", "shape": [], "dtype": "float32", "quantization": {"min": 9.99999993922529e-09, "scale": 1.0, "dtype": "uint16"}}, {"name": "g_synthesis/4x4/Const/StyleMod/strided_slice/stack", "shape": [2], "dtype": "int32", "quantization": {"min": 0.0, "scale": 1.0, "dtype": "uint16"}}, {"name": "g_synthesis/4x4/Const/Noise/random_uniform/sub", "shape": [], "dtype": "float32", "quantization": {"min": 1.0, "scale": 1.0, "dtype": "uint16"}}, {"name": "g_synthesis/4x4/Const/InstanceNorm/Mean/reduction_indices", "shape": [2], "dtype": "int32", "quantization": {"min": 2.0, "scale": 1.5259021896696422e-05, "dtype": "uint16"}}, {"name": "g_synthesis/512x512/Conv1/Reshape", "shape": [1, 32, 1, 1], "dtype": "float32", "quantization": {"min": -32.56680176556588, "scale": 0.0008484915263812693, "dtype": "uint16"}}, {"name": "g_synthesis/512x512/Conv0_up/conv2d_transpose/input_sizes/1", "shape": [], "dtype": "int32", "quantization": {"min": 512.0, "scale": 1.0, "dtype": "uint16"}}, {"name": "g_synthesis/512x512/Conv1/mul", "shape": [3, 3, 32, 32], "dtype": "float32", "quantization": {"min": -2.580629337862608, "scale": 6.565484500744437e-05, "dtype": "uint16"}}, {"name": "g_synthesis/512x512/Conv0_up/StyleMod/mul_1", "shape": [64], "dtype": "float32", "quantization": {"min": -7.068787588083271, "scale": 0.0004152004457023948, "dtype": "uint16"}}, {"name": "g_synthesis/512x512/Conv0_up/StyleMod/mul", "shape": [512, 64], "dtype": "float32", "quantization": {"min": -0.8450879806783549, "scale": 3.2266350298894844e-05, "dtype": "uint16"}}, {"name": "g_synthesis/strided_slice_14/stack_1", "shape": [2], "dtype": "int32", "quantization": {"min": -0.0, "scale": 0.0002136263065537499, "dtype": "uint16"}}, {"name": "g_synthesis/512x512/Conv0_up/Reshape", "shape": [1, 32, 1, 1], "dtype": "float32", "quantization": {"min": -23.187299827144358, "scale": 0.0007999482449163168, "dtype": "uint16"}}, {"name": "g_synthesis/512x512/Conv0_up/filter", "shape": [3, 3, 32, 1], "dtype": "float32", "quantization": {"min": 0.0625, "scale": 2.861066605630579e-06, "dtype": "uint16"}}, {"name": "g_synthesis/256x256/Conv0_up/StyleMod/Reshape/shape", "shape": [5], "dtype": "int32", "quantization": {"min": -0.9997711146715496, "scale": 0.0009918364232852674, "dtype": "uint16"}}, {"name": "g_synthesis/256x256/Conv1/StyleMod/mul_1", "shape": [128], "dtype": "float32", "quantization": {"min": -9.964695673562973, "scale": 0.000600463734472008, "dtype": "uint16"}}, {"name": "g_synthesis/256x256/Conv1/StyleMod/mul", "shape": [512, 128], "dtype": "float32", "quantization": {"min": -1.7234925234937155, "scale": 6.197829845705248e-05, "dtype": "uint16"}}, {"name": "g_synthesis/strided_slice_13/stack_1", "shape": [2], "dtype": "int32", "quantization": {"min": -0.0, "scale": 0.00019836728465705348, "dtype": "uint16"}}, {"name": "g_synthesis/256x256/Conv1/Reshape", "shape": [1, 64, 1, 1], "dtype": "float32", "quantization": {"min": -283.0250746055481, "scale": 0.004853383770994566, "dtype": "uint16"}}, {"name": "g_synthesis/256x256/Conv0_up/conv2d_transpose/input_sizes/1", "shape": [], "dtype": "int32", "quantization": {"min": 256.0, "scale": 1.0, "dtype": "uint16"}}, {"name": "g_synthesis/256x256/Conv1/mul", "shape": [3, 3, 64, 64], "dtype": "float32", "quantization": {"min": -2.864084176725442, "scale": 9.333520747980974e-05, "dtype": "uint16"}}, {"name": "g_synthesis/256x256/Conv0_up/StyleMod/mul_1", "shape": [128], "dtype": "float32", "quantization": {"min": -4.933736807252083, "scale": 0.0005666402672851824, "dtype": "uint16"}}, {"name": "g_synthesis/256x256/Conv0_up/StyleMod/mul", "shape": [512, 128], "dtype": "float32", "quantization": {"min": -1.5164837704285463, "scale": 5.6492466488919176e-05, "dtype": "uint16"}}, {"name": "g_synthesis/strided_slice_12/stack_1", "shape": [2], "dtype": "int32", "quantization": {"min": -0.0, "scale": 0.00018310826276035706, "dtype": "uint16"}}, {"name": "g_synthesis/256x256/Conv0_up/Reshape", "shape": [1, 64, 1, 1], "dtype": "float32", "quantization": {"min": -103.03379873597504, "scale": 0.002042416768806372, "dtype": "uint16"}}, {"name": "g_synthesis/256x256/Conv0_up/filter", "shape": [3, 3, 64, 1], "dtype": "float32", "quantization": {"min": 0.0625, "scale": 2.861066605630579e-06, "dtype": "uint16"}}, {"name": "g_synthesis/128x128/Conv0_up/StyleMod/Reshape/shape", "shape": [5], "dtype": "int32", "quantization": {"min": -0.9999542229343099, "scale": 0.0019684138246738384, "dtype": "uint16"}}, {"name": "g_synthesis/128x128/Conv1/StyleMod/mul_1", "shape": [256], "dtype": "float32", "quantization": {"min": -27.86594487940628, "scale": 0.0007407412445680714, "dtype": "uint16"}}, {"name": "g_synthesis/128x128/Conv1/StyleMod/mul", "shape": [512, 256], "dtype": "float32", "quantization": {"min": -1.6862516789175492, "scale": 5.32595836807918e-05, "dtype": "uint16"}}, {"name": "g_synthesis/strided_slice_11/stack_1", "shape": [2], "dtype": "int32", "quantization": {"min": -0.0, "scale": 0.00016784924086366064, "dtype": "uint16"}}, {"name": "g_synthesis/128x128/Conv1/Reshape", "shape": [1, 128, 1, 1], "dtype": "float32", "quantization": {"min": -65.82251191840999, "scale": 0.0016761952664547093, "dtype": "uint16"}}, {"name": "g_synthesis/128x128/Conv0_up/conv2d_transpose/input_sizes/1", "shape": [], "dtype": "int32", "quantization": {"min": 128.0, "scale": 1.0, "dtype": "uint16"}}, {"name": "g_synthesis/128x128/Conv1/mul", "shape": [3, 3, 128, 128], "dtype": "float32", "quantization": {"min": -1.7815029566408231, "scale": 6.363192330038301e-05, "dtype": "uint16"}}, {"name": "g_synthesis/128x128/Conv0_up/StyleMod/mul_1", "shape": [256], "dtype": "float32", "quantization": {"min": -5.864717458490832, "scale": 0.0005598775616697691, "dtype": "uint16"}}, {"name": "g_synthesis/128x128/Conv0_up/StyleMod/mul", "shape": [512, 256], "dtype": "float32", "quantization": {"min": -1.3546203227522282, "scale": 4.762578921886679e-05, "dtype": "uint16"}}, {"name": "g_synthesis/strided_slice_10/stack_1", "shape": [2], "dtype": "int32", "quantization": {"min": -0.0, "scale": 0.00015259021896696422, "dtype": "uint16"}}, {"name": "g_synthesis/128x128/Conv0_up/Reshape", "shape": [1, 128, 1, 1], "dtype": "float32", "quantization": {"min": -43.750208607798285, "scale": 0.0015978892844338308, "dtype": "uint16"}}, {"name": "g_synthesis/128x128/Conv0_up/filter", "shape": [3, 3, 128, 1], "dtype": "float32", "quantization": {"min": 0.0625, "scale": 2.861066605630579e-06, "dtype": "uint16"}}, {"name": "g_synthesis/64x64/Conv0_up/StyleMod/Reshape/shape", "shape": [5], "dtype": "int32", "quantization": {"min": -1.0, "scale": 0.00392156862745098, "dtype": "uint16"}}, {"name": "g_synthesis/64x64/Conv1/StyleMod/mul_1", "shape": [512], "dtype": "float32", "quantization": {"min": -7.022736088067414, "scale": 0.0004465400958903423, "dtype": "uint16"}}, {"name": "g_synthesis/64x64/Conv1/StyleMod/mul", "shape": [512, 512], "dtype": "float32", "quantization": {"min": -1.64445846513888, "scale": 5.896229706485766e-05, "dtype": "uint16"}}, {"name": "g_synthesis/strided_slice_9/stack_1", "shape": [2], "dtype": "int32", "quantization": {"min": -0.0, "scale": 0.0001373311970702678, "dtype": "uint16"}}, {"name": "g_synthesis/64x64/Conv1/Reshape", "shape": [1, 256, 1, 1], "dtype": "float32", "quantization": {"min": -91.78442045272764, "scale": 0.0020015356532858157, "dtype": "uint16"}}, {"name": "g_synthesis/256x256/Conv0_up/conv2d_transpose/input_sizes/3", "shape": [], "dtype": "int32", "quantization": {"min": 64.0, "scale": 1.0, "dtype": "uint16"}}, {"name": "g_synthesis/64x64/Conv1/mul", "shape": [3, 3, 256, 256], "dtype": "float32", "quantization": {"min": -1.6529212795861337, "scale": 4.3346216651879835e-05, "dtype": "uint16"}}, {"name": "g_synthesis/64x64/Conv0_up/StyleMod/mul_1", "shape": [512], "dtype": "float32", "quantization": {"min": -8.940328671336127, "scale": 0.000582545687843626, "dtype": "uint16"}}, {"name": "g_synthesis/64x64/Conv0_up/StyleMod/mul", "shape": [512, 512], "dtype": "float32", "quantization": {"min": -1.6687215760087606, "scale": 5.762160138151798e-05, "dtype": "uint16"}}, {"name": "g_synthesis/strided_slice_8/stack_1", "shape": [2], "dtype": "int32", "quantization": {"min": -0.0, "scale": 0.00012207217517357137, "dtype": "uint16"}}, {"name": "g_synthesis/64x64/Conv0_up/Reshape_2", "shape": [1, 256, 1, 1], "dtype": "float32", "quantization": {"min": -41.7854123862428, "scale": 0.000885284160725483, "dtype": "uint16"}}, {"name": "g_synthesis/64x64/Conv0_up/filter", "shape": [3, 3, 256, 1], "dtype": "float32", "quantization": {"min": 0.0625, "scale": 2.861066605630579e-06, "dtype": "uint16"}}, {"name": "g_synthesis/64x64/Conv0_up/mul", "shape": [3, 3, 512, 256], "dtype": "float32", "quantization": {"min": -0.828857391616559, "scale": 2.3833493159748082e-05, "dtype": "uint16"}}, {"name": "g_synthesis/64x64/Conv0_up/Reshape_1/shape", "shape": [4], "dtype": "int32", "quantization": {"min": -1.0019684138246738, "scale": 0.007827878233005264, "dtype": "uint16"}}, {"name": "g_synthesis/Tile/multiples", "shape": [6], "dtype": "int32", "quantization": {"min": 1.0, "scale": 1.5259021896696422e-05, "dtype": "uint16"}}, {"name": "g_synthesis/64x64/Conv0_up/Reshape/shape", "shape": [6], "dtype": "int32", "quantization": {"min": -1.0019684138246738, "scale": 0.007827878233005264, "dtype": "uint16"}}, {"name": "g_synthesis/4x4/Const/StyleMod/Reshape/shape", "shape": [5], "dtype": "int32", "quantization": {"min": -1.0019684138246738, "scale": 0.007827878233005264, "dtype": "uint16"}}, {"name": "g_synthesis/32x32/Conv1/StyleMod/mul_1", "shape": [1024], "dtype": "float32", "quantization": {"min": -6.253433454268637, "scale": 0.0005072133550384165, "dtype": "uint16"}}, {"name": "g_synthesis/32x32/Conv1/StyleMod/mul", "shape": [512, 1024], "dtype": "float32", "quantization": {"min": -2.1470840120784858, "scale": 6.891619361510145e-05, "dtype": "uint16"}}, {"name": "g_synthesis/strided_slice_7/stack_1", "shape": [2], "dtype": "int32", "quantization": {"min": -0.0, "scale": 0.00010681315327687495, "dtype": "uint16"}}, {"name": "g_synthesis/32x32/Conv1/Reshape", "shape": [1, 512, 1, 1], "dtype": "float32", "quantization": {"min": -32.83506124989341, "scale": 0.0007914542205966546, "dtype": "uint16"}}, {"name": "g_synthesis/512x512/Conv0_up/conv2d_transpose/input_sizes/3", "shape": [], "dtype": "int32", "quantization": {"min": 32.0, "scale": 1.0, "dtype": "uint16"}}, {"name": "g_synthesis/32x32/Conv1/mul", "shape": [3, 3, 512, 512], "dtype": "float32", "quantization": {"min": -0.9322132291842572, "scale": 2.952003639077416e-05, "dtype": "uint16"}}, {"name": "g_synthesis/32x32/Conv0_up/StyleMod/mul_1", "shape": [1024], "dtype": "float32", "quantization": {"min": -7.944013268921952, "scale": 0.0005297774770871592, "dtype": "uint16"}}, {"name": "g_synthesis/32x32/Conv0_up/StyleMod/mul", "shape": [512, 1024], "dtype": "float32", "quantization": {"min": -2.075404506385613, "scale": 7.713251222305024e-05, "dtype": "uint16"}}, {"name": "g_synthesis/strided_slice_6/stack_1", "shape": [2], "dtype": "int32", "quantization": {"min": -0.0, "scale": 9.155413138017853e-05, "dtype": "uint16"}}, {"name": "g_synthesis/32x32/Conv0_up/Reshape_2", "shape": [1, 512, 1, 1], "dtype": "float32", "quantization": {"min": -19.245314770016996, "scale": 0.0005739387680429738, "dtype": "uint16"}}, {"name": "g_synthesis/8x8/Conv0_up/filter", "shape": [3, 3, 512, 1], "dtype": "float32", "quantization": {"min": 0.0625, "scale": 2.861066605630579e-06, "dtype": "uint16"}}, {"name": "g_synthesis/32x32/Conv0_up/mul", "shape": [3, 3, 512, 512], "dtype": "float32", "quantization": {"min": -0.8995234049475238, "scale": 2.944333753224195e-05, "dtype": "uint16"}}, {"name": "g_synthesis/32x32/Conv0_up/Reshape_1/shape", "shape": [4], "dtype": "int32", "quantization": {"min": -1.0019684138246738, "scale": 0.007827878233005264, "dtype": "uint16"}}, {"name": "g_synthesis/32x32/Conv0_up/Reshape/shape", "shape": [6], "dtype": "int32", "quantization": {"min": -1.0019684138246738, "scale": 0.007827878233005264, "dtype": "uint16"}}, {"name": "g_synthesis/16x16/Conv1/StyleMod/mul_1", "shape": [1024], "dtype": "float32", "quantization": {"min": -30.755744284270893, "scale": 0.0007898036589782207, "dtype": "uint16"}}, {"name": "g_synthesis/16x16/Conv1/StyleMod/mul", "shape": [512, 1024], "dtype": "float32", "quantization": {"min": -2.388353906594944, "scale": 6.992487137237802e-05, "dtype": "uint16"}}, {"name": "g_synthesis/strided_slice_5/stack_1", "shape": [2], "dtype": "int32", "quantization": {"min": -0.0, "scale": 7.629510948348211e-05, "dtype": "uint16"}}, {"name": "g_synthesis/16x16/Conv1/Reshape", "shape": [1, 512, 1, 1], "dtype": "float32", "quantization": {"min": -16.21755287090082, "scale": 0.000533384406212821, "dtype": "uint16"}}, {"name": "g_synthesis/16x16/Conv0_up/Noise/random_uniform/shape/2", "shape": [], "dtype": "int32", "quantization": {"min": 16.0, "scale": 1.0, "dtype": "uint16"}}, {"name": "g_synthesis/16x16/Conv1/mul", "shape": [3, 3, 512, 512], "dtype": "float32", "quantization": {"min": -0.6934313545231052, "scale": 2.1241579247146737e-05, "dtype": "uint16"}}, {"name": "g_synthesis/16x16/Conv0_up/StyleMod/mul_1", "shape": [1024], "dtype": "float32", "quantization": {"min": -4.6287531397458554, "scale": 0.0002768227462320349, "dtype": "uint16"}}, {"name": "g_synthesis/16x16/Conv0_up/StyleMod/mul", "shape": [512, 1024], "dtype": "float32", "quantization": {"min": -1.4480380763394196, "scale": 4.713205339125149e-05, "dtype": "uint16"}}, {"name": "g_synthesis/strided_slice_4/stack_1", "shape": [2], "dtype": "int32", "quantization": {"min": -0.0, "scale": 6.103608758678569e-05, "dtype": "uint16"}}, {"name": "g_synthesis/16x16/Conv0_up/Reshape_2", "shape": [1, 512, 1, 1], "dtype": "float32", "quantization": {"min": -14.697808133800013, "scale": 0.0005417947557431441, "dtype": "uint16"}}, {"name": "g_synthesis/16x16/Conv0_up/mul", "shape": [3, 3, 512, 512], "dtype": "float32", "quantization": {"min": -0.7458986469343597, "scale": 2.0198728524002374e-05, "dtype": "uint16"}}, {"name": "g_synthesis/16x16/Conv0_up/Reshape_1/shape", "shape": [4], "dtype": "int32", "quantization": {"min": -1.0019684138246738, "scale": 0.007827878233005264, "dtype": "uint16"}}, {"name": "g_synthesis/16x16/Conv0_up/Reshape/shape", "shape": [6], "dtype": "int32", "quantization": {"min": -1.0019684138246738, "scale": 0.007827878233005264, "dtype": "uint16"}}, {"name": "g_synthesis/8x8/Conv1/StyleMod/mul_1", "shape": [1024], "dtype": "float32", "quantization": {"min": -5.8183123295409205, "scale": 0.00030638822167145446, "dtype": "uint16"}}, {"name": "g_synthesis/8x8/Conv1/StyleMod/mul", "shape": [512, 1024], "dtype": "float32", "quantization": {"min": -1.2496781699797688, "scale": 3.89004877814714e-05, "dtype": "uint16"}}, {"name": "g_synthesis/strided_slice_3/stack_1", "shape": [2], "dtype": "int32", "quantization": {"min": -0.0, "scale": 4.5777065690089265e-05, "dtype": "uint16"}}, {"name": "g_synthesis/8x8/Conv1/Reshape", "shape": [1, 512, 1, 1], "dtype": "float32", "quantization": {"min": -17.37747157446041, "scale": 0.0006581378417838363, "dtype": "uint16"}}, {"name": "g_synthesis/8x8/Conv0_up/Noise/random_uniform/shape/2", "shape": [], "dtype": "int32", "quantization": {"min": 8.0, "scale": 1.0, "dtype": "uint16"}}, {"name": "g_synthesis/8x8/Conv1/mul", "shape": [3, 3, 512, 512], "dtype": "float32", "quantization": {"min": -0.5086413980248846, "scale": 1.6868123566521346e-05, "dtype": "uint16"}}, {"name": "g_synthesis/8x8/Conv0_up/StyleMod/mul_1", "shape": [1024], "dtype": "float32", "quantization": {"min": -4.06248143027956, "scale": 0.0002158483306030264, "dtype": "uint16"}}, {"name": "g_synthesis/8x8/Conv0_up/StyleMod/mul", "shape": [512, 1024], "dtype": "float32", "quantization": {"min": -1.1019584768904587, "scale": 3.679572849240212e-05, "dtype": "uint16"}}, {"name": "g_synthesis/8x8/Conv0_up/Reshape_2", "shape": [1, 512, 1, 1], "dtype": "float32", "quantization": {"min": -15.245092407684082, "scale": 0.0003822933047716556, "dtype": "uint16"}}, {"name": "g_synthesis/8x8/Conv0_up/mul", "shape": [3, 3, 512, 512], "dtype": "float32", "quantization": {"min": -0.44994205093187334, "scale": 1.4563587989379296e-05, "dtype": "uint16"}}, {"name": "g_synthesis/8x8/Conv0_up/Reshape_1/shape", "shape": [4], "dtype": "int32", "quantization": {"min": -1.0019684138246738, "scale": 0.007827878233005264, "dtype": "uint16"}}, {"name": "g_synthesis/8x8/Conv0_up/Reshape/shape", "shape": [6], "dtype": "int32", "quantization": {"min": -1.0019684138246738, "scale": 0.007827878233005264, "dtype": "uint16"}}, {"name": "g_synthesis/4x4/Conv/StyleMod/mul_1", "shape": [1024], "dtype": "float32", "quantization": {"min": -5.771152855688369, "scale": 0.00022268686740578673, "dtype": "uint16"}}, {"name": "g_synthesis/4x4/Conv/StyleMod/mul", "shape": [512, 1024], "dtype": "float32", "quantization": {"min": -1.1084489107186528, "scale": 3.2656185685374093e-05, "dtype": "uint16"}}, {"name": "g_synthesis/4x4/Conv/Reshape", "shape": [1, 512, 1, 1], "dtype": "float32", "quantization": {"min": -12.90491500948208, "scale": 0.00034351731598163495, "dtype": "uint16"}}, {"name": "g_synthesis/4x4/Const/Noise/random_uniform/shape/2", "shape": [], "dtype": "int32", "quantization": {"min": 4.0, "scale": 1.0, "dtype": "uint16"}}, {"name": "g_synthesis/4x4/Conv/mul", "shape": [3, 3, 512, 512], "dtype": "float32", "quantization": {"min": -0.4196985553115313, "scale": 1.3598760824013585e-05, "dtype": "uint16"}}, {"name": "g_synthesis/4x4/Const/StyleMod/mul_1", "shape": [1024], "dtype": "float32", "quantization": {"min": -3.6878939463507074, "scale": 0.0001364320205079615, "dtype": "uint16"}}, {"name": "g_synthesis/4x4/Const/StyleMod/mul", "shape": [512, 1024], "dtype": "float32", "quantization": {"min": -1.0250722387885305, "scale": 3.116194676359722e-05, "dtype": "uint16"}}, {"name": "g_synthesis/4x4/Const/const", "shape": [1, 512, 4, 4], "dtype": "float32", "quantization": {"min": -16.29664839772726, "scale": 0.000520127933030999, "dtype": "uint16"}}, {"name": "g_synthesis/4x4/Const/Reshape", "shape": [1, 512, 1, 1], "dtype": "float32", "quantization": {"min": -9.532830632428714, "scale": 0.00035706160133450876, "dtype": "uint16"}}, {"name": "g_synthesis/4x4/Const/Noise/Reshape", "shape": [1, 512, 1, 1], "dtype": "float32", "quantization": {"min": -3.3128268224055955, "scale": 0.00012874346426261447, "dtype": "uint16"}}, {"name": "g_synthesis/4x4/Conv/Noise/Reshape", "shape": [1, 512, 1, 1], "dtype": "float32", "quantization": {"min": -7.44631520849967, "scale": 0.0002498092863828392, "dtype": "uint16"}}, {"name": "g_synthesis/8x8/Conv0_up/Noise/Reshape", "shape": [1, 512, 1, 1], "dtype": "float32", "quantization": {"min": -4.942333166370259, "scale": 0.00017677706439553112, "dtype": "uint16"}}, {"name": "g_synthesis/8x8/Conv1/Noise/Reshape", "shape": [1, 512, 1, 1], "dtype": "float32", "quantization": {"min": -5.066442716411807, "scale": 0.00015419675309406844, "dtype": "uint16"}}, {"name": "g_synthesis/16x16/Conv0_up/Noise/Reshape", "shape": [1, 512, 1, 1], "dtype": "float32", "quantization": {"min": -37.64408186277117, "scale": 0.0010231594331042394, "dtype": "uint16"}}, {"name": "g_synthesis/16x16/Conv1/Noise/Reshape", "shape": [1, 512, 1, 1], "dtype": "float32", "quantization": {"min": -3.167643929924837, "scale": 0.00011964208830355178, "dtype": "uint16"}}, {"name": "g_synthesis/32x32/Conv0_up/Noise/Reshape", "shape": [1, 512, 1, 1], "dtype": "float32", "quantization": {"min": -19.04820049265807, "scale": 0.0008411286979006477, "dtype": "uint16"}}, {"name": "g_synthesis/32x32/Conv1/Noise/Reshape", "shape": [1, 512, 1, 1], "dtype": "float32", "quantization": {"min": -3.170723710729882, "scale": 8.750203418506132e-05, "dtype": "uint16"}}, {"name": "g_synthesis/64x64/Conv0_up/Noise/Reshape", "shape": [1, 256, 1, 1], "dtype": "float32", "quantization": {"min": -2.645063069985971, "scale": 7.18806204137717e-05, "dtype": "uint16"}}, {"name": "g_synthesis/64x64/Conv1/Noise/Reshape", "shape": [1, 256, 1, 1], "dtype": "float32", "quantization": {"min": -2.8625794562266074, "scale": 8.11296750999492e-05, "dtype": "uint16"}}, {"name": "g_synthesis/128x128/Conv0_up/AddN", "shape": [4, 4, 128, 256], "dtype": "float32", "quantization": {"min": -3.9274604494678824, "scale": 0.00014547227385242916, "dtype": "uint16"}}, {"name": "g_synthesis/128x128/Conv0_up/Noise/Reshape", "shape": [1, 128, 1, 1], "dtype": "float32", "quantization": {"min": -41.73596012397499, "scale": 0.001357134592526745, "dtype": "uint16"}}, {"name": "g_synthesis/128x128/Conv1/Noise/Reshape", "shape": [1, 128, 1, 1], "dtype": "float32", "quantization": {"min": -1.1867074267928075, "scale": 3.732488604116523e-05, "dtype": "uint16"}}, {"name": "g_synthesis/256x256/Conv0_up/AddN", "shape": [4, 4, 64, 128], "dtype": "float32", "quantization": {"min": -4.685016737262926, "scale": 0.00015414281559725362, "dtype": "uint16"}}, {"name": "g_synthesis/256x256/Conv0_up/Noise/Reshape", "shape": [1, 64, 1, 1], "dtype": "float32", "quantization": {"min": -2.1893700064788413, "scale": 5.200033267175359e-05, "dtype": "uint16"}}, {"name": "g_synthesis/256x256/Conv1/Noise/Reshape", "shape": [1, 64, 1, 1], "dtype": "float32", "quantization": {"min": -8.297151991551024, "scale": 0.00023374892921881408, "dtype": "uint16"}}, {"name": "g_synthesis/512x512/Conv0_up/AddN", "shape": [4, 4, 32, 64], "dtype": "float32", "quantization": {"min": -5.878492770955721, "scale": 0.00018852199252632033, "dtype": "uint16"}}, {"name": "g_synthesis/512x512/Conv0_up/Noise/Reshape", "shape": [1, 32, 1, 1], "dtype": "float32", "quantization": {"min": -11.60097407417184, "scale": 0.0003997303450545048, "dtype": "uint16"}}, {"name": "g_synthesis/512x512/Conv1/Noise/Reshape", "shape": [1, 32, 1, 1], "dtype": "float32", "quantization": {"min": -15.245351086534514, "scale": 0.00048035008779805013, "dtype": "uint16"}}, {"name": "g_synthesis/Reshape_13/shape", "shape": [4], "dtype": "int32", "quantization": {"min": -1.0019684138246738, "scale": 0.007827878233005264, "dtype": "uint16"}}, {"name": "g_synthesis/Reshape_12/shape", "shape": [6], "dtype": "int32", "quantization": {"min": -1.0, "scale": 0.00392156862745098, "dtype": "uint16"}}, {"name": "g_synthesis/256x256_1/ToRGB/Reshape", "shape": [1, 3, 1, 1], "dtype": "float32", "quantization": {"min": 0.542483925819397, "scale": 3.6065325799209898e-06, "dtype": "uint16"}}, {"name": "g_synthesis/256x256_1/ToRGB/mul", "shape": [1, 1, 64, 3], "dtype": "float32", "quantization": {"min": -0.7821504415932423, "scale": 1.820436265782014e-05, "dtype": "uint16"}}, {"name": "g_synthesis/Reshape_11/shape", "shape": [4], "dtype": "int32", "quantization": {"min": -1.0, "scale": 0.00392156862745098, "dtype": "uint16"}}, {"name": "g_synthesis/Reshape_10/shape", "shape": [6], "dtype": "int32", "quantization": {"min": -0.9999542229343099, "scale": 0.0019684138246738384, "dtype": "uint16"}}, {"name": "g_synthesis/128x128_1/ToRGB/Reshape", "shape": [1, 3, 1, 1], "dtype": "float32", "quantization": {"min": 0.3476170599460602, "scale": 3.5522599291945157e-06, "dtype": "uint16"}}, {"name": "g_synthesis/128x128_1/ToRGB/mul", "shape": [1, 1, 128, 3], "dtype": "float32", "quantization": {"min": -0.39455744801992276, "scale": 1.0691454802187372e-05, "dtype": "uint16"}}, {"name": "g_synthesis/Reshape_9/shape", "shape": [4], "dtype": "int32", "quantization": {"min": -0.9999542229343099, "scale": 0.0019684138246738384, "dtype": "uint16"}}, {"name": "g_synthesis/Reshape_8/shape", "shape": [6], "dtype": "int32", "quantization": {"min": -0.9997711146715496, "scale": 0.0009918364232852674, "dtype": "uint16"}}, {"name": "g_synthesis/64x64_1/ToRGB/Reshape", "shape": [1, 3, 1, 1], "dtype": "float32", "quantization": {"min": 0.09193149209022522, "scale": 9.895250982265773e-07, "dtype": "uint16"}}, {"name": "g_synthesis/64x64_1/ToRGB/mul", "shape": [1, 1, 256, 3], "dtype": "float32", "quantization": {"min": -0.14509209087632238, "scale": 4.6447304845483825e-06, "dtype": "uint16"}}, {"name": "g_synthesis/Reshape_7/shape", "shape": [4], "dtype": "int32", "quantization": {"min": -0.9997711146715496, "scale": 0.0009918364232852674, "dtype": "uint16"}}, {"name": "g_synthesis/Reshape_6/shape", "shape": [6], "dtype": "int32", "quantization": {"min": -1.00004577706569, "scale": 0.000503547722590982, "dtype": "uint16"}}, {"name": "g_synthesis/32x32_1/ToRGB/Reshape", "shape": [1, 3, 1, 1], "dtype": "float32", "quantization": {"min": 0.03684820234775543, "scale": 8.846081675640586e-07, "dtype": "uint16"}}, {"name": "g_synthesis/32x32_1/ToRGB/mul", "shape": [1, 1, 512, 3], "dtype": "float32", "quantization": {"min": -0.1233438385630478, "scale": 3.487540321855057e-06, "dtype": "uint16"}}, {"name": "g_synthesis/Reshape_5/shape", "shape": [4], "dtype": "int32", "quantization": {"min": -1.00004577706569, "scale": 0.000503547722590982, "dtype": "uint16"}}, {"name": "g_synthesis/Reshape_4/shape", "shape": [6], "dtype": "int32", "quantization": {"min": -1.0, "scale": 0.00025940337224383917, "dtype": "uint16"}}, {"name": "g_synthesis/16x16_1/ToRGB/Reshape", "shape": [1, 3, 1, 1], "dtype": "float32", "quantization": {"min": -0.018711573378268002, "scale": 1.188564655927587e-06, "dtype": "uint16"}}, {"name": "g_synthesis/16x16_1/ToRGB/mul", "shape": [1, 1, 512, 3], "dtype": "float32", "quantization": {"min": -0.11650217976669812, "scale": 3.54023884060709e-06, "dtype": "uint16"}}, {"name": "g_synthesis/Reshape_3/shape", "shape": [4], "dtype": "int32", "quantization": {"min": -1.0, "scale": 0.00025940337224383917, "dtype": "uint16"}}, {"name": "g_synthesis/Reshape_2/shape", "shape": [6], "dtype": "int32", "quantization": {"min": -1.00004577706569, "scale": 0.0001373311970702678, "dtype": "uint16"}}, {"name": "g_synthesis/8x8_1/ToRGB/Reshape", "shape": [1, 3, 1, 1], "dtype": "float32", "quantization": {"min": -0.016554964446835945, "scale": 1.2549245335685222e-06, "dtype": "uint16"}}, {"name": "g_synthesis/8x8_1/ToRGB/mul", "shape": [1, 1, 512, 3], "dtype": "float32", "quantization": {"min": -0.11258626809127545, "scale": 3.7921879514727828e-06, "dtype": "uint16"}}, {"name": "g_synthesis/Reshape_1/shape", "shape": [4], "dtype": "int32", "quantization": {"min": -1.00004577706569, "scale": 0.0001373311970702678, "dtype": "uint16"}}, {"name": "g_synthesis/Reshape/shape", "shape": [6], "dtype": "int32", "quantization": {"min": -1.0, "scale": 7.629510948348211e-05, "dtype": "uint16"}}, {"name": "g_synthesis/4x4_1/ToRGB/mul", "shape": [1, 1, 512, 3], "dtype": "float32", "quantization": {"min": -0.1486268524329777, "scale": 4.6617794502533626e-06, "dtype": "uint16"}}]}]}