{"format": "graph-model", "generatedBy": "1.14.0", "convertedBy": "TensorFlow.js Converter v1.2.6", "modelTopology": {"node": [{"name": "z", "op": "Placeholder", "attr": {"shape": {"shape": {"dim": [{"size": "-1"}, {"size": "512"}]}}, "dtype": {"type": "DT_FLOAT"}}}, {"name": "g_synthesis/8x8_2/smooth_transition/LerpClip/clip_by_value", "op": "Const", "attr": {"value": {"tensor": {"dtype": "DT_FLOAT", "tensorShape": {}}}, "dtype": {"type": "DT_FLOAT"}}}, {"name": "g_synthesis/512x512_1/ToRGB/Reshape", "op": "Const", "attr": {"value": {"tensor": {"dtype": "DT_FLOAT", "tensorShape": {"dim": [{"size": "1"}, {"size": "3"}, {"size": "1"}, {"size": "1"}]}}}, "dtype": {"type": "DT_FLOAT"}}}, {"name": "g_synthesis/4x4_1/ToRGB/NHWC_to_NCHW/perm", "op": "Const", "attr": {"value": {"tensor": {"dtype": "DT_INT32", "tensorShape": {"dim": [{"size": "4"}]}}}, "dtype": {"type": "DT_INT32"}}}, {"name": "g_synthesis/512x512_1/ToRGB/mul", "op": "Const", "attr": {"value": {"tensor": {"dtype": "DT_FLOAT", "tensorShape": {"dim": [{"size": "1"}, {"size": "1"}, {"size": "32"}, {"size": "3"}]}}}, "dtype": {"type": "DT_FLOAT"}}}, {"name": "g_synthesis/4x4_1/ToRGB/NCHW_to_NHWC/perm", "op": "Const", "attr": {"value": {"tensor": {"dtype": "DT_INT32", "tensorShape": {"dim": [{"size": "4"}]}}}, "dtype": {"type": "DT_INT32"}}}, {"name": "g_synthesis/4x4/Const/StyleMod/strided_slice/stack_2", "op": "Const", "attr": {"value": {"tensor": {"dtype": "DT_INT32", "tensorShape": {"dim": [{"size": "2"}]}}}, "dtype": {"type": "DT_INT32"}}}, {"name": "g_synthesis/4x4/Const/StyleMod/strided_slice_1/stack_1", "op": "Const", "attr": {"value": {"tensor": {"dtype": "DT_INT32", "tensorShape": {"dim": [{"size": "2"}]}}}, "dtype": {"type": "DT_INT32"}}}, {"name": "g_synthesis/4x4/Const/StyleMod/strided_slice/stack_1", "op": "Const", "attr": {"value": {"tensor": {"dtype": "DT_INT32", "tensorShape": {"dim": [{"size": "2"}]}}}, "dtype": {"type": "DT_INT32"}}}, {"name": "g_synthesis/512x512/Conv0_up/StyleMod/Reshape/shape", "op": "Const", "attr": {"value": {"tensor": {"dtype": "DT_INT32", "tensorShape": {"dim": [{"size": "5"}]}}}, "dtype": {"type": "DT_INT32"}}}, {"name": "g_synthesis/512x512/Conv1/StyleMod/mul_1", "op": "Const", "attr": {"value": {"tensor": {"dtype": "DT_FLOAT", "tensorShape": {"dim": [{"size": "64"}]}}}, "dtype": {"type": "DT_FLOAT"}}}, {"name": "g_synthesis/512x512/Conv1/StyleMod/mul", "op": "Const", "attr": {"value": {"tensor": {"dtype": "DT_FLOAT", "tensorShape": {"dim": [{"size": "512"}, {"size": "64"}]}}}, "dtype": {"type": "DT_FLOAT"}}}, {"name": "g_synthesis/4x4/Const/StyleMod/flatten/Reshape/shape/1", "op": "Const", "attr": {"value": {"tensor": {"dtype": "DT_INT32", "tensorShape": {}}}, "dtype": {"type": "DT_INT32"}}}, {"name": "g_synthesis/512x512/Conv0_up/strided_slice_4/stack_1", "op": "Const", "attr": {"value": {"tensor": {"dtype": "DT_INT32", "tensorShape": {"dim": [{"size": "1"}]}}}, "dtype": {"type": "DT_INT32"}}}, {"name": "g_synthesis/512x512/Conv0_up/strided_slice_4/stack", "op": "Const", "attr": {"value": {"tensor": {"dtype": "DT_INT32", "tensorShape": {"dim": [{"size": "1"}]}}}, "dtype": {"type": "DT_INT32"}}}, {"name": "g_synthesis/strided_slice_16/stack_1", "op": "Const", "attr": {"value": {"tensor": {"dtype": "DT_INT32", "tensorShape": {"dim": [{"size": "2"}]}}}, "dtype": {"type": "DT_INT32"}}}, {"name": "g_synthesis/strided_slice_15/stack_1", "op": "Const", "attr": {"value": {"tensor": {"dtype": "DT_INT32", "tensorShape": {"dim": [{"size": "2"}]}}}, "dtype": {"type": "DT_INT32"}}}, {"name": "w_avg", "op": "Const", "attr": {"value": {"tensor": {"dtype": "DT_FLOAT", "tensorShape": {"dim": [{"size": "512"}]}}}, "dtype": {"type": "DT_FLOAT"}}}, {"name": "Truncation/Select", "op": "Const", "attr": {"value": {"tensor": {"dtype": "DT_FLOAT", "tensorShape": {"dim": [{"size": "1"}, {"size": "16"}, {"size": "1"}]}}}, "dtype": {"type": "DT_FLOAT"}}}, {"name": "g_mapping/Broadcast/Tile/multiples", "op": "Const", "attr": {"value": {"tensor": {"dtype": "DT_INT32", "tensorShape": {"dim": [{"size": "3"}]}}}, "dtype": {"type": "DT_INT32"}}}, {"name": "g_synthesis/4x4/Const/Tile/multiples/1", "op": "Const", "attr": {"value": {"tensor": {"dtype": "DT_INT32", "tensorShape": {}}}, "dtype": {"type": "DT_INT32"}}}, {"name": "g_mapping/Dense7/mul_1", "op": "Const", "attr": {"value": {"tensor": {"dtype": "DT_FLOAT", "tensorShape": {"dim": [{"size": "512"}]}}}, "dtype": {"type": "DT_FLOAT"}}}, {"name": "g_mapping/Dense7/mul", "op": "Const", "attr": {"value": {"tensor": {"dtype": "DT_FLOAT", "tensorShape": {"dim": [{"size": "512"}, {"size": "512"}]}}}, "dtype": {"type": "DT_FLOAT"}}}, {"name": "g_mapping/Dense6/mul_1", "op": "Const", "attr": {"value": {"tensor": {"dtype": "DT_FLOAT", "tensorShape": {"dim": [{"size": "512"}]}}}, "dtype": {"type": "DT_FLOAT"}}}, {"name": "g_mapping/Dense6/mul", "op": "Const", "attr": {"value": {"tensor": {"dtype": "DT_FLOAT", "tensorShape": {"dim": [{"size": "512"}, {"size": "512"}]}}}, "dtype": {"type": "DT_FLOAT"}}}, {"name": "g_mapping/Dense5/mul_1", "op": "Const", "attr": {"value": {"tensor": {"dtype": "DT_FLOAT", "tensorShape": {"dim": [{"size": "512"}]}}}, "dtype": {"type": "DT_FLOAT"}}}, {"name": "g_mapping/Dense5/mul", "op": "Const", "attr": {"value": {"tensor": {"dtype": "DT_FLOAT", "tensorShape": {"dim": [{"size": "512"}, {"size": "512"}]}}}, "dtype": {"type": "DT_FLOAT"}}}, {"name": "g_mapping/Dense4/mul_1", "op": "Const", "attr": {"value": {"tensor": {"dtype": "DT_FLOAT", "tensorShape": {"dim": [{"size": "512"}]}}}, "dtype": {"type": "DT_FLOAT"}}}, {"name": "g_mapping/Dense4/mul", "op": "Const", "attr": {"value": {"tensor": {"dtype": "DT_FLOAT", "tensorShape": {"dim": [{"size": "512"}, {"size": "512"}]}}}, "dtype": {"type": "DT_FLOAT"}}}, {"name": "g_mapping/Dense3/mul_1", "op": "Const", "attr": {"value": {"tensor": {"dtype": "DT_FLOAT", "tensorShape": {"dim": [{"size": "512"}]}}}, "dtype": {"type": "DT_FLOAT"}}}, {"name": "g_mapping/Dense3/mul", "op": "Const", "attr": {"value": {"tensor": {"dtype": "DT_FLOAT", "tensorShape": {"dim": [{"size": "512"}, {"size": "512"}]}}}, "dtype": {"type": "DT_FLOAT"}}}, {"name": "g_mapping/Dense2/mul_1", "op": "Const", "attr": {"value": {"tensor": {"dtype": "DT_FLOAT", "tensorShape": {"dim": [{"size": "512"}]}}}, "dtype": {"type": "DT_FLOAT"}}}, {"name": "g_mapping/Dense2/mul", "op": "Const", "attr": {"value": {"tensor": {"dtype": "DT_FLOAT", "tensorShape": {"dim": [{"size": "512"}, {"size": "512"}]}}}, "dtype": {"type": "DT_FLOAT"}}}, {"name": "g_mapping/Dense1/mul_1", "op": "Const", "attr": {"value": {"tensor": {"dtype": "DT_FLOAT", "tensorShape": {"dim": [{"size": "512"}]}}}, "dtype": {"type": "DT_FLOAT"}}}, {"name": "g_mapping/Dense1/mul", "op": "Const", "attr": {"value": {"tensor": {"dtype": "DT_FLOAT", "tensorShape": {"dim": [{"size": "512"}, {"size": "512"}]}}}, "dtype": {"type": "DT_FLOAT"}}}, {"name": "g_mapping/Dense0/mul_1", "op": "Const", "attr": {"value": {"tensor": {"dtype": "DT_FLOAT", "tensorShape": {"dim": [{"size": "512"}]}}}, "dtype": {"type": "DT_FLOAT"}}}, {"name": "g_mapping/Dense0/mul", "op": "Const", "attr": {"value": {"tensor": {"dtype": "DT_FLOAT", "tensorShape": {"dim": [{"size": "512"}, {"size": "512"}]}}}, "dtype": {"type": "DT_FLOAT"}}}, {"name": "g_synthesis/4x4/Const/InstanceNorm/epsilon", "op": "Const", "attr": {"value": {"tensor": {"dtype": "DT_FLOAT", "tensorShape": {}}}, "dtype": {"type": "DT_FLOAT"}}}, {"name": "g_synthesis/4x4/Const/StyleMod/strided_slice/stack", "op": "Const", "attr": {"value": {"tensor": {"dtype": "DT_INT32", "tensorShape": {"dim": [{"size": "2"}]}}}, "dtype": {"type": "DT_INT32"}}}, {"name": "g_synthesis/4x4/Const/Noise/random_uniform/sub", "op": "Const", "attr": {"value": {"tensor": {"dtype": "DT_FLOAT", "tensorShape": {}}}, "dtype": {"type": "DT_FLOAT"}}}, {"name": "g_synthesis/4x4/Const/InstanceNorm/Mean/reduction_indices", "op": "Const", "attr": {"value": {"tensor": {"dtype": "DT_INT32", "tensorShape": {"dim": [{"size": "2"}]}}}, "dtype": {"type": "DT_INT32"}}}, {"name": "g_synthesis/512x512/Conv1/Reshape", "op": "Const", "attr": {"value": {"tensor": {"dtype": "DT_FLOAT", "tensorShape": {"dim": [{"size": "1"}, {"size": "32"}, {"size": "1"}, {"size": "1"}]}}}, "dtype": {"type": "DT_FLOAT"}}}, {"name": "g_synthesis/512x512/Conv0_up/conv2d_transpose/input_sizes/1", "op": "Const", "attr": {"value": {"tensor": {"dtype": "DT_INT32", "tensorShape": {}}}, "dtype": {"type": "DT_INT32"}}}, {"name": "g_synthesis/512x512/Conv1/mul", "op": "Const", "attr": {"value": {"tensor": {"dtype": "DT_FLOAT", "tensorShape": {"dim": [{"size": "3"}, {"size": "3"}, {"size": "32"}, {"size": "32"}]}}}, "dtype": {"type": "DT_FLOAT"}}}, {"name": "g_synthesis/512x512/Conv0_up/StyleMod/mul_1", "op": "Const", "attr": {"value": {"tensor": {"dtype": "DT_FLOAT", "tensorShape": {"dim": [{"size": "64"}]}}}, "dtype": {"type": "DT_FLOAT"}}}, {"name": "g_synthesis/512x512/Conv0_up/StyleMod/mul", "op": "Const", "attr": {"value": {"tensor": {"dtype": "DT_FLOAT", "tensorShape": {"dim": [{"size": "512"}, {"size": "64"}]}}}, "dtype": {"type": "DT_FLOAT"}}}, {"name": "g_synthesis/strided_slice_14/stack_1", "op": "Const", "attr": {"value": {"tensor": {"dtype": "DT_INT32", "tensorShape": {"dim": [{"size": "2"}]}}}, "dtype": {"type": "DT_INT32"}}}, {"name": "g_synthesis/512x512/Conv0_up/Reshape", "op": "Const", "attr": {"value": {"tensor": {"dtype": "DT_FLOAT", "tensorShape": {"dim": [{"size": "1"}, {"size": "32"}, {"size": "1"}, {"size": "1"}]}}}, "dtype": {"type": "DT_FLOAT"}}}, {"name": "g_synthesis/512x512/Conv0_up/filter", "op": "Const", "attr": {"value": {"tensor": {"dtype": "DT_FLOAT", "tensorShape": {"dim": [{"size": "3"}, {"size": "3"}, {"size": "32"}, {"size": "1"}]}}}, "dtype": {"type": "DT_FLOAT"}}}, {"name": "g_synthesis/256x256/Conv0_up/StyleMod/Reshape/shape", "op": "Const", "attr": {"value": {"tensor": {"dtype": "DT_INT32", "tensorShape": {"dim": [{"size": "5"}]}}}, "dtype": {"type": "DT_INT32"}}}, {"name": "g_synthesis/256x256/Conv1/StyleMod/mul_1", "op": "Const", "attr": {"value": {"tensor": {"dtype": "DT_FLOAT", "tensorShape": {"dim": [{"size": "128"}]}}}, "dtype": {"type": "DT_FLOAT"}}}, {"name": "g_synthesis/256x256/Conv1/StyleMod/mul", "op": "Const", "attr": {"value": {"tensor": {"dtype": "DT_FLOAT", "tensorShape": {"dim": [{"size": "512"}, {"size": "128"}]}}}, "dtype": {"type": "DT_FLOAT"}}}, {"name": "g_synthesis/strided_slice_13/stack_1", "op": "Const", "attr": {"value": {"tensor": {"dtype": "DT_INT32", "tensorShape": {"dim": [{"size": "2"}]}}}, "dtype": {"type": "DT_INT32"}}}, {"name": "g_synthesis/256x256/Conv1/Reshape", "op": "Const", "attr": {"value": {"tensor": {"dtype": "DT_FLOAT", "tensorShape": {"dim": [{"size": "1"}, {"size": "64"}, {"size": "1"}, {"size": "1"}]}}}, "dtype": {"type": "DT_FLOAT"}}}, {"name": "g_synthesis/256x256/Conv0_up/conv2d_transpose/input_sizes/1", "op": "Const", "attr": {"value": {"tensor": {"dtype": "DT_INT32", "tensorShape": {}}}, "dtype": {"type": "DT_INT32"}}}, {"name": "g_synthesis/256x256/Conv1/mul", "op": "Const", "attr": {"value": {"tensor": {"dtype": "DT_FLOAT", "tensorShape": {"dim": [{"size": "3"}, {"size": "3"}, {"size": "64"}, {"size": "64"}]}}}, "dtype": {"type": "DT_FLOAT"}}}, {"name": "g_synthesis/256x256/Conv0_up/StyleMod/mul_1", "op": "Const", "attr": {"value": {"tensor": {"dtype": "DT_FLOAT", "tensorShape": {"dim": [{"size": "128"}]}}}, "dtype": {"type": "DT_FLOAT"}}}, {"name": "g_synthesis/256x256/Conv0_up/StyleMod/mul", "op": "Const", "attr": {"value": {"tensor": {"dtype": "DT_FLOAT", "tensorShape": {"dim": [{"size": "512"}, {"size": "128"}]}}}, "dtype": {"type": "DT_FLOAT"}}}, {"name": "g_synthesis/strided_slice_12/stack_1", "op": "Const", "attr": {"value": {"tensor": {"dtype": "DT_INT32", "tensorShape": {"dim": [{"size": "2"}]}}}, "dtype": {"type": "DT_INT32"}}}, {"name": "g_synthesis/256x256/Conv0_up/Reshape", "op": "Const", "attr": {"value": {"tensor": {"dtype": "DT_FLOAT", "tensorShape": {"dim": [{"size": "1"}, {"size": "64"}, {"size": "1"}, {"size": "1"}]}}}, "dtype": {"type": "DT_FLOAT"}}}, {"name": "g_synthesis/256x256/Conv0_up/filter", "op": "Const", "attr": {"value": {"tensor": {"dtype": "DT_FLOAT", "tensorShape": {"dim": [{"size": "3"}, {"size": "3"}, {"size": "64"}, {"size": "1"}]}}}, "dtype": {"type": "DT_FLOAT"}}}, {"name": "g_synthesis/128x128/Conv0_up/StyleMod/Reshape/shape", "op": "Const", "attr": {"value": {"tensor": {"dtype": "DT_INT32", "tensorShape": {"dim": [{"size": "5"}]}}}, "dtype": {"type": "DT_INT32"}}}, {"name": "g_synthesis/128x128/Conv1/StyleMod/mul_1", "op": "Const", "attr": {"value": {"tensor": {"dtype": "DT_FLOAT", "tensorShape": {"dim": [{"size": "256"}]}}}, "dtype": {"type": "DT_FLOAT"}}}, {"name": "g_synthesis/128x128/Conv1/StyleMod/mul", "op": "Const", "attr": {"value": {"tensor": {"dtype": "DT_FLOAT", "tensorShape": {"dim": [{"size": "512"}, {"size": "256"}]}}}, "dtype": {"type": "DT_FLOAT"}}}, {"name": "g_synthesis/strided_slice_11/stack_1", "op": "Const", "attr": {"value": {"tensor": {"dtype": "DT_INT32", "tensorShape": {"dim": [{"size": "2"}]}}}, "dtype": {"type": "DT_INT32"}}}, {"name": "g_synthesis/128x128/Conv1/Reshape", "op": "Const", "attr": {"value": {"tensor": {"dtype": "DT_FLOAT", "tensorShape": {"dim": [{"size": "1"}, {"size": "128"}, {"size": "1"}, {"size": "1"}]}}}, "dtype": {"type": "DT_FLOAT"}}}, {"name": "g_synthesis/128x128/Conv0_up/conv2d_transpose/input_sizes/1", "op": "Const", "attr": {"value": {"tensor": {"dtype": "DT_INT32", "tensorShape": {}}}, "dtype": {"type": "DT_INT32"}}}, {"name": "g_synthesis/128x128/Conv1/mul", "op": "Const", "attr": {"value": {"tensor": {"dtype": "DT_FLOAT", "tensorShape": {"dim": [{"size": "3"}, {"size": "3"}, {"size": "128"}, {"size": "128"}]}}}, "dtype": {"type": "DT_FLOAT"}}}, {"name": "g_synthesis/128x128/Conv0_up/StyleMod/mul_1", "op": "Const", "attr": {"value": {"tensor": {"dtype": "DT_FLOAT", "tensorShape": {"dim": [{"size": "256"}]}}}, "dtype": {"type": "DT_FLOAT"}}}, {"name": "g_synthesis/128x128/Conv0_up/StyleMod/mul", "op": "Const", "attr": {"value": {"tensor": {"dtype": "DT_FLOAT", "tensorShape": {"dim": [{"size": "512"}, {"size": "256"}]}}}, "dtype": {"type": "DT_FLOAT"}}}, {"name": "g_synthesis/strided_slice_10/stack_1", "op": "Const", "attr": {"value": {"tensor": {"dtype": "DT_INT32", "tensorShape": {"dim": [{"size": "2"}]}}}, "dtype": {"type": "DT_INT32"}}}, {"name": "g_synthesis/128x128/Conv0_up/Reshape", "op": "Const", "attr": {"value": {"tensor": {"dtype": "DT_FLOAT", "tensorShape": {"dim": [{"size": "1"}, {"size": "128"}, {"size": "1"}, {"size": "1"}]}}}, "dtype": {"type": "DT_FLOAT"}}}, {"name": "g_synthesis/128x128/Conv0_up/filter", "op": "Const", "attr": {"value": {"tensor": {"dtype": "DT_FLOAT", "tensorShape": {"dim": [{"size": "3"}, {"size": "3"}, {"size": "128"}, {"size": "1"}]}}}, "dtype": {"type": "DT_FLOAT"}}}, {"name": "g_synthesis/64x64/Conv0_up/StyleMod/Reshape/shape", "op": "Const", "attr": {"value": {"tensor": {"dtype": "DT_INT32", "tensorShape": {"dim": [{"size": "5"}]}}}, "dtype": {"type": "DT_INT32"}}}, {"name": "g_synthesis/64x64/Conv1/StyleMod/mul_1", "op": "Const", "attr": {"value": {"tensor": {"dtype": "DT_FLOAT", "tensorShape": {"dim": [{"size": "512"}]}}}, "dtype": {"type": "DT_FLOAT"}}}, {"name": "g_synthesis/64x64/Conv1/StyleMod/mul", "op": "Const", "attr": {"value": {"tensor": {"dtype": "DT_FLOAT", "tensorShape": {"dim": [{"size": "512"}, {"size": "512"}]}}}, "dtype": {"type": "DT_FLOAT"}}}, {"name": "g_synthesis/strided_slice_9/stack_1", "op": "Const", "attr": {"value": {"tensor": {"dtype": "DT_INT32", "tensorShape": {"dim": [{"size": "2"}]}}}, "dtype": {"type": "DT_INT32"}}}, {"name": "g_synthesis/64x64/Conv1/Reshape", "op": "Const", "attr": {"value": {"tensor": {"dtype": "DT_FLOAT", "tensorShape": {"dim": [{"size": "1"}, {"size": "256"}, {"size": "1"}, {"size": "1"}]}}}, "dtype": {"type": "DT_FLOAT"}}}, {"name": "g_synthesis/256x256/Conv0_up/conv2d_transpose/input_sizes/3", "op": "Const", "attr": {"value": {"tensor": {"dtype": "DT_INT32", "tensorShape": {}}}, "dtype": {"type": "DT_INT32"}}}, {"name": "g_synthesis/64x64/Conv1/mul", "op": "Const", "attr": {"value": {"tensor": {"dtype": "DT_FLOAT", "tensorShape": {"dim": [{"size": "3"}, {"size": "3"}, {"size": "256"}, {"size": "256"}]}}}, "dtype": {"type": "DT_FLOAT"}}}, {"name": "g_synthesis/64x64/Conv0_up/StyleMod/mul_1", "op": "Const", "attr": {"value": {"tensor": {"dtype": "DT_FLOAT", "tensorShape": {"dim": [{"size": "512"}]}}}, "dtype": {"type": "DT_FLOAT"}}}, {"name": "g_synthesis/64x64/Conv0_up/StyleMod/mul", "op": "Const", "attr": {"value": {"tensor": {"dtype": "DT_FLOAT", "tensorShape": {"dim": [{"size": "512"}, {"size": "512"}]}}}, "dtype": {"type": "DT_FLOAT"}}}, {"name": "g_synthesis/strided_slice_8/stack_1", "op": "Const", "attr": {"value": {"tensor": {"dtype": "DT_INT32", "tensorShape": {"dim": [{"size": "2"}]}}}, "dtype": {"type": "DT_INT32"}}}, {"name": "g_synthesis/64x64/Conv0_up/Reshape_2", "op": "Const", "attr": {"value": {"tensor": {"dtype": "DT_FLOAT", "tensorShape": {"dim": [{"size": "1"}, {"size": "256"}, {"size": "1"}, {"size": "1"}]}}}, "dtype": {"type": "DT_FLOAT"}}}, {"name": "g_synthesis/64x64/Conv0_up/filter", "op": "Const", "attr": {"value": {"tensor": {"dtype": "DT_FLOAT", "tensorShape": {"dim": [{"size": "3"}, {"size": "3"}, {"size": "256"}, {"size": "1"}]}}}, "dtype": {"type": "DT_FLOAT"}}}, {"name": "g_synthesis/64x64/Conv0_up/mul", "op": "Const", "attr": {"value": {"tensor": {"dtype": "DT_FLOAT", "tensorShape": {"dim": [{"size": "3"}, {"size": "3"}, {"size": "512"}, {"size": "256"}]}}}, "dtype": {"type": "DT_FLOAT"}}}, {"name": "g_synthesis/64x64/Conv0_up/Reshape_1/shape", "op": "Const", "attr": {"value": {"tensor": {"dtype": "DT_INT32", "tensorShape": {"dim": [{"size": "4"}]}}}, "dtype": {"type": "DT_INT32"}}}, {"name": "g_synthesis/Tile/multiples", "op": "Const", "attr": {"value": {"tensor": {"dtype": "DT_INT32", "tensorShape": {"dim": [{"size": "6"}]}}}, "dtype": {"type": "DT_INT32"}}}, {"name": "g_synthesis/64x64/Conv0_up/Reshape/shape", "op": "Const", "attr": {"value": {"tensor": {"dtype": "DT_INT32", "tensorShape": {"dim": [{"size": "6"}]}}}, "dtype": {"type": "DT_INT32"}}}, {"name": "g_synthesis/4x4/Const/StyleMod/Reshape/shape", "op": "Const", "attr": {"value": {"tensor": {"dtype": "DT_INT32", "tensorShape": {"dim": [{"size": "5"}]}}}, "dtype": {"type": "DT_INT32"}}}, {"name": "g_synthesis/32x32/Conv1/StyleMod/mul_1", "op": "Const", "attr": {"value": {"tensor": {"dtype": "DT_FLOAT", "tensorShape": {"dim": [{"size": "1024"}]}}}, "dtype": {"type": "DT_FLOAT"}}}, {"name": "g_synthesis/32x32/Conv1/StyleMod/mul", "op": "Const", "attr": {"value": {"tensor": {"dtype": "DT_FLOAT", "tensorShape": {"dim": [{"size": "512"}, {"size": "1024"}]}}}, "dtype": {"type": "DT_FLOAT"}}}, {"name": "g_synthesis/strided_slice_7/stack_1", "op": "Const", "attr": {"value": {"tensor": {"dtype": "DT_INT32", "tensorShape": {"dim": [{"size": "2"}]}}}, "dtype": {"type": "DT_INT32"}}}, {"name": "g_synthesis/32x32/Conv1/Reshape", "op": "Const", "attr": {"value": {"tensor": {"dtype": "DT_FLOAT", "tensorShape": {"dim": [{"size": "1"}, {"size": "512"}, {"size": "1"}, {"size": "1"}]}}}, "dtype": {"type": "DT_FLOAT"}}}, {"name": "g_synthesis/512x512/Conv0_up/conv2d_transpose/input_sizes/3", "op": "Const", "attr": {"value": {"tensor": {"dtype": "DT_INT32", "tensorShape": {}}}, "dtype": {"type": "DT_INT32"}}}, {"name": "g_synthesis/32x32/Conv1/mul", "op": "Const", "attr": {"value": {"tensor": {"dtype": "DT_FLOAT", "tensorShape": {"dim": [{"size": "3"}, {"size": "3"}, {"size": "512"}, {"size": "512"}]}}}, "dtype": {"type": "DT_FLOAT"}}}, {"name": "g_synthesis/32x32/Conv0_up/StyleMod/mul_1", "op": "Const", "attr": {"value": {"tensor": {"dtype": "DT_FLOAT", "tensorShape": {"dim": [{"size": "1024"}]}}}, "dtype": {"type": "DT_FLOAT"}}}, {"name": "g_synthesis/32x32/Conv0_up/StyleMod/mul", "op": "Const", "attr": {"value": {"tensor": {"dtype": "DT_FLOAT", "tensorShape": {"dim": [{"size": "512"}, {"size": "1024"}]}}}, "dtype": {"type": "DT_FLOAT"}}}, {"name": "g_synthesis/strided_slice_6/stack_1", "op": "Const", "attr": {"value": {"tensor": {"dtype": "DT_INT32", "tensorShape": {"dim": [{"size": "2"}]}}}, "dtype": {"type": "DT_INT32"}}}, {"name": "g_synthesis/32x32/Conv0_up/Reshape_2", "op": "Const", "attr": {"value": {"tensor": {"dtype": "DT_FLOAT", "tensorShape": {"dim": [{"size": "1"}, {"size": "512"}, {"size": "1"}, {"size": "1"}]}}}, "dtype": {"type": "DT_FLOAT"}}}, {"name": "g_synthesis/8x8/Conv0_up/filter", "op": "Const", "attr": {"value": {"tensor": {"dtype": "DT_FLOAT", "tensorShape": {"dim": [{"size": "3"}, {"size": "3"}, {"size": "512"}, {"size": "1"}]}}}, "dtype": {"type": "DT_FLOAT"}}}, {"name": "g_synthesis/32x32/Conv0_up/mul", "op": "Const", "attr": {"value": {"tensor": {"dtype": "DT_FLOAT", "tensorShape": {"dim": [{"size": "3"}, {"size": "3"}, {"size": "512"}, {"size": "512"}]}}}, "dtype": {"type": "DT_FLOAT"}}}, {"name": "g_synthesis/32x32/Conv0_up/Reshape_1/shape", "op": "Const", "attr": {"value": {"tensor": {"dtype": "DT_INT32", "tensorShape": {"dim": [{"size": "4"}]}}}, "dtype": {"type": "DT_INT32"}}}, {"name": "g_synthesis/32x32/Conv0_up/Reshape/shape", "op": "Const", "attr": {"value": {"tensor": {"dtype": "DT_INT32", "tensorShape": {"dim": [{"size": "6"}]}}}, "dtype": {"type": "DT_INT32"}}}, {"name": "g_synthesis/16x16/Conv1/StyleMod/mul_1", "op": "Const", "attr": {"value": {"tensor": {"dtype": "DT_FLOAT", "tensorShape": {"dim": [{"size": "1024"}]}}}, "dtype": {"type": "DT_FLOAT"}}}, {"name": "g_synthesis/16x16/Conv1/StyleMod/mul", "op": "Const", "attr": {"value": {"tensor": {"dtype": "DT_FLOAT", "tensorShape": {"dim": [{"size": "512"}, {"size": "1024"}]}}}, "dtype": {"type": "DT_FLOAT"}}}, {"name": "g_synthesis/strided_slice_5/stack_1", "op": "Const", "attr": {"value": {"tensor": {"dtype": "DT_INT32", "tensorShape": {"dim": [{"size": "2"}]}}}, "dtype": {"type": "DT_INT32"}}}, {"name": "g_synthesis/16x16/Conv1/Reshape", "op": "Const", "attr": {"value": {"tensor": {"dtype": "DT_FLOAT", "tensorShape": {"dim": [{"size": "1"}, {"size": "512"}, {"size": "1"}, {"size": "1"}]}}}, "dtype": {"type": "DT_FLOAT"}}}, {"name": "g_synthesis/16x16/Conv0_up/Noise/random_uniform/shape/2", "op": "Const", "attr": {"value": {"tensor": {"dtype": "DT_INT32", "tensorShape": {}}}, "dtype": {"type": "DT_INT32"}}}, {"name": "g_synthesis/16x16/Conv1/mul", "op": "Const", "attr": {"value": {"tensor": {"dtype": "DT_FLOAT", "tensorShape": {"dim": [{"size": "3"}, {"size": "3"}, {"size": "512"}, {"size": "512"}]}}}, "dtype": {"type": "DT_FLOAT"}}}, {"name": "g_synthesis/16x16/Conv0_up/StyleMod/mul_1", "op": "Const", "attr": {"value": {"tensor": {"dtype": "DT_FLOAT", "tensorShape": {"dim": [{"size": "1024"}]}}}, "dtype": {"type": "DT_FLOAT"}}}, {"name": "g_synthesis/16x16/Conv0_up/StyleMod/mul", "op": "Const", "attr": {"value": {"tensor": {"dtype": "DT_FLOAT", "tensorShape": {"dim": [{"size": "512"}, {"size": "1024"}]}}}, "dtype": {"type": "DT_FLOAT"}}}, {"name": "g_synthesis/strided_slice_4/stack_1", "op": "Const", "attr": {"value": {"tensor": {"dtype": "DT_INT32", "tensorShape": {"dim": [{"size": "2"}]}}}, "dtype": {"type": "DT_INT32"}}}, {"name": "g_synthesis/16x16/Conv0_up/Reshape_2", "op": "Const", "attr": {"value": {"tensor": {"dtype": "DT_FLOAT", "tensorShape": {"dim": [{"size": "1"}, {"size": "512"}, {"size": "1"}, {"size": "1"}]}}}, "dtype": {"type": "DT_FLOAT"}}}, {"name": "g_synthesis/16x16/Conv0_up/mul", "op": "Const", "attr": {"value": {"tensor": {"dtype": "DT_FLOAT", "tensorShape": {"dim": [{"size": "3"}, {"size": "3"}, {"size": "512"}, {"size": "512"}]}}}, "dtype": {"type": "DT_FLOAT"}}}, {"name": "g_synthesis/16x16/Conv0_up/Reshape_1/shape", "op": "Const", "attr": {"value": {"tensor": {"dtype": "DT_INT32", "tensorShape": {"dim": [{"size": "4"}]}}}, "dtype": {"type": "DT_INT32"}}}, {"name": "g_synthesis/16x16/Conv0_up/Reshape/shape", "op": "Const", "attr": {"value": {"tensor": {"dtype": "DT_INT32", "tensorShape": {"dim": [{"size": "6"}]}}}, "dtype": {"type": "DT_INT32"}}}, {"name": "g_synthesis/8x8/Conv1/StyleMod/mul_1", "op": "Const", "attr": {"value": {"tensor": {"dtype": "DT_FLOAT", "tensorShape": {"dim": [{"size": "1024"}]}}}, "dtype": {"type": "DT_FLOAT"}}}, {"name": "g_synthesis/8x8/Conv1/StyleMod/mul", "op": "Const", "attr": {"value": {"tensor": {"dtype": "DT_FLOAT", "tensorShape": {"dim": [{"size": "512"}, {"size": "1024"}]}}}, "dtype": {"type": "DT_FLOAT"}}}, {"name": "g_synthesis/strided_slice_3/stack_1", "op": "Const", "attr": {"value": {"tensor": {"dtype": "DT_INT32", "tensorShape": {"dim": [{"size": "2"}]}}}, "dtype": {"type": "DT_INT32"}}}, {"name": "g_synthesis/8x8/Conv1/Reshape", "op": "Const", "attr": {"value": {"tensor": {"dtype": "DT_FLOAT", "tensorShape": {"dim": [{"size": "1"}, {"size": "512"}, {"size": "1"}, {"size": "1"}]}}}, "dtype": {"type": "DT_FLOAT"}}}, {"name": "g_synthesis/8x8/Conv0_up/Noise/random_uniform/shape/2", "op": "Const", "attr": {"value": {"tensor": {"dtype": "DT_INT32", "tensorShape": {}}}, "dtype": {"type": "DT_INT32"}}}, {"name": "g_synthesis/8x8/Conv1/mul", "op": "Const", "attr": {"value": {"tensor": {"dtype": "DT_FLOAT", "tensorShape": {"dim": [{"size": "3"}, {"size": "3"}, {"size": "512"}, {"size": "512"}]}}}, "dtype": {"type": "DT_FLOAT"}}}, {"name": "g_synthesis/8x8/Conv0_up/StyleMod/mul_1", "op": "Const", "attr": {"value": {"tensor": {"dtype": "DT_FLOAT", "tensorShape": {"dim": [{"size": "1024"}]}}}, "dtype": {"type": "DT_FLOAT"}}}, {"name": "g_synthesis/8x8/Conv0_up/StyleMod/mul", "op": "Const", "attr": {"value": {"tensor": {"dtype": "DT_FLOAT", "tensorShape": {"dim": [{"size": "512"}, {"size": "1024"}]}}}, "dtype": {"type": "DT_FLOAT"}}}, {"name": "g_synthesis/8x8/Conv0_up/Reshape_2", "op": "Const", "attr": {"value": {"tensor": {"dtype": "DT_FLOAT", "tensorShape": {"dim": [{"size": "1"}, {"size": "512"}, {"size": "1"}, {"size": "1"}]}}}, "dtype": {"type": "DT_FLOAT"}}}, {"name": "g_synthesis/8x8/Conv0_up/mul", "op": "Const", "attr": {"value": {"tensor": {"dtype": "DT_FLOAT", "tensorShape": {"dim": [{"size": "3"}, {"size": "3"}, {"size": "512"}, {"size": "512"}]}}}, "dtype": {"type": "DT_FLOAT"}}}, {"name": "g_synthesis/8x8/Conv0_up/Reshape_1/shape", "op": "Const", "attr": {"value": {"tensor": {"dtype": "DT_INT32", "tensorShape": {"dim": [{"size": "4"}]}}}, "dtype": {"type": "DT_INT32"}}}, {"name": "g_synthesis/8x8/Conv0_up/Reshape/shape", "op": "Const", "attr": {"value": {"tensor": {"dtype": "DT_INT32", "tensorShape": {"dim": [{"size": "6"}]}}}, "dtype": {"type": "DT_INT32"}}}, {"name": "g_synthesis/4x4/Conv/StyleMod/mul_1", "op": "Const", "attr": {"value": {"tensor": {"dtype": "DT_FLOAT", "tensorShape": {"dim": [{"size": "1024"}]}}}, "dtype": {"type": "DT_FLOAT"}}}, {"name": "g_synthesis/4x4/Conv/StyleMod/mul", "op": "Const", "attr": {"value": {"tensor": {"dtype": "DT_FLOAT", "tensorShape": {"dim": [{"size": "512"}, {"size": "1024"}]}}}, "dtype": {"type": "DT_FLOAT"}}}, {"name": "g_synthesis/4x4/Conv/Reshape", "op": "Const", "attr": {"value": {"tensor": {"dtype": "DT_FLOAT", "tensorShape": {"dim": [{"size": "1"}, {"size": "512"}, {"size": "1"}, {"size": "1"}]}}}, "dtype": {"type": "DT_FLOAT"}}}, {"name": "g_synthesis/4x4/Const/Noise/random_uniform/shape/2", "op": "Const", "attr": {"value": {"tensor": {"dtype": "DT_INT32", "tensorShape": {}}}, "dtype": {"type": "DT_INT32"}}}, {"name": "g_synthesis/4x4/Conv/mul", "op": "Const", "attr": {"value": {"tensor": {"dtype": "DT_FLOAT", "tensorShape": {"dim": [{"size": "3"}, {"size": "3"}, {"size": "512"}, {"size": "512"}]}}}, "dtype": {"type": "DT_FLOAT"}}}, {"name": "g_synthesis/4x4/Const/StyleMod/mul_1", "op": "Const", "attr": {"value": {"tensor": {"dtype": "DT_FLOAT", "tensorShape": {"dim": [{"size": "1024"}]}}}, "dtype": {"type": "DT_FLOAT"}}}, {"name": "g_synthesis/4x4/Const/StyleMod/mul", "op": "Const", "attr": {"value": {"tensor": {"dtype": "DT_FLOAT", "tensorShape": {"dim": [{"size": "512"}, {"size": "1024"}]}}}, "dtype": {"type": "DT_FLOAT"}}}, {"name": "g_synthesis/4x4/Const/const", "op": "Const", "attr": {"value": {"tensor": {"dtype": "DT_FLOAT", "tensorShape": {"dim": [{"size": "1"}, {"size": "512"}, {"size": "4"}, {"size": "4"}]}}}, "dtype": {"type": "DT_FLOAT"}}}, {"name": "g_synthesis/4x4/Const/Reshape", "op": "Const", "attr": {"value": {"tensor": {"dtype": "DT_FLOAT", "tensorShape": {"dim": [{"size": "1"}, {"size": "512"}, {"size": "1"}, {"size": "1"}]}}}, "dtype": {"type": "DT_FLOAT"}}}, {"name": "g_synthesis/4x4/Const/Noise/Reshape", "op": "Const", "attr": {"value": {"tensor": {"dtype": "DT_FLOAT", "tensorShape": {"dim": [{"size": "1"}, {"size": "512"}, {"size": "1"}, {"size": "1"}]}}}, "dtype": {"type": "DT_FLOAT"}}}, {"name": "g_synthesis/4x4/Conv/Noise/Reshape", "op": "Const", "attr": {"value": {"tensor": {"dtype": "DT_FLOAT", "tensorShape": {"dim": [{"size": "1"}, {"size": "512"}, {"size": "1"}, {"size": "1"}]}}}, "dtype": {"type": "DT_FLOAT"}}}, {"name": "g_synthesis/8x8/Conv0_up/Noise/Reshape", "op": "Const", "attr": {"value": {"tensor": {"dtype": "DT_FLOAT", "tensorShape": {"dim": [{"size": "1"}, {"size": "512"}, {"size": "1"}, {"size": "1"}]}}}, "dtype": {"type": "DT_FLOAT"}}}, {"name": "g_synthesis/8x8/Conv1/Noise/Reshape", "op": "Const", "attr": {"value": {"tensor": {"dtype": "DT_FLOAT", "tensorShape": {"dim": [{"size": "1"}, {"size": "512"}, {"size": "1"}, {"size": "1"}]}}}, "dtype": {"type": "DT_FLOAT"}}}, {"name": "g_synthesis/16x16/Conv0_up/Noise/Reshape", "op": "Const", "attr": {"value": {"tensor": {"dtype": "DT_FLOAT", "tensorShape": {"dim": [{"size": "1"}, {"size": "512"}, {"size": "1"}, {"size": "1"}]}}}, "dtype": {"type": "DT_FLOAT"}}}, {"name": "g_synthesis/16x16/Conv1/Noise/Reshape", "op": "Const", "attr": {"value": {"tensor": {"dtype": "DT_FLOAT", "tensorShape": {"dim": [{"size": "1"}, {"size": "512"}, {"size": "1"}, {"size": "1"}]}}}, "dtype": {"type": "DT_FLOAT"}}}, {"name": "g_synthesis/32x32/Conv0_up/Noise/Reshape", "op": "Const", "attr": {"value": {"tensor": {"dtype": "DT_FLOAT", "tensorShape": {"dim": [{"size": "1"}, {"size": "512"}, {"size": "1"}, {"size": "1"}]}}}, "dtype": {"type": "DT_FLOAT"}}}, {"name": "g_synthesis/32x32/Conv1/Noise/Reshape", "op": "Const", "attr": {"value": {"tensor": {"dtype": "DT_FLOAT", "tensorShape": {"dim": [{"size": "1"}, {"size": "512"}, {"size": "1"}, {"size": "1"}]}}}, "dtype": {"type": "DT_FLOAT"}}}, {"name": "g_synthesis/64x64/Conv0_up/Noise/Reshape", "op": "Const", "attr": {"value": {"tensor": {"dtype": "DT_FLOAT", "tensorShape": {"dim": [{"size": "1"}, {"size": "256"}, {"size": "1"}, {"size": "1"}]}}}, "dtype": {"type": "DT_FLOAT"}}}, {"name": "g_synthesis/64x64/Conv1/Noise/Reshape", "op": "Const", "attr": {"value": {"tensor": {"dtype": "DT_FLOAT", "tensorShape": {"dim": [{"size": "1"}, {"size": "256"}, {"size": "1"}, {"size": "1"}]}}}, "dtype": {"type": "DT_FLOAT"}}}, {"name": "g_synthesis/128x128/Conv0_up/AddN", "op": "Const", "attr": {"value": {"tensor": {"dtype": "DT_FLOAT", "tensorShape": {"dim": [{"size": "4"}, {"size": "4"}, {"size": "128"}, {"size": "256"}]}}}, "dtype": {"type": "DT_FLOAT"}}}, {"name": "g_synthesis/128x128/Conv0_up/Noise/Reshape", "op": "Const", "attr": {"value": {"tensor": {"dtype": "DT_FLOAT", "tensorShape": {"dim": [{"size": "1"}, {"size": "128"}, {"size": "1"}, {"size": "1"}]}}}, "dtype": {"type": "DT_FLOAT"}}}, {"name": "g_synthesis/128x128/Conv1/Noise/Reshape", "op": "Const", "attr": {"value": {"tensor": {"dtype": "DT_FLOAT", "tensorShape": {"dim": [{"size": "1"}, {"size": "128"}, {"size": "1"}, {"size": "1"}]}}}, "dtype": {"type": "DT_FLOAT"}}}, {"name": "g_synthesis/256x256/Conv0_up/AddN", "op": "Const", "attr": {"value": {"tensor": {"dtype": "DT_FLOAT", "tensorShape": {"dim": [{"size": "4"}, {"size": "4"}, {"size": "64"}, {"size": "128"}]}}}, "dtype": {"type": "DT_FLOAT"}}}, {"name": "g_synthesis/256x256/Conv0_up/Noise/Reshape", "op": "Const", "attr": {"value": {"tensor": {"dtype": "DT_FLOAT", "tensorShape": {"dim": [{"size": "1"}, {"size": "64"}, {"size": "1"}, {"size": "1"}]}}}, "dtype": {"type": "DT_FLOAT"}}}, {"name": "g_synthesis/256x256/Conv1/Noise/Reshape", "op": "Const", "attr": {"value": {"tensor": {"dtype": "DT_FLOAT", "tensorShape": {"dim": [{"size": "1"}, {"size": "64"}, {"size": "1"}, {"size": "1"}]}}}, "dtype": {"type": "DT_FLOAT"}}}, {"name": "g_synthesis/512x512/Conv0_up/AddN", "op": "Const", "attr": {"value": {"tensor": {"dtype": "DT_FLOAT", "tensorShape": {"dim": [{"size": "4"}, {"size": "4"}, {"size": "32"}, {"size": "64"}]}}}, "dtype": {"type": "DT_FLOAT"}}}, {"name": "g_synthesis/512x512/Conv0_up/Noise/Reshape", "op": "Const", "attr": {"value": {"tensor": {"dtype": "DT_FLOAT", "tensorShape": {"dim": [{"size": "1"}, {"size": "32"}, {"size": "1"}, {"size": "1"}]}}}, "dtype": {"type": "DT_FLOAT"}}}, {"name": "g_synthesis/512x512/Conv1/Noise/Reshape", "op": "Const", "attr": {"value": {"tensor": {"dtype": "DT_FLOAT", "tensorShape": {"dim": [{"size": "1"}, {"size": "32"}, {"size": "1"}, {"size": "1"}]}}}, "dtype": {"type": "DT_FLOAT"}}}, {"name": "g_synthesis/Reshape_13/shape", "op": "Const", "attr": {"value": {"tensor": {"dtype": "DT_INT32", "tensorShape": {"dim": [{"size": "4"}]}}}, "dtype": {"type": "DT_INT32"}}}, {"name": "g_synthesis/Reshape_12/shape", "op": "Const", "attr": {"value": {"tensor": {"dtype": "DT_INT32", "tensorShape": {"dim": [{"size": "6"}]}}}, "dtype": {"type": "DT_INT32"}}}, {"name": "g_synthesis/256x256_1/ToRGB/Reshape", "op": "Const", "attr": {"value": {"tensor": {"dtype": "DT_FLOAT", "tensorShape": {"dim": [{"size": "1"}, {"size": "3"}, {"size": "1"}, {"size": "1"}]}}}, "dtype": {"type": "DT_FLOAT"}}}, {"name": "g_synthesis/256x256_1/ToRGB/mul", "op": "Const", "attr": {"value": {"tensor": {"dtype": "DT_FLOAT", "tensorShape": {"dim": [{"size": "1"}, {"size": "1"}, {"size": "64"}, {"size": "3"}]}}}, "dtype": {"type": "DT_FLOAT"}}}, {"name": "g_synthesis/Reshape_11/shape", "op": "Const", "attr": {"value": {"tensor": {"dtype": "DT_INT32", "tensorShape": {"dim": [{"size": "4"}]}}}, "dtype": {"type": "DT_INT32"}}}, {"name": "g_synthesis/Reshape_10/shape", "op": "Const", "attr": {"value": {"tensor": {"dtype": "DT_INT32", "tensorShape": {"dim": [{"size": "6"}]}}}, "dtype": {"type": "DT_INT32"}}}, {"name": "g_synthesis/128x128_1/ToRGB/Reshape", "op": "Const", "attr": {"value": {"tensor": {"dtype": "DT_FLOAT", "tensorShape": {"dim": [{"size": "1"}, {"size": "3"}, {"size": "1"}, {"size": "1"}]}}}, "dtype": {"type": "DT_FLOAT"}}}, {"name": "g_synthesis/128x128_1/ToRGB/mul", "op": "Const", "attr": {"value": {"tensor": {"dtype": "DT_FLOAT", "tensorShape": {"dim": [{"size": "1"}, {"size": "1"}, {"size": "128"}, {"size": "3"}]}}}, "dtype": {"type": "DT_FLOAT"}}}, {"name": "g_synthesis/Reshape_9/shape", "op": "Const", "attr": {"value": {"tensor": {"dtype": "DT_INT32", "tensorShape": {"dim": [{"size": "4"}]}}}, "dtype": {"type": "DT_INT32"}}}, {"name": "g_synthesis/Reshape_8/shape", "op": "Const", "attr": {"value": {"tensor": {"dtype": "DT_INT32", "tensorShape": {"dim": [{"size": "6"}]}}}, "dtype": {"type": "DT_INT32"}}}, {"name": "g_synthesis/64x64_1/ToRGB/Reshape", "op": "Const", "attr": {"value": {"tensor": {"dtype": "DT_FLOAT", "tensorShape": {"dim": [{"size": "1"}, {"size": "3"}, {"size": "1"}, {"size": "1"}]}}}, "dtype": {"type": "DT_FLOAT"}}}, {"name": "g_synthesis/64x64_1/ToRGB/mul", "op": "Const", "attr": {"value": {"tensor": {"dtype": "DT_FLOAT", "tensorShape": {"dim": [{"size": "1"}, {"size": "1"}, {"size": "256"}, {"size": "3"}]}}}, "dtype": {"type": "DT_FLOAT"}}}, {"name": "g_synthesis/Reshape_7/shape", "op": "Const", "attr": {"value": {"tensor": {"dtype": "DT_INT32", "tensorShape": {"dim": [{"size": "4"}]}}}, "dtype": {"type": "DT_INT32"}}}, {"name": "g_synthesis/Reshape_6/shape", "op": "Const", "attr": {"value": {"tensor": {"dtype": "DT_INT32", "tensorShape": {"dim": [{"size": "6"}]}}}, "dtype": {"type": "DT_INT32"}}}, {"name": "g_synthesis/32x32_1/ToRGB/Reshape", "op": "Const", "attr": {"value": {"tensor": {"dtype": "DT_FLOAT", "tensorShape": {"dim": [{"size": "1"}, {"size": "3"}, {"size": "1"}, {"size": "1"}]}}}, "dtype": {"type": "DT_FLOAT"}}}, {"name": "g_synthesis/32x32_1/ToRGB/mul", "op": "Const", "attr": {"value": {"tensor": {"dtype": "DT_FLOAT", "tensorShape": {"dim": [{"size": "1"}, {"size": "1"}, {"size": "512"}, {"size": "3"}]}}}, "dtype": {"type": "DT_FLOAT"}}}, {"name": "g_synthesis/Reshape_5/shape", "op": "Const", "attr": {"value": {"tensor": {"dtype": "DT_INT32", "tensorShape": {"dim": [{"size": "4"}]}}}, "dtype": {"type": "DT_INT32"}}}, {"name": "g_synthesis/Reshape_4/shape", "op": "Const", "attr": {"value": {"tensor": {"dtype": "DT_INT32", "tensorShape": {"dim": [{"size": "6"}]}}}, "dtype": {"type": "DT_INT32"}}}, {"name": "g_synthesis/16x16_1/ToRGB/Reshape", "op": "Const", "attr": {"value": {"tensor": {"dtype": "DT_FLOAT", "tensorShape": {"dim": [{"size": "1"}, {"size": "3"}, {"size": "1"}, {"size": "1"}]}}}, "dtype": {"type": "DT_FLOAT"}}}, {"name": "g_synthesis/16x16_1/ToRGB/mul", "op": "Const", "attr": {"value": {"tensor": {"dtype": "DT_FLOAT", "tensorShape": {"dim": [{"size": "1"}, {"size": "1"}, {"size": "512"}, {"size": "3"}]}}}, "dtype": {"type": "DT_FLOAT"}}}, {"name": "g_synthesis/Reshape_3/shape", "op": "Const", "attr": {"value": {"tensor": {"dtype": "DT_INT32", "tensorShape": {"dim": [{"size": "4"}]}}}, "dtype": {"type": "DT_INT32"}}}, {"name": "g_synthesis/Reshape_2/shape", "op": "Const", "attr": {"value": {"tensor": {"dtype": "DT_INT32", "tensorShape": {"dim": [{"size": "6"}]}}}, "dtype": {"type": "DT_INT32"}}}, {"name": "g_synthesis/8x8_1/ToRGB/Reshape", "op": "Const", "attr": {"value": {"tensor": {"dtype": "DT_FLOAT", "tensorShape": {"dim": [{"size": "1"}, {"size": "3"}, {"size": "1"}, {"size": "1"}]}}}, "dtype": {"type": "DT_FLOAT"}}}, {"name": "g_synthesis/8x8_1/ToRGB/mul", "op": "Const", "attr": {"value": {"tensor": {"dtype": "DT_FLOAT", "tensorShape": {"dim": [{"size": "1"}, {"size": "1"}, {"size": "512"}, {"size": "3"}]}}}, "dtype": {"type": "DT_FLOAT"}}}, {"name": "g_synthesis/Reshape_1/shape", "op": "Const", "attr": {"value": {"tensor": {"dtype": "DT_INT32", "tensorShape": {"dim": [{"size": "4"}]}}}, "dtype": {"type": "DT_INT32"}}}, {"name": "g_synthesis/Reshape/shape", "op": "Const", "attr": {"value": {"tensor": {"dtype": "DT_INT32", "tensorShape": {"dim": [{"size": "6"}]}}}, "dtype": {"type": "DT_INT32"}}}, {"name": "g_synthesis/4x4_1/ToRGB/mul", "op": "Const", "attr": {"value": {"tensor": {"dtype": "DT_FLOAT", "tensorShape": {"dim": [{"size": "1"}, {"size": "1"}, {"size": "512"}, {"size": "3"}]}}}, "dtype": {"type": "DT_FLOAT"}}}, {"name": "g_mapping/PixelNorm/Square", "op": "Square", "input": ["z"], "attr": {"T": {"type": "DT_FLOAT"}}}, {"name": "g_mapping/PixelNorm/Mean", "op": "Mean", "input": ["g_mapping/PixelNorm/Square", "g_synthesis/4x4/Const/Tile/multiples/1"], "attr": {"keep_dims": {"b": true}, "Tidx": {"type": "DT_INT32"}, "T": {"type": "DT_FLOAT"}}}, {"name": "g_mapping/PixelNorm/add", "op": "Add", "input": ["g_mapping/PixelNorm/Mean", "g_synthesis/4x4/Const/InstanceNorm/epsilon"], "attr": {"T": {"type": "DT_FLOAT"}}}, {"name": "g_mapping/PixelNorm/Rsqrt", "op": "Rsqrt", "input": ["g_mapping/PixelNorm/add"], "attr": {"T": {"type": "DT_FLOAT"}}}, {"name": "g_mapping/PixelNorm/mul", "op": "Mul", "input": ["g_mapping/PixelNorm/Rsqrt", "z"], "attr": {"T": {"type": "DT_FLOAT"}}}, {"name": "g_mapping/Dense0/flatten/Shape", "op": "Shape", "input": ["g_mapping/PixelNorm/mul"], "attr": {"T": {"type": "DT_FLOAT"}, "out_type": {"type": "DT_INT32"}}}, {"name": "g_mapping/Dense0/flatten/strided_slice", "op": "StridedSlice", "input": ["g_mapping/Dense0/flatten/Shape", "g_synthesis/512x512/Conv0_up/strided_slice_4/stack", "g_synthesis/512x512/Conv0_up/strided_slice_4/stack_1", "g_synthesis/512x512/Conv0_up/strided_slice_4/stack_1"], "attr": {"T": {"type": "DT_INT32"}, "Index": {"type": "DT_INT32"}, "shrink_axis_mask": {"i": "1"}, "begin_mask": {"i": "0"}, "ellipsis_mask": {"i": "0"}, "new_axis_mask": {"i": "0"}, "end_mask": {"i": "0"}}}, {"name": "g_mapping/Dense0/flatten/Reshape/shape", "op": "Pack", "input": ["g_mapping/Dense0/flatten/strided_slice", "g_synthesis/4x4/Const/StyleMod/flatten/Reshape/shape/1"], "attr": {"T": {"type": "DT_INT32"}, "axis": {"i": "0"}, "N": {"i": "2"}}}, {"name": "g_mapping/Dense0/flatten/Reshape", "op": "Reshape", "input": ["g_mapping/PixelNorm/mul", "g_mapping/Dense0/flatten/Reshape/shape"], "attr": {"T": {"type": "DT_FLOAT"}, "Tshape": {"type": "DT_INT32"}}}, {"name": "g_mapping/Dense0/MatMul", "op": "MatMul", "input": ["g_mapping/Dense0/flatten/Reshape", "g_mapping/Dense0/mul"], "attr": {"transpose_b": {"b": false}, "T": {"type": "DT_FLOAT"}, "transpose_a": {"b": false}}}, {"name": "g_mapping/Dense0/add", "op": "Add", "input": ["g_mapping/Dense0/MatMul", "g_mapping/Dense0/mul_1"], "attr": {"T": {"type": "DT_FLOAT"}}}, {"name": "g_mapping/Dense0/LeakyRelu", "op": "LeakyRelu", "input": ["g_mapping/Dense0/add"], "attr": {"T": {"type": "DT_FLOAT"}, "alpha": {"f": 0.20000000298023224}}}, {"name": "g_mapping/Dense1/flatten/Shape", "op": "Shape", "input": ["g_mapping/Dense0/LeakyRelu"], "attr": {"T": {"type": "DT_FLOAT"}, "out_type": {"type": "DT_INT32"}}}, {"name": "g_mapping/Dense1/flatten/strided_slice", "op": "StridedSlice", "input": ["g_mapping/Dense1/flatten/Shape", "g_synthesis/512x512/Conv0_up/strided_slice_4/stack", "g_synthesis/512x512/Conv0_up/strided_slice_4/stack_1", "g_synthesis/512x512/Conv0_up/strided_slice_4/stack_1"], "attr": {"T": {"type": "DT_INT32"}, "Index": {"type": "DT_INT32"}, "shrink_axis_mask": {"i": "1"}, "begin_mask": {"i": "0"}, "ellipsis_mask": {"i": "0"}, "new_axis_mask": {"i": "0"}, "end_mask": {"i": "0"}}}, {"name": "g_mapping/Dense1/flatten/Reshape/shape", "op": "Pack", "input": ["g_mapping/Dense1/flatten/strided_slice", "g_synthesis/4x4/Const/StyleMod/flatten/Reshape/shape/1"], "attr": {"T": {"type": "DT_INT32"}, "axis": {"i": "0"}, "N": {"i": "2"}}}, {"name": "g_mapping/Dense1/flatten/Reshape", "op": "Reshape", "input": ["g_mapping/Dense0/LeakyRelu", "g_mapping/Dense1/flatten/Reshape/shape"], "attr": {"T": {"type": "DT_FLOAT"}, "Tshape": {"type": "DT_INT32"}}}, {"name": "g_mapping/Dense1/MatMul", "op": "MatMul", "input": ["g_mapping/Dense1/flatten/Reshape", "g_mapping/Dense1/mul"], "attr": {"transpose_b": {"b": false}, "T": {"type": "DT_FLOAT"}, "transpose_a": {"b": false}}}, {"name": "g_mapping/Dense1/add", "op": "Add", "input": ["g_mapping/Dense1/MatMul", "g_mapping/Dense1/mul_1"], "attr": {"T": {"type": "DT_FLOAT"}}}, {"name": "g_mapping/Dense1/LeakyRelu", "op": "LeakyRelu", "input": ["g_mapping/Dense1/add"], "attr": {"T": {"type": "DT_FLOAT"}, "alpha": {"f": 0.20000000298023224}}}, {"name": "g_mapping/Dense2/flatten/Shape", "op": "Shape", "input": ["g_mapping/Dense1/LeakyRelu"], "attr": {"T": {"type": "DT_FLOAT"}, "out_type": {"type": "DT_INT32"}}}, {"name": "g_mapping/Dense2/flatten/strided_slice", "op": "StridedSlice", "input": ["g_mapping/Dense2/flatten/Shape", "g_synthesis/512x512/Conv0_up/strided_slice_4/stack", "g_synthesis/512x512/Conv0_up/strided_slice_4/stack_1", "g_synthesis/512x512/Conv0_up/strided_slice_4/stack_1"], "attr": {"T": {"type": "DT_INT32"}, "Index": {"type": "DT_INT32"}, "shrink_axis_mask": {"i": "1"}, "begin_mask": {"i": "0"}, "ellipsis_mask": {"i": "0"}, "new_axis_mask": {"i": "0"}, "end_mask": {"i": "0"}}}, {"name": "g_mapping/Dense2/flatten/Reshape/shape", "op": "Pack", "input": ["g_mapping/Dense2/flatten/strided_slice", "g_synthesis/4x4/Const/StyleMod/flatten/Reshape/shape/1"], "attr": {"T": {"type": "DT_INT32"}, "axis": {"i": "0"}, "N": {"i": "2"}}}, {"name": "g_mapping/Dense2/flatten/Reshape", "op": "Reshape", "input": ["g_mapping/Dense1/LeakyRelu", "g_mapping/Dense2/flatten/Reshape/shape"], "attr": {"T": {"type": "DT_FLOAT"}, "Tshape": {"type": "DT_INT32"}}}, {"name": "g_mapping/Dense2/MatMul", "op": "MatMul", "input": ["g_mapping/Dense2/flatten/Reshape", "g_mapping/Dense2/mul"], "attr": {"transpose_b": {"b": false}, "T": {"type": "DT_FLOAT"}, "transpose_a": {"b": false}}}, {"name": "g_mapping/Dense2/add", "op": "Add", "input": ["g_mapping/Dense2/MatMul", "g_mapping/Dense2/mul_1"], "attr": {"T": {"type": "DT_FLOAT"}}}, {"name": "g_mapping/Dense2/LeakyRelu", "op": "LeakyRelu", "input": ["g_mapping/Dense2/add"], "attr": {"T": {"type": "DT_FLOAT"}, "alpha": {"f": 0.20000000298023224}}}, {"name": "g_mapping/Dense3/flatten/Shape", "op": "Shape", "input": ["g_mapping/Dense2/LeakyRelu"], "attr": {"T": {"type": "DT_FLOAT"}, "out_type": {"type": "DT_INT32"}}}, {"name": "g_mapping/Dense3/flatten/strided_slice", "op": "StridedSlice", "input": ["g_mapping/Dense3/flatten/Shape", "g_synthesis/512x512/Conv0_up/strided_slice_4/stack", "g_synthesis/512x512/Conv0_up/strided_slice_4/stack_1", "g_synthesis/512x512/Conv0_up/strided_slice_4/stack_1"], "attr": {"T": {"type": "DT_INT32"}, "Index": {"type": "DT_INT32"}, "shrink_axis_mask": {"i": "1"}, "begin_mask": {"i": "0"}, "ellipsis_mask": {"i": "0"}, "new_axis_mask": {"i": "0"}, "end_mask": {"i": "0"}}}, {"name": "g_mapping/Dense3/flatten/Reshape/shape", "op": "Pack", "input": ["g_mapping/Dense3/flatten/strided_slice", "g_synthesis/4x4/Const/StyleMod/flatten/Reshape/shape/1"], "attr": {"T": {"type": "DT_INT32"}, "axis": {"i": "0"}, "N": {"i": "2"}}}, {"name": "g_mapping/Dense3/flatten/Reshape", "op": "Reshape", "input": ["g_mapping/Dense2/LeakyRelu", "g_mapping/Dense3/flatten/Reshape/shape"], "attr": {"T": {"type": "DT_FLOAT"}, "Tshape": {"type": "DT_INT32"}}}, {"name": "g_mapping/Dense3/MatMul", "op": "MatMul", "input": ["g_mapping/Dense3/flatten/Reshape", "g_mapping/Dense3/mul"], "attr": {"transpose_b": {"b": false}, "T": {"type": "DT_FLOAT"}, "transpose_a": {"b": false}}}, {"name": "g_mapping/Dense3/add", "op": "Add", "input": ["g_mapping/Dense3/MatMul", "g_mapping/Dense3/mul_1"], "attr": {"T": {"type": "DT_FLOAT"}}}, {"name": "g_mapping/Dense3/LeakyRelu", "op": "LeakyRelu", "input": ["g_mapping/Dense3/add"], "attr": {"T": {"type": "DT_FLOAT"}, "alpha": {"f": 0.20000000298023224}}}, {"name": "g_mapping/Dense4/flatten/Shape", "op": "Shape", "input": ["g_mapping/Dense3/LeakyRelu"], "attr": {"T": {"type": "DT_FLOAT"}, "out_type": {"type": "DT_INT32"}}}, {"name": "g_mapping/Dense4/flatten/strided_slice", "op": "StridedSlice", "input": ["g_mapping/Dense4/flatten/Shape", "g_synthesis/512x512/Conv0_up/strided_slice_4/stack", "g_synthesis/512x512/Conv0_up/strided_slice_4/stack_1", "g_synthesis/512x512/Conv0_up/strided_slice_4/stack_1"], "attr": {"T": {"type": "DT_INT32"}, "Index": {"type": "DT_INT32"}, "shrink_axis_mask": {"i": "1"}, "begin_mask": {"i": "0"}, "ellipsis_mask": {"i": "0"}, "new_axis_mask": {"i": "0"}, "end_mask": {"i": "0"}}}, {"name": "g_mapping/Dense4/flatten/Reshape/shape", "op": "Pack", "input": ["g_mapping/Dense4/flatten/strided_slice", "g_synthesis/4x4/Const/StyleMod/flatten/Reshape/shape/1"], "attr": {"T": {"type": "DT_INT32"}, "axis": {"i": "0"}, "N": {"i": "2"}}}, {"name": "g_mapping/Dense4/flatten/Reshape", "op": "Reshape", "input": ["g_mapping/Dense3/LeakyRelu", "g_mapping/Dense4/flatten/Reshape/shape"], "attr": {"T": {"type": "DT_FLOAT"}, "Tshape": {"type": "DT_INT32"}}}, {"name": "g_mapping/Dense4/MatMul", "op": "MatMul", "input": ["g_mapping/Dense4/flatten/Reshape", "g_mapping/Dense4/mul"], "attr": {"transpose_b": {"b": false}, "T": {"type": "DT_FLOAT"}, "transpose_a": {"b": false}}}, {"name": "g_mapping/Dense4/add", "op": "Add", "input": ["g_mapping/Dense4/MatMul", "g_mapping/Dense4/mul_1"], "attr": {"T": {"type": "DT_FLOAT"}}}, {"name": "g_mapping/Dense4/LeakyRelu", "op": "LeakyRelu", "input": ["g_mapping/Dense4/add"], "attr": {"T": {"type": "DT_FLOAT"}, "alpha": {"f": 0.20000000298023224}}}, {"name": "g_mapping/Dense5/flatten/Shape", "op": "Shape", "input": ["g_mapping/Dense4/LeakyRelu"], "attr": {"T": {"type": "DT_FLOAT"}, "out_type": {"type": "DT_INT32"}}}, {"name": "g_mapping/Dense5/flatten/strided_slice", "op": "StridedSlice", "input": ["g_mapping/Dense5/flatten/Shape", "g_synthesis/512x512/Conv0_up/strided_slice_4/stack", "g_synthesis/512x512/Conv0_up/strided_slice_4/stack_1", "g_synthesis/512x512/Conv0_up/strided_slice_4/stack_1"], "attr": {"T": {"type": "DT_INT32"}, "Index": {"type": "DT_INT32"}, "shrink_axis_mask": {"i": "1"}, "begin_mask": {"i": "0"}, "ellipsis_mask": {"i": "0"}, "new_axis_mask": {"i": "0"}, "end_mask": {"i": "0"}}}, {"name": "g_mapping/Dense5/flatten/Reshape/shape", "op": "Pack", "input": ["g_mapping/Dense5/flatten/strided_slice", "g_synthesis/4x4/Const/StyleMod/flatten/Reshape/shape/1"], "attr": {"T": {"type": "DT_INT32"}, "axis": {"i": "0"}, "N": {"i": "2"}}}, {"name": "g_mapping/Dense5/flatten/Reshape", "op": "Reshape", "input": ["g_mapping/Dense4/LeakyRelu", "g_mapping/Dense5/flatten/Reshape/shape"], "attr": {"T": {"type": "DT_FLOAT"}, "Tshape": {"type": "DT_INT32"}}}, {"name": "g_mapping/Dense5/MatMul", "op": "MatMul", "input": ["g_mapping/Dense5/flatten/Reshape", "g_mapping/Dense5/mul"], "attr": {"transpose_b": {"b": false}, "T": {"type": "DT_FLOAT"}, "transpose_a": {"b": false}}}, {"name": "g_mapping/Dense5/add", "op": "Add", "input": ["g_mapping/Dense5/MatMul", "g_mapping/Dense5/mul_1"], "attr": {"T": {"type": "DT_FLOAT"}}}, {"name": "g_mapping/Dense5/LeakyRelu", "op": "LeakyRelu", "input": ["g_mapping/Dense5/add"], "attr": {"T": {"type": "DT_FLOAT"}, "alpha": {"f": 0.20000000298023224}}}, {"name": "g_mapping/Dense6/flatten/Shape", "op": "Shape", "input": ["g_mapping/Dense5/LeakyRelu"], "attr": {"T": {"type": "DT_FLOAT"}, "out_type": {"type": "DT_INT32"}}}, {"name": "g_mapping/Dense6/flatten/strided_slice", "op": "StridedSlice", "input": ["g_mapping/Dense6/flatten/Shape", "g_synthesis/512x512/Conv0_up/strided_slice_4/stack", "g_synthesis/512x512/Conv0_up/strided_slice_4/stack_1", "g_synthesis/512x512/Conv0_up/strided_slice_4/stack_1"], "attr": {"T": {"type": "DT_INT32"}, "Index": {"type": "DT_INT32"}, "shrink_axis_mask": {"i": "1"}, "begin_mask": {"i": "0"}, "ellipsis_mask": {"i": "0"}, "new_axis_mask": {"i": "0"}, "end_mask": {"i": "0"}}}, {"name": "g_mapping/Dense6/flatten/Reshape/shape", "op": "Pack", "input": ["g_mapping/Dense6/flatten/strided_slice", "g_synthesis/4x4/Const/StyleMod/flatten/Reshape/shape/1"], "attr": {"T": {"type": "DT_INT32"}, "axis": {"i": "0"}, "N": {"i": "2"}}}, {"name": "g_mapping/Dense6/flatten/Reshape", "op": "Reshape", "input": ["g_mapping/Dense5/LeakyRelu", "g_mapping/Dense6/flatten/Reshape/shape"], "attr": {"T": {"type": "DT_FLOAT"}, "Tshape": {"type": "DT_INT32"}}}, {"name": "g_mapping/Dense6/MatMul", "op": "MatMul", "input": ["g_mapping/Dense6/flatten/Reshape", "g_mapping/Dense6/mul"], "attr": {"transpose_b": {"b": false}, "T": {"type": "DT_FLOAT"}, "transpose_a": {"b": false}}}, {"name": "g_mapping/Dense6/add", "op": "Add", "input": ["g_mapping/Dense6/MatMul", "g_mapping/Dense6/mul_1"], "attr": {"T": {"type": "DT_FLOAT"}}}, {"name": "g_mapping/Dense6/LeakyRelu", "op": "LeakyRelu", "input": ["g_mapping/Dense6/add"], "attr": {"T": {"type": "DT_FLOAT"}, "alpha": {"f": 0.20000000298023224}}}, {"name": "g_mapping/Dense7/flatten/Shape", "op": "Shape", "input": ["g_mapping/Dense6/LeakyRelu"], "attr": {"T": {"type": "DT_FLOAT"}, "out_type": {"type": "DT_INT32"}}}, {"name": "g_mapping/Dense7/flatten/strided_slice", "op": "StridedSlice", "input": ["g_mapping/Dense7/flatten/Shape", "g_synthesis/512x512/Conv0_up/strided_slice_4/stack", "g_synthesis/512x512/Conv0_up/strided_slice_4/stack_1", "g_synthesis/512x512/Conv0_up/strided_slice_4/stack_1"], "attr": {"T": {"type": "DT_INT32"}, "Index": {"type": "DT_INT32"}, "shrink_axis_mask": {"i": "1"}, "begin_mask": {"i": "0"}, "ellipsis_mask": {"i": "0"}, "new_axis_mask": {"i": "0"}, "end_mask": {"i": "0"}}}, {"name": "g_mapping/Dense7/flatten/Reshape/shape", "op": "Pack", "input": ["g_mapping/Dense7/flatten/strided_slice", "g_synthesis/4x4/Const/StyleMod/flatten/Reshape/shape/1"], "attr": {"T": {"type": "DT_INT32"}, "axis": {"i": "0"}, "N": {"i": "2"}}}, {"name": "g_mapping/Dense7/flatten/Reshape", "op": "Reshape", "input": ["g_mapping/Dense6/LeakyRelu", "g_mapping/Dense7/flatten/Reshape/shape"], "attr": {"T": {"type": "DT_FLOAT"}, "Tshape": {"type": "DT_INT32"}}}, {"name": "g_mapping/Dense7/MatMul", "op": "MatMul", "input": ["g_mapping/Dense7/flatten/Reshape", "g_mapping/Dense7/mul"], "attr": {"transpose_b": {"b": false}, "T": {"type": "DT_FLOAT"}, "transpose_a": {"b": false}}}, {"name": "g_mapping/Dense7/add", "op": "Add", "input": ["g_mapping/Dense7/MatMul", "g_mapping/Dense7/mul_1"], "attr": {"T": {"type": "DT_FLOAT"}}}, {"name": "g_mapping/Dense7/LeakyRelu", "op": "LeakyRelu", "input": ["g_mapping/Dense7/add"], "attr": {"T": {"type": "DT_FLOAT"}, "alpha": {"f": 0.20000000298023224}}}, {"name": "g_mapping/Broadcast/ExpandDims", "op": "ExpandDims", "input": ["g_mapping/Dense7/LeakyRelu", "g_synthesis/4x4/Const/Tile/multiples/1"], "attr": {"Tdim": {"type": "DT_INT32"}, "T": {"type": "DT_FLOAT"}}}, {"name": "g_mapping/Broadcast/Tile", "op": "Tile", "input": ["g_mapping/Broadcast/ExpandDims", "g_mapping/Broadcast/Tile/multiples"], "attr": {"Tmultiples": {"type": "DT_INT32"}, "T": {"type": "DT_FLOAT"}}}, {"name": "Truncation/Lerp/sub", "op": "Sub", "input": ["g_mapping/Broadcast/Tile", "w_avg"], "attr": {"T": {"type": "DT_FLOAT"}}}, {"name": "Truncation/Lerp/mul", "op": "Mul", "input": ["Truncation/Lerp/sub", "Truncation/Select"], "attr": {"T": {"type": "DT_FLOAT"}}}, {"name": "Truncation/Lerp/add", "op": "Add", "input": ["Truncation/Lerp/mul", "w_avg"], "attr": {"T": {"type": "DT_FLOAT"}}}, {"name": "g_synthesis/strided_slice_16", "op": "StridedSlice", "input": ["Truncation/Lerp/add", "g_synthesis/strided_slice_15/stack_1", "g_synthesis/strided_slice_16/stack_1", "g_synthesis/4x4/Const/StyleMod/strided_slice/stack_2"], "attr": {"T": {"type": "DT_FLOAT"}, "Index": {"type": "DT_INT32"}, "shrink_axis_mask": {"i": "2"}, "begin_mask": {"i": "1"}, "ellipsis_mask": {"i": "0"}, "new_axis_mask": {"i": "0"}, "end_mask": {"i": "1"}}}, {"name": "g_synthesis/strided_slice_15", "op": "StridedSlice", "input": ["Truncation/Lerp/add", "g_synthesis/strided_slice_14/stack_1", "g_synthesis/strided_slice_15/stack_1", "g_synthesis/4x4/Const/StyleMod/strided_slice/stack_2"], "attr": {"T": {"type": "DT_FLOAT"}, "Index": {"type": "DT_INT32"}, "shrink_axis_mask": {"i": "2"}, "begin_mask": {"i": "1"}, "ellipsis_mask": {"i": "0"}, "new_axis_mask": {"i": "0"}, "end_mask": {"i": "1"}}}, {"name": "g_synthesis/strided_slice_14", "op": "StridedSlice", "input": ["Truncation/Lerp/add", "g_synthesis/strided_slice_13/stack_1", "g_synthesis/strided_slice_14/stack_1", "g_synthesis/4x4/Const/StyleMod/strided_slice/stack_2"], "attr": {"T": {"type": "DT_FLOAT"}, "Index": {"type": "DT_INT32"}, "shrink_axis_mask": {"i": "2"}, "begin_mask": {"i": "1"}, "ellipsis_mask": {"i": "0"}, "new_axis_mask": {"i": "0"}, "end_mask": {"i": "1"}}}, {"name": "g_synthesis/strided_slice_13", "op": "StridedSlice", "input": ["Truncation/Lerp/add", "g_synthesis/strided_slice_12/stack_1", "g_synthesis/strided_slice_13/stack_1", "g_synthesis/4x4/Const/StyleMod/strided_slice/stack_2"], "attr": {"T": {"type": "DT_FLOAT"}, "Index": {"type": "DT_INT32"}, "shrink_axis_mask": {"i": "2"}, "begin_mask": {"i": "1"}, "ellipsis_mask": {"i": "0"}, "new_axis_mask": {"i": "0"}, "end_mask": {"i": "1"}}}, {"name": "g_synthesis/strided_slice_12", "op": "StridedSlice", "input": ["Truncation/Lerp/add", "g_synthesis/strided_slice_11/stack_1", "g_synthesis/strided_slice_12/stack_1", "g_synthesis/4x4/Const/StyleMod/strided_slice/stack_2"], "attr": {"T": {"type": "DT_FLOAT"}, "Index": {"type": "DT_INT32"}, "shrink_axis_mask": {"i": "2"}, "begin_mask": {"i": "1"}, "ellipsis_mask": {"i": "0"}, "new_axis_mask": {"i": "0"}, "end_mask": {"i": "1"}}}, {"name": "g_synthesis/strided_slice_11", "op": "StridedSlice", "input": ["Truncation/Lerp/add", "g_synthesis/strided_slice_10/stack_1", "g_synthesis/strided_slice_11/stack_1", "g_synthesis/4x4/Const/StyleMod/strided_slice/stack_2"], "attr": {"T": {"type": "DT_FLOAT"}, "Index": {"type": "DT_INT32"}, "shrink_axis_mask": {"i": "2"}, "begin_mask": {"i": "1"}, "ellipsis_mask": {"i": "0"}, "new_axis_mask": {"i": "0"}, "end_mask": {"i": "1"}}}, {"name": "g_synthesis/strided_slice_10", "op": "StridedSlice", "input": ["Truncation/Lerp/add", "g_synthesis/strided_slice_9/stack_1", "g_synthesis/strided_slice_10/stack_1", "g_synthesis/4x4/Const/StyleMod/strided_slice/stack_2"], "attr": {"T": {"type": "DT_FLOAT"}, "Index": {"type": "DT_INT32"}, "shrink_axis_mask": {"i": "2"}, "begin_mask": {"i": "1"}, "ellipsis_mask": {"i": "0"}, "new_axis_mask": {"i": "0"}, "end_mask": {"i": "1"}}}, {"name": "g_synthesis/strided_slice_9", "op": "StridedSlice", "input": ["Truncation/Lerp/add", "g_synthesis/strided_slice_8/stack_1", "g_synthesis/strided_slice_9/stack_1", "g_synthesis/4x4/Const/StyleMod/strided_slice/stack_2"], "attr": {"T": {"type": "DT_FLOAT"}, "Index": {"type": "DT_INT32"}, "shrink_axis_mask": {"i": "2"}, "begin_mask": {"i": "1"}, "ellipsis_mask": {"i": "0"}, "new_axis_mask": {"i": "0"}, "end_mask": {"i": "1"}}}, {"name": "g_synthesis/strided_slice_8", "op": "StridedSlice", "input": ["Truncation/Lerp/add", "g_synthesis/strided_slice_7/stack_1", "g_synthesis/strided_slice_8/stack_1", "g_synthesis/4x4/Const/StyleMod/strided_slice/stack_2"], "attr": {"T": {"type": "DT_FLOAT"}, "Index": {"type": "DT_INT32"}, "shrink_axis_mask": {"i": "2"}, "begin_mask": {"i": "1"}, "ellipsis_mask": {"i": "0"}, "new_axis_mask": {"i": "0"}, "end_mask": {"i": "1"}}}, {"name": "g_synthesis/strided_slice_7", "op": "StridedSlice", "input": ["Truncation/Lerp/add", "g_synthesis/strided_slice_6/stack_1", "g_synthesis/strided_slice_7/stack_1", "g_synthesis/4x4/Const/StyleMod/strided_slice/stack_2"], "attr": {"T": {"type": "DT_FLOAT"}, "Index": {"type": "DT_INT32"}, "shrink_axis_mask": {"i": "2"}, "begin_mask": {"i": "1"}, "ellipsis_mask": {"i": "0"}, "new_axis_mask": {"i": "0"}, "end_mask": {"i": "1"}}}, {"name": "g_synthesis/strided_slice_6", "op": "StridedSlice", "input": ["Truncation/Lerp/add", "g_synthesis/strided_slice_5/stack_1", "g_synthesis/strided_slice_6/stack_1", "g_synthesis/4x4/Const/StyleMod/strided_slice/stack_2"], "attr": {"T": {"type": "DT_FLOAT"}, "Index": {"type": "DT_INT32"}, "shrink_axis_mask": {"i": "2"}, "begin_mask": {"i": "1"}, "ellipsis_mask": {"i": "0"}, "new_axis_mask": {"i": "0"}, "end_mask": {"i": "1"}}}, {"name": "g_synthesis/strided_slice_5", "op": "StridedSlice", "input": ["Truncation/Lerp/add", "g_synthesis/strided_slice_4/stack_1", "g_synthesis/strided_slice_5/stack_1", "g_synthesis/4x4/Const/StyleMod/strided_slice/stack_2"], "attr": {"T": {"type": "DT_FLOAT"}, "Index": {"type": "DT_INT32"}, "shrink_axis_mask": {"i": "2"}, "begin_mask": {"i": "1"}, "ellipsis_mask": {"i": "0"}, "new_axis_mask": {"i": "0"}, "end_mask": {"i": "1"}}}, {"name": "g_synthesis/strided_slice_4", "op": "StridedSlice", "input": ["Truncation/Lerp/add", "g_synthesis/strided_slice_3/stack_1", "g_synthesis/strided_slice_4/stack_1", "g_synthesis/4x4/Const/StyleMod/strided_slice/stack_2"], "attr": {"T": {"type": "DT_FLOAT"}, "Index": {"type": "DT_INT32"}, "shrink_axis_mask": {"i": "2"}, "begin_mask": {"i": "1"}, "ellipsis_mask": {"i": "0"}, "new_axis_mask": {"i": "0"}, "end_mask": {"i": "1"}}}, {"name": "g_synthesis/strided_slice_3", "op": "StridedSlice", "input": ["Truncation/Lerp/add", "g_synthesis/4x4/Const/StyleMod/strided_slice_1/stack_1", "g_synthesis/strided_slice_3/stack_1", "g_synthesis/4x4/Const/StyleMod/strided_slice/stack_2"], "attr": {"T": {"type": "DT_FLOAT"}, "Index": {"type": "DT_INT32"}, "shrink_axis_mask": {"i": "2"}, "begin_mask": {"i": "1"}, "ellipsis_mask": {"i": "0"}, "new_axis_mask": {"i": "0"}, "end_mask": {"i": "1"}}}, {"name": "g_synthesis/strided_slice_1", "op": "StridedSlice", "input": ["Truncation/Lerp/add", "g_synthesis/4x4/Const/StyleMod/strided_slice/stack_1", "g_synthesis/4x4/Const/StyleMod/strided_slice_1/stack_1", "g_synthesis/4x4/Const/StyleMod/strided_slice/stack_2"], "attr": {"T": {"type": "DT_FLOAT"}, "Index": {"type": "DT_INT32"}, "shrink_axis_mask": {"i": "2"}, "begin_mask": {"i": "1"}, "ellipsis_mask": {"i": "0"}, "new_axis_mask": {"i": "0"}, "end_mask": {"i": "1"}}}, {"name": "g_synthesis/strided_slice", "op": "StridedSlice", "input": ["Truncation/Lerp/add", "g_synthesis/4x4/Const/StyleMod/strided_slice/stack", "g_synthesis/4x4/Const/StyleMod/strided_slice/stack_1", "g_synthesis/4x4/Const/StyleMod/strided_slice/stack_2"], "attr": {"T": {"type": "DT_FLOAT"}, "Index": {"type": "DT_INT32"}, "shrink_axis_mask": {"i": "2"}, "begin_mask": {"i": "1"}, "ellipsis_mask": {"i": "0"}, "new_axis_mask": {"i": "0"}, "end_mask": {"i": "1"}}}, {"name": "g_synthesis/512x512/Conv1/StyleMod/flatten/Shape", "op": "Shape", "input": ["g_synthesis/strided_slice_16"], "attr": {"T": {"type": "DT_FLOAT"}, "out_type": {"type": "DT_INT32"}}}, {"name": "g_synthesis/512x512/Conv0_up/StyleMod/flatten/Shape", "op": "Shape", "input": ["g_synthesis/strided_slice_15"], "attr": {"T": {"type": "DT_FLOAT"}, "out_type": {"type": "DT_INT32"}}}, {"name": "g_synthesis/256x256/Conv1/StyleMod/flatten/Shape", "op": "Shape", "input": ["g_synthesis/strided_slice_14"], "attr": {"T": {"type": "DT_FLOAT"}, "out_type": {"type": "DT_INT32"}}}, {"name": "g_synthesis/256x256/Conv0_up/StyleMod/flatten/Shape", "op": "Shape", "input": ["g_synthesis/strided_slice_13"], "attr": {"T": {"type": "DT_FLOAT"}, "out_type": {"type": "DT_INT32"}}}, {"name": "g_synthesis/128x128/Conv1/StyleMod/flatten/Shape", "op": "Shape", "input": ["g_synthesis/strided_slice_12"], "attr": {"T": {"type": "DT_FLOAT"}, "out_type": {"type": "DT_INT32"}}}, {"name": "g_synthesis/128x128/Conv0_up/StyleMod/flatten/Shape", "op": "Shape", "input": ["g_synthesis/strided_slice_11"], "attr": {"T": {"type": "DT_FLOAT"}, "out_type": {"type": "DT_INT32"}}}, {"name": "g_synthesis/64x64/Conv1/StyleMod/flatten/Shape", "op": "Shape", "input": ["g_synthesis/strided_slice_10"], "attr": {"T": {"type": "DT_FLOAT"}, "out_type": {"type": "DT_INT32"}}}, {"name": "g_synthesis/64x64/Conv0_up/StyleMod/flatten/Shape", "op": "Shape", "input": ["g_synthesis/strided_slice_9"], "attr": {"T": {"type": "DT_FLOAT"}, "out_type": {"type": "DT_INT32"}}}, {"name": "g_synthesis/32x32/Conv1/StyleMod/flatten/Shape", "op": "Shape", "input": ["g_synthesis/strided_slice_8"], "attr": {"T": {"type": "DT_FLOAT"}, "out_type": {"type": "DT_INT32"}}}, {"name": "g_synthesis/32x32/Conv0_up/StyleMod/flatten/Shape", "op": "Shape", "input": ["g_synthesis/strided_slice_7"], "attr": {"T": {"type": "DT_FLOAT"}, "out_type": {"type": "DT_INT32"}}}, {"name": "g_synthesis/16x16/Conv1/StyleMod/flatten/Shape", "op": "Shape", "input": ["g_synthesis/strided_slice_6"], "attr": {"T": {"type": "DT_FLOAT"}, "out_type": {"type": "DT_INT32"}}}, {"name": "g_synthesis/16x16/Conv0_up/StyleMod/flatten/Shape", "op": "Shape", "input": ["g_synthesis/strided_slice_5"], "attr": {"T": {"type": "DT_FLOAT"}, "out_type": {"type": "DT_INT32"}}}, {"name": "g_synthesis/8x8/Conv1/StyleMod/flatten/Shape", "op": "Shape", "input": ["g_synthesis/strided_slice_4"], "attr": {"T": {"type": "DT_FLOAT"}, "out_type": {"type": "DT_INT32"}}}, {"name": "g_synthesis/8x8/Conv0_up/StyleMod/flatten/Shape", "op": "Shape", "input": ["g_synthesis/strided_slice_3"], "attr": {"T": {"type": "DT_FLOAT"}, "out_type": {"type": "DT_INT32"}}}, {"name": "g_synthesis/4x4/Conv/StyleMod/flatten/Shape", "op": "Shape", "input": ["g_synthesis/strided_slice_1"], "attr": {"T": {"type": "DT_FLOAT"}, "out_type": {"type": "DT_INT32"}}}, {"name": "g_synthesis/Shape", "op": "Shape", "input": ["g_synthesis/strided_slice"], "attr": {"T": {"type": "DT_FLOAT"}, "out_type": {"type": "DT_INT32"}}}, {"name": "g_synthesis/512x512/Conv1/StyleMod/flatten/strided_slice", "op": "StridedSlice", "input": ["g_synthesis/512x512/Conv1/StyleMod/flatten/Shape", "g_synthesis/512x512/Conv0_up/strided_slice_4/stack", "g_synthesis/512x512/Conv0_up/strided_slice_4/stack_1", "g_synthesis/512x512/Conv0_up/strided_slice_4/stack_1"], "attr": {"T": {"type": "DT_INT32"}, "Index": {"type": "DT_INT32"}, "shrink_axis_mask": {"i": "1"}, "begin_mask": {"i": "0"}, "ellipsis_mask": {"i": "0"}, "new_axis_mask": {"i": "0"}, "end_mask": {"i": "0"}}}, {"name": "g_synthesis/512x512/Conv0_up/StyleMod/flatten/strided_slice", "op": "StridedSlice", "input": ["g_synthesis/512x512/Conv0_up/StyleMod/flatten/Shape", "g_synthesis/512x512/Conv0_up/strided_slice_4/stack", "g_synthesis/512x512/Conv0_up/strided_slice_4/stack_1", "g_synthesis/512x512/Conv0_up/strided_slice_4/stack_1"], "attr": {"T": {"type": "DT_INT32"}, "Index": {"type": "DT_INT32"}, "shrink_axis_mask": {"i": "1"}, "begin_mask": {"i": "0"}, "ellipsis_mask": {"i": "0"}, "new_axis_mask": {"i": "0"}, "end_mask": {"i": "0"}}}, {"name": "g_synthesis/256x256/Conv1/StyleMod/flatten/strided_slice", "op": "StridedSlice", "input": ["g_synthesis/256x256/Conv1/StyleMod/flatten/Shape", "g_synthesis/512x512/Conv0_up/strided_slice_4/stack", "g_synthesis/512x512/Conv0_up/strided_slice_4/stack_1", "g_synthesis/512x512/Conv0_up/strided_slice_4/stack_1"], "attr": {"T": {"type": "DT_INT32"}, "Index": {"type": "DT_INT32"}, "shrink_axis_mask": {"i": "1"}, "begin_mask": {"i": "0"}, "ellipsis_mask": {"i": "0"}, "new_axis_mask": {"i": "0"}, "end_mask": {"i": "0"}}}, {"name": "g_synthesis/256x256/Conv0_up/StyleMod/flatten/strided_slice", "op": "StridedSlice", "input": ["g_synthesis/256x256/Conv0_up/StyleMod/flatten/Shape", "g_synthesis/512x512/Conv0_up/strided_slice_4/stack", "g_synthesis/512x512/Conv0_up/strided_slice_4/stack_1", "g_synthesis/512x512/Conv0_up/strided_slice_4/stack_1"], "attr": {"T": {"type": "DT_INT32"}, "Index": {"type": "DT_INT32"}, "shrink_axis_mask": {"i": "1"}, "begin_mask": {"i": "0"}, "ellipsis_mask": {"i": "0"}, "new_axis_mask": {"i": "0"}, "end_mask": {"i": "0"}}}, {"name": "g_synthesis/128x128/Conv1/StyleMod/flatten/strided_slice", "op": "StridedSlice", "input": ["g_synthesis/128x128/Conv1/StyleMod/flatten/Shape", "g_synthesis/512x512/Conv0_up/strided_slice_4/stack", "g_synthesis/512x512/Conv0_up/strided_slice_4/stack_1", "g_synthesis/512x512/Conv0_up/strided_slice_4/stack_1"], "attr": {"T": {"type": "DT_INT32"}, "Index": {"type": "DT_INT32"}, "shrink_axis_mask": {"i": "1"}, "begin_mask": {"i": "0"}, "ellipsis_mask": {"i": "0"}, "new_axis_mask": {"i": "0"}, "end_mask": {"i": "0"}}}, {"name": "g_synthesis/128x128/Conv0_up/StyleMod/flatten/strided_slice", "op": "StridedSlice", "input": ["g_synthesis/128x128/Conv0_up/StyleMod/flatten/Shape", "g_synthesis/512x512/Conv0_up/strided_slice_4/stack", "g_synthesis/512x512/Conv0_up/strided_slice_4/stack_1", "g_synthesis/512x512/Conv0_up/strided_slice_4/stack_1"], "attr": {"T": {"type": "DT_INT32"}, "Index": {"type": "DT_INT32"}, "shrink_axis_mask": {"i": "1"}, "begin_mask": {"i": "0"}, "ellipsis_mask": {"i": "0"}, "new_axis_mask": {"i": "0"}, "end_mask": {"i": "0"}}}, {"name": "g_synthesis/64x64/Conv1/StyleMod/flatten/strided_slice", "op": "StridedSlice", "input": ["g_synthesis/64x64/Conv1/StyleMod/flatten/Shape", "g_synthesis/512x512/Conv0_up/strided_slice_4/stack", "g_synthesis/512x512/Conv0_up/strided_slice_4/stack_1", "g_synthesis/512x512/Conv0_up/strided_slice_4/stack_1"], "attr": {"T": {"type": "DT_INT32"}, "Index": {"type": "DT_INT32"}, "shrink_axis_mask": {"i": "1"}, "begin_mask": {"i": "0"}, "ellipsis_mask": {"i": "0"}, "new_axis_mask": {"i": "0"}, "end_mask": {"i": "0"}}}, {"name": "g_synthesis/64x64/Conv0_up/StyleMod/flatten/strided_slice", "op": "StridedSlice", "input": ["g_synthesis/64x64/Conv0_up/StyleMod/flatten/Shape", "g_synthesis/512x512/Conv0_up/strided_slice_4/stack", "g_synthesis/512x512/Conv0_up/strided_slice_4/stack_1", "g_synthesis/512x512/Conv0_up/strided_slice_4/stack_1"], "attr": {"T": {"type": "DT_INT32"}, "Index": {"type": "DT_INT32"}, "shrink_axis_mask": {"i": "1"}, "begin_mask": {"i": "0"}, "ellipsis_mask": {"i": "0"}, "new_axis_mask": {"i": "0"}, "end_mask": {"i": "0"}}}, {"name": "g_synthesis/32x32/Conv1/StyleMod/flatten/strided_slice", "op": "StridedSlice", "input": ["g_synthesis/32x32/Conv1/StyleMod/flatten/Shape", "g_synthesis/512x512/Conv0_up/strided_slice_4/stack", "g_synthesis/512x512/Conv0_up/strided_slice_4/stack_1", "g_synthesis/512x512/Conv0_up/strided_slice_4/stack_1"], "attr": {"T": {"type": "DT_INT32"}, "Index": {"type": "DT_INT32"}, "shrink_axis_mask": {"i": "1"}, "begin_mask": {"i": "0"}, "ellipsis_mask": {"i": "0"}, "new_axis_mask": {"i": "0"}, "end_mask": {"i": "0"}}}, {"name": "g_synthesis/32x32/Conv0_up/StyleMod/flatten/strided_slice", "op": "StridedSlice", "input": ["g_synthesis/32x32/Conv0_up/StyleMod/flatten/Shape", "g_synthesis/512x512/Conv0_up/strided_slice_4/stack", "g_synthesis/512x512/Conv0_up/strided_slice_4/stack_1", "g_synthesis/512x512/Conv0_up/strided_slice_4/stack_1"], "attr": {"T": {"type": "DT_INT32"}, "Index": {"type": "DT_INT32"}, "shrink_axis_mask": {"i": "1"}, "begin_mask": {"i": "0"}, "ellipsis_mask": {"i": "0"}, "new_axis_mask": {"i": "0"}, "end_mask": {"i": "0"}}}, {"name": "g_synthesis/16x16/Conv1/StyleMod/flatten/strided_slice", "op": "StridedSlice", "input": ["g_synthesis/16x16/Conv1/StyleMod/flatten/Shape", "g_synthesis/512x512/Conv0_up/strided_slice_4/stack", "g_synthesis/512x512/Conv0_up/strided_slice_4/stack_1", "g_synthesis/512x512/Conv0_up/strided_slice_4/stack_1"], "attr": {"T": {"type": "DT_INT32"}, "Index": {"type": "DT_INT32"}, "shrink_axis_mask": {"i": "1"}, "begin_mask": {"i": "0"}, "ellipsis_mask": {"i": "0"}, "new_axis_mask": {"i": "0"}, "end_mask": {"i": "0"}}}, {"name": "g_synthesis/16x16/Conv0_up/StyleMod/flatten/strided_slice", "op": "StridedSlice", "input": ["g_synthesis/16x16/Conv0_up/StyleMod/flatten/Shape", "g_synthesis/512x512/Conv0_up/strided_slice_4/stack", "g_synthesis/512x512/Conv0_up/strided_slice_4/stack_1", "g_synthesis/512x512/Conv0_up/strided_slice_4/stack_1"], "attr": {"T": {"type": "DT_INT32"}, "Index": {"type": "DT_INT32"}, "shrink_axis_mask": {"i": "1"}, "begin_mask": {"i": "0"}, "ellipsis_mask": {"i": "0"}, "new_axis_mask": {"i": "0"}, "end_mask": {"i": "0"}}}, {"name": "g_synthesis/8x8/Conv1/StyleMod/flatten/strided_slice", "op": "StridedSlice", "input": ["g_synthesis/8x8/Conv1/StyleMod/flatten/Shape", "g_synthesis/512x512/Conv0_up/strided_slice_4/stack", "g_synthesis/512x512/Conv0_up/strided_slice_4/stack_1", "g_synthesis/512x512/Conv0_up/strided_slice_4/stack_1"], "attr": {"T": {"type": "DT_INT32"}, "Index": {"type": "DT_INT32"}, "shrink_axis_mask": {"i": "1"}, "begin_mask": {"i": "0"}, "ellipsis_mask": {"i": "0"}, "new_axis_mask": {"i": "0"}, "end_mask": {"i": "0"}}}, {"name": "g_synthesis/8x8/Conv0_up/StyleMod/flatten/strided_slice", "op": "StridedSlice", "input": ["g_synthesis/8x8/Conv0_up/StyleMod/flatten/Shape", "g_synthesis/512x512/Conv0_up/strided_slice_4/stack", "g_synthesis/512x512/Conv0_up/strided_slice_4/stack_1", "g_synthesis/512x512/Conv0_up/strided_slice_4/stack_1"], "attr": {"T": {"type": "DT_INT32"}, "Index": {"type": "DT_INT32"}, "shrink_axis_mask": {"i": "1"}, "begin_mask": {"i": "0"}, "ellipsis_mask": {"i": "0"}, "new_axis_mask": {"i": "0"}, "end_mask": {"i": "0"}}}, {"name": "g_synthesis/4x4/Conv/StyleMod/flatten/strided_slice", "op": "StridedSlice", "input": ["g_synthesis/4x4/Conv/StyleMod/flatten/Shape", "g_synthesis/512x512/Conv0_up/strided_slice_4/stack", "g_synthesis/512x512/Conv0_up/strided_slice_4/stack_1", "g_synthesis/512x512/Conv0_up/strided_slice_4/stack_1"], "attr": {"T": {"type": "DT_INT32"}, "Index": {"type": "DT_INT32"}, "shrink_axis_mask": {"i": "1"}, "begin_mask": {"i": "0"}, "ellipsis_mask": {"i": "0"}, "new_axis_mask": {"i": "0"}, "end_mask": {"i": "0"}}}, {"name": "g_synthesis/strided_slice_2", "op": "StridedSlice", "input": ["g_synthesis/Shape", "g_synthesis/512x512/Conv0_up/strided_slice_4/stack", "g_synthesis/512x512/Conv0_up/strided_slice_4/stack_1", "g_synthesis/512x512/Conv0_up/strided_slice_4/stack_1"], "attr": {"T": {"type": "DT_INT32"}, "Index": {"type": "DT_INT32"}, "shrink_axis_mask": {"i": "1"}, "begin_mask": {"i": "0"}, "ellipsis_mask": {"i": "0"}, "new_axis_mask": {"i": "0"}, "end_mask": {"i": "0"}}}, {"name": "g_synthesis/512x512/Conv1/StyleMod/flatten/Reshape/shape", "op": "Pack", "input": ["g_synthesis/512x512/Conv1/StyleMod/flatten/strided_slice", "g_synthesis/4x4/Const/StyleMod/flatten/Reshape/shape/1"], "attr": {"T": {"type": "DT_INT32"}, "axis": {"i": "0"}, "N": {"i": "2"}}}, {"name": "g_synthesis/512x512/Conv0_up/StyleMod/flatten/Reshape/shape", "op": "Pack", "input": ["g_synthesis/512x512/Conv0_up/StyleMod/flatten/strided_slice", "g_synthesis/4x4/Const/StyleMod/flatten/Reshape/shape/1"], "attr": {"T": {"type": "DT_INT32"}, "axis": {"i": "0"}, "N": {"i": "2"}}}, {"name": "g_synthesis/256x256/Conv1/StyleMod/flatten/Reshape/shape", "op": "Pack", "input": ["g_synthesis/256x256/Conv1/StyleMod/flatten/strided_slice", "g_synthesis/4x4/Const/StyleMod/flatten/Reshape/shape/1"], "attr": {"T": {"type": "DT_INT32"}, "axis": {"i": "0"}, "N": {"i": "2"}}}, {"name": "g_synthesis/256x256/Conv0_up/StyleMod/flatten/Reshape/shape", "op": "Pack", "input": ["g_synthesis/256x256/Conv0_up/StyleMod/flatten/strided_slice", "g_synthesis/4x4/Const/StyleMod/flatten/Reshape/shape/1"], "attr": {"T": {"type": "DT_INT32"}, "axis": {"i": "0"}, "N": {"i": "2"}}}, {"name": "g_synthesis/128x128/Conv1/StyleMod/flatten/Reshape/shape", "op": "Pack", "input": ["g_synthesis/128x128/Conv1/StyleMod/flatten/strided_slice", "g_synthesis/4x4/Const/StyleMod/flatten/Reshape/shape/1"], "attr": {"T": {"type": "DT_INT32"}, "axis": {"i": "0"}, "N": {"i": "2"}}}, {"name": "g_synthesis/128x128/Conv0_up/StyleMod/flatten/Reshape/shape", "op": "Pack", "input": ["g_synthesis/128x128/Conv0_up/StyleMod/flatten/strided_slice", "g_synthesis/4x4/Const/StyleMod/flatten/Reshape/shape/1"], "attr": {"T": {"type": "DT_INT32"}, "axis": {"i": "0"}, "N": {"i": "2"}}}, {"name": "g_synthesis/64x64/Conv1/StyleMod/flatten/Reshape/shape", "op": "Pack", "input": ["g_synthesis/64x64/Conv1/StyleMod/flatten/strided_slice", "g_synthesis/4x4/Const/StyleMod/flatten/Reshape/shape/1"], "attr": {"T": {"type": "DT_INT32"}, "axis": {"i": "0"}, "N": {"i": "2"}}}, {"name": "g_synthesis/64x64/Conv0_up/StyleMod/flatten/Reshape/shape", "op": "Pack", "input": ["g_synthesis/64x64/Conv0_up/StyleMod/flatten/strided_slice", "g_synthesis/4x4/Const/StyleMod/flatten/Reshape/shape/1"], "attr": {"T": {"type": "DT_INT32"}, "axis": {"i": "0"}, "N": {"i": "2"}}}, {"name": "g_synthesis/32x32/Conv1/StyleMod/flatten/Reshape/shape", "op": "Pack", "input": ["g_synthesis/32x32/Conv1/StyleMod/flatten/strided_slice", "g_synthesis/4x4/Const/StyleMod/flatten/Reshape/shape/1"], "attr": {"T": {"type": "DT_INT32"}, "axis": {"i": "0"}, "N": {"i": "2"}}}, {"name": "g_synthesis/32x32/Conv0_up/StyleMod/flatten/Reshape/shape", "op": "Pack", "input": ["g_synthesis/32x32/Conv0_up/StyleMod/flatten/strided_slice", "g_synthesis/4x4/Const/StyleMod/flatten/Reshape/shape/1"], "attr": {"T": {"type": "DT_INT32"}, "axis": {"i": "0"}, "N": {"i": "2"}}}, {"name": "g_synthesis/16x16/Conv1/StyleMod/flatten/Reshape/shape", "op": "Pack", "input": ["g_synthesis/16x16/Conv1/StyleMod/flatten/strided_slice", "g_synthesis/4x4/Const/StyleMod/flatten/Reshape/shape/1"], "attr": {"T": {"type": "DT_INT32"}, "axis": {"i": "0"}, "N": {"i": "2"}}}, {"name": "g_synthesis/16x16/Conv0_up/StyleMod/flatten/Reshape/shape", "op": "Pack", "input": ["g_synthesis/16x16/Conv0_up/StyleMod/flatten/strided_slice", "g_synthesis/4x4/Const/StyleMod/flatten/Reshape/shape/1"], "attr": {"T": {"type": "DT_INT32"}, "axis": {"i": "0"}, "N": {"i": "2"}}}, {"name": "g_synthesis/8x8/Conv1/StyleMod/flatten/Reshape/shape", "op": "Pack", "input": ["g_synthesis/8x8/Conv1/StyleMod/flatten/strided_slice", "g_synthesis/4x4/Const/StyleMod/flatten/Reshape/shape/1"], "attr": {"T": {"type": "DT_INT32"}, "axis": {"i": "0"}, "N": {"i": "2"}}}, {"name": "g_synthesis/8x8/Conv0_up/StyleMod/flatten/Reshape/shape", "op": "Pack", "input": ["g_synthesis/8x8/Conv0_up/StyleMod/flatten/strided_slice", "g_synthesis/4x4/Const/StyleMod/flatten/Reshape/shape/1"], "attr": {"T": {"type": "DT_INT32"}, "axis": {"i": "0"}, "N": {"i": "2"}}}, {"name": "g_synthesis/4x4/Conv/StyleMod/flatten/Reshape/shape", "op": "Pack", "input": ["g_synthesis/4x4/Conv/StyleMod/flatten/strided_slice", "g_synthesis/4x4/Const/StyleMod/flatten/Reshape/shape/1"], "attr": {"T": {"type": "DT_INT32"}, "axis": {"i": "0"}, "N": {"i": "2"}}}, {"name": "g_synthesis/4x4/Const/StyleMod/flatten/Reshape/shape", "op": "Pack", "input": ["g_synthesis/strided_slice_2", "g_synthesis/4x4/Const/StyleMod/flatten/Reshape/shape/1"], "attr": {"T": {"type": "DT_INT32"}, "axis": {"i": "0"}, "N": {"i": "2"}}}, {"name": "g_synthesis/4x4/Const/Tile/multiples", "op": "Pack", "input": ["g_synthesis/strided_slice_2", "g_synthesis/4x4/Const/Tile/multiples/1", "g_synthesis/4x4/Const/Tile/multiples/1", "g_synthesis/4x4/Const/Tile/multiples/1"], "attr": {"T": {"type": "DT_INT32"}, "axis": {"i": "0"}, "N": {"i": "4"}}}, {"name": "g_synthesis/512x512/Conv1/StyleMod/flatten/Reshape", "op": "Reshape", "input": ["g_synthesis/strided_slice_16", "g_synthesis/512x512/Conv1/StyleMod/flatten/Reshape/shape"], "attr": {"T": {"type": "DT_FLOAT"}, "Tshape": {"type": "DT_INT32"}}}, {"name": "g_synthesis/512x512/Conv0_up/StyleMod/flatten/Reshape", "op": "Reshape", "input": ["g_synthesis/strided_slice_15", "g_synthesis/512x512/Conv0_up/StyleMod/flatten/Reshape/shape"], "attr": {"T": {"type": "DT_FLOAT"}, "Tshape": {"type": "DT_INT32"}}}, {"name": "g_synthesis/256x256/Conv1/StyleMod/flatten/Reshape", "op": "Reshape", "input": ["g_synthesis/strided_slice_14", "g_synthesis/256x256/Conv1/StyleMod/flatten/Reshape/shape"], "attr": {"T": {"type": "DT_FLOAT"}, "Tshape": {"type": "DT_INT32"}}}, {"name": "g_synthesis/256x256/Conv0_up/StyleMod/flatten/Reshape", "op": "Reshape", "input": ["g_synthesis/strided_slice_13", "g_synthesis/256x256/Conv0_up/StyleMod/flatten/Reshape/shape"], "attr": {"T": {"type": "DT_FLOAT"}, "Tshape": {"type": "DT_INT32"}}}, {"name": "g_synthesis/128x128/Conv1/StyleMod/flatten/Reshape", "op": "Reshape", "input": ["g_synthesis/strided_slice_12", "g_synthesis/128x128/Conv1/StyleMod/flatten/Reshape/shape"], "attr": {"T": {"type": "DT_FLOAT"}, "Tshape": {"type": "DT_INT32"}}}, {"name": "g_synthesis/128x128/Conv0_up/StyleMod/flatten/Reshape", "op": "Reshape", "input": ["g_synthesis/strided_slice_11", "g_synthesis/128x128/Conv0_up/StyleMod/flatten/Reshape/shape"], "attr": {"T": {"type": "DT_FLOAT"}, "Tshape": {"type": "DT_INT32"}}}, {"name": "g_synthesis/64x64/Conv1/StyleMod/flatten/Reshape", "op": "Reshape", "input": ["g_synthesis/strided_slice_10", "g_synthesis/64x64/Conv1/StyleMod/flatten/Reshape/shape"], "attr": {"T": {"type": "DT_FLOAT"}, "Tshape": {"type": "DT_INT32"}}}, {"name": "g_synthesis/64x64/Conv0_up/StyleMod/flatten/Reshape", "op": "Reshape", "input": ["g_synthesis/strided_slice_9", "g_synthesis/64x64/Conv0_up/StyleMod/flatten/Reshape/shape"], "attr": {"T": {"type": "DT_FLOAT"}, "Tshape": {"type": "DT_INT32"}}}, {"name": "g_synthesis/32x32/Conv1/StyleMod/flatten/Reshape", "op": "Reshape", "input": ["g_synthesis/strided_slice_8", "g_synthesis/32x32/Conv1/StyleMod/flatten/Reshape/shape"], "attr": {"T": {"type": "DT_FLOAT"}, "Tshape": {"type": "DT_INT32"}}}, {"name": "g_synthesis/32x32/Conv0_up/StyleMod/flatten/Reshape", "op": "Reshape", "input": ["g_synthesis/strided_slice_7", "g_synthesis/32x32/Conv0_up/StyleMod/flatten/Reshape/shape"], "attr": {"T": {"type": "DT_FLOAT"}, "Tshape": {"type": "DT_INT32"}}}, {"name": "g_synthesis/16x16/Conv1/StyleMod/flatten/Reshape", "op": "Reshape", "input": ["g_synthesis/strided_slice_6", "g_synthesis/16x16/Conv1/StyleMod/flatten/Reshape/shape"], "attr": {"T": {"type": "DT_FLOAT"}, "Tshape": {"type": "DT_INT32"}}}, {"name": "g_synthesis/16x16/Conv0_up/StyleMod/flatten/Reshape", "op": "Reshape", "input": ["g_synthesis/strided_slice_5", "g_synthesis/16x16/Conv0_up/StyleMod/flatten/Reshape/shape"], "attr": {"T": {"type": "DT_FLOAT"}, "Tshape": {"type": "DT_INT32"}}}, {"name": "g_synthesis/8x8/Conv1/StyleMod/flatten/Reshape", "op": "Reshape", "input": ["g_synthesis/strided_slice_4", "g_synthesis/8x8/Conv1/StyleMod/flatten/Reshape/shape"], "attr": {"T": {"type": "DT_FLOAT"}, "Tshape": {"type": "DT_INT32"}}}, {"name": "g_synthesis/8x8/Conv0_up/StyleMod/flatten/Reshape", "op": "Reshape", "input": ["g_synthesis/strided_slice_3", "g_synthesis/8x8/Conv0_up/StyleMod/flatten/Reshape/shape"], "attr": {"T": {"type": "DT_FLOAT"}, "Tshape": {"type": "DT_INT32"}}}, {"name": "g_synthesis/4x4/Conv/StyleMod/flatten/Reshape", "op": "Reshape", "input": ["g_synthesis/strided_slice_1", "g_synthesis/4x4/Conv/StyleMod/flatten/Reshape/shape"], "attr": {"T": {"type": "DT_FLOAT"}, "Tshape": {"type": "DT_INT32"}}}, {"name": "g_synthesis/4x4/Const/StyleMod/flatten/Reshape", "op": "Reshape", "input": ["g_synthesis/strided_slice", "g_synthesis/4x4/Const/StyleMod/flatten/Reshape/shape"], "attr": {"T": {"type": "DT_FLOAT"}, "Tshape": {"type": "DT_INT32"}}}, {"name": "g_synthesis/4x4/Const/Tile", "op": "Tile", "input": ["g_synthesis/4x4/Const/const", "g_synthesis/4x4/Const/Tile/multiples"], "attr": {"Tmultiples": {"type": "DT_INT32"}, "T": {"type": "DT_FLOAT"}}}, {"name": "g_synthesis/512x512/Conv1/StyleMod/MatMul", "op": "MatMul", "input": ["g_synthesis/512x512/Conv1/StyleMod/flatten/Reshape", "g_synthesis/512x512/Conv1/StyleMod/mul"], "attr": {"transpose_b": {"b": false}, "T": {"type": "DT_FLOAT"}, "transpose_a": {"b": false}}}, {"name": "g_synthesis/512x512/Conv0_up/StyleMod/MatMul", "op": "MatMul", "input": ["g_synthesis/512x512/Conv0_up/StyleMod/flatten/Reshape", "g_synthesis/512x512/Conv0_up/StyleMod/mul"], "attr": {"transpose_b": {"b": false}, "T": {"type": "DT_FLOAT"}, "transpose_a": {"b": false}}}, {"name": "g_synthesis/256x256/Conv1/StyleMod/MatMul", "op": "MatMul", "input": ["g_synthesis/256x256/Conv1/StyleMod/flatten/Reshape", "g_synthesis/256x256/Conv1/StyleMod/mul"], "attr": {"transpose_b": {"b": false}, "T": {"type": "DT_FLOAT"}, "transpose_a": {"b": false}}}, {"name": "g_synthesis/256x256/Conv0_up/StyleMod/MatMul", "op": "MatMul", "input": ["g_synthesis/256x256/Conv0_up/StyleMod/flatten/Reshape", "g_synthesis/256x256/Conv0_up/StyleMod/mul"], "attr": {"transpose_b": {"b": false}, "T": {"type": "DT_FLOAT"}, "transpose_a": {"b": false}}}, {"name": "g_synthesis/128x128/Conv1/StyleMod/MatMul", "op": "MatMul", "input": ["g_synthesis/128x128/Conv1/StyleMod/flatten/Reshape", "g_synthesis/128x128/Conv1/StyleMod/mul"], "attr": {"transpose_b": {"b": false}, "T": {"type": "DT_FLOAT"}, "transpose_a": {"b": false}}}, {"name": "g_synthesis/128x128/Conv0_up/StyleMod/MatMul", "op": "MatMul", "input": ["g_synthesis/128x128/Conv0_up/StyleMod/flatten/Reshape", "g_synthesis/128x128/Conv0_up/StyleMod/mul"], "attr": {"transpose_b": {"b": false}, "T": {"type": "DT_FLOAT"}, "transpose_a": {"b": false}}}, {"name": "g_synthesis/64x64/Conv1/StyleMod/MatMul", "op": "MatMul", "input": ["g_synthesis/64x64/Conv1/StyleMod/flatten/Reshape", "g_synthesis/64x64/Conv1/StyleMod/mul"], "attr": {"transpose_b": {"b": false}, "T": {"type": "DT_FLOAT"}, "transpose_a": {"b": false}}}, {"name": "g_synthesis/64x64/Conv0_up/StyleMod/MatMul", "op": "MatMul", "input": ["g_synthesis/64x64/Conv0_up/StyleMod/flatten/Reshape", "g_synthesis/64x64/Conv0_up/StyleMod/mul"], "attr": {"transpose_b": {"b": false}, "T": {"type": "DT_FLOAT"}, "transpose_a": {"b": false}}}, {"name": "g_synthesis/32x32/Conv1/StyleMod/MatMul", "op": "MatMul", "input": ["g_synthesis/32x32/Conv1/StyleMod/flatten/Reshape", "g_synthesis/32x32/Conv1/StyleMod/mul"], "attr": {"transpose_b": {"b": false}, "T": {"type": "DT_FLOAT"}, "transpose_a": {"b": false}}}, {"name": "g_synthesis/32x32/Conv0_up/StyleMod/MatMul", "op": "MatMul", "input": ["g_synthesis/32x32/Conv0_up/StyleMod/flatten/Reshape", "g_synthesis/32x32/Conv0_up/StyleMod/mul"], "attr": {"transpose_b": {"b": false}, "T": {"type": "DT_FLOAT"}, "transpose_a": {"b": false}}}, {"name": "g_synthesis/16x16/Conv1/StyleMod/MatMul", "op": "MatMul", "input": ["g_synthesis/16x16/Conv1/StyleMod/flatten/Reshape", "g_synthesis/16x16/Conv1/StyleMod/mul"], "attr": {"transpose_b": {"b": false}, "T": {"type": "DT_FLOAT"}, "transpose_a": {"b": false}}}, {"name": "g_synthesis/16x16/Conv0_up/StyleMod/MatMul", "op": "MatMul", "input": ["g_synthesis/16x16/Conv0_up/StyleMod/flatten/Reshape", "g_synthesis/16x16/Conv0_up/StyleMod/mul"], "attr": {"transpose_b": {"b": false}, "T": {"type": "DT_FLOAT"}, "transpose_a": {"b": false}}}, {"name": "g_synthesis/8x8/Conv1/StyleMod/MatMul", "op": "MatMul", "input": ["g_synthesis/8x8/Conv1/StyleMod/flatten/Reshape", "g_synthesis/8x8/Conv1/StyleMod/mul"], "attr": {"transpose_b": {"b": false}, "T": {"type": "DT_FLOAT"}, "transpose_a": {"b": false}}}, {"name": "g_synthesis/8x8/Conv0_up/StyleMod/MatMul", "op": "MatMul", "input": ["g_synthesis/8x8/Conv0_up/StyleMod/flatten/Reshape", "g_synthesis/8x8/Conv0_up/StyleMod/mul"], "attr": {"transpose_b": {"b": false}, "T": {"type": "DT_FLOAT"}, "transpose_a": {"b": false}}}, {"name": "g_synthesis/4x4/Conv/StyleMod/MatMul", "op": "MatMul", "input": ["g_synthesis/4x4/Conv/StyleMod/flatten/Reshape", "g_synthesis/4x4/Conv/StyleMod/mul"], "attr": {"transpose_b": {"b": false}, "T": {"type": "DT_FLOAT"}, "transpose_a": {"b": false}}}, {"name": "g_synthesis/4x4/Const/StyleMod/MatMul", "op": "MatMul", "input": ["g_synthesis/4x4/Const/StyleMod/flatten/Reshape", "g_synthesis/4x4/Const/StyleMod/mul"], "attr": {"transpose_b": {"b": false}, "T": {"type": "DT_FLOAT"}, "transpose_a": {"b": false}}}, {"name": "g_synthesis/4x4/Const/Noise/Shape", "op": "Shape", "input": ["g_synthesis/4x4/Const/Tile"], "attr": {"T": {"type": "DT_FLOAT"}, "out_type": {"type": "DT_INT32"}}}, {"name": "g_synthesis/512x512/Conv1/StyleMod/add", "op": "Add", "input": ["g_synthesis/512x512/Conv1/StyleMod/MatMul", "g_synthesis/512x512/Conv1/StyleMod/mul_1"], "attr": {"T": {"type": "DT_FLOAT"}}}, {"name": "g_synthesis/512x512/Conv0_up/StyleMod/add", "op": "Add", "input": ["g_synthesis/512x512/Conv0_up/StyleMod/MatMul", "g_synthesis/512x512/Conv0_up/StyleMod/mul_1"], "attr": {"T": {"type": "DT_FLOAT"}}}, {"name": "g_synthesis/256x256/Conv1/StyleMod/add", "op": "Add", "input": ["g_synthesis/256x256/Conv1/StyleMod/MatMul", "g_synthesis/256x256/Conv1/StyleMod/mul_1"], "attr": {"T": {"type": "DT_FLOAT"}}}, {"name": "g_synthesis/256x256/Conv0_up/StyleMod/add", "op": "Add", "input": ["g_synthesis/256x256/Conv0_up/StyleMod/MatMul", "g_synthesis/256x256/Conv0_up/StyleMod/mul_1"], "attr": {"T": {"type": "DT_FLOAT"}}}, {"name": "g_synthesis/128x128/Conv1/StyleMod/add", "op": "Add", "input": ["g_synthesis/128x128/Conv1/StyleMod/MatMul", "g_synthesis/128x128/Conv1/StyleMod/mul_1"], "attr": {"T": {"type": "DT_FLOAT"}}}, {"name": "g_synthesis/128x128/Conv0_up/StyleMod/add", "op": "Add", "input": ["g_synthesis/128x128/Conv0_up/StyleMod/MatMul", "g_synthesis/128x128/Conv0_up/StyleMod/mul_1"], "attr": {"T": {"type": "DT_FLOAT"}}}, {"name": "g_synthesis/64x64/Conv1/StyleMod/add", "op": "Add", "input": ["g_synthesis/64x64/Conv1/StyleMod/MatMul", "g_synthesis/64x64/Conv1/StyleMod/mul_1"], "attr": {"T": {"type": "DT_FLOAT"}}}, {"name": "g_synthesis/64x64/Conv0_up/StyleMod/add", "op": "Add", "input": ["g_synthesis/64x64/Conv0_up/StyleMod/MatMul", "g_synthesis/64x64/Conv0_up/StyleMod/mul_1"], "attr": {"T": {"type": "DT_FLOAT"}}}, {"name": "g_synthesis/32x32/Conv1/StyleMod/add", "op": "Add", "input": ["g_synthesis/32x32/Conv1/StyleMod/MatMul", "g_synthesis/32x32/Conv1/StyleMod/mul_1"], "attr": {"T": {"type": "DT_FLOAT"}}}, {"name": "g_synthesis/32x32/Conv0_up/StyleMod/add", "op": "Add", "input": ["g_synthesis/32x32/Conv0_up/StyleMod/MatMul", "g_synthesis/32x32/Conv0_up/StyleMod/mul_1"], "attr": {"T": {"type": "DT_FLOAT"}}}, {"name": "g_synthesis/16x16/Conv1/StyleMod/add", "op": "Add", "input": ["g_synthesis/16x16/Conv1/StyleMod/MatMul", "g_synthesis/16x16/Conv1/StyleMod/mul_1"], "attr": {"T": {"type": "DT_FLOAT"}}}, {"name": "g_synthesis/16x16/Conv0_up/StyleMod/add", "op": "Add", "input": ["g_synthesis/16x16/Conv0_up/StyleMod/MatMul", "g_synthesis/16x16/Conv0_up/StyleMod/mul_1"], "attr": {"T": {"type": "DT_FLOAT"}}}, {"name": "g_synthesis/8x8/Conv1/StyleMod/add", "op": "Add", "input": ["g_synthesis/8x8/Conv1/StyleMod/MatMul", "g_synthesis/8x8/Conv1/StyleMod/mul_1"], "attr": {"T": {"type": "DT_FLOAT"}}}, {"name": "g_synthesis/8x8/Conv0_up/StyleMod/add", "op": "Add", "input": ["g_synthesis/8x8/Conv0_up/StyleMod/MatMul", "g_synthesis/8x8/Conv0_up/StyleMod/mul_1"], "attr": {"T": {"type": "DT_FLOAT"}}}, {"name": "g_synthesis/4x4/Conv/StyleMod/add", "op": "Add", "input": ["g_synthesis/4x4/Conv/StyleMod/MatMul", "g_synthesis/4x4/Conv/StyleMod/mul_1"], "attr": {"T": {"type": "DT_FLOAT"}}}, {"name": "g_synthesis/4x4/Const/StyleMod/add", "op": "Add", "input": ["g_synthesis/4x4/Const/StyleMod/MatMul", "g_synthesis/4x4/Const/StyleMod/mul_1"], "attr": {"T": {"type": "DT_FLOAT"}}}, {"name": "g_synthesis/4x4/Const/Noise/strided_slice", "op": "StridedSlice", "input": ["g_synthesis/4x4/Const/Noise/Shape", "g_synthesis/512x512/Conv0_up/strided_slice_4/stack", "g_synthesis/512x512/Conv0_up/strided_slice_4/stack_1", "g_synthesis/512x512/Conv0_up/strided_slice_4/stack_1"], "attr": {"T": {"type": "DT_INT32"}, "Index": {"type": "DT_INT32"}, "shrink_axis_mask": {"i": "1"}, "begin_mask": {"i": "0"}, "ellipsis_mask": {"i": "0"}, "new_axis_mask": {"i": "0"}, "end_mask": {"i": "0"}}}, {"name": "g_synthesis/512x512/Conv1/StyleMod/Reshape", "op": "Reshape", "input": ["g_synthesis/512x512/Conv1/StyleMod/add", "g_synthesis/512x512/Conv0_up/StyleMod/Reshape/shape"], "attr": {"T": {"type": "DT_FLOAT"}, "Tshape": {"type": "DT_INT32"}}}, {"name": "g_synthesis/512x512/Conv0_up/StyleMod/Reshape", "op": "Reshape", "input": ["g_synthesis/512x512/Conv0_up/StyleMod/add", "g_synthesis/512x512/Conv0_up/StyleMod/Reshape/shape"], "attr": {"T": {"type": "DT_FLOAT"}, "Tshape": {"type": "DT_INT32"}}}, {"name": "g_synthesis/256x256/Conv1/StyleMod/Reshape", "op": "Reshape", "input": ["g_synthesis/256x256/Conv1/StyleMod/add", "g_synthesis/256x256/Conv0_up/StyleMod/Reshape/shape"], "attr": {"T": {"type": "DT_FLOAT"}, "Tshape": {"type": "DT_INT32"}}}, {"name": "g_synthesis/256x256/Conv0_up/StyleMod/Reshape", "op": "Reshape", "input": ["g_synthesis/256x256/Conv0_up/StyleMod/add", "g_synthesis/256x256/Conv0_up/StyleMod/Reshape/shape"], "attr": {"T": {"type": "DT_FLOAT"}, "Tshape": {"type": "DT_INT32"}}}, {"name": "g_synthesis/128x128/Conv1/StyleMod/Reshape", "op": "Reshape", "input": ["g_synthesis/128x128/Conv1/StyleMod/add", "g_synthesis/128x128/Conv0_up/StyleMod/Reshape/shape"], "attr": {"T": {"type": "DT_FLOAT"}, "Tshape": {"type": "DT_INT32"}}}, {"name": "g_synthesis/128x128/Conv0_up/StyleMod/Reshape", "op": "Reshape", "input": ["g_synthesis/128x128/Conv0_up/StyleMod/add", "g_synthesis/128x128/Conv0_up/StyleMod/Reshape/shape"], "attr": {"T": {"type": "DT_FLOAT"}, "Tshape": {"type": "DT_INT32"}}}, {"name": "g_synthesis/64x64/Conv1/StyleMod/Reshape", "op": "Reshape", "input": ["g_synthesis/64x64/Conv1/StyleMod/add", "g_synthesis/64x64/Conv0_up/StyleMod/Reshape/shape"], "attr": {"T": {"type": "DT_FLOAT"}, "Tshape": {"type": "DT_INT32"}}}, {"name": "g_synthesis/64x64/Conv0_up/StyleMod/Reshape", "op": "Reshape", "input": ["g_synthesis/64x64/Conv0_up/StyleMod/add", "g_synthesis/64x64/Conv0_up/StyleMod/Reshape/shape"], "attr": {"T": {"type": "DT_FLOAT"}, "Tshape": {"type": "DT_INT32"}}}, {"name": "g_synthesis/32x32/Conv1/StyleMod/Reshape", "op": "Reshape", "input": ["g_synthesis/32x32/Conv1/StyleMod/add", "g_synthesis/4x4/Const/StyleMod/Reshape/shape"], "attr": {"T": {"type": "DT_FLOAT"}, "Tshape": {"type": "DT_INT32"}}}, {"name": "g_synthesis/32x32/Conv0_up/StyleMod/Reshape", "op": "Reshape", "input": ["g_synthesis/32x32/Conv0_up/StyleMod/add", "g_synthesis/4x4/Const/StyleMod/Reshape/shape"], "attr": {"T": {"type": "DT_FLOAT"}, "Tshape": {"type": "DT_INT32"}}}, {"name": "g_synthesis/16x16/Conv1/StyleMod/Reshape", "op": "Reshape", "input": ["g_synthesis/16x16/Conv1/StyleMod/add", "g_synthesis/4x4/Const/StyleMod/Reshape/shape"], "attr": {"T": {"type": "DT_FLOAT"}, "Tshape": {"type": "DT_INT32"}}}, {"name": "g_synthesis/16x16/Conv0_up/StyleMod/Reshape", "op": "Reshape", "input": ["g_synthesis/16x16/Conv0_up/StyleMod/add", "g_synthesis/4x4/Const/StyleMod/Reshape/shape"], "attr": {"T": {"type": "DT_FLOAT"}, "Tshape": {"type": "DT_INT32"}}}, {"name": "g_synthesis/8x8/Conv1/StyleMod/Reshape", "op": "Reshape", "input": ["g_synthesis/8x8/Conv1/StyleMod/add", "g_synthesis/4x4/Const/StyleMod/Reshape/shape"], "attr": {"T": {"type": "DT_FLOAT"}, "Tshape": {"type": "DT_INT32"}}}, {"name": "g_synthesis/8x8/Conv0_up/StyleMod/Reshape", "op": "Reshape", "input": ["g_synthesis/8x8/Conv0_up/StyleMod/add", "g_synthesis/4x4/Const/StyleMod/Reshape/shape"], "attr": {"T": {"type": "DT_FLOAT"}, "Tshape": {"type": "DT_INT32"}}}, {"name": "g_synthesis/4x4/Conv/StyleMod/Reshape", "op": "Reshape", "input": ["g_synthesis/4x4/Conv/StyleMod/add", "g_synthesis/4x4/Const/StyleMod/Reshape/shape"], "attr": {"T": {"type": "DT_FLOAT"}, "Tshape": {"type": "DT_INT32"}}}, {"name": "g_synthesis/4x4/Const/StyleMod/Reshape", "op": "Reshape", "input": ["g_synthesis/4x4/Const/StyleMod/add", "g_synthesis/4x4/Const/StyleMod/Reshape/shape"], "attr": {"T": {"type": "DT_FLOAT"}, "Tshape": {"type": "DT_INT32"}}}, {"name": "g_synthesis/4x4/Const/Noise/random_uniform/shape", "op": "Pack", "input": ["g_synthesis/4x4/Const/Noise/strided_slice", "g_synthesis/4x4/Const/Tile/multiples/1", "g_synthesis/4x4/Const/Noise/random_uniform/shape/2", "g_synthesis/4x4/Const/Noise/random_uniform/shape/2"], "attr": {"T": {"type": "DT_INT32"}, "axis": {"i": "0"}, "N": {"i": "4"}}}, {"name": "g_synthesis/512x512/Conv1/StyleMod/strided_slice_1", "op": "StridedSlice", "input": ["g_synthesis/512x512/Conv1/StyleMod/Reshape", "g_synthesis/4x4/Const/StyleMod/strided_slice/stack_1", "g_synthesis/4x4/Const/StyleMod/strided_slice_1/stack_1", "g_synthesis/4x4/Const/StyleMod/strided_slice/stack_2"], "attr": {"T": {"type": "DT_FLOAT"}, "Index": {"type": "DT_INT32"}, "shrink_axis_mask": {"i": "2"}, "begin_mask": {"i": "1"}, "ellipsis_mask": {"i": "0"}, "new_axis_mask": {"i": "0"}, "end_mask": {"i": "1"}}}, {"name": "g_synthesis/512x512/Conv1/StyleMod/strided_slice", "op": "StridedSlice", "input": ["g_synthesis/512x512/Conv1/StyleMod/Reshape", "g_synthesis/4x4/Const/StyleMod/strided_slice/stack", "g_synthesis/4x4/Const/StyleMod/strided_slice/stack_1", "g_synthesis/4x4/Const/StyleMod/strided_slice/stack_2"], "attr": {"T": {"type": "DT_FLOAT"}, "Index": {"type": "DT_INT32"}, "shrink_axis_mask": {"i": "2"}, "begin_mask": {"i": "1"}, "ellipsis_mask": {"i": "0"}, "new_axis_mask": {"i": "0"}, "end_mask": {"i": "1"}}}, {"name": "g_synthesis/512x512/Conv0_up/StyleMod/strided_slice_1", "op": "StridedSlice", "input": ["g_synthesis/512x512/Conv0_up/StyleMod/Reshape", "g_synthesis/4x4/Const/StyleMod/strided_slice/stack_1", "g_synthesis/4x4/Const/StyleMod/strided_slice_1/stack_1", "g_synthesis/4x4/Const/StyleMod/strided_slice/stack_2"], "attr": {"T": {"type": "DT_FLOAT"}, "Index": {"type": "DT_INT32"}, "shrink_axis_mask": {"i": "2"}, "begin_mask": {"i": "1"}, "ellipsis_mask": {"i": "0"}, "new_axis_mask": {"i": "0"}, "end_mask": {"i": "1"}}}, {"name": "g_synthesis/512x512/Conv0_up/StyleMod/strided_slice", "op": "StridedSlice", "input": ["g_synthesis/512x512/Conv0_up/StyleMod/Reshape", "g_synthesis/4x4/Const/StyleMod/strided_slice/stack", "g_synthesis/4x4/Const/StyleMod/strided_slice/stack_1", "g_synthesis/4x4/Const/StyleMod/strided_slice/stack_2"], "attr": {"T": {"type": "DT_FLOAT"}, "Index": {"type": "DT_INT32"}, "shrink_axis_mask": {"i": "2"}, "begin_mask": {"i": "1"}, "ellipsis_mask": {"i": "0"}, "new_axis_mask": {"i": "0"}, "end_mask": {"i": "1"}}}, {"name": "g_synthesis/256x256/Conv1/StyleMod/strided_slice_1", "op": "StridedSlice", "input": ["g_synthesis/256x256/Conv1/StyleMod/Reshape", "g_synthesis/4x4/Const/StyleMod/strided_slice/stack_1", "g_synthesis/4x4/Const/StyleMod/strided_slice_1/stack_1", "g_synthesis/4x4/Const/StyleMod/strided_slice/stack_2"], "attr": {"T": {"type": "DT_FLOAT"}, "Index": {"type": "DT_INT32"}, "shrink_axis_mask": {"i": "2"}, "begin_mask": {"i": "1"}, "ellipsis_mask": {"i": "0"}, "new_axis_mask": {"i": "0"}, "end_mask": {"i": "1"}}}, {"name": "g_synthesis/256x256/Conv1/StyleMod/strided_slice", "op": "StridedSlice", "input": ["g_synthesis/256x256/Conv1/StyleMod/Reshape", "g_synthesis/4x4/Const/StyleMod/strided_slice/stack", "g_synthesis/4x4/Const/StyleMod/strided_slice/stack_1", "g_synthesis/4x4/Const/StyleMod/strided_slice/stack_2"], "attr": {"T": {"type": "DT_FLOAT"}, "Index": {"type": "DT_INT32"}, "shrink_axis_mask": {"i": "2"}, "begin_mask": {"i": "1"}, "ellipsis_mask": {"i": "0"}, "new_axis_mask": {"i": "0"}, "end_mask": {"i": "1"}}}, {"name": "g_synthesis/256x256/Conv0_up/StyleMod/strided_slice_1", "op": "StridedSlice", "input": ["g_synthesis/256x256/Conv0_up/StyleMod/Reshape", "g_synthesis/4x4/Const/StyleMod/strided_slice/stack_1", "g_synthesis/4x4/Const/StyleMod/strided_slice_1/stack_1", "g_synthesis/4x4/Const/StyleMod/strided_slice/stack_2"], "attr": {"T": {"type": "DT_FLOAT"}, "Index": {"type": "DT_INT32"}, "shrink_axis_mask": {"i": "2"}, "begin_mask": {"i": "1"}, "ellipsis_mask": {"i": "0"}, "new_axis_mask": {"i": "0"}, "end_mask": {"i": "1"}}}, {"name": "g_synthesis/256x256/Conv0_up/StyleMod/strided_slice", "op": "StridedSlice", "input": ["g_synthesis/256x256/Conv0_up/StyleMod/Reshape", "g_synthesis/4x4/Const/StyleMod/strided_slice/stack", "g_synthesis/4x4/Const/StyleMod/strided_slice/stack_1", "g_synthesis/4x4/Const/StyleMod/strided_slice/stack_2"], "attr": {"T": {"type": "DT_FLOAT"}, "Index": {"type": "DT_INT32"}, "shrink_axis_mask": {"i": "2"}, "begin_mask": {"i": "1"}, "ellipsis_mask": {"i": "0"}, "new_axis_mask": {"i": "0"}, "end_mask": {"i": "1"}}}, {"name": "g_synthesis/128x128/Conv1/StyleMod/strided_slice_1", "op": "StridedSlice", "input": ["g_synthesis/128x128/Conv1/StyleMod/Reshape", "g_synthesis/4x4/Const/StyleMod/strided_slice/stack_1", "g_synthesis/4x4/Const/StyleMod/strided_slice_1/stack_1", "g_synthesis/4x4/Const/StyleMod/strided_slice/stack_2"], "attr": {"T": {"type": "DT_FLOAT"}, "Index": {"type": "DT_INT32"}, "shrink_axis_mask": {"i": "2"}, "begin_mask": {"i": "1"}, "ellipsis_mask": {"i": "0"}, "new_axis_mask": {"i": "0"}, "end_mask": {"i": "1"}}}, {"name": "g_synthesis/128x128/Conv1/StyleMod/strided_slice", "op": "StridedSlice", "input": ["g_synthesis/128x128/Conv1/StyleMod/Reshape", "g_synthesis/4x4/Const/StyleMod/strided_slice/stack", "g_synthesis/4x4/Const/StyleMod/strided_slice/stack_1", "g_synthesis/4x4/Const/StyleMod/strided_slice/stack_2"], "attr": {"T": {"type": "DT_FLOAT"}, "Index": {"type": "DT_INT32"}, "shrink_axis_mask": {"i": "2"}, "begin_mask": {"i": "1"}, "ellipsis_mask": {"i": "0"}, "new_axis_mask": {"i": "0"}, "end_mask": {"i": "1"}}}, {"name": "g_synthesis/128x128/Conv0_up/StyleMod/strided_slice_1", "op": "StridedSlice", "input": ["g_synthesis/128x128/Conv0_up/StyleMod/Reshape", "g_synthesis/4x4/Const/StyleMod/strided_slice/stack_1", "g_synthesis/4x4/Const/StyleMod/strided_slice_1/stack_1", "g_synthesis/4x4/Const/StyleMod/strided_slice/stack_2"], "attr": {"T": {"type": "DT_FLOAT"}, "Index": {"type": "DT_INT32"}, "shrink_axis_mask": {"i": "2"}, "begin_mask": {"i": "1"}, "ellipsis_mask": {"i": "0"}, "new_axis_mask": {"i": "0"}, "end_mask": {"i": "1"}}}, {"name": "g_synthesis/128x128/Conv0_up/StyleMod/strided_slice", "op": "StridedSlice", "input": ["g_synthesis/128x128/Conv0_up/StyleMod/Reshape", "g_synthesis/4x4/Const/StyleMod/strided_slice/stack", "g_synthesis/4x4/Const/StyleMod/strided_slice/stack_1", "g_synthesis/4x4/Const/StyleMod/strided_slice/stack_2"], "attr": {"T": {"type": "DT_FLOAT"}, "Index": {"type": "DT_INT32"}, "shrink_axis_mask": {"i": "2"}, "begin_mask": {"i": "1"}, "ellipsis_mask": {"i": "0"}, "new_axis_mask": {"i": "0"}, "end_mask": {"i": "1"}}}, {"name": "g_synthesis/64x64/Conv1/StyleMod/strided_slice_1", "op": "StridedSlice", "input": ["g_synthesis/64x64/Conv1/StyleMod/Reshape", "g_synthesis/4x4/Const/StyleMod/strided_slice/stack_1", "g_synthesis/4x4/Const/StyleMod/strided_slice_1/stack_1", "g_synthesis/4x4/Const/StyleMod/strided_slice/stack_2"], "attr": {"T": {"type": "DT_FLOAT"}, "Index": {"type": "DT_INT32"}, "shrink_axis_mask": {"i": "2"}, "begin_mask": {"i": "1"}, "ellipsis_mask": {"i": "0"}, "new_axis_mask": {"i": "0"}, "end_mask": {"i": "1"}}}, {"name": "g_synthesis/64x64/Conv1/StyleMod/strided_slice", "op": "StridedSlice", "input": ["g_synthesis/64x64/Conv1/StyleMod/Reshape", "g_synthesis/4x4/Const/StyleMod/strided_slice/stack", "g_synthesis/4x4/Const/StyleMod/strided_slice/stack_1", "g_synthesis/4x4/Const/StyleMod/strided_slice/stack_2"], "attr": {"T": {"type": "DT_FLOAT"}, "Index": {"type": "DT_INT32"}, "shrink_axis_mask": {"i": "2"}, "begin_mask": {"i": "1"}, "ellipsis_mask": {"i": "0"}, "new_axis_mask": {"i": "0"}, "end_mask": {"i": "1"}}}, {"name": "g_synthesis/64x64/Conv0_up/StyleMod/strided_slice_1", "op": "StridedSlice", "input": ["g_synthesis/64x64/Conv0_up/StyleMod/Reshape", "g_synthesis/4x4/Const/StyleMod/strided_slice/stack_1", "g_synthesis/4x4/Const/StyleMod/strided_slice_1/stack_1", "g_synthesis/4x4/Const/StyleMod/strided_slice/stack_2"], "attr": {"T": {"type": "DT_FLOAT"}, "Index": {"type": "DT_INT32"}, "shrink_axis_mask": {"i": "2"}, "begin_mask": {"i": "1"}, "ellipsis_mask": {"i": "0"}, "new_axis_mask": {"i": "0"}, "end_mask": {"i": "1"}}}, {"name": "g_synthesis/64x64/Conv0_up/StyleMod/strided_slice", "op": "StridedSlice", "input": ["g_synthesis/64x64/Conv0_up/StyleMod/Reshape", "g_synthesis/4x4/Const/StyleMod/strided_slice/stack", "g_synthesis/4x4/Const/StyleMod/strided_slice/stack_1", "g_synthesis/4x4/Const/StyleMod/strided_slice/stack_2"], "attr": {"T": {"type": "DT_FLOAT"}, "Index": {"type": "DT_INT32"}, "shrink_axis_mask": {"i": "2"}, "begin_mask": {"i": "1"}, "ellipsis_mask": {"i": "0"}, "new_axis_mask": {"i": "0"}, "end_mask": {"i": "1"}}}, {"name": "g_synthesis/32x32/Conv1/StyleMod/strided_slice_1", "op": "StridedSlice", "input": ["g_synthesis/32x32/Conv1/StyleMod/Reshape", "g_synthesis/4x4/Const/StyleMod/strided_slice/stack_1", "g_synthesis/4x4/Const/StyleMod/strided_slice_1/stack_1", "g_synthesis/4x4/Const/StyleMod/strided_slice/stack_2"], "attr": {"T": {"type": "DT_FLOAT"}, "Index": {"type": "DT_INT32"}, "shrink_axis_mask": {"i": "2"}, "begin_mask": {"i": "1"}, "ellipsis_mask": {"i": "0"}, "new_axis_mask": {"i": "0"}, "end_mask": {"i": "1"}}}, {"name": "g_synthesis/32x32/Conv1/StyleMod/strided_slice", "op": "StridedSlice", "input": ["g_synthesis/32x32/Conv1/StyleMod/Reshape", "g_synthesis/4x4/Const/StyleMod/strided_slice/stack", "g_synthesis/4x4/Const/StyleMod/strided_slice/stack_1", "g_synthesis/4x4/Const/StyleMod/strided_slice/stack_2"], "attr": {"T": {"type": "DT_FLOAT"}, "Index": {"type": "DT_INT32"}, "shrink_axis_mask": {"i": "2"}, "begin_mask": {"i": "1"}, "ellipsis_mask": {"i": "0"}, "new_axis_mask": {"i": "0"}, "end_mask": {"i": "1"}}}, {"name": "g_synthesis/32x32/Conv0_up/StyleMod/strided_slice_1", "op": "StridedSlice", "input": ["g_synthesis/32x32/Conv0_up/StyleMod/Reshape", "g_synthesis/4x4/Const/StyleMod/strided_slice/stack_1", "g_synthesis/4x4/Const/StyleMod/strided_slice_1/stack_1", "g_synthesis/4x4/Const/StyleMod/strided_slice/stack_2"], "attr": {"T": {"type": "DT_FLOAT"}, "Index": {"type": "DT_INT32"}, "shrink_axis_mask": {"i": "2"}, "begin_mask": {"i": "1"}, "ellipsis_mask": {"i": "0"}, "new_axis_mask": {"i": "0"}, "end_mask": {"i": "1"}}}, {"name": "g_synthesis/32x32/Conv0_up/StyleMod/strided_slice", "op": "StridedSlice", "input": ["g_synthesis/32x32/Conv0_up/StyleMod/Reshape", "g_synthesis/4x4/Const/StyleMod/strided_slice/stack", "g_synthesis/4x4/Const/StyleMod/strided_slice/stack_1", "g_synthesis/4x4/Const/StyleMod/strided_slice/stack_2"], "attr": {"T": {"type": "DT_FLOAT"}, "Index": {"type": "DT_INT32"}, "shrink_axis_mask": {"i": "2"}, "begin_mask": {"i": "1"}, "ellipsis_mask": {"i": "0"}, "new_axis_mask": {"i": "0"}, "end_mask": {"i": "1"}}}, {"name": "g_synthesis/16x16/Conv1/StyleMod/strided_slice_1", "op": "StridedSlice", "input": ["g_synthesis/16x16/Conv1/StyleMod/Reshape", "g_synthesis/4x4/Const/StyleMod/strided_slice/stack_1", "g_synthesis/4x4/Const/StyleMod/strided_slice_1/stack_1", "g_synthesis/4x4/Const/StyleMod/strided_slice/stack_2"], "attr": {"T": {"type": "DT_FLOAT"}, "Index": {"type": "DT_INT32"}, "shrink_axis_mask": {"i": "2"}, "begin_mask": {"i": "1"}, "ellipsis_mask": {"i": "0"}, "new_axis_mask": {"i": "0"}, "end_mask": {"i": "1"}}}, {"name": "g_synthesis/16x16/Conv1/StyleMod/strided_slice", "op": "StridedSlice", "input": ["g_synthesis/16x16/Conv1/StyleMod/Reshape", "g_synthesis/4x4/Const/StyleMod/strided_slice/stack", "g_synthesis/4x4/Const/StyleMod/strided_slice/stack_1", "g_synthesis/4x4/Const/StyleMod/strided_slice/stack_2"], "attr": {"T": {"type": "DT_FLOAT"}, "Index": {"type": "DT_INT32"}, "shrink_axis_mask": {"i": "2"}, "begin_mask": {"i": "1"}, "ellipsis_mask": {"i": "0"}, "new_axis_mask": {"i": "0"}, "end_mask": {"i": "1"}}}, {"name": "g_synthesis/16x16/Conv0_up/StyleMod/strided_slice_1", "op": "StridedSlice", "input": ["g_synthesis/16x16/Conv0_up/StyleMod/Reshape", "g_synthesis/4x4/Const/StyleMod/strided_slice/stack_1", "g_synthesis/4x4/Const/StyleMod/strided_slice_1/stack_1", "g_synthesis/4x4/Const/StyleMod/strided_slice/stack_2"], "attr": {"T": {"type": "DT_FLOAT"}, "Index": {"type": "DT_INT32"}, "shrink_axis_mask": {"i": "2"}, "begin_mask": {"i": "1"}, "ellipsis_mask": {"i": "0"}, "new_axis_mask": {"i": "0"}, "end_mask": {"i": "1"}}}, {"name": "g_synthesis/16x16/Conv0_up/StyleMod/strided_slice", "op": "StridedSlice", "input": ["g_synthesis/16x16/Conv0_up/StyleMod/Reshape", "g_synthesis/4x4/Const/StyleMod/strided_slice/stack", "g_synthesis/4x4/Const/StyleMod/strided_slice/stack_1", "g_synthesis/4x4/Const/StyleMod/strided_slice/stack_2"], "attr": {"T": {"type": "DT_FLOAT"}, "Index": {"type": "DT_INT32"}, "shrink_axis_mask": {"i": "2"}, "begin_mask": {"i": "1"}, "ellipsis_mask": {"i": "0"}, "new_axis_mask": {"i": "0"}, "end_mask": {"i": "1"}}}, {"name": "g_synthesis/8x8/Conv1/StyleMod/strided_slice_1", "op": "StridedSlice", "input": ["g_synthesis/8x8/Conv1/StyleMod/Reshape", "g_synthesis/4x4/Const/StyleMod/strided_slice/stack_1", "g_synthesis/4x4/Const/StyleMod/strided_slice_1/stack_1", "g_synthesis/4x4/Const/StyleMod/strided_slice/stack_2"], "attr": {"T": {"type": "DT_FLOAT"}, "Index": {"type": "DT_INT32"}, "shrink_axis_mask": {"i": "2"}, "begin_mask": {"i": "1"}, "ellipsis_mask": {"i": "0"}, "new_axis_mask": {"i": "0"}, "end_mask": {"i": "1"}}}, {"name": "g_synthesis/8x8/Conv1/StyleMod/strided_slice", "op": "StridedSlice", "input": ["g_synthesis/8x8/Conv1/StyleMod/Reshape", "g_synthesis/4x4/Const/StyleMod/strided_slice/stack", "g_synthesis/4x4/Const/StyleMod/strided_slice/stack_1", "g_synthesis/4x4/Const/StyleMod/strided_slice/stack_2"], "attr": {"T": {"type": "DT_FLOAT"}, "Index": {"type": "DT_INT32"}, "shrink_axis_mask": {"i": "2"}, "begin_mask": {"i": "1"}, "ellipsis_mask": {"i": "0"}, "new_axis_mask": {"i": "0"}, "end_mask": {"i": "1"}}}, {"name": "g_synthesis/8x8/Conv0_up/StyleMod/strided_slice_1", "op": "StridedSlice", "input": ["g_synthesis/8x8/Conv0_up/StyleMod/Reshape", "g_synthesis/4x4/Const/StyleMod/strided_slice/stack_1", "g_synthesis/4x4/Const/StyleMod/strided_slice_1/stack_1", "g_synthesis/4x4/Const/StyleMod/strided_slice/stack_2"], "attr": {"T": {"type": "DT_FLOAT"}, "Index": {"type": "DT_INT32"}, "shrink_axis_mask": {"i": "2"}, "begin_mask": {"i": "1"}, "ellipsis_mask": {"i": "0"}, "new_axis_mask": {"i": "0"}, "end_mask": {"i": "1"}}}, {"name": "g_synthesis/8x8/Conv0_up/StyleMod/strided_slice", "op": "StridedSlice", "input": ["g_synthesis/8x8/Conv0_up/StyleMod/Reshape", "g_synthesis/4x4/Const/StyleMod/strided_slice/stack", "g_synthesis/4x4/Const/StyleMod/strided_slice/stack_1", "g_synthesis/4x4/Const/StyleMod/strided_slice/stack_2"], "attr": {"T": {"type": "DT_FLOAT"}, "Index": {"type": "DT_INT32"}, "shrink_axis_mask": {"i": "2"}, "begin_mask": {"i": "1"}, "ellipsis_mask": {"i": "0"}, "new_axis_mask": {"i": "0"}, "end_mask": {"i": "1"}}}, {"name": "g_synthesis/4x4/Conv/StyleMod/strided_slice_1", "op": "StridedSlice", "input": ["g_synthesis/4x4/Conv/StyleMod/Reshape", "g_synthesis/4x4/Const/StyleMod/strided_slice/stack_1", "g_synthesis/4x4/Const/StyleMod/strided_slice_1/stack_1", "g_synthesis/4x4/Const/StyleMod/strided_slice/stack_2"], "attr": {"T": {"type": "DT_FLOAT"}, "Index": {"type": "DT_INT32"}, "shrink_axis_mask": {"i": "2"}, "begin_mask": {"i": "1"}, "ellipsis_mask": {"i": "0"}, "new_axis_mask": {"i": "0"}, "end_mask": {"i": "1"}}}, {"name": "g_synthesis/4x4/Conv/StyleMod/strided_slice", "op": "StridedSlice", "input": ["g_synthesis/4x4/Conv/StyleMod/Reshape", "g_synthesis/4x4/Const/StyleMod/strided_slice/stack", "g_synthesis/4x4/Const/StyleMod/strided_slice/stack_1", "g_synthesis/4x4/Const/StyleMod/strided_slice/stack_2"], "attr": {"T": {"type": "DT_FLOAT"}, "Index": {"type": "DT_INT32"}, "shrink_axis_mask": {"i": "2"}, "begin_mask": {"i": "1"}, "ellipsis_mask": {"i": "0"}, "new_axis_mask": {"i": "0"}, "end_mask": {"i": "1"}}}, {"name": "g_synthesis/4x4/Const/StyleMod/strided_slice_1", "op": "StridedSlice", "input": ["g_synthesis/4x4/Const/StyleMod/Reshape", "g_synthesis/4x4/Const/StyleMod/strided_slice/stack_1", "g_synthesis/4x4/Const/StyleMod/strided_slice_1/stack_1", "g_synthesis/4x4/Const/StyleMod/strided_slice/stack_2"], "attr": {"T": {"type": "DT_FLOAT"}, "Index": {"type": "DT_INT32"}, "shrink_axis_mask": {"i": "2"}, "begin_mask": {"i": "1"}, "ellipsis_mask": {"i": "0"}, "new_axis_mask": {"i": "0"}, "end_mask": {"i": "1"}}}, {"name": "g_synthesis/4x4/Const/StyleMod/strided_slice", "op": "StridedSlice", "input": ["g_synthesis/4x4/Const/StyleMod/Reshape", "g_synthesis/4x4/Const/StyleMod/strided_slice/stack", "g_synthesis/4x4/Const/StyleMod/strided_slice/stack_1", "g_synthesis/4x4/Const/StyleMod/strided_slice/stack_2"], "attr": {"T": {"type": "DT_FLOAT"}, "Index": {"type": "DT_INT32"}, "shrink_axis_mask": {"i": "2"}, "begin_mask": {"i": "1"}, "ellipsis_mask": {"i": "0"}, "new_axis_mask": {"i": "0"}, "end_mask": {"i": "1"}}}, {"name": "g_synthesis/4x4/Const/Noise/random_uniform/RandomUniform", "op": "RandomUniform", "input": ["g_synthesis/4x4/Const/Noise/random_uniform/shape"], "attr": {"seed": {"i": "0"}, "T": {"type": "DT_INT32"}, "dtype": {"type": "DT_FLOAT"}, "seed2": {"i": "0"}}}, {"name": "g_synthesis/512x512/Conv1/StyleMod/add_1", "op": "Add", "input": ["g_synthesis/4x4/Const/Noise/random_uniform/sub", "g_synthesis/512x512/Conv1/StyleMod/strided_slice"], "attr": {"T": {"type": "DT_FLOAT"}}}, {"name": "g_synthesis/512x512/Conv0_up/StyleMod/add_1", "op": "Add", "input": ["g_synthesis/4x4/Const/Noise/random_uniform/sub", "g_synthesis/512x512/Conv0_up/StyleMod/strided_slice"], "attr": {"T": {"type": "DT_FLOAT"}}}, {"name": "g_synthesis/256x256/Conv1/StyleMod/add_1", "op": "Add", "input": ["g_synthesis/256x256/Conv1/StyleMod/strided_slice", "g_synthesis/4x4/Const/Noise/random_uniform/sub"], "attr": {"T": {"type": "DT_FLOAT"}}}, {"name": "g_synthesis/256x256/Conv0_up/StyleMod/add_1", "op": "Add", "input": ["g_synthesis/256x256/Conv0_up/StyleMod/strided_slice", "g_synthesis/4x4/Const/Noise/random_uniform/sub"], "attr": {"T": {"type": "DT_FLOAT"}}}, {"name": "g_synthesis/128x128/Conv1/StyleMod/add_1", "op": "Add", "input": ["g_synthesis/128x128/Conv1/StyleMod/strided_slice", "g_synthesis/4x4/Const/Noise/random_uniform/sub"], "attr": {"T": {"type": "DT_FLOAT"}}}, {"name": "g_synthesis/128x128/Conv0_up/StyleMod/add_1", "op": "Add", "input": ["g_synthesis/128x128/Conv0_up/StyleMod/strided_slice", "g_synthesis/4x4/Const/Noise/random_uniform/sub"], "attr": {"T": {"type": "DT_FLOAT"}}}, {"name": "g_synthesis/64x64/Conv1/StyleMod/add_1", "op": "Add", "input": ["g_synthesis/4x4/Const/Noise/random_uniform/sub", "g_synthesis/64x64/Conv1/StyleMod/strided_slice"], "attr": {"T": {"type": "DT_FLOAT"}}}, {"name": "g_synthesis/64x64/Conv0_up/StyleMod/add_1", "op": "Add", "input": ["g_synthesis/4x4/Const/Noise/random_uniform/sub", "g_synthesis/64x64/Conv0_up/StyleMod/strided_slice"], "attr": {"T": {"type": "DT_FLOAT"}}}, {"name": "g_synthesis/32x32/Conv1/StyleMod/add_1", "op": "Add", "input": ["g_synthesis/32x32/Conv1/StyleMod/strided_slice", "g_synthesis/4x4/Const/Noise/random_uniform/sub"], "attr": {"T": {"type": "DT_FLOAT"}}}, {"name": "g_synthesis/32x32/Conv0_up/StyleMod/add_1", "op": "Add", "input": ["g_synthesis/32x32/Conv0_up/StyleMod/strided_slice", "g_synthesis/4x4/Const/Noise/random_uniform/sub"], "attr": {"T": {"type": "DT_FLOAT"}}}, {"name": "g_synthesis/16x16/Conv1/StyleMod/add_1", "op": "Add", "input": ["g_synthesis/16x16/Conv1/StyleMod/strided_slice", "g_synthesis/4x4/Const/Noise/random_uniform/sub"], "attr": {"T": {"type": "DT_FLOAT"}}}, {"name": "g_synthesis/16x16/Conv0_up/StyleMod/add_1", "op": "Add", "input": ["g_synthesis/16x16/Conv0_up/StyleMod/strided_slice", "g_synthesis/4x4/Const/Noise/random_uniform/sub"], "attr": {"T": {"type": "DT_FLOAT"}}}, {"name": "g_synthesis/8x8/Conv1/StyleMod/add_1", "op": "Add", "input": ["g_synthesis/4x4/Const/Noise/random_uniform/sub", "g_synthesis/8x8/Conv1/StyleMod/strided_slice"], "attr": {"T": {"type": "DT_FLOAT"}}}, {"name": "g_synthesis/8x8/Conv0_up/StyleMod/add_1", "op": "Add", "input": ["g_synthesis/4x4/Const/Noise/random_uniform/sub", "g_synthesis/8x8/Conv0_up/StyleMod/strided_slice"], "attr": {"T": {"type": "DT_FLOAT"}}}, {"name": "g_synthesis/4x4/Conv/StyleMod/add_1", "op": "Add", "input": ["g_synthesis/4x4/Const/Noise/random_uniform/sub", "g_synthesis/4x4/Conv/StyleMod/strided_slice"], "attr": {"T": {"type": "DT_FLOAT"}}}, {"name": "g_synthesis/4x4/Const/StyleMod/add_1", "op": "Add", "input": ["g_synthesis/4x4/Const/Noise/random_uniform/sub", "g_synthesis/4x4/Const/StyleMod/strided_slice"], "attr": {"T": {"type": "DT_FLOAT"}}}, {"name": "g_synthesis/4x4/Const/Noise/mul", "op": "Mul", "input": ["g_synthesis/4x4/Const/Noise/Reshape", "g_synthesis/4x4/Const/Noise/random_uniform/RandomUniform"], "attr": {"T": {"type": "DT_FLOAT"}}}, {"name": "g_synthesis/4x4/Const/Noise/add", "op": "Add", "input": ["g_synthesis/4x4/Const/Noise/mul", "g_synthesis/4x4/Const/Reshape"], "attr": {"T": {"type": "DT_FLOAT"}}}, {"name": "g_synthesis/4x4/Const/add", "op": "Add", "input": ["g_synthesis/4x4/Const/Noise/add", "g_synthesis/4x4/Const/Tile"], "attr": {"T": {"type": "DT_FLOAT"}}}, {"name": "g_synthesis/4x4/Const/LeakyRelu", "op": "LeakyRelu", "input": ["g_synthesis/4x4/Const/add"], "attr": {"T": {"type": "DT_FLOAT"}, "alpha": {"f": 0.20000000298023224}}}, {"name": "g_synthesis/4x4/Const/InstanceNorm/Mean", "op": "Mean", "input": ["g_synthesis/4x4/Const/LeakyRelu", "g_synthesis/4x4/Const/InstanceNorm/Mean/reduction_indices"], "attr": {"keep_dims": {"b": true}, "Tidx": {"type": "DT_INT32"}, "T": {"type": "DT_FLOAT"}}}, {"name": "g_synthesis/4x4/Const/InstanceNorm/sub_1", "op": "Sub", "input": ["g_synthesis/4x4/Const/LeakyRelu", "g_synthesis/4x4/Const/InstanceNorm/Mean"], "attr": {"T": {"type": "DT_FLOAT"}}}, {"name": "g_synthesis/4x4/Const/InstanceNorm/Square", "op": "Square", "input": ["g_synthesis/4x4/Const/InstanceNorm/sub_1"], "attr": {"T": {"type": "DT_FLOAT"}}}, {"name": "g_synthesis/4x4/Const/InstanceNorm/Mean_1", "op": "Mean", "input": ["g_synthesis/4x4/Const/InstanceNorm/Square", "g_synthesis/4x4/Const/InstanceNorm/Mean/reduction_indices"], "attr": {"keep_dims": {"b": true}, "Tidx": {"type": "DT_INT32"}, "T": {"type": "DT_FLOAT"}}}, {"name": "g_synthesis/4x4/Const/InstanceNorm/add", "op": "Add", "input": ["g_synthesis/4x4/Const/InstanceNorm/Mean_1", "g_synthesis/4x4/Const/InstanceNorm/epsilon"], "attr": {"T": {"type": "DT_FLOAT"}}}, {"name": "g_synthesis/4x4/Const/InstanceNorm/Rsqrt", "op": "Rsqrt", "input": ["g_synthesis/4x4/Const/InstanceNorm/add"], "attr": {"T": {"type": "DT_FLOAT"}}}, {"name": "g_synthesis/4x4/Const/InstanceNorm/mul", "op": "Mul", "input": ["g_synthesis/4x4/Const/InstanceNorm/Rsqrt", "g_synthesis/4x4/Const/InstanceNorm/sub_1"], "attr": {"T": {"type": "DT_FLOAT"}}}, {"name": "g_synthesis/4x4/Const/StyleMod/mul_2", "op": "Mul", "input": ["g_synthesis/4x4/Const/InstanceNorm/mul", "g_synthesis/4x4/Const/StyleMod/add_1"], "attr": {"T": {"type": "DT_FLOAT"}}}, {"name": "g_synthesis/4x4/Const/StyleMod/add_2", "op": "Add", "input": ["g_synthesis/4x4/Const/StyleMod/mul_2", "g_synthesis/4x4/Const/StyleMod/strided_slice_1"], "attr": {"T": {"type": "DT_FLOAT"}}}, {"name": "g_synthesis/4x4/Conv/NCHW_to_NHWC", "op": "Transpose", "input": ["g_synthesis/4x4/Const/StyleMod/add_2", "g_synthesis/4x4_1/ToRGB/NCHW_to_NHWC/perm"], "attr": {"Tperm": {"type": "DT_INT32"}, "T": {"type": "DT_FLOAT"}}}, {"name": "g_synthesis/4x4/Conv/Conv2D", "op": "Conv2D", "input": ["g_synthesis/4x4/Conv/NCHW_to_NHWC", "g_synthesis/4x4/Conv/mul"], "attr": {"dilations": {"list": {"i": ["1", "1", "1", "1"]}}, "T": {"type": "DT_FLOAT"}, "data_format": {"s": "TkhXQw=="}, "strides": {"list": {"i": ["1", "1", "1", "1"]}}, "use_cudnn_on_gpu": {"b": true}, "explicit_paddings": {"list": {}}, "padding": {"s": "U0FNRQ=="}}}, {"name": "g_synthesis/4x4/Conv/NHWC_to_NCHW", "op": "Transpose", "input": ["g_synthesis/4x4/Conv/Conv2D", "g_synthesis/4x4_1/ToRGB/NHWC_to_NCHW/perm"], "attr": {"Tperm": {"type": "DT_INT32"}, "T": {"type": "DT_FLOAT"}}}, {"name": "g_synthesis/4x4/Conv/Noise/Shape", "op": "Shape", "input": ["g_synthesis/4x4/Conv/NHWC_to_NCHW"], "attr": {"T": {"type": "DT_FLOAT"}, "out_type": {"type": "DT_INT32"}}}, {"name": "g_synthesis/4x4/Conv/Noise/strided_slice", "op": "StridedSlice", "input": ["g_synthesis/4x4/Conv/Noise/Shape", "g_synthesis/512x512/Conv0_up/strided_slice_4/stack", "g_synthesis/512x512/Conv0_up/strided_slice_4/stack_1", "g_synthesis/512x512/Conv0_up/strided_slice_4/stack_1"], "attr": {"T": {"type": "DT_INT32"}, "Index": {"type": "DT_INT32"}, "shrink_axis_mask": {"i": "1"}, "begin_mask": {"i": "0"}, "ellipsis_mask": {"i": "0"}, "new_axis_mask": {"i": "0"}, "end_mask": {"i": "0"}}}, {"name": "g_synthesis/4x4/Conv/Noise/random_uniform/shape", "op": "Pack", "input": ["g_synthesis/4x4/Conv/Noise/strided_slice", "g_synthesis/4x4/Const/Tile/multiples/1", "g_synthesis/4x4/Const/Noise/random_uniform/shape/2", "g_synthesis/4x4/Const/Noise/random_uniform/shape/2"], "attr": {"T": {"type": "DT_INT32"}, "axis": {"i": "0"}, "N": {"i": "4"}}}, {"name": "g_synthesis/4x4/Conv/Noise/random_uniform/RandomUniform", "op": "RandomUniform", "input": ["g_synthesis/4x4/Conv/Noise/random_uniform/shape"], "attr": {"seed": {"i": "0"}, "T": {"type": "DT_INT32"}, "dtype": {"type": "DT_FLOAT"}, "seed2": {"i": "0"}}}, {"name": "g_synthesis/4x4/Conv/Noise/mul", "op": "Mul", "input": ["g_synthesis/4x4/Conv/Noise/Reshape", "g_synthesis/4x4/Conv/Noise/random_uniform/RandomUniform"], "attr": {"T": {"type": "DT_FLOAT"}}}, {"name": "g_synthesis/4x4/Conv/Noise/add", "op": "Add", "input": ["g_synthesis/4x4/Conv/Noise/mul", "g_synthesis/4x4/Conv/Reshape"], "attr": {"T": {"type": "DT_FLOAT"}}}, {"name": "g_synthesis/4x4/Conv/add", "op": "Add", "input": ["g_synthesis/4x4/Conv/NHWC_to_NCHW", "g_synthesis/4x4/Conv/Noise/add"], "attr": {"T": {"type": "DT_FLOAT"}}}, {"name": "g_synthesis/4x4/Conv/LeakyRelu", "op": "LeakyRelu", "input": ["g_synthesis/4x4/Conv/add"], "attr": {"T": {"type": "DT_FLOAT"}, "alpha": {"f": 0.20000000298023224}}}, {"name": "g_synthesis/4x4/Conv/InstanceNorm/Mean", "op": "Mean", "input": ["g_synthesis/4x4/Conv/LeakyRelu", "g_synthesis/4x4/Const/InstanceNorm/Mean/reduction_indices"], "attr": {"keep_dims": {"b": true}, "Tidx": {"type": "DT_INT32"}, "T": {"type": "DT_FLOAT"}}}, {"name": "g_synthesis/4x4/Conv/InstanceNorm/sub_1", "op": "Sub", "input": ["g_synthesis/4x4/Conv/LeakyRelu", "g_synthesis/4x4/Conv/InstanceNorm/Mean"], "attr": {"T": {"type": "DT_FLOAT"}}}, {"name": "g_synthesis/4x4/Conv/InstanceNorm/Square", "op": "Square", "input": ["g_synthesis/4x4/Conv/InstanceNorm/sub_1"], "attr": {"T": {"type": "DT_FLOAT"}}}, {"name": "g_synthesis/4x4/Conv/InstanceNorm/Mean_1", "op": "Mean", "input": ["g_synthesis/4x4/Conv/InstanceNorm/Square", "g_synthesis/4x4/Const/InstanceNorm/Mean/reduction_indices"], "attr": {"keep_dims": {"b": true}, "Tidx": {"type": "DT_INT32"}, "T": {"type": "DT_FLOAT"}}}, {"name": "g_synthesis/4x4/Conv/InstanceNorm/add", "op": "Add", "input": ["g_synthesis/4x4/Const/InstanceNorm/epsilon", "g_synthesis/4x4/Conv/InstanceNorm/Mean_1"], "attr": {"T": {"type": "DT_FLOAT"}}}, {"name": "g_synthesis/4x4/Conv/InstanceNorm/Rsqrt", "op": "Rsqrt", "input": ["g_synthesis/4x4/Conv/InstanceNorm/add"], "attr": {"T": {"type": "DT_FLOAT"}}}, {"name": "g_synthesis/4x4/Conv/InstanceNorm/mul", "op": "Mul", "input": ["g_synthesis/4x4/Conv/InstanceNorm/Rsqrt", "g_synthesis/4x4/Conv/InstanceNorm/sub_1"], "attr": {"T": {"type": "DT_FLOAT"}}}, {"name": "g_synthesis/4x4/Conv/StyleMod/mul_2", "op": "Mul", "input": ["g_synthesis/4x4/Conv/InstanceNorm/mul", "g_synthesis/4x4/Conv/StyleMod/add_1"], "attr": {"T": {"type": "DT_FLOAT"}}}, {"name": "g_synthesis/4x4/Conv/StyleMod/add_2", "op": "Add", "input": ["g_synthesis/4x4/Conv/StyleMod/mul_2", "g_synthesis/4x4/Conv/StyleMod/strided_slice_1"], "attr": {"T": {"type": "DT_FLOAT"}}}, {"name": "g_synthesis/8x8/Conv0_up/Reshape", "op": "Reshape", "input": ["g_synthesis/4x4/Conv/StyleMod/add_2", "g_synthesis/8x8/Conv0_up/Reshape/shape"], "attr": {"T": {"type": "DT_FLOAT"}, "Tshape": {"type": "DT_INT32"}}}, {"name": "g_synthesis/4x4_1/ToRGB/NCHW_to_NHWC", "op": "Transpose", "input": ["g_synthesis/4x4/Conv/StyleMod/add_2", "g_synthesis/4x4_1/ToRGB/NCHW_to_NHWC/perm"], "attr": {"Tperm": {"type": "DT_INT32"}, "T": {"type": "DT_FLOAT"}}}, {"name": "g_synthesis/8x8/Conv0_up/Tile", "op": "Tile", "input": ["g_synthesis/8x8/Conv0_up/Reshape", "g_synthesis/Tile/multiples"], "attr": {"Tmultiples": {"type": "DT_INT32"}, "T": {"type": "DT_FLOAT"}}}, {"name": "g_synthesis/4x4_1/ToRGB/Conv2D", "op": "Conv2D", "input": ["g_synthesis/4x4_1/ToRGB/NCHW_to_NHWC", "g_synthesis/4x4_1/ToRGB/mul"], "attr": {"dilations": {"list": {"i": ["1", "1", "1", "1"]}}, "T": {"type": "DT_FLOAT"}, "data_format": {"s": "TkhXQw=="}, "strides": {"list": {"i": ["1", "1", "1", "1"]}}, "use_cudnn_on_gpu": {"b": true}, "explicit_paddings": {"list": {}}, "padding": {"s": "U0FNRQ=="}}}, {"name": "g_synthesis/8x8/Conv0_up/Reshape_1", "op": "Reshape", "input": ["g_synthesis/8x8/Conv0_up/Tile", "g_synthesis/8x8/Conv0_up/Reshape_1/shape"], "attr": {"T": {"type": "DT_FLOAT"}, "Tshape": {"type": "DT_INT32"}}}, {"name": "g_synthesis/4x4_1/ToRGB/NHWC_to_NCHW", "op": "Transpose", "input": ["g_synthesis/4x4_1/ToRGB/Conv2D", "g_synthesis/4x4_1/ToRGB/NHWC_to_NCHW/perm"], "attr": {"Tperm": {"type": "DT_INT32"}, "T": {"type": "DT_FLOAT"}}}, {"name": "g_synthesis/8x8/Conv0_up/NCHW_to_NHWC", "op": "Transpose", "input": ["g_synthesis/8x8/Conv0_up/Reshape_1", "g_synthesis/4x4_1/ToRGB/NCHW_to_NHWC/perm"], "attr": {"Tperm": {"type": "DT_INT32"}, "T": {"type": "DT_FLOAT"}}}, {"name": "g_synthesis/Reshape", "op": "Reshape", "input": ["g_synthesis/4x4_1/ToRGB/NHWC_to_NCHW", "g_synthesis/Reshape/shape"], "attr": {"T": {"type": "DT_FLOAT"}, "Tshape": {"type": "DT_INT32"}}}, {"name": "g_synthesis/8x8/Conv0_up/Conv2D", "op": "Conv2D", "input": ["g_synthesis/8x8/Conv0_up/NCHW_to_NHWC", "g_synthesis/8x8/Conv0_up/mul"], "attr": {"dilations": {"list": {"i": ["1", "1", "1", "1"]}}, "T": {"type": "DT_FLOAT"}, "data_format": {"s": "TkhXQw=="}, "strides": {"list": {"i": ["1", "1", "1", "1"]}}, "use_cudnn_on_gpu": {"b": true}, "explicit_paddings": {"list": {}}, "padding": {"s": "U0FNRQ=="}}}, {"name": "g_synthesis/Tile", "op": "Tile", "input": ["g_synthesis/Reshape", "g_synthesis/Tile/multiples"], "attr": {"Tmultiples": {"type": "DT_INT32"}, "T": {"type": "DT_FLOAT"}}}, {"name": "g_synthesis/8x8/Conv0_up/depthwise", "op": "DepthwiseConv2dNative", "input": ["g_synthesis/8x8/Conv0_up/Conv2D", "g_synthesis/8x8/Conv0_up/filter"], "attr": {"padding": {"s": "U0FNRQ=="}, "dilations": {"list": {"i": ["1", "1", "1", "1"]}}, "T": {"type": "DT_FLOAT"}, "strides": {"list": {"i": ["1", "1", "1", "1"]}}, "data_format": {"s": "TkhXQw=="}}}, {"name": "g_synthesis/Reshape_1", "op": "Reshape", "input": ["g_synthesis/Tile", "g_synthesis/Reshape_1/shape"], "attr": {"T": {"type": "DT_FLOAT"}, "Tshape": {"type": "DT_INT32"}}}, {"name": "g_synthesis/8x8/Conv0_up/NHWC_to_NCHW_1", "op": "Transpose", "input": ["g_synthesis/8x8/Conv0_up/depthwise", "g_synthesis/4x4_1/ToRGB/NHWC_to_NCHW/perm"], "attr": {"Tperm": {"type": "DT_INT32"}, "T": {"type": "DT_FLOAT"}}}, {"name": "g_synthesis/8x8/Conv0_up/Noise/Shape", "op": "Shape", "input": ["g_synthesis/8x8/Conv0_up/NHWC_to_NCHW_1"], "attr": {"T": {"type": "DT_FLOAT"}, "out_type": {"type": "DT_INT32"}}}, {"name": "g_synthesis/8x8/Conv0_up/Noise/strided_slice", "op": "StridedSlice", "input": ["g_synthesis/8x8/Conv0_up/Noise/Shape", "g_synthesis/512x512/Conv0_up/strided_slice_4/stack", "g_synthesis/512x512/Conv0_up/strided_slice_4/stack_1", "g_synthesis/512x512/Conv0_up/strided_slice_4/stack_1"], "attr": {"T": {"type": "DT_INT32"}, "Index": {"type": "DT_INT32"}, "shrink_axis_mask": {"i": "1"}, "begin_mask": {"i": "0"}, "ellipsis_mask": {"i": "0"}, "new_axis_mask": {"i": "0"}, "end_mask": {"i": "0"}}}, {"name": "g_synthesis/8x8/Conv0_up/Noise/random_uniform/shape", "op": "Pack", "input": ["g_synthesis/8x8/Conv0_up/Noise/strided_slice", "g_synthesis/4x4/Const/Tile/multiples/1", "g_synthesis/8x8/Conv0_up/Noise/random_uniform/shape/2", "g_synthesis/8x8/Conv0_up/Noise/random_uniform/shape/2"], "attr": {"T": {"type": "DT_INT32"}, "axis": {"i": "0"}, "N": {"i": "4"}}}, {"name": "g_synthesis/8x8/Conv0_up/Noise/random_uniform/RandomUniform", "op": "RandomUniform", "input": ["g_synthesis/8x8/Conv0_up/Noise/random_uniform/shape"], "attr": {"seed": {"i": "0"}, "T": {"type": "DT_INT32"}, "dtype": {"type": "DT_FLOAT"}, "seed2": {"i": "0"}}}, {"name": "g_synthesis/8x8/Conv0_up/Noise/mul", "op": "Mul", "input": ["g_synthesis/8x8/Conv0_up/Noise/Reshape", "g_synthesis/8x8/Conv0_up/Noise/random_uniform/RandomUniform"], "attr": {"T": {"type": "DT_FLOAT"}}}, {"name": "g_synthesis/8x8/Conv0_up/Noise/add", "op": "Add", "input": ["g_synthesis/8x8/Conv0_up/Noise/mul", "g_synthesis/8x8/Conv0_up/Reshape_2"], "attr": {"T": {"type": "DT_FLOAT"}}}, {"name": "g_synthesis/8x8/Conv0_up/add", "op": "Add", "input": ["g_synthesis/8x8/Conv0_up/NHWC_to_NCHW_1", "g_synthesis/8x8/Conv0_up/Noise/add"], "attr": {"T": {"type": "DT_FLOAT"}}}, {"name": "g_synthesis/8x8/Conv0_up/LeakyRelu", "op": "LeakyRelu", "input": ["g_synthesis/8x8/Conv0_up/add"], "attr": {"T": {"type": "DT_FLOAT"}, "alpha": {"f": 0.20000000298023224}}}, {"name": "g_synthesis/8x8/Conv0_up/InstanceNorm/Mean", "op": "Mean", "input": ["g_synthesis/8x8/Conv0_up/LeakyRelu", "g_synthesis/4x4/Const/InstanceNorm/Mean/reduction_indices"], "attr": {"keep_dims": {"b": true}, "Tidx": {"type": "DT_INT32"}, "T": {"type": "DT_FLOAT"}}}, {"name": "g_synthesis/8x8/Conv0_up/InstanceNorm/sub_1", "op": "Sub", "input": ["g_synthesis/8x8/Conv0_up/LeakyRelu", "g_synthesis/8x8/Conv0_up/InstanceNorm/Mean"], "attr": {"T": {"type": "DT_FLOAT"}}}, {"name": "g_synthesis/8x8/Conv0_up/InstanceNorm/Square", "op": "Square", "input": ["g_synthesis/8x8/Conv0_up/InstanceNorm/sub_1"], "attr": {"T": {"type": "DT_FLOAT"}}}, {"name": "g_synthesis/8x8/Conv0_up/InstanceNorm/Mean_1", "op": "Mean", "input": ["g_synthesis/8x8/Conv0_up/InstanceNorm/Square", "g_synthesis/4x4/Const/InstanceNorm/Mean/reduction_indices"], "attr": {"keep_dims": {"b": true}, "Tidx": {"type": "DT_INT32"}, "T": {"type": "DT_FLOAT"}}}, {"name": "g_synthesis/8x8/Conv0_up/InstanceNorm/add", "op": "Add", "input": ["g_synthesis/4x4/Const/InstanceNorm/epsilon", "g_synthesis/8x8/Conv0_up/InstanceNorm/Mean_1"], "attr": {"T": {"type": "DT_FLOAT"}}}, {"name": "g_synthesis/8x8/Conv0_up/InstanceNorm/Rsqrt", "op": "Rsqrt", "input": ["g_synthesis/8x8/Conv0_up/InstanceNorm/add"], "attr": {"T": {"type": "DT_FLOAT"}}}, {"name": "g_synthesis/8x8/Conv0_up/InstanceNorm/mul", "op": "Mul", "input": ["g_synthesis/8x8/Conv0_up/InstanceNorm/Rsqrt", "g_synthesis/8x8/Conv0_up/InstanceNorm/sub_1"], "attr": {"T": {"type": "DT_FLOAT"}}}, {"name": "g_synthesis/8x8/Conv0_up/StyleMod/mul_2", "op": "Mul", "input": ["g_synthesis/8x8/Conv0_up/InstanceNorm/mul", "g_synthesis/8x8/Conv0_up/StyleMod/add_1"], "attr": {"T": {"type": "DT_FLOAT"}}}, {"name": "g_synthesis/8x8/Conv0_up/StyleMod/add_2", "op": "Add", "input": ["g_synthesis/8x8/Conv0_up/StyleMod/mul_2", "g_synthesis/8x8/Conv0_up/StyleMod/strided_slice_1"], "attr": {"T": {"type": "DT_FLOAT"}}}, {"name": "g_synthesis/8x8/Conv1/NCHW_to_NHWC", "op": "Transpose", "input": ["g_synthesis/8x8/Conv0_up/StyleMod/add_2", "g_synthesis/4x4_1/ToRGB/NCHW_to_NHWC/perm"], "attr": {"Tperm": {"type": "DT_INT32"}, "T": {"type": "DT_FLOAT"}}}, {"name": "g_synthesis/8x8/Conv1/Conv2D", "op": "Conv2D", "input": ["g_synthesis/8x8/Conv1/NCHW_to_NHWC", "g_synthesis/8x8/Conv1/mul"], "attr": {"dilations": {"list": {"i": ["1", "1", "1", "1"]}}, "T": {"type": "DT_FLOAT"}, "data_format": {"s": "TkhXQw=="}, "strides": {"list": {"i": ["1", "1", "1", "1"]}}, "use_cudnn_on_gpu": {"b": true}, "explicit_paddings": {"list": {}}, "padding": {"s": "U0FNRQ=="}}}, {"name": "g_synthesis/8x8/Conv1/NHWC_to_NCHW", "op": "Transpose", "input": ["g_synthesis/8x8/Conv1/Conv2D", "g_synthesis/4x4_1/ToRGB/NHWC_to_NCHW/perm"], "attr": {"Tperm": {"type": "DT_INT32"}, "T": {"type": "DT_FLOAT"}}}, {"name": "g_synthesis/8x8/Conv1/Noise/Shape", "op": "Shape", "input": ["g_synthesis/8x8/Conv1/NHWC_to_NCHW"], "attr": {"T": {"type": "DT_FLOAT"}, "out_type": {"type": "DT_INT32"}}}, {"name": "g_synthesis/8x8/Conv1/Noise/strided_slice", "op": "StridedSlice", "input": ["g_synthesis/8x8/Conv1/Noise/Shape", "g_synthesis/512x512/Conv0_up/strided_slice_4/stack", "g_synthesis/512x512/Conv0_up/strided_slice_4/stack_1", "g_synthesis/512x512/Conv0_up/strided_slice_4/stack_1"], "attr": {"T": {"type": "DT_INT32"}, "Index": {"type": "DT_INT32"}, "shrink_axis_mask": {"i": "1"}, "begin_mask": {"i": "0"}, "ellipsis_mask": {"i": "0"}, "new_axis_mask": {"i": "0"}, "end_mask": {"i": "0"}}}, {"name": "g_synthesis/8x8/Conv1/Noise/random_uniform/shape", "op": "Pack", "input": ["g_synthesis/8x8/Conv1/Noise/strided_slice", "g_synthesis/4x4/Const/Tile/multiples/1", "g_synthesis/8x8/Conv0_up/Noise/random_uniform/shape/2", "g_synthesis/8x8/Conv0_up/Noise/random_uniform/shape/2"], "attr": {"T": {"type": "DT_INT32"}, "axis": {"i": "0"}, "N": {"i": "4"}}}, {"name": "g_synthesis/8x8/Conv1/Noise/random_uniform/RandomUniform", "op": "RandomUniform", "input": ["g_synthesis/8x8/Conv1/Noise/random_uniform/shape"], "attr": {"seed": {"i": "0"}, "T": {"type": "DT_INT32"}, "dtype": {"type": "DT_FLOAT"}, "seed2": {"i": "0"}}}, {"name": "g_synthesis/8x8/Conv1/Noise/mul", "op": "Mul", "input": ["g_synthesis/8x8/Conv1/Noise/Reshape", "g_synthesis/8x8/Conv1/Noise/random_uniform/RandomUniform"], "attr": {"T": {"type": "DT_FLOAT"}}}, {"name": "g_synthesis/8x8/Conv1/Noise/add", "op": "Add", "input": ["g_synthesis/8x8/Conv1/Noise/mul", "g_synthesis/8x8/Conv1/Reshape"], "attr": {"T": {"type": "DT_FLOAT"}}}, {"name": "g_synthesis/8x8/Conv1/add", "op": "Add", "input": ["g_synthesis/8x8/Conv1/NHWC_to_NCHW", "g_synthesis/8x8/Conv1/Noise/add"], "attr": {"T": {"type": "DT_FLOAT"}}}, {"name": "g_synthesis/8x8/Conv1/LeakyRelu", "op": "LeakyRelu", "input": ["g_synthesis/8x8/Conv1/add"], "attr": {"T": {"type": "DT_FLOAT"}, "alpha": {"f": 0.20000000298023224}}}, {"name": "g_synthesis/8x8/Conv1/InstanceNorm/Mean", "op": "Mean", "input": ["g_synthesis/8x8/Conv1/LeakyRelu", "g_synthesis/4x4/Const/InstanceNorm/Mean/reduction_indices"], "attr": {"keep_dims": {"b": true}, "Tidx": {"type": "DT_INT32"}, "T": {"type": "DT_FLOAT"}}}, {"name": "g_synthesis/8x8/Conv1/InstanceNorm/sub_1", "op": "Sub", "input": ["g_synthesis/8x8/Conv1/LeakyRelu", "g_synthesis/8x8/Conv1/InstanceNorm/Mean"], "attr": {"T": {"type": "DT_FLOAT"}}}, {"name": "g_synthesis/8x8/Conv1/InstanceNorm/Square", "op": "Square", "input": ["g_synthesis/8x8/Conv1/InstanceNorm/sub_1"], "attr": {"T": {"type": "DT_FLOAT"}}}, {"name": "g_synthesis/8x8/Conv1/InstanceNorm/Mean_1", "op": "Mean", "input": ["g_synthesis/8x8/Conv1/InstanceNorm/Square", "g_synthesis/4x4/Const/InstanceNorm/Mean/reduction_indices"], "attr": {"keep_dims": {"b": true}, "Tidx": {"type": "DT_INT32"}, "T": {"type": "DT_FLOAT"}}}, {"name": "g_synthesis/8x8/Conv1/InstanceNorm/add", "op": "Add", "input": ["g_synthesis/4x4/Const/InstanceNorm/epsilon", "g_synthesis/8x8/Conv1/InstanceNorm/Mean_1"], "attr": {"T": {"type": "DT_FLOAT"}}}, {"name": "g_synthesis/8x8/Conv1/InstanceNorm/Rsqrt", "op": "Rsqrt", "input": ["g_synthesis/8x8/Conv1/InstanceNorm/add"], "attr": {"T": {"type": "DT_FLOAT"}}}, {"name": "g_synthesis/8x8/Conv1/InstanceNorm/mul", "op": "Mul", "input": ["g_synthesis/8x8/Conv1/InstanceNorm/Rsqrt", "g_synthesis/8x8/Conv1/InstanceNorm/sub_1"], "attr": {"T": {"type": "DT_FLOAT"}}}, {"name": "g_synthesis/8x8/Conv1/StyleMod/mul_2", "op": "Mul", "input": ["g_synthesis/8x8/Conv1/InstanceNorm/mul", "g_synthesis/8x8/Conv1/StyleMod/add_1"], "attr": {"T": {"type": "DT_FLOAT"}}}, {"name": "g_synthesis/8x8/Conv1/StyleMod/add_2", "op": "Add", "input": ["g_synthesis/8x8/Conv1/StyleMod/mul_2", "g_synthesis/8x8/Conv1/StyleMod/strided_slice_1"], "attr": {"T": {"type": "DT_FLOAT"}}}, {"name": "g_synthesis/16x16/Conv0_up/Reshape", "op": "Reshape", "input": ["g_synthesis/8x8/Conv1/StyleMod/add_2", "g_synthesis/16x16/Conv0_up/Reshape/shape"], "attr": {"T": {"type": "DT_FLOAT"}, "Tshape": {"type": "DT_INT32"}}}, {"name": "g_synthesis/8x8_1/ToRGB/NCHW_to_NHWC", "op": "Transpose", "input": ["g_synthesis/8x8/Conv1/StyleMod/add_2", "g_synthesis/4x4_1/ToRGB/NCHW_to_NHWC/perm"], "attr": {"Tperm": {"type": "DT_INT32"}, "T": {"type": "DT_FLOAT"}}}, {"name": "g_synthesis/16x16/Conv0_up/Tile", "op": "Tile", "input": ["g_synthesis/16x16/Conv0_up/Reshape", "g_synthesis/Tile/multiples"], "attr": {"Tmultiples": {"type": "DT_INT32"}, "T": {"type": "DT_FLOAT"}}}, {"name": "g_synthesis/8x8_1/ToRGB/Conv2D", "op": "Conv2D", "input": ["g_synthesis/8x8_1/ToRGB/NCHW_to_NHWC", "g_synthesis/8x8_1/ToRGB/mul"], "attr": {"dilations": {"list": {"i": ["1", "1", "1", "1"]}}, "T": {"type": "DT_FLOAT"}, "data_format": {"s": "TkhXQw=="}, "strides": {"list": {"i": ["1", "1", "1", "1"]}}, "use_cudnn_on_gpu": {"b": true}, "explicit_paddings": {"list": {}}, "padding": {"s": "U0FNRQ=="}}}, {"name": "g_synthesis/16x16/Conv0_up/Reshape_1", "op": "Reshape", "input": ["g_synthesis/16x16/Conv0_up/Tile", "g_synthesis/16x16/Conv0_up/Reshape_1/shape"], "attr": {"T": {"type": "DT_FLOAT"}, "Tshape": {"type": "DT_INT32"}}}, {"name": "g_synthesis/8x8_1/ToRGB/NHWC_to_NCHW", "op": "Transpose", "input": ["g_synthesis/8x8_1/ToRGB/Conv2D", "g_synthesis/4x4_1/ToRGB/NHWC_to_NCHW/perm"], "attr": {"Tperm": {"type": "DT_INT32"}, "T": {"type": "DT_FLOAT"}}}, {"name": "g_synthesis/16x16/Conv0_up/NCHW_to_NHWC", "op": "Transpose", "input": ["g_synthesis/16x16/Conv0_up/Reshape_1", "g_synthesis/4x4_1/ToRGB/NCHW_to_NHWC/perm"], "attr": {"Tperm": {"type": "DT_INT32"}, "T": {"type": "DT_FLOAT"}}}, {"name": "g_synthesis/8x8_1/ToRGB/add", "op": "Add", "input": ["g_synthesis/8x8_1/ToRGB/NHWC_to_NCHW", "g_synthesis/8x8_1/ToRGB/Reshape"], "attr": {"T": {"type": "DT_FLOAT"}}}, {"name": "g_synthesis/16x16/Conv0_up/Conv2D", "op": "Conv2D", "input": ["g_synthesis/16x16/Conv0_up/NCHW_to_NHWC", "g_synthesis/16x16/Conv0_up/mul"], "attr": {"dilations": {"list": {"i": ["1", "1", "1", "1"]}}, "T": {"type": "DT_FLOAT"}, "data_format": {"s": "TkhXQw=="}, "strides": {"list": {"i": ["1", "1", "1", "1"]}}, "use_cudnn_on_gpu": {"b": true}, "explicit_paddings": {"list": {}}, "padding": {"s": "U0FNRQ=="}}}, {"name": "g_synthesis/8x8_2/smooth_transition/LerpClip/sub", "op": "Sub", "input": ["g_synthesis/Reshape_1", "g_synthesis/8x8_1/ToRGB/add"], "attr": {"T": {"type": "DT_FLOAT"}}}, {"name": "g_synthesis/16x16/Conv0_up/depthwise", "op": "DepthwiseConv2dNative", "input": ["g_synthesis/16x16/Conv0_up/Conv2D", "g_synthesis/8x8/Conv0_up/filter"], "attr": {"padding": {"s": "U0FNRQ=="}, "dilations": {"list": {"i": ["1", "1", "1", "1"]}}, "T": {"type": "DT_FLOAT"}, "strides": {"list": {"i": ["1", "1", "1", "1"]}}, "data_format": {"s": "TkhXQw=="}}}, {"name": "g_synthesis/8x8_2/smooth_transition/LerpClip/mul", "op": "Mul", "input": ["g_synthesis/8x8_2/smooth_transition/LerpClip/clip_by_value", "g_synthesis/8x8_2/smooth_transition/LerpClip/sub"], "attr": {"T": {"type": "DT_FLOAT"}}}, {"name": "g_synthesis/16x16/Conv0_up/NHWC_to_NCHW_1", "op": "Transpose", "input": ["g_synthesis/16x16/Conv0_up/depthwise", "g_synthesis/4x4_1/ToRGB/NHWC_to_NCHW/perm"], "attr": {"Tperm": {"type": "DT_INT32"}, "T": {"type": "DT_FLOAT"}}}, {"name": "g_synthesis/8x8_2/smooth_transition/LerpClip/add", "op": "Add", "input": ["g_synthesis/8x8_1/ToRGB/add", "g_synthesis/8x8_2/smooth_transition/LerpClip/mul"], "attr": {"T": {"type": "DT_FLOAT"}}}, {"name": "g_synthesis/16x16/Conv0_up/Noise/Shape", "op": "Shape", "input": ["g_synthesis/16x16/Conv0_up/NHWC_to_NCHW_1"], "attr": {"T": {"type": "DT_FLOAT"}, "out_type": {"type": "DT_INT32"}}}, {"name": "g_synthesis/Reshape_2", "op": "Reshape", "input": ["g_synthesis/8x8_2/smooth_transition/LerpClip/add", "g_synthesis/Reshape_2/shape"], "attr": {"T": {"type": "DT_FLOAT"}, "Tshape": {"type": "DT_INT32"}}}, {"name": "g_synthesis/16x16/Conv0_up/Noise/strided_slice", "op": "StridedSlice", "input": ["g_synthesis/16x16/Conv0_up/Noise/Shape", "g_synthesis/512x512/Conv0_up/strided_slice_4/stack", "g_synthesis/512x512/Conv0_up/strided_slice_4/stack_1", "g_synthesis/512x512/Conv0_up/strided_slice_4/stack_1"], "attr": {"T": {"type": "DT_INT32"}, "Index": {"type": "DT_INT32"}, "shrink_axis_mask": {"i": "1"}, "begin_mask": {"i": "0"}, "ellipsis_mask": {"i": "0"}, "new_axis_mask": {"i": "0"}, "end_mask": {"i": "0"}}}, {"name": "g_synthesis/Tile_1", "op": "Tile", "input": ["g_synthesis/Reshape_2", "g_synthesis/Tile/multiples"], "attr": {"Tmultiples": {"type": "DT_INT32"}, "T": {"type": "DT_FLOAT"}}}, {"name": "g_synthesis/16x16/Conv0_up/Noise/random_uniform/shape", "op": "Pack", "input": ["g_synthesis/16x16/Conv0_up/Noise/strided_slice", "g_synthesis/4x4/Const/Tile/multiples/1", "g_synthesis/16x16/Conv0_up/Noise/random_uniform/shape/2", "g_synthesis/16x16/Conv0_up/Noise/random_uniform/shape/2"], "attr": {"T": {"type": "DT_INT32"}, "axis": {"i": "0"}, "N": {"i": "4"}}}, {"name": "g_synthesis/Reshape_3", "op": "Reshape", "input": ["g_synthesis/Tile_1", "g_synthesis/Reshape_3/shape"], "attr": {"T": {"type": "DT_FLOAT"}, "Tshape": {"type": "DT_INT32"}}}, {"name": "g_synthesis/16x16/Conv0_up/Noise/random_uniform/RandomUniform", "op": "RandomUniform", "input": ["g_synthesis/16x16/Conv0_up/Noise/random_uniform/shape"], "attr": {"seed": {"i": "0"}, "T": {"type": "DT_INT32"}, "dtype": {"type": "DT_FLOAT"}, "seed2": {"i": "0"}}}, {"name": "g_synthesis/16x16/Conv0_up/Noise/mul", "op": "Mul", "input": ["g_synthesis/16x16/Conv0_up/Noise/Reshape", "g_synthesis/16x16/Conv0_up/Noise/random_uniform/RandomUniform"], "attr": {"T": {"type": "DT_FLOAT"}}}, {"name": "g_synthesis/16x16/Conv0_up/Noise/add", "op": "Add", "input": ["g_synthesis/16x16/Conv0_up/Noise/mul", "g_synthesis/16x16/Conv0_up/Reshape_2"], "attr": {"T": {"type": "DT_FLOAT"}}}, {"name": "g_synthesis/16x16/Conv0_up/add", "op": "Add", "input": ["g_synthesis/16x16/Conv0_up/NHWC_to_NCHW_1", "g_synthesis/16x16/Conv0_up/Noise/add"], "attr": {"T": {"type": "DT_FLOAT"}}}, {"name": "g_synthesis/16x16/Conv0_up/LeakyRelu", "op": "LeakyRelu", "input": ["g_synthesis/16x16/Conv0_up/add"], "attr": {"T": {"type": "DT_FLOAT"}, "alpha": {"f": 0.20000000298023224}}}, {"name": "g_synthesis/16x16/Conv0_up/InstanceNorm/Mean", "op": "Mean", "input": ["g_synthesis/16x16/Conv0_up/LeakyRelu", "g_synthesis/4x4/Const/InstanceNorm/Mean/reduction_indices"], "attr": {"keep_dims": {"b": true}, "Tidx": {"type": "DT_INT32"}, "T": {"type": "DT_FLOAT"}}}, {"name": "g_synthesis/16x16/Conv0_up/InstanceNorm/sub_1", "op": "Sub", "input": ["g_synthesis/16x16/Conv0_up/LeakyRelu", "g_synthesis/16x16/Conv0_up/InstanceNorm/Mean"], "attr": {"T": {"type": "DT_FLOAT"}}}, {"name": "g_synthesis/16x16/Conv0_up/InstanceNorm/Square", "op": "Square", "input": ["g_synthesis/16x16/Conv0_up/InstanceNorm/sub_1"], "attr": {"T": {"type": "DT_FLOAT"}}}, {"name": "g_synthesis/16x16/Conv0_up/InstanceNorm/Mean_1", "op": "Mean", "input": ["g_synthesis/16x16/Conv0_up/InstanceNorm/Square", "g_synthesis/4x4/Const/InstanceNorm/Mean/reduction_indices"], "attr": {"keep_dims": {"b": true}, "Tidx": {"type": "DT_INT32"}, "T": {"type": "DT_FLOAT"}}}, {"name": "g_synthesis/16x16/Conv0_up/InstanceNorm/add", "op": "Add", "input": ["g_synthesis/16x16/Conv0_up/InstanceNorm/Mean_1", "g_synthesis/4x4/Const/InstanceNorm/epsilon"], "attr": {"T": {"type": "DT_FLOAT"}}}, {"name": "g_synthesis/16x16/Conv0_up/InstanceNorm/Rsqrt", "op": "Rsqrt", "input": ["g_synthesis/16x16/Conv0_up/InstanceNorm/add"], "attr": {"T": {"type": "DT_FLOAT"}}}, {"name": "g_synthesis/16x16/Conv0_up/InstanceNorm/mul", "op": "Mul", "input": ["g_synthesis/16x16/Conv0_up/InstanceNorm/Rsqrt", "g_synthesis/16x16/Conv0_up/InstanceNorm/sub_1"], "attr": {"T": {"type": "DT_FLOAT"}}}, {"name": "g_synthesis/16x16/Conv0_up/StyleMod/mul_2", "op": "Mul", "input": ["g_synthesis/16x16/Conv0_up/InstanceNorm/mul", "g_synthesis/16x16/Conv0_up/StyleMod/add_1"], "attr": {"T": {"type": "DT_FLOAT"}}}, {"name": "g_synthesis/16x16/Conv0_up/StyleMod/add_2", "op": "Add", "input": ["g_synthesis/16x16/Conv0_up/StyleMod/mul_2", "g_synthesis/16x16/Conv0_up/StyleMod/strided_slice_1"], "attr": {"T": {"type": "DT_FLOAT"}}}, {"name": "g_synthesis/16x16/Conv1/NCHW_to_NHWC", "op": "Transpose", "input": ["g_synthesis/16x16/Conv0_up/StyleMod/add_2", "g_synthesis/4x4_1/ToRGB/NCHW_to_NHWC/perm"], "attr": {"Tperm": {"type": "DT_INT32"}, "T": {"type": "DT_FLOAT"}}}, {"name": "g_synthesis/16x16/Conv1/Conv2D", "op": "Conv2D", "input": ["g_synthesis/16x16/Conv1/NCHW_to_NHWC", "g_synthesis/16x16/Conv1/mul"], "attr": {"dilations": {"list": {"i": ["1", "1", "1", "1"]}}, "T": {"type": "DT_FLOAT"}, "data_format": {"s": "TkhXQw=="}, "strides": {"list": {"i": ["1", "1", "1", "1"]}}, "use_cudnn_on_gpu": {"b": true}, "explicit_paddings": {"list": {}}, "padding": {"s": "U0FNRQ=="}}}, {"name": "g_synthesis/16x16/Conv1/NHWC_to_NCHW", "op": "Transpose", "input": ["g_synthesis/16x16/Conv1/Conv2D", "g_synthesis/4x4_1/ToRGB/NHWC_to_NCHW/perm"], "attr": {"Tperm": {"type": "DT_INT32"}, "T": {"type": "DT_FLOAT"}}}, {"name": "g_synthesis/16x16/Conv1/Noise/Shape", "op": "Shape", "input": ["g_synthesis/16x16/Conv1/NHWC_to_NCHW"], "attr": {"T": {"type": "DT_FLOAT"}, "out_type": {"type": "DT_INT32"}}}, {"name": "g_synthesis/16x16/Conv1/Noise/strided_slice", "op": "StridedSlice", "input": ["g_synthesis/16x16/Conv1/Noise/Shape", "g_synthesis/512x512/Conv0_up/strided_slice_4/stack", "g_synthesis/512x512/Conv0_up/strided_slice_4/stack_1", "g_synthesis/512x512/Conv0_up/strided_slice_4/stack_1"], "attr": {"T": {"type": "DT_INT32"}, "Index": {"type": "DT_INT32"}, "shrink_axis_mask": {"i": "1"}, "begin_mask": {"i": "0"}, "ellipsis_mask": {"i": "0"}, "new_axis_mask": {"i": "0"}, "end_mask": {"i": "0"}}}, {"name": "g_synthesis/16x16/Conv1/Noise/random_uniform/shape", "op": "Pack", "input": ["g_synthesis/16x16/Conv1/Noise/strided_slice", "g_synthesis/4x4/Const/Tile/multiples/1", "g_synthesis/16x16/Conv0_up/Noise/random_uniform/shape/2", "g_synthesis/16x16/Conv0_up/Noise/random_uniform/shape/2"], "attr": {"T": {"type": "DT_INT32"}, "axis": {"i": "0"}, "N": {"i": "4"}}}, {"name": "g_synthesis/16x16/Conv1/Noise/random_uniform/RandomUniform", "op": "RandomUniform", "input": ["g_synthesis/16x16/Conv1/Noise/random_uniform/shape"], "attr": {"seed": {"i": "0"}, "T": {"type": "DT_INT32"}, "dtype": {"type": "DT_FLOAT"}, "seed2": {"i": "0"}}}, {"name": "g_synthesis/16x16/Conv1/Noise/mul", "op": "Mul", "input": ["g_synthesis/16x16/Conv1/Noise/Reshape", "g_synthesis/16x16/Conv1/Noise/random_uniform/RandomUniform"], "attr": {"T": {"type": "DT_FLOAT"}}}, {"name": "g_synthesis/16x16/Conv1/Noise/add", "op": "Add", "input": ["g_synthesis/16x16/Conv1/Noise/mul", "g_synthesis/16x16/Conv1/Reshape"], "attr": {"T": {"type": "DT_FLOAT"}}}, {"name": "g_synthesis/16x16/Conv1/add", "op": "Add", "input": ["g_synthesis/16x16/Conv1/NHWC_to_NCHW", "g_synthesis/16x16/Conv1/Noise/add"], "attr": {"T": {"type": "DT_FLOAT"}}}, {"name": "g_synthesis/16x16/Conv1/LeakyRelu", "op": "LeakyRelu", "input": ["g_synthesis/16x16/Conv1/add"], "attr": {"T": {"type": "DT_FLOAT"}, "alpha": {"f": 0.20000000298023224}}}, {"name": "g_synthesis/16x16/Conv1/InstanceNorm/Mean", "op": "Mean", "input": ["g_synthesis/16x16/Conv1/LeakyRelu", "g_synthesis/4x4/Const/InstanceNorm/Mean/reduction_indices"], "attr": {"keep_dims": {"b": true}, "Tidx": {"type": "DT_INT32"}, "T": {"type": "DT_FLOAT"}}}, {"name": "g_synthesis/16x16/Conv1/InstanceNorm/sub_1", "op": "Sub", "input": ["g_synthesis/16x16/Conv1/LeakyRelu", "g_synthesis/16x16/Conv1/InstanceNorm/Mean"], "attr": {"T": {"type": "DT_FLOAT"}}}, {"name": "g_synthesis/16x16/Conv1/InstanceNorm/Square", "op": "Square", "input": ["g_synthesis/16x16/Conv1/InstanceNorm/sub_1"], "attr": {"T": {"type": "DT_FLOAT"}}}, {"name": "g_synthesis/16x16/Conv1/InstanceNorm/Mean_1", "op": "Mean", "input": ["g_synthesis/16x16/Conv1/InstanceNorm/Square", "g_synthesis/4x4/Const/InstanceNorm/Mean/reduction_indices"], "attr": {"keep_dims": {"b": true}, "Tidx": {"type": "DT_INT32"}, "T": {"type": "DT_FLOAT"}}}, {"name": "g_synthesis/16x16/Conv1/InstanceNorm/add", "op": "Add", "input": ["g_synthesis/16x16/Conv1/InstanceNorm/Mean_1", "g_synthesis/4x4/Const/InstanceNorm/epsilon"], "attr": {"T": {"type": "DT_FLOAT"}}}, {"name": "g_synthesis/16x16/Conv1/InstanceNorm/Rsqrt", "op": "Rsqrt", "input": ["g_synthesis/16x16/Conv1/InstanceNorm/add"], "attr": {"T": {"type": "DT_FLOAT"}}}, {"name": "g_synthesis/16x16/Conv1/InstanceNorm/mul", "op": "Mul", "input": ["g_synthesis/16x16/Conv1/InstanceNorm/Rsqrt", "g_synthesis/16x16/Conv1/InstanceNorm/sub_1"], "attr": {"T": {"type": "DT_FLOAT"}}}, {"name": "g_synthesis/16x16/Conv1/StyleMod/mul_2", "op": "Mul", "input": ["g_synthesis/16x16/Conv1/InstanceNorm/mul", "g_synthesis/16x16/Conv1/StyleMod/add_1"], "attr": {"T": {"type": "DT_FLOAT"}}}, {"name": "g_synthesis/16x16/Conv1/StyleMod/add_2", "op": "Add", "input": ["g_synthesis/16x16/Conv1/StyleMod/mul_2", "g_synthesis/16x16/Conv1/StyleMod/strided_slice_1"], "attr": {"T": {"type": "DT_FLOAT"}}}, {"name": "g_synthesis/32x32/Conv0_up/Reshape", "op": "Reshape", "input": ["g_synthesis/16x16/Conv1/StyleMod/add_2", "g_synthesis/32x32/Conv0_up/Reshape/shape"], "attr": {"T": {"type": "DT_FLOAT"}, "Tshape": {"type": "DT_INT32"}}}, {"name": "g_synthesis/16x16_1/ToRGB/NCHW_to_NHWC", "op": "Transpose", "input": ["g_synthesis/16x16/Conv1/StyleMod/add_2", "g_synthesis/4x4_1/ToRGB/NCHW_to_NHWC/perm"], "attr": {"Tperm": {"type": "DT_INT32"}, "T": {"type": "DT_FLOAT"}}}, {"name": "g_synthesis/32x32/Conv0_up/Tile", "op": "Tile", "input": ["g_synthesis/32x32/Conv0_up/Reshape", "g_synthesis/Tile/multiples"], "attr": {"Tmultiples": {"type": "DT_INT32"}, "T": {"type": "DT_FLOAT"}}}, {"name": "g_synthesis/16x16_1/ToRGB/Conv2D", "op": "Conv2D", "input": ["g_synthesis/16x16_1/ToRGB/NCHW_to_NHWC", "g_synthesis/16x16_1/ToRGB/mul"], "attr": {"dilations": {"list": {"i": ["1", "1", "1", "1"]}}, "T": {"type": "DT_FLOAT"}, "data_format": {"s": "TkhXQw=="}, "strides": {"list": {"i": ["1", "1", "1", "1"]}}, "use_cudnn_on_gpu": {"b": true}, "explicit_paddings": {"list": {}}, "padding": {"s": "U0FNRQ=="}}}, {"name": "g_synthesis/32x32/Conv0_up/Reshape_1", "op": "Reshape", "input": ["g_synthesis/32x32/Conv0_up/Tile", "g_synthesis/32x32/Conv0_up/Reshape_1/shape"], "attr": {"T": {"type": "DT_FLOAT"}, "Tshape": {"type": "DT_INT32"}}}, {"name": "g_synthesis/16x16_1/ToRGB/NHWC_to_NCHW", "op": "Transpose", "input": ["g_synthesis/16x16_1/ToRGB/Conv2D", "g_synthesis/4x4_1/ToRGB/NHWC_to_NCHW/perm"], "attr": {"Tperm": {"type": "DT_INT32"}, "T": {"type": "DT_FLOAT"}}}, {"name": "g_synthesis/32x32/Conv0_up/NCHW_to_NHWC", "op": "Transpose", "input": ["g_synthesis/32x32/Conv0_up/Reshape_1", "g_synthesis/4x4_1/ToRGB/NCHW_to_NHWC/perm"], "attr": {"Tperm": {"type": "DT_INT32"}, "T": {"type": "DT_FLOAT"}}}, {"name": "g_synthesis/16x16_1/ToRGB/add", "op": "Add", "input": ["g_synthesis/16x16_1/ToRGB/NHWC_to_NCHW", "g_synthesis/16x16_1/ToRGB/Reshape"], "attr": {"T": {"type": "DT_FLOAT"}}}, {"name": "g_synthesis/32x32/Conv0_up/Conv2D", "op": "Conv2D", "input": ["g_synthesis/32x32/Conv0_up/NCHW_to_NHWC", "g_synthesis/32x32/Conv0_up/mul"], "attr": {"dilations": {"list": {"i": ["1", "1", "1", "1"]}}, "T": {"type": "DT_FLOAT"}, "data_format": {"s": "TkhXQw=="}, "strides": {"list": {"i": ["1", "1", "1", "1"]}}, "use_cudnn_on_gpu": {"b": true}, "explicit_paddings": {"list": {}}, "padding": {"s": "U0FNRQ=="}}}, {"name": "g_synthesis/16x16_2/smooth_transition/LerpClip/sub", "op": "Sub", "input": ["g_synthesis/Reshape_3", "g_synthesis/16x16_1/ToRGB/add"], "attr": {"T": {"type": "DT_FLOAT"}}}, {"name": "g_synthesis/32x32/Conv0_up/depthwise", "op": "DepthwiseConv2dNative", "input": ["g_synthesis/32x32/Conv0_up/Conv2D", "g_synthesis/8x8/Conv0_up/filter"], "attr": {"padding": {"s": "U0FNRQ=="}, "dilations": {"list": {"i": ["1", "1", "1", "1"]}}, "T": {"type": "DT_FLOAT"}, "strides": {"list": {"i": ["1", "1", "1", "1"]}}, "data_format": {"s": "TkhXQw=="}}}, {"name": "g_synthesis/16x16_2/smooth_transition/LerpClip/mul", "op": "Mul", "input": ["g_synthesis/16x16_2/smooth_transition/LerpClip/sub", "g_synthesis/8x8_2/smooth_transition/LerpClip/clip_by_value"], "attr": {"T": {"type": "DT_FLOAT"}}}, {"name": "g_synthesis/32x32/Conv0_up/NHWC_to_NCHW_1", "op": "Transpose", "input": ["g_synthesis/32x32/Conv0_up/depthwise", "g_synthesis/4x4_1/ToRGB/NHWC_to_NCHW/perm"], "attr": {"Tperm": {"type": "DT_INT32"}, "T": {"type": "DT_FLOAT"}}}, {"name": "g_synthesis/16x16_2/smooth_transition/LerpClip/add", "op": "Add", "input": ["g_synthesis/16x16_1/ToRGB/add", "g_synthesis/16x16_…
/reduction_indices"], "attr": {"keep_dims": {"b": true}, "Tidx": {"type": "DT_INT32"}, "T": {"type": "DT_FLOAT"}}}, {"name": "g_synthesis/256x256/Conv1/InstanceNorm/add", "op": "Add", "input": ["g_synthesis/256x256/Conv1/InstanceNorm/Mean_1", "g_synthesis/4x4/Const/InstanceNorm/epsilon"], "attr": {"T": {"type": "DT_FLOAT"}}}, {"name": "g_synthesis/256x256/Conv1/InstanceNorm/Rsqrt", "op": "Rsqrt", "input": ["g_synthesis/256x256/Conv1/InstanceNorm/add"], "attr": {"T": {"type": "DT_FLOAT"}}}, {"name": "g_synthesis/256x256/Conv1/InstanceNorm/mul", "op": "Mul", "input": ["g_synthesis/256x256/Conv1/InstanceNorm/Rsqrt", "g_synthesis/256x256/Conv1/InstanceNorm/sub_1"], "attr": {"T": {"type": "DT_FLOAT"}}}, {"name": "g_synthesis/256x256/Conv1/StyleMod/mul_2", "op": "Mul", "input": ["g_synthesis/256x256/Conv1/InstanceNorm/mul", "g_synthesis/256x256/Conv1/StyleMod/add_1"], "attr": {"T": {"type": "DT_FLOAT"}}}, {"name": "g_synthesis/256x256/Conv1/StyleMod/add_2", "op": "Add", "input": ["g_synthesis/256x256/Conv1/StyleMod/mul_2", "g_synthesis/256x256/Conv1/StyleMod/strided_slice_1"], "attr": {"T": {"type": "DT_FLOAT"}}}, {"name": "g_synthesis/256x256_1/ToRGB/NCHW_to_NHWC", "op": "Transpose", "input": ["g_synthesis/256x256/Conv1/StyleMod/add_2", "g_synthesis/4x4_1/ToRGB/NCHW_to_NHWC/perm"], "attr": {"Tperm": {"type": "DT_INT32"}, "T": {"type": "DT_FLOAT"}}}, {"name": "g_synthesis/512x512/Conv0_up/Shape", "op": "Shape", "input": ["g_synthesis/256x256/Conv1/StyleMod/add_2"], "attr": {"T": {"type": "DT_FLOAT"}, "out_type": {"type": "DT_INT32"}}}, {"name": "g_synthesis/256x256_1/ToRGB/Conv2D", "op": "Conv2D", "input": ["g_synthesis/256x256_1/ToRGB/NCHW_to_NHWC", "g_synthesis/256x256_1/ToRGB/mul"], "attr": {"dilations": {"list": {"i": ["1", "1", "1", "1"]}}, "T": {"type": "DT_FLOAT"}, "data_format": {"s": "TkhXQw=="}, "strides": {"list": {"i": ["1", "1", "1", "1"]}}, "use_cudnn_on_gpu": {"b": true}, "explicit_paddings": {"list": {}}, "padding": {"s": "U0FNRQ=="}}}, {"name": "g_synthesis/512x512/Conv0_up/strided_slice_4", "op": "StridedSlice", "input": ["g_synthesis/512x512/Conv0_up/Shape", "g_synthesis/512x512/Conv0_up/strided_slice_4/stack", "g_synthesis/512x512/Conv0_up/strided_slice_4/stack_1", "g_synthesis/512x512/Conv0_up/strided_slice_4/stack_1"], "attr": {"T": {"type": "DT_INT32"}, "Index": {"type": "DT_INT32"}, "shrink_axis_mask": {"i": "1"}, "begin_mask": {"i": "0"}, "ellipsis_mask": {"i": "0"}, "new_axis_mask": {"i": "0"}, "end_mask": {"i": "0"}}}, {"name": "g_synthesis/256x256_1/ToRGB/NHWC_to_NCHW", "op": "Transpose", "input": ["g_synthesis/256x256_1/ToRGB/Conv2D", "g_synthesis/4x4_1/ToRGB/NHWC_to_NCHW/perm"], "attr": {"Tperm": {"type": "DT_INT32"}, "T": {"type": "DT_FLOAT"}}}, {"name": "g_synthesis/512x512/Conv0_up/conv2d_transpose/input_sizes", "op": "Pack", "input": ["g_synthesis/512x512/Conv0_up/strided_slice_4", "g_synthesis/512x512/Conv0_up/conv2d_transpose/input_sizes/1", "g_synthesis/512x512/Conv0_up/conv2d_transpose/input_sizes/1", "g_synthesis/512x512/Conv0_up/conv2d_transpose/input_sizes/3"], "attr": {"T": {"type": "DT_INT32"}, "axis": {"i": "0"}, "N": {"i": "4"}}}, {"name": "g_synthesis/256x256_1/ToRGB/add", "op": "Add", "input": ["g_synthesis/256x256_1/ToRGB/NHWC_to_NCHW", "g_synthesis/256x256_1/ToRGB/Reshape"], "attr": {"T": {"type": "DT_FLOAT"}}}, {"name": "g_synthesis/512x512/Conv0_up/conv2d_transpose", "op": "Conv2DBackpropInput", "input": ["g_synthesis/512x512/Conv0_up/conv2d_transpose/input_sizes", "g_synthesis/512x512/Conv0_up/AddN", "g_synthesis/256x256_1/ToRGB/NCHW_to_NHWC"], "attr": {"dilations": {"list": {"i": ["1", "1", "1", "1"]}}, "T": {"type": "DT_FLOAT"}, "data_format": {"s": "TkhXQw=="}, "strides": {"list": {"i": ["1", "2", "2", "1"]}}, "use_cudnn_on_gpu": {"b": true}, "explicit_paddings": {"list": {}}, "padding": {"s": "U0FNRQ=="}}}, {"name": "g_synthesis/256x256_2/smooth_transition/LerpClip/sub", "op": "Sub", "input": ["g_synthesis/Reshape_11", "g_synthesis/256x256_1/ToRGB/add"], "attr": {"T": {"type": "DT_FLOAT"}}}, {"name": "g_synthesis/512x512/Conv0_up/depthwise", "op": "DepthwiseConv2dNative", "input": ["g_synthesis/512x512/Conv0_up/conv2d_transpose", "g_synthesis/512x512/Conv0_up/filter"], "attr": {"padding": {"s": "U0FNRQ=="}, "dilations": {"list": {"i": ["1", "1", "1", "1"]}}, "T": {"type": "DT_FLOAT"}, "strides": {"list": {"i": ["1", "1", "1", "1"]}}, "data_format": {"s": "TkhXQw=="}}}, {"name": "g_synthesis/256x256_2/smooth_transition/LerpClip/mul", "op": "Mul", "input": ["g_synthesis/256x256_2/smooth_transition/LerpClip/sub", "g_synthesis/8x8_2/smooth_transition/LerpClip/clip_by_value"], "attr": {"T": {"type": "DT_FLOAT"}}}, {"name": "g_synthesis/512x512/Conv0_up/NHWC_to_NCHW_1", "op": "Transpose", "input": ["g_synthesis/512x512/Conv0_up/depthwise", "g_synthesis/4x4_1/ToRGB/NHWC_to_NCHW/perm"], "attr": {"Tperm": {"type": "DT_INT32"}, "T": {"type": "DT_FLOAT"}}}, {"name": "g_synthesis/256x256_2/smooth_transition/LerpClip/add", "op": "Add", "input": ["g_synthesis/256x256_1/ToRGB/add", "g_synthesis/256x256_2/smooth_transition/LerpClip/mul"], "attr": {"T": {"type": "DT_FLOAT"}}}, {"name": "g_synthesis/512x512/Conv0_up/Noise/Shape", "op": "Shape", "input": ["g_synthesis/512x512/Conv0_up/NHWC_to_NCHW_1"], "attr": {"T": {"type": "DT_FLOAT"}, "out_type": {"type": "DT_INT32"}}}, {"name": "g_synthesis/Reshape_12", "op": "Reshape", "input": ["g_synthesis/256x256_2/smooth_transition/LerpClip/add", "g_synthesis/Reshape_12/shape"], "attr": {"T": {"type": "DT_FLOAT"}, "Tshape": {"type": "DT_INT32"}}}, {"name": "g_synthesis/512x512/Conv0_up/Noise/strided_slice", "op": "StridedSlice", "input": ["g_synthesis/512x512/Conv0_up/Noise/Shape", "g_synthesis/512x512/Conv0_up/strided_slice_4/stack", "g_synthesis/512x512/Conv0_up/strided_slice_4/stack_1", "g_synthesis/512x512/Conv0_up/strided_slice_4/stack_1"], "attr": {"T": {"type": "DT_INT32"}, "Index": {"type": "DT_INT32"}, "shrink_axis_mask": {"i": "1"}, "begin_mask": {"i": "0"}, "ellipsis_mask": {"i": "0"}, "new_axis_mask": {"i": "0"}, "end_mask": {"i": "0"}}}, {"name": "g_synthesis/Tile_6", "op": "Tile", "input": ["g_synthesis/Reshape_12", "g_synthesis/Tile/multiples"], "attr": {"Tmultiples": {"type": "DT_INT32"}, "T": {"type": "DT_FLOAT"}}}, {"name": "g_synthesis/512x512/Conv0_up/Noise/random_uniform/shape", "op": "Pack", "input": ["g_synthesis/512x512/Conv0_up/Noise/strided_slice", "g_synthesis/4x4/Const/Tile/multiples/1", "g_synthesis/512x512/Conv0_up/conv2d_transpose/input_sizes/1", "g_synthesis/512x512/Conv0_up/conv2d_transpose/input_sizes/1"], "attr": {"T": {"type": "DT_INT32"}, "axis": {"i": "0"}, "N": {"i": "4"}}}, {"name": "g_synthesis/Reshape_13", "op": "Reshape", "input": ["g_synthesis/Tile_6", "g_synthesis/Reshape_13/shape"], "attr": {"T": {"type": "DT_FLOAT"}, "Tshape": {"type": "DT_INT32"}}}, {"name": "g_synthesis/512x512/Conv0_up/Noise/random_uniform/RandomUniform", "op": "RandomUniform", "input": ["g_synthesis/512x512/Conv0_up/Noise/random_uniform/shape"], "attr": {"seed": {"i": "0"}, "T": {"type": "DT_INT32"}, "dtype": {"type": "DT_FLOAT"}, "seed2": {"i": "0"}}}, {"name": "g_synthesis/512x512/Conv0_up/Noise/mul", "op": "Mul", "input": ["g_synthesis/512x512/Conv0_up/Noise/Reshape", "g_synthesis/512x512/Conv0_up/Noise/random_uniform/RandomUniform"], "attr": {"T": {"type": "DT_FLOAT"}}}, {"name": "g_synthesis/512x512/Conv0_up/Noise/add", "op": "Add", "input": ["g_synthesis/512x512/Conv0_up/Noise/mul", "g_synthesis/512x512/Conv0_up/Reshape"], "attr": {"T": {"type": "DT_FLOAT"}}}, {"name": "g_synthesis/512x512/Conv0_up/add", "op": "Add", "input": ["g_synthesis/512x512/Conv0_up/NHWC_to_NCHW_1", "g_synthesis/512x512/Conv0_up/Noise/add"], "attr": {"T": {"type": "DT_FLOAT"}}}, {"name": "g_synthesis/512x512/Conv0_up/LeakyRelu", "op": "LeakyRelu", "input": ["g_synthesis/512x512/Conv0_up/add"], "attr": {"T": {"type": "DT_FLOAT"}, "alpha": {"f": 0.20000000298023224}}}, {"name": "g_synthesis/512x512/Conv0_up/InstanceNorm/Mean", "op": "Mean", "input": ["g_synthesis/512x512/Conv0_up/LeakyRelu", "g_synthesis/4x4/Const/InstanceNorm/Mean/reduction_indices"], "attr": {"keep_dims": {"b": true}, "Tidx": {"type": "DT_INT32"}, "T": {"type": "DT_FLOAT"}}}, {"name": "g_synthesis/512x512/Conv0_up/InstanceNorm/sub_1", "op": "Sub", "input": ["g_synthesis/512x512/Conv0_up/LeakyRelu", "g_synthesis/512x512/Conv0_up/InstanceNorm/Mean"], "attr": {"T": {"type": "DT_FLOAT"}}}, {"name": "g_synthesis/512x512/Conv0_up/InstanceNorm/Square", "op": "Square", "input": ["g_synthesis/512x512/Conv0_up/InstanceNorm/sub_1"], "attr": {"T": {"type": "DT_FLOAT"}}}, {"name": "g_synthesis/512x512/Conv0_up/InstanceNorm/Mean_1", "op": "Mean", "input": ["g_synthesis/512x512/Conv0_up/InstanceNorm/Square", "g_synthesis/4x4/Const/InstanceNorm/Mean/reduction_indices"], "attr": {"keep_dims": {"b": true}, "Tidx": {"type": "DT_INT32"}, "T": {"type": "DT_FLOAT"}}}, {"name": "g_synthesis/512x512/Conv0_up/InstanceNorm/add", "op": "Add", "input": ["g_synthesis/4x4/Const/InstanceNorm/epsilon", "g_synthesis/512x512/Conv0_up/InstanceNorm/Mean_1"], "attr": {"T": {"type": "DT_FLOAT"}}}, {"name": "g_synthesis/512x512/Conv0_up/InstanceNorm/Rsqrt", "op": "Rsqrt", "input": ["g_synthesis/512x512/Conv0_up/InstanceNorm/add"], "attr": {"T": {"type": "DT_FLOAT"}}}, {"name": "g_synthesis/512x512/Conv0_up/InstanceNorm/mul", "op": "Mul", "input": ["g_synthesis/512x512/Conv0_up/InstanceNorm/Rsqrt", "g_synthesis/512x512/Conv0_up/InstanceNorm/sub_1"], "attr": {"T": {"type": "DT_FLOAT"}}}, {"name": "g_synthesis/512x512/Conv0_up/StyleMod/mul_2", "op": "Mul", "input": ["g_synthesis/512x512/Conv0_up/InstanceNorm/mul", "g_synthesis/512x512/Conv0_up/StyleMod/add_1"], "attr": {"T": {"type": "DT_FLOAT"}}}, {"name": "g_synthesis/512x512/Conv0_up/StyleMod/add_2", "op": "Add", "input": ["g_synthesis/512x512/Conv0_up/StyleMod/mul_2", "g_synthesis/512x512/Conv0_up/StyleMod/strided_slice_1"], "attr": {"T": {"type": "DT_FLOAT"}}}, {"name": "g_synthesis/512x512/Conv1/NCHW_to_NHWC", "op": "Transpose", "input": ["g_synthesis/512x512/Conv0_up/StyleMod/add_2", "g_synthesis/4x4_1/ToRGB/NCHW_to_NHWC/perm"], "attr": {"Tperm": {"type": "DT_INT32"}, "T": {"type": "DT_FLOAT"}}}, {"name": "g_synthesis/512x512/Conv1/Conv2D", "op": "Conv2D", "input": ["g_synthesis/512x512/Conv1/NCHW_to_NHWC", "g_synthesis/512x512/Conv1/mul"], "attr": {"dilations": {"list": {"i": ["1", "1", "1", "1"]}}, "T": {"type": "DT_FLOAT"}, "data_format": {"s": "TkhXQw=="}, "strides": {"list": {"i": ["1", "1", "1", "1"]}}, "use_cudnn_on_gpu": {"b": true}, "explicit_paddings": {"list": {}}, "padding": {"s": "U0FNRQ=="}}}, {"name": "g_synthesis/512x512/Conv1/NHWC_to_NCHW", "op": "Transpose", "input": ["g_synthesis/512x512/Conv1/Conv2D", "g_synthesis/4x4_1/ToRGB/NHWC_to_NCHW/perm"], "attr": {"Tperm": {"type": "DT_INT32"}, "T": {"type": "DT_FLOAT"}}}, {"name": "g_synthesis/512x512/Conv1/Noise/Shape", "op": "Shape", "input": ["g_synthesis/512x512/Conv1/NHWC_to_NCHW"], "attr": {"T": {"type": "DT_FLOAT"}, "out_type": {"type": "DT_INT32"}}}, {"name": "g_synthesis/512x512/Conv1/Noise/strided_slice", "op": "StridedSlice", "input": ["g_synthesis/512x512/Conv1/Noise/Shape", "g_synthesis/512x512/Conv0_up/strided_slice_4/stack", "g_synthesis/512x512/Conv0_up/strided_slice_4/stack_1", "g_synthesis/512x512/Conv0_up/strided_slice_4/stack_1"], "attr": {"T": {"type": "DT_INT32"}, "Index": {"type": "DT_INT32"}, "shrink_axis_mask": {"i": "1"}, "begin_mask": {"i": "0"}, "ellipsis_mask": {"i": "0"}, "new_axis_mask": {"i": "0"}, "end_mask": {"i": "0"}}}, {"name": "g_synthesis/512x512/Conv1/Noise/random_uniform/shape", "op": "Pack", "input": ["g_synthesis/512x512/Conv1/Noise/strided_slice", "g_synthesis/4x4/Const/Tile/multiples/1", "g_synthesis/512x512/Conv0_up/conv2d_transpose/input_sizes/1", "g_synthesis/512x512/Conv0_up/conv2d_transpose/input_sizes/1"], "attr": {"T": {"type": "DT_INT32"}, "axis": {"i": "0"}, "N": {"i": "4"}}}, {"name": "g_synthesis/512x512/Conv1/Noise/random_uniform/RandomUniform", "op": "RandomUniform", "input": ["g_synthesis/512x512/Conv1/Noise/random_uniform/shape"], "attr": {"seed": {"i": "0"}, "T": {"type": "DT_INT32"}, "dtype": {"type": "DT_FLOAT"}, "seed2": {"i": "0"}}}, {"name": "g_synthesis/512x512/Conv1/Noise/mul", "op": "Mul", "input": ["g_synthesis/512x512/Conv1/Noise/Reshape", "g_synthesis/512x512/Conv1/Noise/random_uniform/RandomUniform"], "attr": {"T": {"type": "DT_FLOAT"}}}, {"name": "g_synthesis/512x512/Conv1/Noise/add", "op": "Add", "input": ["g_synthesis/512x512/Conv1/Noise/mul", "g_synthesis/512x512/Conv1/Reshape"], "attr": {"T": {"type": "DT_FLOAT"}}}, {"name": "g_synthesis/512x512/Conv1/add", "op": "Add", "input": ["g_synthesis/512x512/Conv1/NHWC_to_NCHW", "g_synthesis/512x512/Conv1/Noise/add"], "attr": {"T": {"type": "DT_FLOAT"}}}, {"name": "g_synthesis/512x512/Conv1/LeakyRelu", "op": "LeakyRelu", "input": ["g_synthesis/512x512/Conv1/add"], "attr": {"T": {"type": "DT_FLOAT"}, "alpha": {"f": 0.20000000298023224}}}, {"name": "g_synthesis/512x512/Conv1/InstanceNorm/Mean", "op": "Mean", "input": ["g_synthesis/512x512/Conv1/LeakyRelu", "g_synthesis/4x4/Const/InstanceNorm/Mean/reduction_indices"], "attr": {"keep_dims": {"b": true}, "Tidx": {"type": "DT_INT32"}, "T": {"type": "DT_FLOAT"}}}, {"name": "g_synthesis/512x512/Conv1/InstanceNorm/sub_1", "op": "Sub", "input": ["g_synthesis/512x512/Conv1/LeakyRelu", "g_synthesis/512x512/Conv1/InstanceNorm/Mean"], "attr": {"T": {"type": "DT_FLOAT"}}}, {"name": "g_synthesis/512x512/Conv1/InstanceNorm/Square", "op": "Square", "input": ["g_synthesis/512x512/Conv1/InstanceNorm/sub_1"], "attr": {"T": {"type": "DT_FLOAT"}}}, {"name": "g_synthesis/512x512/Conv1/InstanceNorm/Mean_1", "op": "Mean", "input": ["g_synthesis/512x512/Conv1/InstanceNorm/Square", "g_synthesis/4x4/Const/InstanceNorm/Mean/reduction_indices"], "attr": {"keep_dims": {"b": true}, "Tidx": {"type": "DT_INT32"}, "T": {"type": "DT_FLOAT"}}}, {"name": "g_synthesis/512x512/Conv1/InstanceNorm/add", "op": "Add", "input": ["g_synthesis/4x4/Const/InstanceNorm/epsilon", "g_synthesis/512x512/Conv1/InstanceNorm/Mean_1"], "attr": {"T": {"type": "DT_FLOAT"}}}, {"name": "g_synthesis/512x512/Conv1/InstanceNorm/Rsqrt", "op": "Rsqrt", "input": ["g_synthesis/512x512/Conv1/InstanceNorm/add"], "attr": {"T": {"type": "DT_FLOAT"}}}, {"name": "g_synthesis/512x512/Conv1/InstanceNorm/mul", "op": "Mul", "input": ["g_synthesis/512x512/Conv1/InstanceNorm/Rsqrt", "g_synthesis/512x512/Conv1/InstanceNorm/sub_1"], "attr": {"T": {"type": "DT_FLOAT"}}}, {"name": "g_synthesis/512x512/Conv1/StyleMod/mul_2", "op": "Mul", "input": ["g_synthesis/512x512/Conv1/InstanceNorm/mul", "g_synthesis/512x512/Conv1/StyleMod/add_1"], "attr": {"T": {"type": "DT_FLOAT"}}}, {"name": "g_synthesis/512x512/Conv1/StyleMod/add_2", "op": "Add", "input": ["g_synthesis/512x512/Conv1/StyleMod/mul_2", "g_synthesis/512x512/Conv1/StyleMod/strided_slice_1"], "attr": {"T": {"type": "DT_FLOAT"}}}, {"name": "g_synthesis/512x512_1/ToRGB/NCHW_to_NHWC", "op": "Transpose", "input": ["g_synthesis/512x512/Conv1/StyleMod/add_2", "g_synthesis/4x4_1/ToRGB/NCHW_to_NHWC/perm"], "attr": {"Tperm": {"type": "DT_INT32"}, "T": {"type": "DT_FLOAT"}}}, {"name": "g_synthesis/512x512_1/ToRGB/Conv2D", "op": "Conv2D", "input": ["g_synthesis/512x512_1/ToRGB/NCHW_to_NHWC", "g_synthesis/512x512_1/ToRGB/mul"], "attr": {"dilations": {"list": {"i": ["1", "1", "1", "1"]}}, "T": {"type": "DT_FLOAT"}, "data_format": {"s": "TkhXQw=="}, "strides": {"list": {"i": ["1", "1", "1", "1"]}}, "use_cudnn_on_gpu": {"b": true}, "explicit_paddings": {"list": {}}, "padding": {"s": "U0FNRQ=="}}}, {"name": "g_synthesis/512x512_1/ToRGB/NHWC_to_NCHW", "op": "Transpose", "input": ["g_synthesis/512x512_1/ToRGB/Conv2D", "g_synthesis/4x4_1/ToRGB/NHWC_to_NCHW/perm"], "attr": {"Tperm": {"type": "DT_INT32"}, "T": {"type": "DT_FLOAT"}}}, {"name": "g_synthesis/512x512_1/ToRGB/add", "op": "Add", "input": ["g_synthesis/512x512_1/ToRGB/NHWC_to_NCHW", "g_synthesis/512x512_1/ToRGB/Reshape"], "attr": {"T": {"type": "DT_FLOAT"}}}, {"name": "g_synthesis/512x512_2/smooth_transition/LerpClip/sub", "op": "Sub", "input": ["g_synthesis/Reshape_13", "g_synthesis/512x512_1/ToRGB/add"], "attr": {"T": {"type": "DT_FLOAT"}}}, {"name": "g_synthesis/512x512_2/smooth_transition/LerpClip/mul", "op": "Mul", "input": ["g_synthesis/512x512_2/smooth_transition/LerpClip/sub", "g_synthesis/8x8_2/smooth_transition/LerpClip/clip_by_value"], "attr": {"T": {"type": "DT_FLOAT"}}}, {"name": "g_synthesis/512x512_2/smooth_transition/LerpClip/add", "op": "Add", "input": ["g_synthesis/512x512_1/ToRGB/add", "g_synthesis/512x512_2/smooth_transition/LerpClip/mul"], "attr": {"T": {"type": "DT_FLOAT"}}}, {"name": "images_out", "op": "Identity", "input": ["g_synthesis/512x512_2/smooth_transition/LerpClip/add"], "attr": {"T": {"type": "DT_FLOAT"}}}], "library": {}, "versions": {"producer": 38}}, "weightsManifest": [{"paths": ["group1-shard1of13.bin", "group1-shard2of13.bin", "group1-shard3of13.bin", "group1-shard4of13.bin", "group1-shard5of13.bin", "group1-shard6of13.bin", "group1-shard7of13.bin", "group1-shard8of13.bin", "group1-shard9of13.bin", "group1-shard10of13.bin", "group1-shard11of13.bin", "group1-shard12of13.bin", "group1-shard13of13.bin"], "weights": [{"name": "g_synthesis/8x8_2/smooth_transition/LerpClip/clip_by_value", "shape": [], "dtype": "float32", "quantization": {"min": 0.0, "scale": 1.0, "dtype": "uint16"}}, {"name": "g_synthesis/512x512_1/ToRGB/Reshape", "shape": [1, 3, 1, 1], "dtype": "float32", "quantization": {"min": -0.5803807377815247, "scale": 7.367083161757814e-07, "dtype": "uint16"}}, {"name": "g_synthesis/4x4_1/ToRGB/NHWC_to_NCHW/perm", "shape": [4], "dtype": "int32", "quantization": {"min": -0.0, "scale": 4.5777065690089265e-05, "dtype": "uint16"}}, {"name": "g_synthesis/512x512_1/ToRGB/mul", "shape": [1, 1, 32, 3], "dtype": "float32", "quantization": {"min": -0.12129386248155273, "scale": 4.113887616386946e-06, "dtype": "uint16"}}, {"name": "g_synthesis/4x4_1/ToRGB/NCHW_to_NHWC/perm", "shape": [4], "dtype": "int32", "quantization": {"min": -0.0, "scale": 4.5777065690089265e-05, "dtype": "uint16"}}, {"name": "g_synthesis/4x4/Const/StyleMod/strided_slice/stack_2", "shape": [2], "dtype": "int32", "quantization": {"min": 1.0, "scale": 1.0, "dtype": "uint16"}}, {"name": "g_synthesis/4x4/Const/StyleMod/strided_slice_1/stack_1", "shape": [2], "dtype": "int32", "quantization": {"min": -0.0, "scale": 3.0518043793392844e-05, "dtype": "uint16"}}, {"name": "g_synthesis/4x4/Const/StyleMod/strided_slice/stack_1", "shape": [2], "dtype": "int32", "quantization": {"min": -0.0, "scale": 1.5259021896696422e-05, "dtype": "uint16"}}, {"name": "g_synthesis/512x512/Conv0_up/StyleMod/Reshape/shape", "shape": [5], "dtype": "int32", "quantization": {"min": -1.00004577706569, "scale": 0.000503547722590982, "dtype": "uint16"}}, {"name": "g_synthesis/512x512/Conv1/StyleMod/mul_1", "shape": [64], "dtype": "float32", "quantization": {"min": -2.325993459801511, "scale": 0.00013805754153617706, "dtype": "uint16"}}, {"name": "g_synthesis/512x512/Conv1/StyleMod/mul", "shape": [512, 64], "dtype": "float32", "quantization": {"min": -1.9618176418938045, "scale": 5.0611878692890056e-05, "dtype": "uint16"}}, {"name": "g_synthesis/4x4/Const/StyleMod/flatten/Reshape/shape/1", "shape": [], "dtype": "int32", "quantization": {"min": -1.0, "scale": 1.0, "dtype": "uint16"}}, {"name": "g_synthesis/512x512/Conv0_up/strided_slice_4/stack_1", "shape": [1], "dtype": "int32", "quantization": {"min": 1.0, "scale": 1.0, "dtype": "uint16"}}, {"name": "g_synthesis/512x512/Conv0_up/strided_slice_4/stack", "shape": [1], "dtype": "int32", "quantization": {"min": 0.0, "scale": 1.0, "dtype": "uint16"}}, {"name": "g_synthesis/strided_slice_16/stack_1", "shape": [2], "dtype": "int32", "quantization": {"min": -0.0, "scale": 0.00024414435034714275, "dtype": "uint16"}}, {"name": "g_synthesis/strided_slice_15/stack_1", "shape": [2], "dtype": "int32", "quantization": {"min": -0.0, "scale": 0.00022888532845044633, "dtype": "uint16"}}, {"name": "w_avg", "shape": [512], "dtype": "float32", "quantization": {"min": -0.5085990321547977, "scale": 2.9845609539041006e-05, "dtype": "uint16"}}, {"name": "Truncation/Select", "shape": [1, 16, 1], "dtype": "float32", "quantization": {"min": 0.699999988079071, "scale": 4.577706750910642e-06, "dtype": "uint16"}}, {"name": "g_mapping/Broadcast/Tile/multiples", "shape": [3], "dtype": "int32", "quantization": {"min": 1.0, "scale": 0.00022888532845044633, "dtype": "uint16"}}, {"name": "g_synthesis/4x4/Const/Tile/multiples/1", "shape": [], "dtype": "int32", "quantization": {"min": 1.0, "scale": 1.0, "dtype": "uint16"}}, {"name": "g_mapping/Dense7/mul_1", "shape": [512], "dtype": "float32", "quantization": {"min": -0.24117648488025312, "scale": 6.138680637351179e-06, "dtype": "uint16"}}, {"name": "g_mapping/Dense7/mul", "shape": [512, 512], "dtype": "float32", "quantization": {"min": -0.2990046982048687, "scale": 8.765638597662592e-06, "dtype": "uint16"}}, {"name": "g_mapping/Dense6/mul_1", "shape": [512], "dtype": "float32", "quantization": {"min": -0.21611694222087488, "scale": 5.102513096939556e-06, "dtype": "uint16"}}, {"name": "g_mapping/Dense6/mul", "shape": [512, 512], "dtype": "float32", "quantization": {"min": -0.27191115462635385, "scale": 8.862525818140017e-06, "dtype": "uint16"}}, {"name": "g_mapping/Dense5/mul_1", "shape": [512], "dtype": "float32", "quantization": {"min": -0.19940418310311653, "scale": 5.4895986979164335e-06, "dtype": "uint16"}}, {"name": "g_mapping/Dense5/mul", "shape": [512, 512], "dtype": "float32", "quantization": {"min": -0.28195503207095984, "scale": 8.712264996167224e-06, "dtype": "uint16"}}, {"name": "g_mapping/Dense4/mul_1", "shape": [512], "dtype": "float32", "quantization": {"min": -0.1935089497864724, "scale": 5.035361691034931e-06, "dtype": "uint16"}}, {"name": "g_mapping/Dense4/mul", "shape": [512, 512], "dtype": "float32", "quantization": {"min": -0.2791396389043403, "scale": 8.542388802654476e-06, "dtype": "uint16"}}, {"name": "g_mapping/Dense3/mul_1", "shape": [512], "dtype": "float32", "quantization": {"min": -0.1597404611877403, "scale": 4.709607323183569e-06, "dtype": "uint16"}}, {"name": "g_mapping/Dense3/mul", "shape": [512, 512], "dtype": "float32", "quantization": {"min": -0.2695961202337839, "scale": 8.233451021065963e-06, "dtype": "uint16"}}, {"name": "g_mapping/Dense2/mul_1", "shape": [512], "dtype": "float32", "quantization": {"min": -0.20056007847393406, "scale": 6.069669172712346e-06, "dtype": "uint16"}}, {"name": "g_mapping/Dense2/mul", "shape": [512, 512], "dtype": "float32", "quantization": {"min": -0.27597447371395534, "scale": 8.616393696773404e-06, "dtype": "uint16"}}, {"name": "g_mapping/Dense1/mul_1", "shape": [512], "dtype": "float32", "quantization": {"min": -0.18489758164529588, "scale": 6.221318359532163e-06, "dtype": "uint16"}}, {"name": "g_mapping/Dense1/mul", "shape": [512, 512], "dtype": "float32", "quantization": {"min": -0.310937064630976, "scale": 9.223608455132627e-06, "dtype": "uint16"}}, {"name": "g_mapping/Dense0/mul_1", "shape": [512], "dtype": "float32", "quantization": {"min": -0.1568267900569766, "scale": 4.553887858092125e-06, "dtype": "uint16"}}, {"name": "g_mapping/Dense0/mul", "shape": [512, 512], "dtype": "float32", "quantization": {"min": -0.30012056205850574, "scale": 8.869597247347748e-06, "dtype": "uint16"}}, {"name": "g_synthesis/4x4/Const/InstanceNorm/epsilon", "shape": [], "dtype": "float32", "quantization": {"min": 9.99999993922529e-09, "scale": 1.0, "dtype": "uint16"}}, {"name": "g_synthesis/4x4/Const/StyleMod/strided_slice/stack", "shape": [2], "dtype": "int32", "quantization": {"min": 0.0, "scale": 1.0, "dtype": "uint16"}}, {"name": "g_synthesis/4x4/Const/Noise/random_uniform/sub", "shape": [], "dtype": "float32", "quantization": {"min": 1.0, "scale": 1.0, "dtype": "uint16"}}, {"name": "g_synthesis/4x4/Const/InstanceNorm/Mean/reduction_indices", "shape": [2], "dtype": "int32", "quantization": {"min": 2.0, "scale": 1.5259021896696422e-05, "dtype": "uint16"}}, {"name": "g_synthesis/512x512/Conv1/Reshape", "shape": [1, 32, 1, 1], "dtype": "float32", "quantization": {"min": -31.71206506540094, "scale": 0.0007420977948049736, "dtype": "uint16"}}, {"name": "g_synthesis/512x512/Conv0_up/conv2d_transpose/input_sizes/1", "shape": [], "dtype": "int32", "quantization": {"min": 512.0, "scale": 1.0, "dtype": "uint16"}}, {"name": "g_synthesis/512x512/Conv1/mul", "shape": [3, 3, 32, 32], "dtype": "float32", "quantization": {"min": -2.7485650921064373, "scale": 6.967211893805925e-05, "dtype": "uint16"}}, {"name": "g_synthesis/512x512/Conv0_up/StyleMod/mul_1", "shape": [64], "dtype": "float32", "quantization": {"min": -6.423767268973283, "scale": 0.0004180235094015282, "dtype": "uint16"}}, {"name": "g_synthesis/512x512/Conv0_up/StyleMod/mul", "shape": [512, 64], "dtype": "float32", "quantization": {"min": -0.8485135820661938, "scale": 3.0229562224026285e-05, "dtype": "uint16"}}, {"name": "g_synthesis/strided_slice_14/stack_1", "shape": [2], "dtype": "int32", "quantization": {"min": -0.0, "scale": 0.0002136263065537499, "dtype": "uint16"}}, {"name": "g_synthesis/512x512/Conv0_up/Reshape", "shape": [1, 32, 1, 1], "dtype": "float32", "quantization": {"min": -20.799873567102267, "scale": 0.0007326220833046482, "dtype": "uint16"}}, {"name": "g_synthesis/512x512/Conv0_up/filter", "shape": [3, 3, 32, 1], "dtype": "float32", "quantization": {"min": 0.0625, "scale": 2.861066605630579e-06, "dtype": "uint16"}}, {"name": "g_synthesis/256x256/Conv0_up/StyleMod/Reshape/shape", "shape": [5], "dtype": "int32", "quantization": {"min": -0.9997711146715496, "scale": 0.0009918364232852674, "dtype": "uint16"}}, {"name": "g_synthesis/256x256/Conv1/StyleMod/mul_1", "shape": [128], "dtype": "float32", "quantization": {"min": -12.930681406319293, "scale": 0.0006182196120825824, "dtype": "uint16"}}, {"name": "g_synthesis/256x256/Conv1/StyleMod/mul", "shape": [512, 128], "dtype": "float32", "quantization": {"min": -1.608075394584593, "scale": 5.4653685707935725e-05, "dtype": "uint16"}}, {"name": "g_synthesis/strided_slice_13/stack_1", "shape": [2], "dtype": "int32", "quantization": {"min": -0.0, "scale": 0.00019836728465705348, "dtype": "uint16"}}, {"name": "g_synthesis/256x256/Conv1/Reshape", "shape": [1, 64, 1, 1], "dtype": "float32", "quantization": {"min": -271.08018762017036, "scale": 0.004680332664931549, "dtype": "uint16"}}, {"name": "g_synthesis/256x256/Conv0_up/conv2d_transpose/input_sizes/1", "shape": [], "dtype": "int32", "quantization": {"min": 256.0, "scale": 1.0, "dtype": "uint16"}}, {"name": "g_synthesis/256x256/Conv1/mul", "shape": [3, 3, 64, 64], "dtype": "float32", "quantization": {"min": -3.013268988485548, "scale": 9.377490394564928e-05, "dtype": "uint16"}}, {"name": "g_synthesis/256x256/Conv0_up/StyleMod/mul_1", "shape": [128], "dtype": "float32", "quantization": {"min": -5.032401047726467, "scale": 0.0005361032329526438, "dtype": "uint16"}}, {"name": "g_synthesis/256x256/Conv0_up/StyleMod/mul", "shape": [512, 128], "dtype": "float32", "quantization": {"min": -1.4490511239125234, "scale": 5.5848729049276323e-05, "dtype": "uint16"}}, {"name": "g_synthesis/strided_slice_12/stack_1", "shape": [2], "dtype": "int32", "quantization": {"min": -0.0, "scale": 0.00018310826276035706, "dtype": "uint16"}}, {"name": "g_synthesis/256x256/Conv0_up/Reshape", "shape": [1, 64, 1, 1], "dtype": "float32", "quantization": {"min": -103.36170740957763, "scale": 0.002010302384658037, "dtype": "uint16"}}, {"name": "g_synthesis/256x256/Conv0_up/filter", "shape": [3, 3, 64, 1], "dtype": "float32", "quantization": {"min": 0.0625, "scale": 2.861066605630579e-06, "dtype": "uint16"}}, {"name": "g_synthesis/128x128/Conv0_up/StyleMod/Reshape/shape", "shape": [5], "dtype": "int32", "quantization": {"min": -0.9999542229343099, "scale": 0.0019684138246738384, "dtype": "uint16"}}, {"name": "g_synthesis/128x128/Conv1/StyleMod/mul_1", "shape": [256], "dtype": "float32", "quantization": {"min": -24.100418437510434, "scale": 0.0006456391565985435, "dtype": "uint16"}}, {"name": "g_synthesis/128x128/Conv1/StyleMod/mul", "shape": [512, 256], "dtype": "float32", "quantization": {"min": -1.7084014861763974, "scale": 5.255488006202964e-05, "dtype": "uint16"}}, {"name": "g_synthesis/strided_slice_11/stack_1", "shape": [2], "dtype": "int32", "quantization": {"min": -0.0, "scale": 0.00016784924086366064, "dtype": "uint16"}}, {"name": "g_synthesis/128x128/Conv1/Reshape", "shape": [1, 128, 1, 1], "dtype": "float32", "quantization": {"min": -66.53056798300318, "scale": 0.0016636385182416838, "dtype": "uint16"}}, {"name": "g_synthesis/128x128/Conv0_up/conv2d_transpose/input_sizes/1", "shape": [], "dtype": "int32", "quantization": {"min": 128.0, "scale": 1.0, "dtype": "uint16"}}, {"name": "g_synthesis/128x128/Conv1/mul", "shape": [3, 3, 128, 128], "dtype": "float32", "quantization": {"min": -1.7879371538291018, "scale": 6.177015559955439e-05, "dtype": "uint16"}}, {"name": "g_synthesis/128x128/Conv0_up/StyleMod/mul_1", "shape": [256], "dtype": "float32", "quantization": {"min": -5.737800616349255, "scale": 0.0005263071561501793, "dtype": "uint16"}}, {"name": "g_synthesis/128x128/Conv0_up/StyleMod/mul", "shape": [512, 256], "dtype": "float32", "quantization": {"min": -1.3213688088289213, "scale": 4.317211124347114e-05, "dtype": "uint16"}}, {"name": "g_synthesis/strided_slice_10/stack_1", "shape": [2], "dtype": "int32", "quantization": {"min": -0.0, "scale": 0.00015259021896696422, "dtype": "uint16"}}, {"name": "g_synthesis/128x128/Conv0_up/Reshape", "shape": [1, 128, 1, 1], "dtype": "float32", "quantization": {"min": -42.54650583788906, "scale": 0.0014501194900439353, "dtype": "uint16"}}, {"name": "g_synthesis/128x128/Conv0_up/filter", "shape": [3, 3, 128, 1], "dtype": "float32", "quantization": {"min": 0.0625, "scale": 2.861066605630579e-06, "dtype": "uint16"}}, {"name": "g_synthesis/64x64/Conv0_up/StyleMod/Reshape/shape", "shape": [5], "dtype": "int32", "quantization": {"min": -1.0, "scale": 0.00392156862745098, "dtype": "uint16"}}, {"name": "g_synthesis/64x64/Conv1/StyleMod/mul_1", "shape": [512], "dtype": "float32", "quantization": {"min": -7.251274377621038, "scale": 0.00042114498650371924, "dtype": "uint16"}}, {"name": "g_synthesis/64x64/Conv1/StyleMod/mul", "shape": [512, 512], "dtype": "float32", "quantization": {"min": -1.6329663934101544, "scale": 5.80837445191063e-05, "dtype": "uint16"}}, {"name": "g_synthesis/strided_slice_9/stack_1", "shape": [2], "dtype": "int32", "quantization": {"min": -0.0, "scale": 0.0001373311970702678, "dtype": "uint16"}}, {"name": "g_synthesis/64x64/Conv1/Reshape", "shape": [1, 256, 1, 1], "dtype": "float32", "quantization": {"min": -87.61965604144575, "scale": 0.0019046095131172453, "dtype": "uint16"}}, {"name": "g_synthesis/256x256/Conv0_up/conv2d_transpose/input_sizes/3", "shape": [], "dtype": "int32", "quantization": {"min": 64.0, "scale": 1.0, "dtype": "uint16"}}, {"name": "g_synthesis/64x64/Conv1/mul", "shape": [3, 3, 256, 256], "dtype": "float32", "quantization": {"min": -1.722369898781675, "scale": 4.359657525961665e-05, "dtype": "uint16"}}, {"name": "g_synthesis/64x64/Conv0_up/StyleMod/mul_1", "shape": [512], "dtype": "float32", "quantization": {"min": -7.201242609184849, "scale": 0.0005435310294501358, "dtype": "uint16"}}, {"name": "g_synthesis/64x64/Conv0_up/StyleMod/mul", "shape": [512, 512], "dtype": "float32", "quantization": {"min": -1.5649952253215216, "scale": 5.2900054939207736e-05, "dtype": "uint16"}}, {"name": "g_synthesis/strided_slice_8/stack_1", "shape": [2], "dtype": "int32", "quantization": {"min": -0.0, "scale": 0.00012207217517357137, "dtype": "uint16"}}, {"name": "g_synthesis/64x64/Conv0_up/Reshape_2", "shape": [1, 256, 1, 1], "dtype": "float32", "quantization": {"min": -41.430087842451606, "scale": 0.0008650009988819861, "dtype": "uint16"}}, {"name": "g_synthesis/64x64/Conv0_up/filter", "shape": [3, 3, 256, 1], "dtype": "float32", "quantization": {"min": 0.0625, "scale": 2.861066605630579e-06, "dtype": "uint16"}}, {"name": "g_synthesis/64x64/Conv0_up/mul", "shape": [3, 3, 512, 256], "dtype": "float32", "quantization": {"min": -0.8909747367539321, "scale": 2.5083748219423766e-05, "dtype": "uint16"}}, {"name": "g_synthesis/64x64/Conv0_up/Reshape_1/shape", "shape": [4], "dtype": "int32", "quantization": {"min": -1.0019684138246738, "scale": 0.007827878233005264, "dtype": "uint16"}}, {"name": "g_synthesis/Tile/multiples", "shape": [6], "dtype": "int32", "quantization": {"min": 1.0, "scale": 1.5259021896696422e-05, "dtype": "uint16"}}, {"name": "g_synthesis/64x64/Conv0_up/Reshape/shape", "shape": [6], "dtype": "int32", "quantization": {"min": -1.0019684138246738, "scale": 0.007827878233005264, "dtype": "uint16"}}, {"name": "g_synthesis/4x4/Const/StyleMod/Reshape/shape", "shape": [5], "dtype": "int32", "quantization": {"min": -1.0019684138246738, "scale": 0.007827878233005264, "dtype": "uint16"}}, {"name": "g_synthesis/32x32/Conv1/StyleMod/mul_1", "shape": [1024], "dtype": "float32", "quantization": {"min": -7.132207247368156, "scale": 0.0004942282064561123, "dtype": "uint16"}}, {"name": "g_synthesis/32x32/Conv1/StyleMod/mul", "shape": [512, 1024], "dtype": "float32", "quantization": {"min": -2.073323472810208, "scale": 6.689219141184733e-05, "dtype": "uint16"}}, {"name": "g_synthesis/strided_slice_7/stack_1", "shape": [2], "dtype": "int32", "quantization": {"min": -0.0, "scale": 0.00010681315327687495, "dtype": "uint16"}}, {"name": "g_synthesis/32x32/Conv1/Reshape", "shape": [1, 512, 1, 1], "dtype": "float32", "quantization": {"min": -31.455460364010747, "scale": 0.0007711183654640799, "dtype": "uint16"}}, {"name": "g_synthesis/512x512/Conv0_up/conv2d_transpose/input_sizes/3", "shape": [], "dtype": "int32", "quantization": {"min": 32.0, "scale": 1.0, "dtype": "uint16"}}, {"name": "g_synthesis/32x32/Conv1/mul", "shape": [3, 3, 512, 512], "dtype": "float32", "quantization": {"min": -0.863446361992937, "scale": 2.7322522688213943e-05, "dtype": "uint16"}}, {"name": "g_synthesis/32x32/Conv0_up/StyleMod/mul_1", "shape": [1024], "dtype": "float32", "quantization": {"min": -8.870621761541177, "scale": 0.0005392803064952992, "dtype": "uint16"}}, {"name": "g_synthesis/32x32/Conv0_up/StyleMod/mul", "shape": [512, 1024], "dtype": "float32", "quantization": {"min": -2.001599114785398, "scale": 7.386519723910984e-05, "dtype": "uint16"}}, {"name": "g_synthesis/strided_slice_6/stack_1", "shape": [2], "dtype": "int32", "quantization": {"min": -0.0, "scale": 9.155413138017853e-05, "dtype": "uint16"}}, {"name": "g_synthesis/32x32/Conv0_up/Reshape_2", "shape": [1, 512, 1, 1], "dtype": "float32", "quantization": {"min": -20.76789825187992, "scale": 0.0005765977636703848, "dtype": "uint16"}}, {"name": "g_synthesis/8x8/Conv0_up/filter", "shape": [3, 3, 512, 1], "dtype": "float32", "quantization": {"min": 0.0625, "scale": 2.861066605630579e-06, "dtype": "uint16"}}, {"name": "g_synthesis/32x32/Conv0_up/mul", "shape": [3, 3, 512, 512], "dtype": "float32", "quantization": {"min": -0.8898333704943624, "scale": 2.869967329444807e-05, "dtype": "uint16"}}, {"name": "g_synthesis/32x32/Conv0_up/Reshape_1/shape", "shape": [4], "dtype": "int32", "quantization": {"min": -1.0019684138246738, "scale": 0.007827878233005264, "dtype": "uint16"}}, {"name": "g_synthesis/32x32/Conv0_up/Reshape/shape", "shape": [6], "dtype": "int32", "quantization": {"min": -1.0019684138246738, "scale": 0.007827878233005264, "dtype": "uint16"}}, {"name": "g_synthesis/16x16/Conv1/StyleMod/mul_1", "shape": [1024], "dtype": "float32", "quantization": {"min": -28.45615854153437, "scale": 0.0007356624322415235, "dtype": "uint16"}}, {"name": "g_synthesis/16x16/Conv1/StyleMod/mul", "shape": [512, 1024], "dtype": "float32", "quantization": {"min": -2.328658989113001, "scale": 6.748758119440665e-05, "dtype": "uint16"}}, {"name": "g_synthesis/strided_slice_5/stack_1", "shape": [2], "dtype": "int32", "quantization": {"min": -0.0, "scale": 7.629510948348211e-05, "dtype": "uint16"}}, {"name": "g_synthesis/16x16/Conv1/Reshape", "shape": [1, 512, 1, 1], "dtype": "float32", "quantization": {"min": -15.975835650254782, "scale": 0.0005118491493737915, "dtype": "uint16"}}, {"name": "g_synthesis/16x16/Conv0_up/Noise/random_uniform/shape/2", "shape": [], "dtype": "int32", "quantization": {"min": 16.0, "scale": 1.0, "dtype": "uint16"}}, {"name": "g_synthesis/16x16/Conv1/mul", "shape": [3, 3, 512, 512], "dtype": "float32", "quantization": {"min": -0.7189400213901808, "scale": 2.1486551745074142e-05, "dtype": "uint16"}}, {"name": "g_synthesis/16x16/Conv0_up/StyleMod/mul_1", "shape": [1024], "dtype": "float32", "quantization": {"min": -5.009269405413594, "scale": 0.00029528822243654764, "dtype": "uint16"}}, {"name": "g_synthesis/16x16/Conv0_up/StyleMod/mul", "shape": [512, 1024], "dtype": "float32", "quantization": {"min": -1.422431615583682, "scale": 4.711910744612701e-05, "dtype": "uint16"}}, {"name": "g_synthesis/strided_slice_4/stack_1", "shape": [2], "dtype": "int32", "quantization": {"min": -0.0, "scale": 6.103608758678569e-05, "dtype": "uint16"}}, {"name": "g_synthesis/16x16/Conv0_up/Reshape_2", "shape": [1, 512, 1, 1], "dtype": "float32", "quantization": {"min": -14.46924611565504, "scale": 0.0005251613717935192, "dtype": "uint16"}}, {"name": "g_synthesis/16x16/Conv0_up/mul", "shape": [3, 3, 512, 512], "dtype": "float32", "quantization": {"min": -0.7088538223494562, "scale": 1.9459571810729847e-05, "dtype": "uint16"}}, {"name": "g_synthesis/16x16/Conv0_up/Reshape_1/shape", "shape": [4], "dtype": "int32", "quantization": {"min": -1.0019684138246738, "scale": 0.007827878233005264, "dtype": "uint16"}}, {"name": "g_synthesis/16x16/Conv0_up/Reshape/shape", "shape": [6], "dtype": "int32", "quantization": {"min": -1.0019684138246738, "scale": 0.007827878233005264, "dtype": "uint16"}}, {"name": "g_synthesis/8x8/Conv1/StyleMod/mul_1", "shape": [1024], "dtype": "float32", "quantization": {"min": -5.513014712500665, "scale": 0.0003305759256761207, "dtype": "uint16"}}, {"name": "g_synthesis/8x8/Conv1/StyleMod/mul", "shape": [512, 1024], "dtype": "float32", "quantization": {"min": -1.2526748629723023, "scale": 3.898042267153044e-05, "dtype": "uint16"}}, {"name": "g_synthesis/strided_slice_3/stack_1", "shape": [2], "dtype": "int32", "quantization": {"min": -0.0, "scale": 4.5777065690089265e-05, "dtype": "uint16"}}, {"name": "g_synthesis/8x8/Conv1/Reshape", "shape": [1, 512, 1, 1], "dtype": "float32", "quantization": {"min": -17.919048070059933, "scale": 0.0006561110201039849, "dtype": "uint16"}}, {"name": "g_synthesis/8x8/Conv0_up/Noise/random_uniform/shape/2", "shape": [], "dtype": "int32", "quantization": {"min": 8.0, "scale": 1.0, "dtype": "uint16"}}, {"name": "g_synthesis/8x8/Conv1/mul", "shape": [3, 3, 512, 512], "dtype": "float32", "quantization": {"min": -0.49971782148380056, "scale": 1.6651155292519428e-05, "dtype": "uint16"}}, {"name": "g_synthesis/8x8/Conv0_up/StyleMod/mul_1", "shape": [1024], "dtype": "float32", "quantization": {"min": -3.8005942919438573, "scale": 0.0002110854924711945, "dtype": "uint16"}}, {"name": "g_synthesis/8x8/Conv0_up/StyleMod/mul", "shape": [512, 1024], "dtype": "float32", "quantization": {"min": -1.0258576654065454, "scale": 3.4094109654908616e-05, "dtype": "uint16"}}, {"name": "g_synthesis/8x8/Conv0_up/Reshape_2", "shape": [1, 512, 1, 1], "dtype": "float32", "quantization": {"min": -14.597158482299022, "scale": 0.000361342636391292, "dtype": "uint16"}}, {"name": "g_synthesis/8x8/Conv0_up/mul", "shape": [3, 3, 512, 512], "dtype": "float32", "quantization": {"min": -0.43928222351837476, "scale": 1.4255929886362523e-05, "dtype": "uint16"}}, {"name": "g_synthesis/8x8/Conv0_up/Reshape_1/shape", "shape": [4], "dtype": "int32", "quantization": {"min": -1.0019684138246738, "scale": 0.007827878233005264, "dtype": "uint16"}}, {"name": "g_synthesis/8x8/Conv0_up/Reshape/shape", "shape": [6], "dtype": "int32", "quantization": {"min": -1.0019684138246738, "scale": 0.007827878233005264, "dtype": "uint16"}}, {"name": "g_synthesis/4x4/Conv/StyleMod/mul_1", "shape": [1024], "dtype": "float32", "quantization": {"min": -5.209997572702047, "scale": 0.00023381041927487533, "dtype": "uint16"}}, {"name": "g_synthesis/4x4/Conv/StyleMod/mul", "shape": [512, 1024], "dtype": "float32", "quantization": {"min": -1.0396560475329126, "scale": 3.079002687712233e-05, "dtype": "uint16"}}, {"name": "g_synthesis/4x4/Conv/Reshape", "shape": [1, 512, 1, 1], "dtype": "float32", "quantization": {"min": -12.26357721478768, "scale": 0.000310619721252949, "dtype": "uint16"}}, {"name": "g_synthesis/4x4/Const/Noise/random_uniform/shape/2", "shape": [], "dtype": "int32", "quantization": {"min": 4.0, "scale": 1.0, "dtype": "uint16"}}, {"name": "g_synthesis/4x4/Conv/mul", "shape": [3, 3, 512, 512], "dtype": "float32", "quantization": {"min": -0.4189429050608031, "scale": 1.3377064469659721e-05, "dtype": "uint16"}}, {"name": "g_synthesis/4x4/Const/StyleMod/mul_1", "shape": [1024], "dtype": "float32", "quantization": {"min": -2.9064100404985163, "scale": 0.00012438096634135817, "dtype": "uint16"}}, {"name": "g_synthesis/4x4/Const/StyleMod/mul", "shape": [512, 1024], "dtype": "float32", "quantization": {"min": -1.028892657890867, "scale": 3.0435208480472905e-05, "dtype": "uint16"}}, {"name": "g_synthesis/4x4/Const/const", "shape": [1, 512, 4, 4], "dtype": "float32", "quantization": {"min": -14.19807453899132, "scale": 0.0004833551623541676, "dtype": "uint16"}}, {"name": "g_synthesis/4x4/Const/Reshape", "shape": [1, 512, 1, 1], "dtype": "float32", "quantization": {"min": -9.111240852922327, "scale": 0.00032424344672321446, "dtype": "uint16"}}, {"name": "g_synthesis/4x4/Const/Noise/Reshape", "shape": [1, 512, 1, 1], "dtype": "float32", "quantization": {"min": -3.4164544381947635, "scale": 0.00011297051908586613, "dtype": "uint16"}}, {"name": "g_synthesis/4x4/Conv/Noise/Reshape", "shape": [1, 512, 1, 1], "dtype": "float32", "quantization": {"min": -7.274968768552228, "scale": 0.0002400029284953889, "dtype": "uint16"}}, {"name": "g_synthesis/8x8/Conv0_up/Noise/Reshape", "shape": [1, 512, 1, 1], "dtype": "float32", "quantization": {"min": -5.168565475959804, "scale": 0.00016592505540801938, "dtype": "uint16"}}, {"name": "g_synthesis/8x8/Conv1/Noise/Reshape", "shape": [1, 512, 1, 1], "dtype": "float32", "quantization": {"min": -4.80959056572082, "scale": 0.00016575078628806633, "dtype": "uint16"}}, {"name": "g_synthesis/16x16/Conv0_up/Noise/Reshape", "shape": [1, 512, 1, 1], "dtype": "float32", "quantization": {"min": -37.936586391995846, "scale": 0.0009647429339571204, "dtype": "uint16"}}, {"name": "g_synthesis/16x16/Conv1/Noise/Reshape", "shape": [1, 512, 1, 1], "dtype": "float32", "quantization": {"min": -4.069181871414185, "scale": 0.00010348622546258195, "dtype": "uint16"}}, {"name": "g_synthesis/32x32/Conv0_up/Noise/Reshape", "shape": [1, 512, 1, 1], "dtype": "float32", "quantization": {"min": -19.358856128702232, "scale": 0.0008717849287896168, "dtype": "uint16"}}, {"name": "g_synthesis/32x32/Conv1/Noise/Reshape", "shape": [1, 512, 1, 1], "dtype": "float32", "quantization": {"min": -1.9122378818501484, "scale": 5.324491512641723e-05, "dtype": "uint16"}}, {"name": "g_synthesis/64x64/Conv0_up/Noise/Reshape", "shape": [1, 256, 1, 1], "dtype": "float32", "quantization": {"min": -1.3444808118410838, "scale": 3.8952393436119013e-05, "dtype": "uint16"}}, {"name": "g_synthesis/64x64/Conv1/Noise/Reshape", "shape": [1, 256, 1, 1], "dtype": "float32", "quantization": {"min": -0.9918464520944014, "scale": 2.8126317266742325e-05, "dtype": "uint16"}}, {"name": "g_synthesis/128x128/Conv0_up/AddN", "shape": [4, 4, 128, 256], "dtype": "float32", "quantization": {"min": -3.625451006969016, "scale": 0.00014166898546242882, "dtype": "uint16"}}, {"name": "g_synthesis/128x128/Conv0_up/Noise/Reshape", "shape": [1, 128, 1, 1], "dtype": "float32", "quantization": {"min": -39.96277619747, "scale": 0.0011858390563047477, "dtype": "uint16"}}, {"name": "g_synthesis/128x128/Conv1/Noise/Reshape", "shape": [1, 128, 1, 1], "dtype": "float32", "quantization": {"min": -1.066323600823468, "scale": 3.14095732075604e-05, "dtype": "uint16"}}, {"name": "g_synthesis/256x256/Conv0_up/AddN", "shape": [4, 4, 64, 128], "dtype": "float32", "quantization": {"min": -4.884942420589266, "scale": 0.0001625172140724355, "dtype": "uint16"}}, {"name": "g_synthesis/256x256/Conv0_up/Noise/Reshape", "shape": [1, 64, 1, 1], "dtype": "float32", "quantization": {"min": -0.8899540875072091, "scale": 3.981719330263563e-05, "dtype": "uint16"}}, {"name": "g_synthesis/256x256/Conv1/Noise/Reshape", "shape": [1, 64, 1, 1], "dtype": "float32", "quantization": {"min": -0.8650712197210929, "scale": 3.6453213927819854e-05, "dtype": "uint16"}}, {"name": "g_synthesis/512x512/Conv0_up/AddN", "shape": [4, 4, 32, 64], "dtype": "float32", "quantization": {"min": -6.442716161044391, "scale": 0.000201284558892914, "dtype": "uint16"}}, {"name": "g_synthesis/512x512/Conv0_up/Noise/Reshape", "shape": [1, 32, 1, 1], "dtype": "float32", "quantization": {"min": -8.551957719466266, "scale": 0.00020167333379238924, "dtype": "uint16"}}, {"name": "g_synthesis/512x512/Conv1/Noise/Reshape", "shape": [1, 32, 1, 1], "dtype": "float32", "quantization": {"min": -5.512041786361488, "scale": 0.00016694051082323243, "dtype": "uint16"}}, {"name": "g_synthesis/Reshape_13/shape", "shape": [4], "dtype": "int32", "quantization": {"min": -1.0019684138246738, "scale": 0.007827878233005264, "dtype": "uint16"}}, {"name": "g_synthesis/Reshape_12/shape", "shape": [6], "dtype": "int32", "quantization": {"min": -1.0, "scale": 0.00392156862745098, "dtype": "uint16"}}, {"name": "g_synthesis/256x256_1/ToRGB/Reshape", "shape": [1, 3, 1, 1], "dtype": "float32", "quantization": {"min": 0.542483925819397, "scale": 3.6065325799209898e-06, "dtype": "uint16"}}, {"name": "g_synthesis/256x256_1/ToRGB/mul", "shape": [1, 1, 64, 3], "dtype": "float32", "quantization": {"min": -0.7821504415932423, "scale": 1.820436265782014e-05, "dtype": "uint16"}}, {"name": "g_synthesis/Reshape_11/shape", "shape": [4], "dtype": "int32", "quantization": {"min": -1.0, "scale": 0.00392156862745098, "dtype": "uint16"}}, {"name": "g_synthesis/Reshape_10/shape", "shape": [6], "dtype": "int32", "quantization": {"min": -0.9999542229343099, "scale": 0.0019684138246738384, "dtype": "uint16"}}, {"name": "g_synthesis/128x128_1/ToRGB/Reshape", "shape": [1, 3, 1, 1], "dtype": "float32", "quantization": {"min": 0.3476170599460602, "scale": 3.5522599291945157e-06, "dtype": "uint16"}}, {"name": "g_synthesis/128x128_1/ToRGB/mul", "shape": [1, 1, 128, 3], "dtype": "float32", "quantization": {"min": -0.39455744801992276, "scale": 1.0691454802187372e-05, "dtype": "uint16"}}, {"name": "g_synthesis/Reshape_9/shape", "shape": [4], "dtype": "int32", "quantization": {"min": -0.9999542229343099, "scale": 0.0019684138246738384, "dtype": "uint16"}}, {"name": "g_synthesis/Reshape_8/shape", "shape": [6], "dtype": "int32", "quantization": {"min": -0.9997711146715496, "scale": 0.0009918364232852674, "dtype": "uint16"}}, {"name": "g_synthesis/64x64_1/ToRGB/Reshape", "shape": [1, 3, 1, 1], "dtype": "float32", "quantization": {"min": 0.09193149209022522, "scale": 9.895250982265773e-07, "dtype": "uint16"}}, {"name": "g_synthesis/64x64_1/ToRGB/mul", "shape": [1, 1, 256, 3], "dtype": "float32", "quantization": {"min": -0.14509209087632238, "scale": 4.6447304845483825e-06, "dtype": "uint16"}}, {"name": "g_synthesis/Reshape_7/shape", "shape": [4], "dtype": "int32", "quantization": {"min": -0.9997711146715496, "scale": 0.0009918364232852674, "dtype": "uint16"}}, {"name": "g_synthesis/Reshape_6/shape", "shape": [6], "dtype": "int32", "quantization": {"min": -1.00004577706569, "scale": 0.000503547722590982, "dtype": "uint16"}}, {"name": "g_synthesis/32x32_1/ToRGB/Reshape", "shape": [1, 3, 1, 1], "dtype": "float32", "quantization": {"min": 0.03684820234775543, "scale": 8.846081675640586e-07, "dtype": "uint16"}}, {"name": "g_synthesis/32x32_1/ToRGB/mul", "shape": [1, 1, 512, 3], "dtype": "float32", "quantization": {"min": -0.1233438385630478, "scale": 3.487540321855057e-06, "dtype": "uint16"}}, {"name": "g_synthesis/Reshape_5/shape", "shape": [4], "dtype": "int32", "quantization": {"min": -1.00004577706569, "scale": 0.000503547722590982, "dtype": "uint16"}}, {"name": "g_synthesis/Reshape_4/shape", "shape": [6], "dtype": "int32", "quantization": {"min": -1.0, "scale": 0.00025940337224383917, "dtype": "uint16"}}, {"name": "g_synthesis/16x16_1/ToRGB/Reshape", "shape": [1, 3, 1, 1], "dtype": "float32", "quantization": {"min": -0.018711573378268002, "scale": 1.188564655927587e-06, "dtype": "uint16"}}, {"name": "g_synthesis/16x16_1/ToRGB/mul", "shape": [1, 1, 512, 3], "dtype": "float32", "quantization": {"min": -0.11650217976669812, "scale": 3.54023884060709e-06, "dtype": "uint16"}}, {"name": "g_synthesis/Reshape_3/shape", "shape": [4], "dtype": "int32", "quantization": {"min": -1.0, "scale": 0.00025940337224383917, "dtype": "uint16"}}, {"name": "g_synthesis/Reshape_2/shape", "shape": [6], "dtype": "int32", "quantization": {"min": -1.00004577706569, "scale": 0.0001373311970702678, "dtype": "uint16"}}, {"name": "g_synthesis/8x8_1/ToRGB/Reshape", "shape": [1, 3, 1, 1], "dtype": "float32", "quantization": {"min": -0.016554964446835945, "scale": 1.2549245335685222e-06, "dtype": "uint16"}}, {"name": "g_synthesis/8x8_1/ToRGB/mul", "shape": [1, 1, 512, 3], "dtype": "float32", "quantization": {"min": -0.11258626809127545, "scale": 3.7921879514727828e-06, "dtype": "uint16"}}, {"name": "g_synthesis/Reshape_1/shape", "shape": [4], "dtype": "int32", "quantization": {"min": -1.00004577706569, "scale": 0.0001373311970702678, "dtype": "uint16"}}, {"name": "g_synthesis/Reshape/shape", "shape": [6], "dtype": "int32", "quantization": {"min": -1.0, "scale": 7.629510948348211e-05, "dtype": "uint16"}}, {"name": "g_synthesis/4x4_1/ToRGB/mul", "shape": [1, 1, 512, 3], "dtype": "float32", "quantization": {"min": -0.1486268524329777, "scale": 4.6617794502533626e-06, "dtype": "uint16"}}]}]}