{"format": "graph-model", "generatedBy": "1.14.0", "convertedBy": "TensorFlow.js Converter v1.2.6", "modelTopology": {"node": [{"name": "z", "op": "Placeholder", "attr": {"shape": {"shape": {"dim": [{"size": "-1"}, {"size": "512"}]}}, "dtype": {"type": "DT_FLOAT"}}}, {"name": "g_synthesis/8x8_2/smooth_transition/LerpClip/clip_by_value", "op": "Const", "attr": {"value": {"tensor": {"dtype": "DT_FLOAT", "tensorShape": {}}}, "dtype": {"type": "DT_FLOAT"}}}, {"name": "g_synthesis/512x512_1/ToRGB/Reshape", "op": "Const", "attr": {"value": {"tensor": {"dtype": "DT_FLOAT", "tensorShape": {"dim": [{"size": "1"}, {"size": "3"}, {"size": "1"}, {"size": "1"}]}}}, "dtype": {"type": "DT_FLOAT"}}}, {"name": "g_synthesis/4x4_1/ToRGB/NHWC_to_NCHW/perm", "op": "Const", "attr": {"value": {"tensor": {"dtype": "DT_INT32", "tensorShape": {"dim": [{"size": "4"}]}}}, "dtype": {"type": "DT_INT32"}}}, {"name": "g_synthesis/512x512_1/ToRGB/mul", "op": "Const", "attr": {"value": {"tensor": {"dtype": "DT_FLOAT", "tensorShape": {"dim": [{"size": "1"}, {"size": "1"}, {"size": "32"}, {"size": "3"}]}}}, "dtype": {"type": "DT_FLOAT"}}}, {"name": "g_synthesis/4x4_1/ToRGB/NCHW_to_NHWC/perm", "op": "Const", "attr": {"value": {"tensor": {"dtype": "DT_INT32", "tensorShape": {"dim": [{"size": "4"}]}}}, "dtype": {"type": "DT_INT32"}}}, {"name": "g_synthesis/4x4/Const/StyleMod/strided_slice/stack_2", "op": "Const", "attr": {"value": {"tensor": {"dtype": "DT_INT32", "tensorShape": {"dim": [{"size": "2"}]}}}, "dtype": {"type": "DT_INT32"}}}, {"name": "g_synthesis/4x4/Const/StyleMod/strided_slice_1/stack_1", "op": "Const", "attr": {"value": {"tensor": {"dtype": "DT_INT32", "tensorShape": {"dim": [{"size": "2"}]}}}, "dtype": {"type": "DT_INT32"}}}, {"name": "g_synthesis/4x4/Const/StyleMod/strided_slice/stack_1", "op": "Const", "attr": {"value": {"tensor": {"dtype": "DT_INT32", "tensorShape": {"dim": [{"size": "2"}]}}}, "dtype": {"type": "DT_INT32"}}}, {"name": "g_synthesis/512x512/Conv0_up/StyleMod/Reshape/shape", "op": "Const", "attr": {"value": {"tensor": {"dtype": "DT_INT32", "tensorShape": {"dim": [{"size": "5"}]}}}, "dtype": {"type": "DT_INT32"}}}, {"name": "g_synthesis/512x512/Conv1/StyleMod/mul_1", "op": "Const", "attr": {"value": {"tensor": {"dtype": "DT_FLOAT", "tensorShape": {"dim": [{"size": "64"}]}}}, "dtype": {"type": "DT_FLOAT"}}}, {"name": "g_synthesis/512x512/Conv1/StyleMod/mul", "op": "Const", "attr": {"value": {"tensor": {"dtype": "DT_FLOAT", "tensorShape": {"dim": [{"size": "512"}, {"size": "64"}]}}}, "dtype": {"type": "DT_FLOAT"}}}, {"name": "g_synthesis/4x4/Const/StyleMod/flatten/Reshape/shape/1", "op": "Const", "attr": {"value": {"tensor": {"dtype": "DT_INT32", "tensorShape": {}}}, "dtype": {"type": "DT_INT32"}}}, {"name": "g_synthesis/512x512/Conv0_up/strided_slice_4/stack_1", "op": "Const", "attr": {"value": {"tensor": {"dtype": "DT_INT32", "tensorShape": {"dim": [{"size": "1"}]}}}, "dtype": {"type": "DT_INT32"}}}, {"name": "g_synthesis/512x512/Conv0_up/strided_slice_4/stack", "op": "Const", "attr": {"value": {"tensor": {"dtype": "DT_INT32", "tensorShape": {"dim": [{"size": "1"}]}}}, "dtype": {"type": "DT_INT32"}}}, {"name": "g_synthesis/strided_slice_16/stack_1", "op": "Const", "attr": {"value": {"tensor": {"dtype": "DT_INT32", "tensorShape": {"dim": [{"size": "2"}]}}}, "dtype": {"type": "DT_INT32"}}}, {"name": "g_synthesis/strided_slice_15/stack_1", "op": "Const", "attr": {"value": {"tensor": {"dtype": "DT_INT32", "tensorShape": {"dim": [{"size": "2"}]}}}, "dtype": {"type": "DT_INT32"}}}, {"name": "w_avg", "op": "Const", "attr": {"value": {"tensor": {"dtype": "DT_FLOAT", "tensorShape": {"dim": [{"size": "512"}]}}}, "dtype": {"type": "DT_FLOAT"}}}, {"name": "Truncation/Select", "op": "Const", "attr": {"value": {"tensor": {"dtype": "DT_FLOAT", "tensorShape": {"dim": [{"size": "1"}, {"size": "16"}, {"size": "1"}]}}}, "dtype": {"type": "DT_FLOAT"}}}, {"name": "g_mapping/Broadcast/Tile/multiples", "op": "Const", "attr": {"value": {"tensor": {"dtype": "DT_INT32", "tensorShape": {"dim": [{"size": "3"}]}}}, "dtype": {"type": "DT_INT32"}}}, {"name": "g_synthesis/4x4/Const/Tile/multiples/1", "op": "Const", "attr": {"value": {"tensor": {"dtype": "DT_INT32", "tensorShape": {}}}, "dtype": {"type": "DT_INT32"}}}, {"name": "g_mapping/Dense7/mul_1", "op": "Const", "attr": {"value": {"tensor": {"dtype": "DT_FLOAT", "tensorShape": {"dim": [{"size": "512"}]}}}, "dtype": {"type": "DT_FLOAT"}}}, {"name": "g_mapping/Dense7/mul", "op": "Const", "attr": {"value": {"tensor": {"dtype": "DT_FLOAT", "tensorShape": {"dim": [{"size": "512"}, {"size": "512"}]}}}, "dtype": {"type": "DT_FLOAT"}}}, {"name": "g_mapping/Dense6/mul_1", "op": "Const", "attr": {"value": {"tensor": {"dtype": "DT_FLOAT", "tensorShape": {"dim": [{"size": "512"}]}}}, "dtype": {"type": "DT_FLOAT"}}}, {"name": "g_mapping/Dense6/mul", "op": "Const", "attr": {"value": {"tensor": {"dtype": "DT_FLOAT", "tensorShape": {"dim": [{"size": "512"}, {"size": "512"}]}}}, "dtype": {"type": "DT_FLOAT"}}}, {"name": "g_mapping/Dense5/mul_1", "op": "Const", "attr": {"value": {"tensor": {"dtype": "DT_FLOAT", "tensorShape": {"dim": [{"size": "512"}]}}}, "dtype": {"type": "DT_FLOAT"}}}, {"name": "g_mapping/Dense5/mul", "op": "Const", "attr": {"value": {"tensor": {"dtype": "DT_FLOAT", "tensorShape": {"dim": [{"size": "512"}, {"size": "512"}]}}}, "dtype": {"type": "DT_FLOAT"}}}, {"name": "g_mapping/Dense4/mul_1", "op": "Const", "attr": {"value": {"tensor": {"dtype": "DT_FLOAT", "tensorShape": {"dim": [{"size": "512"}]}}}, "dtype": {"type": "DT_FLOAT"}}}, {"name": "g_mapping/Dense4/mul", "op": "Const", "attr": {"value": {"tensor": {"dtype": "DT_FLOAT", "tensorShape": {"dim": [{"size": "512"}, {"size": "512"}]}}}, "dtype": {"type": "DT_FLOAT"}}}, {"name": "g_mapping/Dense3/mul_1", "op": "Const", "attr": {"value": {"tensor": {"dtype": "DT_FLOAT", "tensorShape": {"dim": [{"size": "512"}]}}}, "dtype": {"type": "DT_FLOAT"}}}, {"name": "g_mapping/Dense3/mul", "op": "Const", "attr": {"value": {"tensor": {"dtype": "DT_FLOAT", "tensorShape": {"dim": [{"size": "512"}, {"size": "512"}]}}}, "dtype": {"type": "DT_FLOAT"}}}, {"name": "g_mapping/Dense2/mul_1", "op": "Const", "attr": {"value": {"tensor": {"dtype": "DT_FLOAT", "tensorShape": {"dim": [{"size": "512"}]}}}, "dtype": {"type": "DT_FLOAT"}}}, {"name": "g_mapping/Dense2/mul", "op": "Const", "attr": {"value": {"tensor": {"dtype": "DT_FLOAT", "tensorShape": {"dim": [{"size": "512"}, {"size": "512"}]}}}, "dtype": {"type": "DT_FLOAT"}}}, {"name": "g_mapping/Dense1/mul_1", "op": "Const", "attr": {"value": {"tensor": {"dtype": "DT_FLOAT", "tensorShape": {"dim": [{"size": "512"}]}}}, "dtype": {"type": "DT_FLOAT"}}}, {"name": "g_mapping/Dense1/mul", "op": "Const", "attr": {"value": {"tensor": {"dtype": "DT_FLOAT", "tensorShape": {"dim": [{"size": "512"}, {"size": "512"}]}}}, "dtype": {"type": "DT_FLOAT"}}}, {"name": "g_mapping/Dense0/mul_1", "op": "Const", "attr": {"value": {"tensor": {"dtype": "DT_FLOAT", "tensorShape": {"dim": [{"size": "512"}]}}}, "dtype": {"type": "DT_FLOAT"}}}, {"name": "g_mapping/Dense0/mul", "op": "Const", "attr": {"value": {"tensor": {"dtype": "DT_FLOAT", "tensorShape": {"dim": [{"size": "512"}, {"size": "512"}]}}}, "dtype": {"type": "DT_FLOAT"}}}, {"name": "g_synthesis/4x4/Const/InstanceNorm/epsilon", "op": "Const", "attr": {"value": {"tensor": {"dtype": "DT_FLOAT", "tensorShape": {}}}, "dtype": {"type": "DT_FLOAT"}}}, {"name": "g_synthesis/4x4/Const/StyleMod/strided_slice/stack", "op": "Const", "attr": {"value": {"tensor": {"dtype": "DT_INT32", "tensorShape": {"dim": [{"size": "2"}]}}}, "dtype": {"type": "DT_INT32"}}}, {"name": "g_synthesis/4x4/Const/Noise/random_uniform/sub", "op": "Const", "attr": {"value": {"tensor": {"dtype": "DT_FLOAT", "tensorShape": {}}}, "dtype": {"type": "DT_FLOAT"}}}, {"name": "g_synthesis/4x4/Const/InstanceNorm/Mean/reduction_indices", "op": "Const", "attr": {"value": {"tensor": {"dtype": "DT_INT32", "tensorShape": {"dim": [{"size": "2"}]}}}, "dtype": {"type": "DT_INT32"}}}, {"name": "g_synthesis/512x512/Conv1/Reshape", "op": "Const", "attr": {"value": {"tensor": {"dtype": "DT_FLOAT", "tensorShape": {"dim": [{"size": "1"}, {"size": "32"}, {"size": "1"}, {"size": "1"}]}}}, "dtype": {"type": "DT_FLOAT"}}}, {"name": "g_synthesis/512x512/Conv0_up/conv2d_transpose/input_sizes/1", "op": "Const", "attr": {"value": {"tensor": {"dtype": "DT_INT32", "tensorShape": {}}}, "dtype": {"type": "DT_INT32"}}}, {"name": "g_synthesis/512x512/Conv1/mul", "op": "Const", "attr": {"value": {"tensor": {"dtype": "DT_FLOAT", "tensorShape": {"dim": [{"size": "3"}, {"size": "3"}, {"size": "32"}, {"size": "32"}]}}}, "dtype": {"type": "DT_FLOAT"}}}, {"name": "g_synthesis/512x512/Conv0_up/StyleMod/mul_1", "op": "Const", "attr": {"value": {"tensor": {"dtype": "DT_FLOAT", "tensorShape": {"dim": [{"size": "64"}]}}}, "dtype": {"type": "DT_FLOAT"}}}, {"name": "g_synthesis/512x512/Conv0_up/StyleMod/mul", "op": "Const", "attr": {"value": {"tensor": {"dtype": "DT_FLOAT", "tensorShape": {"dim": [{"size": "512"}, {"size": "64"}]}}}, "dtype": {"type": "DT_FLOAT"}}}, {"name": "g_synthesis/strided_slice_14/stack_1", "op": "Const", "attr": {"value": {"tensor": {"dtype": "DT_INT32", "tensorShape": {"dim": [{"size": "2"}]}}}, "dtype": {"type": "DT_INT32"}}}, {"name": "g_synthesis/512x512/Conv0_up/Reshape", "op": "Const", "attr": {"value": {"tensor": {"dtype": "DT_FLOAT", "tensorShape": {"dim": [{"size": "1"}, {"size": "32"}, {"size": "1"}, {"size": "1"}]}}}, "dtype": {"type": "DT_FLOAT"}}}, {"name": "g_synthesis/512x512/Conv0_up/filter", "op": "Const", "attr": {"value": {"tensor": {"dtype": "DT_FLOAT", "tensorShape": {"dim": [{"size": "3"}, {"size": "3"}, {"size": "32"}, {"size": "1"}]}}}, "dtype": {"type": "DT_FLOAT"}}}, {"name": "g_synthesis/256x256/Conv0_up/StyleMod/Reshape/shape", "op": "Const", "attr": {"value": {"tensor": {"dtype": "DT_INT32", "tensorShape": {"dim": [{"size": "5"}]}}}, "dtype": {"type": "DT_INT32"}}}, {"name": "g_synthesis/256x256/Conv1/StyleMod/mul_1", "op": "Const", "attr": {"value": {"tensor": {"dtype": "DT_FLOAT", "tensorShape": {"dim": [{"size": "128"}]}}}, "dtype": {"type": "DT_FLOAT"}}}, {"name": "g_synthesis/256x256/Conv1/StyleMod/mul", "op": "Const", "attr": {"value": {"tensor": {"dtype": "DT_FLOAT", "tensorShape": {"dim": [{"size": "512"}, {"size": "128"}]}}}, "dtype": {"type": "DT_FLOAT"}}}, {"name": "g_synthesis/strided_slice_13/stack_1", "op": "Const", "attr": {"value": {"tensor": {"dtype": "DT_INT32", "tensorShape": {"dim": [{"size": "2"}]}}}, "dtype": {"type": "DT_INT32"}}}, {"name": "g_synthesis/256x256/Conv1/Reshape", "op": "Const", "attr": {"value": {"tensor": {"dtype": "DT_FLOAT", "tensorShape": {"dim": [{"size": "1"}, {"size": "64"}, {"size": "1"}, {"size": "1"}]}}}, "dtype": {"type": "DT_FLOAT"}}}, {"name": "g_synthesis/256x256/Conv0_up/conv2d_transpose/input_sizes/1", "op": "Const", "attr": {"value": {"tensor": {"dtype": "DT_INT32", "tensorShape": {}}}, "dtype": {"type": "DT_INT32"}}}, {"name": "g_synthesis/256x256/Conv1/mul", "op": "Const", "attr": {"value": {"tensor": {"dtype": "DT_FLOAT", "tensorShape": {"dim": [{"size": "3"}, {"size": "3"}, {"size": "64"}, {"size": "64"}]}}}, "dtype": {"type": "DT_FLOAT"}}}, {"name": "g_synthesis/256x256/Conv0_up/StyleMod/mul_1", "op": "Const", "attr": {"value": {"tensor": {"dtype": "DT_FLOAT", "tensorShape": {"dim": [{"size": "128"}]}}}, "dtype": {"type": "DT_FLOAT"}}}, {"name": "g_synthesis/256x256/Conv0_up/StyleMod/mul", "op": "Const", "attr": {"value": {"tensor": {"dtype": "DT_FLOAT", "tensorShape": {"dim": [{"size": "512"}, {"size": "128"}]}}}, "dtype": {"type": "DT_FLOAT"}}}, {"name": "g_synthesis/strided_slice_12/stack_1", "op": "Const", "attr": {"value": {"tensor": {"dtype": "DT_INT32", "tensorShape": {"dim": [{"size": "2"}]}}}, "dtype": {"type": "DT_INT32"}}}, {"name": "g_synthesis/256x256/Conv0_up/Reshape", "op": "Const", "attr": {"value": {"tensor": {"dtype": "DT_FLOAT", "tensorShape": {"dim": [{"size": "1"}, {"size": "64"}, {"size": "1"}, {"size": "1"}]}}}, "dtype": {"type": "DT_FLOAT"}}}, {"name": "g_synthesis/256x256/Conv0_up/filter", "op": "Const", "attr": {"value": {"tensor": {"dtype": "DT_FLOAT", "tensorShape": {"dim": [{"size": "3"}, {"size": "3"}, {"size": "64"}, {"size": "1"}]}}}, "dtype": {"type": "DT_FLOAT"}}}, {"name": "g_synthesis/128x128/Conv0_up/StyleMod/Reshape/shape", "op": "Const", "attr": {"value": {"tensor": {"dtype": "DT_INT32", "tensorShape": {"dim": [{"size": "5"}]}}}, "dtype": {"type": "DT_INT32"}}}, {"name": "g_synthesis/128x128/Conv1/StyleMod/mul_1", "op": "Const", "attr": {"value": {"tensor": {"dtype": "DT_FLOAT", "tensorShape": {"dim": [{"size": "256"}]}}}, "dtype": {"type": "DT_FLOAT"}}}, {"name": "g_synthesis/128x128/Conv1/StyleMod/mul", "op": "Const", "attr": {"value": {"tensor": {"dtype": "DT_FLOAT", "tensorShape": {"dim": [{"size": "512"}, {"size": "256"}]}}}, "dtype": {"type": "DT_FLOAT"}}}, {"name": "g_synthesis/strided_slice_11/stack_1", "op": "Const", "attr": {"value": {"tensor": {"dtype": "DT_INT32", "tensorShape": {"dim": [{"size": "2"}]}}}, "dtype": {"type": "DT_INT32"}}}, {"name": "g_synthesis/128x128/Conv1/Reshape", "op": "Const", "attr": {"value": {"tensor": {"dtype": "DT_FLOAT", "tensorShape": {"dim": [{"size": "1"}, {"size": "128"}, {"size": "1"}, {"size": "1"}]}}}, "dtype": {"type": "DT_FLOAT"}}}, {"name": "g_synthesis/128x128/Conv0_up/conv2d_transpose/input_sizes/1", "op": "Const", "attr": {"value": {"tensor": {"dtype": "DT_INT32", "tensorShape": {}}}, "dtype": {"type": "DT_INT32"}}}, {"name": "g_synthesis/128x128/Conv1/mul", "op": "Const", "attr": {"value": {"tensor": {"dtype": "DT_FLOAT", "tensorShape": {"dim": [{"size": "3"}, {"size": "3"}, {"size": "128"}, {"size": "128"}]}}}, "dtype": {"type": "DT_FLOAT"}}}, {"name": "g_synthesis/128x128/Conv0_up/StyleMod/mul_1", "op": "Const", "attr": {"value": {"tensor": {"dtype": "DT_FLOAT", "tensorShape": {"dim": [{"size": "256"}]}}}, "dtype": {"type": "DT_FLOAT"}}}, {"name": "g_synthesis/128x128/Conv0_up/StyleMod/mul", "op": "Const", "attr": {"value": {"tensor": {"dtype": "DT_FLOAT", "tensorShape": {"dim": [{"size": "512"}, {"size": "256"}]}}}, "dtype": {"type": "DT_FLOAT"}}}, {"name": "g_synthesis/strided_slice_10/stack_1", "op": "Const", "attr": {"value": {"tensor": {"dtype": "DT_INT32", "tensorShape": {"dim": [{"size": "2"}]}}}, "dtype": {"type": "DT_INT32"}}}, {"name": "g_synthesis/128x128/Conv0_up/Reshape", "op": "Const", "attr": {"value": {"tensor": {"dtype": "DT_FLOAT", "tensorShape": {"dim": [{"size": "1"}, {"size": "128"}, {"size": "1"}, {"size": "1"}]}}}, "dtype": {"type": "DT_FLOAT"}}}, {"name": "g_synthesis/128x128/Conv0_up/filter", "op": "Const", "attr": {"value": {"tensor": {"dtype": "DT_FLOAT", "tensorShape": {"dim": [{"size": "3"}, {"size": "3"}, {"size": "128"}, {"size": "1"}]}}}, "dtype": {"type": "DT_FLOAT"}}}, {"name": "g_synthesis/64x64/Conv0_up/StyleMod/Reshape/shape", "op": "Const", "attr": {"value": {"tensor": {"dtype": "DT_INT32", "tensorShape": {"dim": [{"size": "5"}]}}}, "dtype": {"type": "DT_INT32"}}}, {"name": "g_synthesis/64x64/Conv1/StyleMod/mul_1", "op": "Const", "attr": {"value": {"tensor": {"dtype": "DT_FLOAT", "tensorShape": {"dim": [{"size": "512"}]}}}, "dtype": {"type": "DT_FLOAT"}}}, {"name": "g_synthesis/64x64/Conv1/StyleMod/mul", "op": "Const", "attr": {"value": {"tensor": {"dtype": "DT_FLOAT", "tensorShape": {"dim": [{"size": "512"}, {"size": "512"}]}}}, "dtype": {"type": "DT_FLOAT"}}}, {"name": "g_synthesis/strided_slice_9/stack_1", "op": "Const", "attr": {"value": {"tensor": {"dtype": "DT_INT32", "tensorShape": {"dim": [{"size": "2"}]}}}, "dtype": {"type": "DT_INT32"}}}, {"name": "g_synthesis/64x64/Conv1/Reshape", "op": "Const", "attr": {"value": {"tensor": {"dtype": "DT_FLOAT", "tensorShape": {"dim": [{"size": "1"}, {"size": "256"}, {"size": "1"}, {"size": "1"}]}}}, "dtype": {"type": "DT_FLOAT"}}}, {"name": "g_synthesis/256x256/Conv0_up/conv2d_transpose/input_sizes/3", "op": "Const", "attr": {"value": {"tensor": {"dtype": "DT_INT32", "tensorShape": {}}}, "dtype": {"type": "DT_INT32"}}}, {"name": "g_synthesis/64x64/Conv1/mul", "op": "Const", "attr": {"value": {"tensor": {"dtype": "DT_FLOAT", "tensorShape": {"dim": [{"size": "3"}, {"size": "3"}, {"size": "256"}, {"size": "256"}]}}}, "dtype": {"type": "DT_FLOAT"}}}, {"name": "g_synthesis/64x64/Conv0_up/StyleMod/mul_1", "op": "Const", "attr": {"value": {"tensor": {"dtype": "DT_FLOAT", "tensorShape": {"dim": [{"size": "512"}]}}}, "dtype": {"type": "DT_FLOAT"}}}, {"name": "g_synthesis/64x64/Conv0_up/StyleMod/mul", "op": "Const", "attr": {"value": {"tensor": {"dtype": "DT_FLOAT", "tensorShape": {"dim": [{"size": "512"}, {"size": "512"}]}}}, "dtype": {"type": "DT_FLOAT"}}}, {"name": "g_synthesis/strided_slice_8/stack_1", "op": "Const", "attr": {"value": {"tensor": {"dtype": "DT_INT32", "tensorShape": {"dim": [{"size": "2"}]}}}, "dtype": {"type": "DT_INT32"}}}, {"name": "g_synthesis/64x64/Conv0_up/Reshape_2", "op": "Const", "attr": {"value": {"tensor": {"dtype": "DT_FLOAT", "tensorShape": {"dim": [{"size": "1"}, {"size": "256"}, {"size": "1"}, {"size": "1"}]}}}, "dtype": {"type": "DT_FLOAT"}}}, {"name": "g_synthesis/64x64/Conv0_up/filter", "op": "Const", "attr": {"value": {"tensor": {"dtype": "DT_FLOAT", "tensorShape": {"dim": [{"size": "3"}, {"size": "3"}, {"size": "256"}, {"size": "1"}]}}}, "dtype": {"type": "DT_FLOAT"}}}, {"name": "g_synthesis/64x64/Conv0_up/mul", "op": "Const", "attr": {"value": {"tensor": {"dtype": "DT_FLOAT", "tensorShape": {"dim": [{"size": "3"}, {"size": "3"}, {"size": "512"}, {"size": "256"}]}}}, "dtype": {"type": "DT_FLOAT"}}}, {"name": "g_synthesis/64x64/Conv0_up/Reshape_1/shape", "op": "Const", "attr": {"value": {"tensor": {"dtype": "DT_INT32", "tensorShape": {"dim": [{"size": "4"}]}}}, "dtype": {"type": "DT_INT32"}}}, {"name": "g_synthesis/Tile/multiples", "op": "Const", "attr": {"value": {"tensor": {"dtype": "DT_INT32", "tensorShape": {"dim": [{"size": "6"}]}}}, "dtype": {"type": "DT_INT32"}}}, {"name": "g_synthesis/64x64/Conv0_up/Reshape/shape", "op": "Const", "attr": {"value": {"tensor": {"dtype": "DT_INT32", "tensorShape": {"dim": [{"size": "6"}]}}}, "dtype": {"type": "DT_INT32"}}}, {"name": "g_synthesis/4x4/Const/StyleMod/Reshape/shape", "op": "Const", "attr": {"value": {"tensor": {"dtype": "DT_INT32", "tensorShape": {"dim": [{"size": "5"}]}}}, "dtype": {"type": "DT_INT32"}}}, {"name": "g_synthesis/32x32/Conv1/StyleMod/mul_1", "op": "Const", "attr": {"value": {"tensor": {"dtype": "DT_FLOAT", "tensorShape": {"dim": [{"size": "1024"}]}}}, "dtype": {"type": "DT_FLOAT"}}}, {"name": "g_synthesis/32x32/Conv1/StyleMod/mul", "op": "Const", "attr": {"value": {"tensor": {"dtype": "DT_FLOAT", "tensorShape": {"dim": [{"size": "512"}, {"size": "1024"}]}}}, "dtype": {"type": "DT_FLOAT"}}}, {"name": "g_synthesis/strided_slice_7/stack_1", "op": "Const", "attr": {"value": {"tensor": {"dtype": "DT_INT32", "tensorShape": {"dim": [{"size": "2"}]}}}, "dtype": {"type": "DT_INT32"}}}, {"name": "g_synthesis/32x32/Conv1/Reshape", "op": "Const", "attr": {"value": {"tensor": {"dtype": "DT_FLOAT", "tensorShape": {"dim": [{"size": "1"}, {"size": "512"}, {"size": "1"}, {"size": "1"}]}}}, "dtype": {"type": "DT_FLOAT"}}}, {"name": "g_synthesis/512x512/Conv0_up/conv2d_transpose/input_sizes/3", "op": "Const", "attr": {"value": {"tensor": {"dtype": "DT_INT32", "tensorShape": {}}}, "dtype": {"type": "DT_INT32"}}}, {"name": "g_synthesis/32x32/Conv1/mul", "op": "Const", "attr": {"value": {"tensor": {"dtype": "DT_FLOAT", "tensorShape": {"dim": [{"size": "3"}, {"size": "3"}, {"size": "512"}, {"size": "512"}]}}}, "dtype": {"type": "DT_FLOAT"}}}, {"name": "g_synthesis/32x32/Conv0_up/StyleMod/mul_1", "op": "Const", "attr": {"value": {"tensor": {"dtype": "DT_FLOAT", "tensorShape": {"dim": [{"size": "1024"}]}}}, "dtype": {"type": "DT_FLOAT"}}}, {"name": "g_synthesis/32x32/Conv0_up/StyleMod/mul", "op": "Const", "attr": {"value": {"tensor": {"dtype": "DT_FLOAT", "tensorShape": {"dim": [{"size": "512"}, {"size": "1024"}]}}}, "dtype": {"type": "DT_FLOAT"}}}, {"name": "g_synthesis/strided_slice_6/stack_1", "op": "Const", "attr": {"value": {"tensor": {"dtype": "DT_INT32", "tensorShape": {"dim": [{"size": "2"}]}}}, "dtype": {"type": "DT_INT32"}}}, {"name": "g_synthesis/32x32/Conv0_up/Reshape_2", "op": "Const", "attr": {"value": {"tensor": {"dtype": "DT_FLOAT", "tensorShape": {"dim": [{"size": "1"}, {"size": "512"}, {"size": "1"}, {"size": "1"}]}}}, "dtype": {"type": "DT_FLOAT"}}}, {"name": "g_synthesis/8x8/Conv0_up/filter", "op": "Const", "attr": {"value": {"tensor": {"dtype": "DT_FLOAT", "tensorShape": {"dim": [{"size": "3"}, {"size": "3"}, {"size": "512"}, {"size": "1"}]}}}, "dtype": {"type": "DT_FLOAT"}}}, {"name": "g_synthesis/32x32/Conv0_up/mul", "op": "Const", "attr": {"value": {"tensor": {"dtype": "DT_FLOAT", "tensorShape": {"dim": [{"size": "3"}, {"size": "3"}, {"size": "512"}, {"size": "512"}]}}}, "dtype": {"type": "DT_FLOAT"}}}, {"name": "g_synthesis/32x32/Conv0_up/Reshape_1/shape", "op": "Const", "attr": {"value": {"tensor": {"dtype": "DT_INT32", "tensorShape": {"dim": [{"size": "4"}]}}}, "dtype": {"type": "DT_INT32"}}}, {"name": "g_synthesis/32x32/Conv0_up/Reshape/shape", "op": "Const", "attr": {"value": {"tensor": {"dtype": "DT_INT32", "tensorShape": {"dim": [{"size": "6"}]}}}, "dtype": {"type": "DT_INT32"}}}, {"name": "g_synthesis/16x16/Conv1/StyleMod/mul_1", "op": "Const", "attr": {"value": {"tensor": {"dtype": "DT_FLOAT", "tensorShape": {"dim": [{"size": "1024"}]}}}, "dtype": {"type": "DT_FLOAT"}}}, {"name": "g_synthesis/16x16/Conv1/StyleMod/mul", "op": "Const", "attr": {"value": {"tensor": {"dtype": "DT_FLOAT", "tensorShape": {"dim": [{"size": "512"}, {"size": "1024"}]}}}, "dtype": {"type": "DT_FLOAT"}}}, {"name": "g_synthesis/strided_slice_5/stack_1", "op": "Const", "attr": {"value": {"tensor": {"dtype": "DT_INT32", "tensorShape": {"dim": [{"size": "2"}]}}}, "dtype": {"type": "DT_INT32"}}}, {"name": "g_synthesis/16x16/Conv1/Reshape", "op": "Const", "attr": {"value": {"tensor": {"dtype": "DT_FLOAT", "tensorShape": {"dim": [{"size": "1"}, {"size": "512"}, {"size": "1"}, {"size": "1"}]}}}, "dtype": {"type": "DT_FLOAT"}}}, {"name": "g_synthesis/16x16/Conv0_up/Noise/random_uniform/shape/2", "op": "Const", "attr": {"value": {"tensor": {"dtype": "DT_INT32", "tensorShape": {}}}, "dtype": {"type": "DT_INT32"}}}, {"name": "g_synthesis/16x16/Conv1/mul", "op": "Const", "attr": {"value": {"tensor": {"dtype": "DT_FLOAT", "tensorShape": {"dim": [{"size": "3"}, {"size": "3"}, {"size": "512"}, {"size": "512"}]}}}, "dtype": {"type": "DT_FLOAT"}}}, {"name": "g_synthesis/16x16/Conv0_up/StyleMod/mul_1", "op": "Const", "attr": {"value": {"tensor": {"dtype": "DT_FLOAT", "tensorShape": {"dim": [{"size": "1024"}]}}}, "dtype": {"type": "DT_FLOAT"}}}, {"name": "g_synthesis/16x16/Conv0_up/StyleMod/mul", "op": "Const", "attr": {"value": {"tensor": {"dtype": "DT_FLOAT", "tensorShape": {"dim": [{"size": "512"}, {"size": "1024"}]}}}, "dtype": {"type": "DT_FLOAT"}}}, {"name": "g_synthesis/strided_slice_4/stack_1", "op": "Const", "attr": {"value": {"tensor": {"dtype": "DT_INT32", "tensorShape": {"dim": [{"size": "2"}]}}}, "dtype": {"type": "DT_INT32"}}}, {"name": "g_synthesis/16x16/Conv0_up/Reshape_2", "op": "Const", "attr": {"value": {"tensor": {"dtype": "DT_FLOAT", "tensorShape": {"dim": [{"size": "1"}, {"size": "512"}, {"size": "1"}, {"size": "1"}]}}}, "dtype": {"type": "DT_FLOAT"}}}, {"name": "g_synthesis/16x16/Conv0_up/mul", "op": "Const", "attr": {"value": {"tensor": {"dtype": "DT_FLOAT", "tensorShape": {"dim": [{"size": "3"}, {"size": "3"}, {"size": "512"}, {"size": "512"}]}}}, "dtype": {"type": "DT_FLOAT"}}}, {"name": "g_synthesis/16x16/Conv0_up/Reshape_1/shape", "op": "Const", "attr": {"value": {"tensor": {"dtype": "DT_INT32", "tensorShape": {"dim": [{"size": "4"}]}}}, "dtype": {"type": "DT_INT32"}}}, {"name": "g_synthesis/16x16/Conv0_up/Reshape/shape", "op": "Const", "attr": {"value": {"tensor": {"dtype": "DT_INT32", "tensorShape": {"dim": [{"size": "6"}]}}}, "dtype": {"type": "DT_INT32"}}}, {"name": "g_synthesis/8x8/Conv1/StyleMod/mul_1", "op": "Const", "attr": {"value": {"tensor": {"dtype": "DT_FLOAT", "tensorShape": {"dim": [{"size": "1024"}]}}}, "dtype": {"type": "DT_FLOAT"}}}, {"name": "g_synthesis/8x8/Conv1/StyleMod/mul", "op": "Const", "attr": {"value": {"tensor": {"dtype": "DT_FLOAT", "tensorShape": {"dim": [{"size": "512"}, {"size": "1024"}]}}}, "dtype": {"type": "DT_FLOAT"}}}, {"name": "g_synthesis/strided_slice_3/stack_1", "op": "Const", "attr": {"value": {"tensor": {"dtype": "DT_INT32", "tensorShape": {"dim": [{"size": "2"}]}}}, "dtype": {"type": "DT_INT32"}}}, {"name": "g_synthesis/8x8/Conv1/Reshape", "op": "Const", "attr": {"value": {"tensor": {"dtype": "DT_FLOAT", "tensorShape": {"dim": [{"size": "1"}, {"size": "512"}, {"size": "1"}, {"size": "1"}]}}}, "dtype": {"type": "DT_FLOAT"}}}, {"name": "g_synthesis/8x8/Conv0_up/Noise/random_uniform/shape/2", "op": "Const", "attr": {"value": {"tensor": {"dtype": "DT_INT32", "tensorShape": {}}}, "dtype": {"type": "DT_INT32"}}}, {"name": "g_synthesis/8x8/Conv1/mul", "op": "Const", "attr": {"value": {"tensor": {"dtype": "DT_FLOAT", "tensorShape": {"dim": [{"size": "3"}, {"size": "3"}, {"size": "512"}, {"size": "512"}]}}}, "dtype": {"type": "DT_FLOAT"}}}, {"name": "g_synthesis/8x8/Conv0_up/StyleMod/mul_1", "op": "Const", "attr": {"value": {"tensor": {"dtype": "DT_FLOAT", "tensorShape": {"dim": [{"size": "1024"}]}}}, "dtype": {"type": "DT_FLOAT"}}}, {"name": "g_synthesis/8x8/Conv0_up/StyleMod/mul", "op": "Const", "attr": {"value": {"tensor": {"dtype": "DT_FLOAT", "tensorShape": {"dim": [{"size": "512"}, {"size": "1024"}]}}}, "dtype": {"type": "DT_FLOAT"}}}, {"name": "g_synthesis/8x8/Conv0_up/Reshape_2", "op": "Const", "attr": {"value": {"tensor": {"dtype": "DT_FLOAT", "tensorShape": {"dim": [{"size": "1"}, {"size": "512"}, {"size": "1"}, {"size": "1"}]}}}, "dtype": {"type": "DT_FLOAT"}}}, {"name": "g_synthesis/8x8/Conv0_up/mul", "op": "Const", "attr": {"value": {"tensor": {"dtype": "DT_FLOAT", "tensorShape": {"dim": [{"size": "3"}, {"size": "3"}, {"size": "512"}, {"size": "512"}]}}}, "dtype": {"type": "DT_FLOAT"}}}, {"name": "g_synthesis/8x8/Conv0_up/Reshape_1/shape", "op": "Const", "attr": {"value": {"tensor": {"dtype": "DT_INT32", "tensorShape": {"dim": [{"size": "4"}]}}}, "dtype": {"type": "DT_INT32"}}}, {"name": "g_synthesis/8x8/Conv0_up/Reshape/shape", "op": "Const", "attr": {"value": {"tensor": {"dtype": "DT_INT32", "tensorShape": {"dim": [{"size": "6"}]}}}, "dtype": {"type": "DT_INT32"}}}, {"name": "g_synthesis/4x4/Conv/StyleMod/mul_1", "op": "Const", "attr": {"value": {"tensor": {"dtype": "DT_FLOAT", "tensorShape": {"dim": [{"size": "1024"}]}}}, "dtype": {"type": "DT_FLOAT"}}}, {"name": "g_synthesis/4x4/Conv/StyleMod/mul", "op": "Const", "attr": {"value": {"tensor": {"dtype": "DT_FLOAT", "tensorShape": {"dim": [{"size": "512"}, {"size": "1024"}]}}}, "dtype": {"type": "DT_FLOAT"}}}, {"name": "g_synthesis/4x4/Conv/Reshape", "op": "Const", "attr": {"value": {"tensor": {"dtype": "DT_FLOAT", "tensorShape": {"dim": [{"size": "1"}, {"size": "512"}, {"size": "1"}, {"size": "1"}]}}}, "dtype": {"type": "DT_FLOAT"}}}, {"name": "g_synthesis/4x4/Const/Noise/random_uniform/shape/2", "op": "Const", "attr": {"value": {"tensor": {"dtype": "DT_INT32", "tensorShape": {}}}, "dtype": {"type": "DT_INT32"}}}, {"name": "g_synthesis/4x4/Conv/mul", "op": "Const", "attr": {"value": {"tensor": {"dtype": "DT_FLOAT", "tensorShape": {"dim": [{"size": "3"}, {"size": "3"}, {"size": "512"}, {"size": "512"}]}}}, "dtype": {"type": "DT_FLOAT"}}}, {"name": "g_synthesis/4x4/Const/StyleMod/mul_1", "op": "Const", "attr": {"value": {"tensor": {"dtype": "DT_FLOAT", "tensorShape": {"dim": [{"size": "1024"}]}}}, "dtype": {"type": "DT_FLOAT"}}}, {"name": "g_synthesis/4x4/Const/StyleMod/mul", "op": "Const", "attr": {"value": {"tensor": {"dtype": "DT_FLOAT", "tensorShape": {"dim": [{"size": "512"}, {"size": "1024"}]}}}, "dtype": {"type": "DT_FLOAT"}}}, {"name": "g_synthesis/4x4/Const/const", "op": "Const", "attr": {"value": {"tensor": {"dtype": "DT_FLOAT", "tensorShape": {"dim": [{"size": "1"}, {"size": "512"}, {"size": "4"}, {"size": "4"}]}}}, "dtype": {"type": "DT_FLOAT"}}}, {"name": "g_synthesis/4x4/Const/Reshape", "op": "Const", "attr": {"value": {"tensor": {"dtype": "DT_FLOAT", "tensorShape": {"dim": [{"size": "1"}, {"size": "512"}, {"size": "1"}, {"size": "1"}]}}}, "dtype": {"type": "DT_FLOAT"}}}, {"name": "g_synthesis/4x4/Const/Noise/Reshape", "op": "Const", "attr": {"value": {"tensor": {"dtype": "DT_FLOAT", "tensorShape": {"dim": [{"size": "1"}, {"size": "512"}, {"size": "1"}, {"size": "1"}]}}}, "dtype": {"type": "DT_FLOAT"}}}, {"name": "g_synthesis/4x4/Conv/Noise/Reshape", "op": "Const", "attr": {"value": {"tensor": {"dtype": "DT_FLOAT", "tensorShape": {"dim": [{"size": "1"}, {"size": "512"}, {"size": "1"}, {"size": "1"}]}}}, "dtype": {"type": "DT_FLOAT"}}}, {"name": "g_synthesis/8x8/Conv0_up/Noise/Reshape", "op": "Const", "attr": {"value": {"tensor": {"dtype": "DT_FLOAT", "tensorShape": {"dim": [{"size": "1"}, {"size": "512"}, {"size": "1"}, {"size": "1"}]}}}, "dtype": {"type": "DT_FLOAT"}}}, {"name": "g_synthesis/8x8/Conv1/Noise/Reshape", "op": "Const", "attr": {"value": {"tensor": {"dtype": "DT_FLOAT", "tensorShape": {"dim": [{"size": "1"}, {"size": "512"}, {"size": "1"}, {"size": "1"}]}}}, "dtype": {"type": "DT_FLOAT"}}}, {"name": "g_synthesis/16x16/Conv0_up/Noise/Reshape", "op": "Const", "attr": {"value": {"tensor": {"dtype": "DT_FLOAT", "tensorShape": {"dim": [{"size": "1"}, {"size": "512"}, {"size": "1"}, {"size": "1"}]}}}, "dtype": {"type": "DT_FLOAT"}}}, {"name": "g_synthesis/16x16/Conv1/Noise/Reshape", "op": "Const", "attr": {"value": {"tensor": {"dtype": "DT_FLOAT", "tensorShape": {"dim": [{"size": "1"}, {"size": "512"}, {"size": "1"}, {"size": "1"}]}}}, "dtype": {"type": "DT_FLOAT"}}}, {"name": "g_synthesis/32x32/Conv0_up/Noise/Reshape", "op": "Const", "attr": {"value": {"tensor": {"dtype": "DT_FLOAT", "tensorShape": {"dim": [{"size": "1"}, {"size": "512"}, {"size": "1"}, {"size": "1"}]}}}, "dtype": {"type": "DT_FLOAT"}}}, {"name": "g_synthesis/32x32/Conv1/Noise/Reshape", "op": "Const", "attr": {"value": {"tensor": {"dtype": "DT_FLOAT", "tensorShape": {"dim": [{"size": "1"}, {"size": "512"}, {"size": "1"}, {"size": "1"}]}}}, "dtype": {"type": "DT_FLOAT"}}}, {"name": "g_synthesis/64x64/Conv0_up/Noise/Reshape", "op": "Const", "attr": {"value": {"tensor": {"dtype": "DT_FLOAT", "tensorShape": {"dim": [{"size": "1"}, {"size": "256"}, {"size": "1"}, {"size": "1"}]}}}, "dtype": {"type": "DT_FLOAT"}}}, {"name": "g_synthesis/64x64/Conv1/Noise/Reshape", "op": "Const", "attr": {"value": {"tensor": {"dtype": "DT_FLOAT", "tensorShape": {"dim": [{"size": "1"}, {"size": "256"}, {"size": "1"}, {"size": "1"}]}}}, "dtype": {"type": "DT_FLOAT"}}}, {"name": "g_synthesis/128x128/Conv0_up/AddN", "op": "Const", "attr": {"value": {"tensor": {"dtype": "DT_FLOAT", "tensorShape": {"dim": [{"size": "4"}, {"size": "4"}, {"size": "128"}, {"size": "256"}]}}}, "dtype": {"type": "DT_FLOAT"}}}, {"name": "g_synthesis/128x128/Conv0_up/Noise/Reshape", "op": "Const", "attr": {"value": {"tensor": {"dtype": "DT_FLOAT", "tensorShape": {"dim": [{"size": "1"}, {"size": "128"}, {"size": "1"}, {"size": "1"}]}}}, "dtype": {"type": "DT_FLOAT"}}}, {"name": "g_synthesis/128x128/Conv1/Noise/Reshape", "op": "Const", "attr": {"value": {"tensor": {"dtype": "DT_FLOAT", "tensorShape": {"dim": [{"size": "1"}, {"size": "128"}, {"size": "1"}, {"size": "1"}]}}}, "dtype": {"type": "DT_FLOAT"}}}, {"name": "g_synthesis/256x256/Conv0_up/AddN", "op": "Const", "attr": {"value": {"tensor": {"dtype": "DT_FLOAT", "tensorShape": {"dim": [{"size": "4"}, {"size": "4"}, {"size": "64"}, {"size": "128"}]}}}, "dtype": {"type": "DT_FLOAT"}}}, {"name": "g_synthesis/256x256/Conv0_up/Noise/Reshape", "op": "Const", "attr": {"value": {"tensor": {"dtype": "DT_FLOAT", "tensorShape": {"dim": [{"size": "1"}, {"size": "64"}, {"size": "1"}, {"size": "1"}]}}}, "dtype": {"type": "DT_FLOAT"}}}, {"name": "g_synthesis/256x256/Conv1/Noise/Reshape", "op": "Const", "attr": {"value": {"tensor": {"dtype": "DT_FLOAT", "tensorShape": {"dim": [{"size": "1"}, {"size": "64"}, {"size": "1"}, {"size": "1"}]}}}, "dtype": {"type": "DT_FLOAT"}}}, {"name": "g_synthesis/512x512/Conv0_up/AddN", "op": "Const", "attr": {"value": {"tensor": {"dtype": "DT_FLOAT", "tensorShape": {"dim": [{"size": "4"}, {"size": "4"}, {"size": "32"}, {"size": "64"}]}}}, "dtype": {"type": "DT_FLOAT"}}}, {"name": "g_synthesis/512x512/Conv0_up/Noise/Reshape", "op": "Const", "attr": {"value": {"tensor": {"dtype": "DT_FLOAT", "tensorShape": {"dim": [{"size": "1"}, {"size": "32"}, {"size": "1"}, {"size": "1"}]}}}, "dtype": {"type": "DT_FLOAT"}}}, {"name": "g_synthesis/512x512/Conv1/Noise/Reshape", "op": "Const", "attr": {"value": {"tensor": {"dtype": "DT_FLOAT", "tensorShape": {"dim": [{"size": "1"}, {"size": "32"}, {"size": "1"}, {"size": "1"}]}}}, "dtype": {"type": "DT_FLOAT"}}}, {"name": "g_synthesis/Reshape_13/shape", "op": "Const", "attr": {"value": {"tensor": {"dtype": "DT_INT32", "tensorShape": {"dim": [{"size": "4"}]}}}, "dtype": {"type": "DT_INT32"}}}, {"name": "g_synthesis/Reshape_12/shape", "op": "Const", "attr": {"value": {"tensor": {"dtype": "DT_INT32", "tensorShape": {"dim": [{"size": "6"}]}}}, "dtype": {"type": "DT_INT32"}}}, {"name": "g_synthesis/256x256_1/ToRGB/Reshape", "op": "Const", "attr": {"value": {"tensor": {"dtype": "DT_FLOAT", "tensorShape": {"dim": [{"size": "1"}, {"size": "3"}, {"size": "1"}, {"size": "1"}]}}}, "dtype": {"type": "DT_FLOAT"}}}, {"name": "g_synthesis/256x256_1/ToRGB/mul", "op": "Const", "attr": {"value": {"tensor": {"dtype": "DT_FLOAT", "tensorShape": {"dim": [{"size": "1"}, {"size": "1"}, {"size": "64"}, {"size": "3"}]}}}, "dtype": {"type": "DT_FLOAT"}}}, {"name": "g_synthesis/Reshape_11/shape", "op": "Const", "attr": {"value": {"tensor": {"dtype": "DT_INT32", "tensorShape": {"dim": [{"size": "4"}]}}}, "dtype": {"type": "DT_INT32"}}}, {"name": "g_synthesis/Reshape_10/shape", "op": "Const", "attr": {"value": {"tensor": {"dtype": "DT_INT32", "tensorShape": {"dim": [{"size": "6"}]}}}, "dtype": {"type": "DT_INT32"}}}, {"name": "g_synthesis/128x128_1/ToRGB/Reshape", "op": "Const", "attr": {"value": {"tensor": {"dtype": "DT_FLOAT", "tensorShape": {"dim": [{"size": "1"}, {"size": "3"}, {"size": "1"}, {"size": "1"}]}}}, "dtype": {"type": "DT_FLOAT"}}}, {"name": "g_synthesis/128x128_1/ToRGB/mul", "op": "Const", "attr": {"value": {"tensor": {"dtype": "DT_FLOAT", "tensorShape": {"dim": [{"size": "1"}, {"size": "1"}, {"size": "128"}, {"size": "3"}]}}}, "dtype": {"type": "DT_FLOAT"}}}, {"name": "g_synthesis/Reshape_9/shape", "op": "Const", "attr": {"value": {"tensor": {"dtype": "DT_INT32", "tensorShape": {"dim": [{"size": "4"}]}}}, "dtype": {"type": "DT_INT32"}}}, {"name": "g_synthesis/Reshape_8/shape", "op": "Const", "attr": {"value": {"tensor": {"dtype": "DT_INT32", "tensorShape": {"dim": [{"size": "6"}]}}}, "dtype": {"type": "DT_INT32"}}}, {"name": "g_synthesis/64x64_1/ToRGB/Reshape", "op": "Const", "attr": {"value": {"tensor": {"dtype": "DT_FLOAT", "tensorShape": {"dim": [{"size": "1"}, {"size": "3"}, {"size": "1"}, {"size": "1"}]}}}, "dtype": {"type": "DT_FLOAT"}}}, {"name": "g_synthesis/64x64_1/ToRGB/mul", "op": "Const", "attr": {"value": {"tensor": {"dtype": "DT_FLOAT", "tensorShape": {"dim": [{"size": "1"}, {"size": "1"}, {"size": "256"}, {"size": "3"}]}}}, "dtype": {"type": "DT_FLOAT"}}}, {"name": "g_synthesis/Reshape_7/shape", "op": "Const", "attr": {"value": {"tensor": {"dtype": "DT_INT32", "tensorShape": {"dim": [{"size": "4"}]}}}, "dtype": {"type": "DT_INT32"}}}, {"name": "g_synthesis/Reshape_6/shape", "op": "Const", "attr": {"value": {"tensor": {"dtype": "DT_INT32", "tensorShape": {"dim": [{"size": "6"}]}}}, "dtype": {"type": "DT_INT32"}}}, {"name": "g_synthesis/32x32_1/ToRGB/Reshape", "op": "Const", "attr": {"value": {"tensor": {"dtype": "DT_FLOAT", "tensorShape": {"dim": [{"size": "1"}, {"size": "3"}, {"size": "1"}, {"size": "1"}]}}}, "dtype": {"type": "DT_FLOAT"}}}, {"name": "g_synthesis/32x32_1/ToRGB/mul", "op": "Const", "attr": {"value": {"tensor": {"dtype": "DT_FLOAT", "tensorShape": {"dim": [{"size": "1"}, {"size": "1"}, {"size": "512"}, {"size": "3"}]}}}, "dtype": {"type": "DT_FLOAT"}}}, {"name": "g_synthesis/Reshape_5/shape", "op": "Const", "attr": {"value": {"tensor": {"dtype": "DT_INT32", "tensorShape": {"dim": [{"size": "4"}]}}}, "dtype": {"type": "DT_INT32"}}}, {"name": "g_synthesis/Reshape_4/shape", "op": "Const", "attr": {"value": {"tensor": {"dtype": "DT_INT32", "tensorShape": {"dim": [{"size": "6"}]}}}, "dtype": {"type": "DT_INT32"}}}, {"name": "g_synthesis/16x16_1/ToRGB/Reshape", "op": "Const", "attr": {"value": {"tensor": {"dtype": "DT_FLOAT", "tensorShape": {"dim": [{"size": "1"}, {"size": "3"}, {"size": "1"}, {"size": "1"}]}}}, "dtype": {"type": "DT_FLOAT"}}}, {"name": "g_synthesis/16x16_1/ToRGB/mul", "op": "Const", "attr": {"value": {"tensor": {"dtype": "DT_FLOAT", "tensorShape": {"dim": [{"size": "1"}, {"size": "1"}, {"size": "512"}, {"size": "3"}]}}}, "dtype": {"type": "DT_FLOAT"}}}, {"name": "g_synthesis/Reshape_3/shape", "op": "Const", "attr": {"value": {"tensor": {"dtype": "DT_INT32", "tensorShape": {"dim": [{"size": "4"}]}}}, "dtype": {"type": "DT_INT32"}}}, {"name": "g_synthesis/Reshape_2/shape", "op": "Const", "attr": {"value": {"tensor": {"dtype": "DT_INT32", "tensorShape": {"dim": [{"size": "6"}]}}}, "dtype": {"type": "DT_INT32"}}}, {"name": "g_synthesis/8x8_1/ToRGB/Reshape", "op": "Const", "attr": {"value": {"tensor": {"dtype": "DT_FLOAT", "tensorShape": {"dim": [{"size": "1"}, {"size": "3"}, {"size": "1"}, {"size": "1"}]}}}, "dtype": {"type": "DT_FLOAT"}}}, {"name": "g_synthesis/8x8_1/ToRGB/mul", "op": "Const", "attr": {"value": {"tensor": {"dtype": "DT_FLOAT", "tensorShape": {"dim": [{"size": "1"}, {"size": "1"}, {"size": "512"}, {"size": "3"}]}}}, "dtype": {"type": "DT_FLOAT"}}}, {"name": "g_synthesis/Reshape_1/shape", "op": "Const", "attr": {"value": {"tensor": {"dtype": "DT_INT32", "tensorShape": {"dim": [{"size": "4"}]}}}, "dtype": {"type": "DT_INT32"}}}, {"name": "g_synthesis/Reshape/shape", "op": "Const", "attr": {"value": {"tensor": {"dtype": "DT_INT32", "tensorShape": {"dim": [{"size": "6"}]}}}, "dtype": {"type": "DT_INT32"}}}, {"name": "g_synthesis/4x4_1/ToRGB/mul", "op": "Const", "attr": {"value": {"tensor": {"dtype": "DT_FLOAT", "tensorShape": {"dim": [{"size": "1"}, {"size": "1"}, {"size": "512"}, {"size": "3"}]}}}, "dtype": {"type": "DT_FLOAT"}}}, {"name": "g_mapping/PixelNorm/Square", "op": "Square", "input": ["z"], "attr": {"T": {"type": "DT_FLOAT"}}}, {"name": "g_mapping/PixelNorm/Mean", "op": "Mean", "input": ["g_mapping/PixelNorm/Square", "g_synthesis/4x4/Const/Tile/multiples/1"], "attr": {"keep_dims": {"b": true}, "Tidx": {"type": "DT_INT32"}, "T": {"type": "DT_FLOAT"}}}, {"name": "g_mapping/PixelNorm/add", "op": "Add", "input": ["g_mapping/PixelNorm/Mean", "g_synthesis/4x4/Const/InstanceNorm/epsilon"], "attr": {"T": {"type": "DT_FLOAT"}}}, {"name": "g_mapping/PixelNorm/Rsqrt", "op": "Rsqrt", "input": ["g_mapping/PixelNorm/add"], "attr": {"T": {"type": "DT_FLOAT"}}}, {"name": "g_mapping/PixelNorm/mul", "op": "Mul", "input": ["g_mapping/PixelNorm/Rsqrt", "z"], "attr": {"T": {"type": "DT_FLOAT"}}}, {"name": "g_mapping/Dense0/flatten/Shape", "op": "Shape", "input": ["g_mapping/PixelNorm/mul"], "attr": {"T": {"type": "DT_FLOAT"}, "out_type": {"type": "DT_INT32"}}}, {"name": "g_mapping/Dense0/flatten/strided_slice", "op": "StridedSlice", "input": ["g_mapping/Dense0/flatten/Shape", "g_synthesis/512x512/Conv0_up/strided_slice_4/stack", "g_synthesis/512x512/Conv0_up/strided_slice_4/stack_1", "g_synthesis/512x512/Conv0_up/strided_slice_4/stack_1"], "attr": {"T": {"type": "DT_INT32"}, "Index": {"type": "DT_INT32"}, "shrink_axis_mask": {"i": "1"}, "begin_mask": {"i": "0"}, "ellipsis_mask": {"i": "0"}, "new_axis_mask": {"i": "0"}, "end_mask": {"i": "0"}}}, {"name": "g_mapping/Dense0/flatten/Reshape/shape", "op": "Pack", "input": ["g_mapping/Dense0/flatten/strided_slice", "g_synthesis/4x4/Const/StyleMod/flatten/Reshape/shape/1"], "attr": {"T": {"type": "DT_INT32"}, "axis": {"i": "0"}, "N": {"i": "2"}}}, {"name": "g_mapping/Dense0/flatten/Reshape", "op": "Reshape", "input": ["g_mapping/PixelNorm/mul", "g_mapping/Dense0/flatten/Reshape/shape"], "attr": {"T": {"type": "DT_FLOAT"}, "Tshape": {"type": "DT_INT32"}}}, {"name": "g_mapping/Dense0/MatMul", "op": "MatMul", "input": ["g_mapping/Dense0/flatten/Reshape", "g_mapping/Dense0/mul"], "attr": {"transpose_b": {"b": false}, "T": {"type": "DT_FLOAT"}, "transpose_a": {"b": false}}}, {"name": "g_mapping/Dense0/add", "op": "Add", "input": ["g_mapping/Dense0/MatMul", "g_mapping/Dense0/mul_1"], "attr": {"T": {"type": "DT_FLOAT"}}}, {"name": "g_mapping/Dense0/LeakyRelu", "op": "LeakyRelu", "input": ["g_mapping/Dense0/add"], "attr": {"T": {"type": "DT_FLOAT"}, "alpha": {"f": 0.20000000298023224}}}, {"name": "g_mapping/Dense1/flatten/Shape", "op": "Shape", "input": ["g_mapping/Dense0/LeakyRelu"], "attr": {"T": {"type": "DT_FLOAT"}, "out_type": {"type": "DT_INT32"}}}, {"name": "g_mapping/Dense1/flatten/strided_slice", "op": "StridedSlice", "input": ["g_mapping/Dense1/flatten/Shape", "g_synthesis/512x512/Conv0_up/strided_slice_4/stack", "g_synthesis/512x512/Conv0_up/strided_slice_4/stack_1", "g_synthesis/512x512/Conv0_up/strided_slice_4/stack_1"], "attr": {"T": {"type": "DT_INT32"}, "Index": {"type": "DT_INT32"}, "shrink_axis_mask": {"i": "1"}, "begin_mask": {"i": "0"}, "ellipsis_mask": {"i": "0"}, "new_axis_mask": {"i": "0"}, "end_mask": {"i": "0"}}}, {"name": "g_mapping/Dense1/flatten/Reshape/shape", "op": "Pack", "input": ["g_mapping/Dense1/flatten/strided_slice", "g_synthesis/4x4/Const/StyleMod/flatten/Reshape/shape/1"], "attr": {"T": {"type": "DT_INT32"}, "axis": {"i": "0"}, "N": {"i": "2"}}}, {"name": "g_mapping/Dense1/flatten/Reshape", "op": "Reshape", "input": ["g_mapping/Dense0/LeakyRelu", "g_mapping/Dense1/flatten/Reshape/shape"], "attr": {"T": {"type": "DT_FLOAT"}, "Tshape": {"type": "DT_INT32"}}}, {"name": "g_mapping/Dense1/MatMul", "op": "MatMul", "input": ["g_mapping/Dense1/flatten/Reshape", "g_mapping/Dense1/mul"], "attr": {"transpose_b": {"b": false}, "T": {"type": "DT_FLOAT"}, "transpose_a": {"b": false}}}, {"name": "g_mapping/Dense1/add", "op": "Add", "input": ["g_mapping/Dense1/MatMul", "g_mapping/Dense1/mul_1"], "attr": {"T": {"type": "DT_FLOAT"}}}, {"name": "g_mapping/Dense1/LeakyRelu", "op": "LeakyRelu", "input": ["g_mapping/Dense1/add"], "attr": {"T": {"type": "DT_FLOAT"}, "alpha": {"f": 0.20000000298023224}}}, {"name": "g_mapping/Dense2/flatten/Shape", "op": "Shape", "input": ["g_mapping/Dense1/LeakyRelu"], "attr": {"T": {"type": "DT_FLOAT"}, "out_type": {"type": "DT_INT32"}}}, {"name": "g_mapping/Dense2/flatten/strided_slice", "op": "StridedSlice", "input": ["g_mapping/Dense2/flatten/Shape", "g_synthesis/512x512/Conv0_up/strided_slice_4/stack", "g_synthesis/512x512/Conv0_up/strided_slice_4/stack_1", "g_synthesis/512x512/Conv0_up/strided_slice_4/stack_1"], "attr": {"T": {"type": "DT_INT32"}, "Index": {"type": "DT_INT32"}, "shrink_axis_mask": {"i": "1"}, "begin_mask": {"i": "0"}, "ellipsis_mask": {"i": "0"}, "new_axis_mask": {"i": "0"}, "end_mask": {"i": "0"}}}, {"name": "g_mapping/Dense2/flatten/Reshape/shape", "op": "Pack", "input": ["g_mapping/Dense2/flatten/strided_slice", "g_synthesis/4x4/Const/StyleMod/flatten/Reshape/shape/1"], "attr": {"T": {"type": "DT_INT32"}, "axis": {"i": "0"}, "N": {"i": "2"}}}, {"name": "g_mapping/Dense2/flatten/Reshape", "op": "Reshape", "input": ["g_mapping/Dense1/LeakyRelu", "g_mapping/Dense2/flatten/Reshape/shape"], "attr": {"T": {"type": "DT_FLOAT"}, "Tshape": {"type": "DT_INT32"}}}, {"name": "g_mapping/Dense2/MatMul", "op": "MatMul", "input": ["g_mapping/Dense2/flatten/Reshape", "g_mapping/Dense2/mul"], "attr": {"transpose_b": {"b": false}, "T": {"type": "DT_FLOAT"}, "transpose_a": {"b": false}}}, {"name": "g_mapping/Dense2/add", "op": "Add", "input": ["g_mapping/Dense2/MatMul", "g_mapping/Dense2/mul_1"], "attr": {"T": {"type": "DT_FLOAT"}}}, {"name": "g_mapping/Dense2/LeakyRelu", "op": "LeakyRelu", "input": ["g_mapping/Dense2/add"], "attr": {"T": {"type": "DT_FLOAT"}, "alpha": {"f": 0.20000000298023224}}}, {"name": "g_mapping/Dense3/flatten/Shape", "op": "Shape", "input": ["g_mapping/Dense2/LeakyRelu"], "attr": {"T": {"type": "DT_FLOAT"}, "out_type": {"type": "DT_INT32"}}}, {"name": "g_mapping/Dense3/flatten/strided_slice", "op": "StridedSlice", "input": ["g_mapping/Dense3/flatten/Shape", "g_synthesis/512x512/Conv0_up/strided_slice_4/stack", "g_synthesis/512x512/Conv0_up/strided_slice_4/stack_1", "g_synthesis/512x512/Conv0_up/strided_slice_4/stack_1"], "attr": {"T": {"type": "DT_INT32"}, "Index": {"type": "DT_INT32"}, "shrink_axis_mask": {"i": "1"}, "begin_mask": {"i": "0"}, "ellipsis_mask": {"i": "0"}, "new_axis_mask": {"i": "0"}, "end_mask": {"i": "0"}}}, {"name": "g_mapping/Dense3/flatten/Reshape/shape", "op": "Pack", "input": ["g_mapping/Dense3/flatten/strided_slice", "g_synthesis/4x4/Const/StyleMod/flatten/Reshape/shape/1"], "attr": {"T": {"type": "DT_INT32"}, "axis": {"i": "0"}, "N": {"i": "2"}}}, {"name": "g_mapping/Dense3/flatten/Reshape", "op": "Reshape", "input": ["g_mapping/Dense2/LeakyRelu", "g_mapping/Dense3/flatten/Reshape/shape"], "attr": {"T": {"type": "DT_FLOAT"}, "Tshape": {"type": "DT_INT32"}}}, {"name": "g_mapping/Dense3/MatMul", "op": "MatMul", "input": ["g_mapping/Dense3/flatten/Reshape", "g_mapping/Dense3/mul"], "attr": {"transpose_b": {"b": false}, "T": {"type": "DT_FLOAT"}, "transpose_a": {"b": false}}}, {"name": "g_mapping/Dense3/add", "op": "Add", "input": ["g_mapping/Dense3/MatMul", "g_mapping/Dense3/mul_1"], "attr": {"T": {"type": "DT_FLOAT"}}}, {"name": "g_mapping/Dense3/LeakyRelu", "op": "LeakyRelu", "input": ["g_mapping/Dense3/add"], "attr": {"T": {"type": "DT_FLOAT"}, "alpha": {"f": 0.20000000298023224}}}, {"name": "g_mapping/Dense4/flatten/Shape", "op": "Shape", "input": ["g_mapping/Dense3/LeakyRelu"], "attr": {"T": {"type": "DT_FLOAT"}, "out_type": {"type": "DT_INT32"}}}, {"name": "g_mapping/Dense4/flatten/strided_slice", "op": "StridedSlice", "input": ["g_mapping/Dense4/flatten/Shape", "g_synthesis/512x512/Conv0_up/strided_slice_4/stack", "g_synthesis/512x512/Conv0_up/strided_slice_4/stack_1", "g_synthesis/512x512/Conv0_up/strided_slice_4/stack_1"], "attr": {"T": {"type": "DT_INT32"}, "Index": {"type": "DT_INT32"}, "shrink_axis_mask": {"i": "1"}, "begin_mask": {"i": "0"}, "ellipsis_mask": {"i": "0"}, "new_axis_mask": {"i": "0"}, "end_mask": {"i": "0"}}}, {"name": "g_mapping/Dense4/flatten/Reshape/shape", "op": "Pack", "input": ["g_mapping/Dense4/flatten/strided_slice", "g_synthesis/4x4/Const/StyleMod/flatten/Reshape/shape/1"], "attr": {"T": {"type": "DT_INT32"}, "axis": {"i": "0"}, "N": {"i": "2"}}}, {"name": "g_mapping/Dense4/flatten/Reshape", "op": "Reshape", "input": ["g_mapping/Dense3/LeakyRelu", "g_mapping/Dense4/flatten/Reshape/shape"], "attr": {"T": {"type": "DT_FLOAT"}, "Tshape": {"type": "DT_INT32"}}}, {"name": "g_mapping/Dense4/MatMul", "op": "MatMul", "input": ["g_mapping/Dense4/flatten/Reshape", "g_mapping/Dense4/mul"], "attr": {"transpose_b": {"b": false}, "T": {"type": "DT_FLOAT"}, "transpose_a": {"b": false}}}, {"name": "g_mapping/Dense4/add", "op": "Add", "input": ["g_mapping/Dense4/MatMul", "g_mapping/Dense4/mul_1"], "attr": {"T": {"type": "DT_FLOAT"}}}, {"name": "g_mapping/Dense4/LeakyRelu", "op": "LeakyRelu", "input": ["g_mapping/Dense4/add"], "attr": {"T": {"type": "DT_FLOAT"}, "alpha": {"f": 0.20000000298023224}}}, {"name": "g_mapping/Dense5/flatten/Shape", "op": "Shape", "input": ["g_mapping/Dense4/LeakyRelu"], "attr": {"T": {"type": "DT_FLOAT"}, "out_type": {"type": "DT_INT32"}}}, {"name": "g_mapping/Dense5/flatten/strided_slice", "op": "StridedSlice", "input": ["g_mapping/Dense5/flatten/Shape", "g_synthesis/512x512/Conv0_up/strided_slice_4/stack", "g_synthesis/512x512/Conv0_up/strided_slice_4/stack_1", "g_synthesis/512x512/Conv0_up/strided_slice_4/stack_1"], "attr": {"T": {"type": "DT_INT32"}, "Index": {"type": "DT_INT32"}, "shrink_axis_mask": {"i": "1"}, "begin_mask": {"i": "0"}, "ellipsis_mask": {"i": "0"}, "new_axis_mask": {"i": "0"}, "end_mask": {"i": "0"}}}, {"name": "g_mapping/Dense5/flatten/Reshape/shape", "op": "Pack", "input": ["g_mapping/Dense5/flatten/strided_slice", "g_synthesis/4x4/Const/StyleMod/flatten/Reshape/shape/1"], "attr": {"T": {"type": "DT_INT32"}, "axis": {"i": "0"}, "N": {"i": "2"}}}, {"name": "g_mapping/Dense5/flatten/Reshape", "op": "Reshape", "input": ["g_mapping/Dense4/LeakyRelu", "g_mapping/Dense5/flatten/Reshape/shape"], "attr": {"T": {"type": "DT_FLOAT"}, "Tshape": {"type": "DT_INT32"}}}, {"name": "g_mapping/Dense5/MatMul", "op": "MatMul", "input": ["g_mapping/Dense5/flatten/Reshape", "g_mapping/Dense5/mul"], "attr": {"transpose_b": {"b": false}, "T": {"type": "DT_FLOAT"}, "transpose_a": {"b": false}}}, {"name": "g_mapping/Dense5/add", "op": "Add", "input": ["g_mapping/Dense5/MatMul", "g_mapping/Dense5/mul_1"], "attr": {"T": {"type": "DT_FLOAT"}}}, {"name": "g_mapping/Dense5/LeakyRelu", "op": "LeakyRelu", "input": ["g_mapping/Dense5/add"], "attr": {"T": {"type": "DT_FLOAT"}, "alpha": {"f": 0.20000000298023224}}}, {"name": "g_mapping/Dense6/flatten/Shape", "op": "Shape", "input": ["g_mapping/Dense5/LeakyRelu"], "attr": {"T": {"type": "DT_FLOAT"}, "out_type": {"type": "DT_INT32"}}}, {"name": "g_mapping/Dense6/flatten/strided_slice", "op": "StridedSlice", "input": ["g_mapping/Dense6/flatten/Shape", "g_synthesis/512x512/Conv0_up/strided_slice_4/stack", "g_synthesis/512x512/Conv0_up/strided_slice_4/stack_1", "g_synthesis/512x512/Conv0_up/strided_slice_4/stack_1"], "attr": {"T": {"type": "DT_INT32"}, "Index": {"type": "DT_INT32"}, "shrink_axis_mask": {"i": "1"}, "begin_mask": {"i": "0"}, "ellipsis_mask": {"i": "0"}, "new_axis_mask": {"i": "0"}, "end_mask": {"i": "0"}}}, {"name": "g_mapping/Dense6/flatten/Reshape/shape", "op": "Pack", "input": ["g_mapping/Dense6/flatten/strided_slice", "g_synthesis/4x4/Const/StyleMod/flatten/Reshape/shape/1"], "attr": {"T": {"type": "DT_INT32"}, "axis": {"i": "0"}, "N": {"i": "2"}}}, {"name": "g_mapping/Dense6/flatten/Reshape", "op": "Reshape", "input": ["g_mapping/Dense5/LeakyRelu", "g_mapping/Dense6/flatten/Reshape/shape"], "attr": {"T": {"type": "DT_FLOAT"}, "Tshape": {"type": "DT_INT32"}}}, {"name": "g_mapping/Dense6/MatMul", "op": "MatMul", "input": ["g_mapping/Dense6/flatten/Reshape", "g_mapping/Dense6/mul"], "attr": {"transpose_b": {"b": false}, "T": {"type": "DT_FLOAT"}, "transpose_a": {"b": false}}}, {"name": "g_mapping/Dense6/add", "op": "Add", "input": ["g_mapping/Dense6/MatMul", "g_mapping/Dense6/mul_1"], "attr": {"T": {"type": "DT_FLOAT"}}}, {"name": "g_mapping/Dense6/LeakyRelu", "op": "LeakyRelu", "input": ["g_mapping/Dense6/add"], "attr": {"T": {"type": "DT_FLOAT"}, "alpha": {"f": 0.20000000298023224}}}, {"name": "g_mapping/Dense7/flatten/Shape", "op": "Shape", "input": ["g_mapping/Dense6/LeakyRelu"], "attr": {"T": {"type": "DT_FLOAT"}, "out_type": {"type": "DT_INT32"}}}, {"name": "g_mapping/Dense7/flatten/strided_slice", "op": "StridedSlice", "input": ["g_mapping/Dense7/flatten/Shape", "g_synthesis/512x512/Conv0_up/strided_slice_4/stack", "g_synthesis/512x512/Conv0_up/strided_slice_4/stack_1", "g_synthesis/512x512/Conv0_up/strided_slice_4/stack_1"], "attr": {"T": {"type": "DT_INT32"}, "Index": {"type": "DT_INT32"}, "shrink_axis_mask": {"i": "1"}, "begin_mask": {"i": "0"}, "ellipsis_mask": {"i": "0"}, "new_axis_mask": {"i": "0"}, "end_mask": {"i": "0"}}}, {"name": "g_mapping/Dense7/flatten/Reshape/shape", "op": "Pack", "input": ["g_mapping/Dense7/flatten/strided_slice", "g_synthesis/4x4/Const/StyleMod/flatten/Reshape/shape/1"], "attr": {"T": {"type": "DT_INT32"}, "axis": {"i": "0"}, "N": {"i": "2"}}}, {"name": "g_mapping/Dense7/flatten/Reshape", "op": "Reshape", "input": ["g_mapping/Dense6/LeakyRelu", "g_mapping/Dense7/flatten/Reshape/shape"], "attr": {"T": {"type": "DT_FLOAT"}, "Tshape": {"type": "DT_INT32"}}}, {"name": "g_mapping/Dense7/MatMul", "op": "MatMul", "input": ["g_mapping/Dense7/flatten/Reshape", "g_mapping/Dense7/mul"], "attr": {"transpose_b": {"b": false}, "T": {"type": "DT_FLOAT"}, "transpose_a": {"b": false}}}, {"name": "g_mapping/Dense7/add", "op": "Add", "input": ["g_mapping/Dense7/MatMul", "g_mapping/Dense7/mul_1"], "attr": {"T": {"type": "DT_FLOAT"}}}, {"name": "g_mapping/Dense7/LeakyRelu", "op": "LeakyRelu", "input": ["g_mapping/Dense7/add"], "attr": {"T": {"type": "DT_FLOAT"}, "alpha": {"f": 0.20000000298023224}}}, {"name": "g_mapping/Broadcast/ExpandDims", "op": "ExpandDims", "input": ["g_mapping/Dense7/LeakyRelu", "g_synthesis/4x4/Const/Tile/multiples/1"], "attr": {"Tdim": {"type": "DT_INT32"}, "T": {"type": "DT_FLOAT"}}}, {"name": "g_mapping/Broadcast/Tile", "op": "Tile", "input": ["g_mapping/Broadcast/ExpandDims", "g_mapping/Broadcast/Tile/multiples"], "attr": {"Tmultiples": {"type": "DT_INT32"}, "T": {"type": "DT_FLOAT"}}}, {"name": "Truncation/Lerp/sub", "op": "Sub", "input": ["g_mapping/Broadcast/Tile", "w_avg"], "attr": {"T": {"type": "DT_FLOAT"}}}, {"name": "Truncation/Lerp/mul", "op": "Mul", "input": ["Truncation/Lerp/sub", "Truncation/Select"], "attr": {"T": {"type": "DT_FLOAT"}}}, {"name": "Truncation/Lerp/add", "op": "Add", "input": ["Truncation/Lerp/mul", "w_avg"], "attr": {"T": {"type": "DT_FLOAT"}}}, {"name": "g_synthesis/strided_slice_16", "op": "StridedSlice", "input": ["Truncation/Lerp/add", "g_synthesis/strided_slice_15/stack_1", "g_synthesis/strided_slice_16/stack_1", "g_synthesis/4x4/Const/StyleMod/strided_slice/stack_2"], "attr": {"T": {"type": "DT_FLOAT"}, "Index": {"type": "DT_INT32"}, "shrink_axis_mask": {"i": "2"}, "begin_mask": {"i": "1"}, "ellipsis_mask": {"i": "0"}, "new_axis_mask": {"i": "0"}, "end_mask": {"i": "1"}}}, {"name": "g_synthesis/strided_slice_15", "op": "StridedSlice", "input": ["Truncation/Lerp/add", "g_synthesis/strided_slice_14/stack_1", "g_synthesis/strided_slice_15/stack_1", "g_synthesis/4x4/Const/StyleMod/strided_slice/stack_2"], "attr": {"T": {"type": "DT_FLOAT"}, "Index": {"type": "DT_INT32"}, "shrink_axis_mask": {"i": "2"}, "begin_mask": {"i": "1"}, "ellipsis_mask": {"i": "0"}, "new_axis_mask": {"i": "0"}, "end_mask": {"i": "1"}}}, {"name": "g_synthesis/strided_slice_14", "op": "StridedSlice", "input": ["Truncation/Lerp/add", "g_synthesis/strided_slice_13/stack_1", "g_synthesis/strided_slice_14/stack_1", "g_synthesis/4x4/Const/StyleMod/strided_slice/stack_2"], "attr": {"T": {"type": "DT_FLOAT"}, "Index": {"type": "DT_INT32"}, "shrink_axis_mask": {"i": "2"}, "begin_mask": {"i": "1"}, "ellipsis_mask": {"i": "0"}, "new_axis_mask": {"i": "0"}, "end_mask": {"i": "1"}}}, {"name": "g_synthesis/strided_slice_13", "op": "StridedSlice", "input": ["Truncation/Lerp/add", "g_synthesis/strided_slice_12/stack_1", "g_synthesis/strided_slice_13/stack_1", "g_synthesis/4x4/Const/StyleMod/strided_slice/stack_2"], "attr": {"T": {"type": "DT_FLOAT"}, "Index": {"type": "DT_INT32"}, "shrink_axis_mask": {"i": "2"}, "begin_mask": {"i": "1"}, "ellipsis_mask": {"i": "0"}, "new_axis_mask": {"i": "0"}, "end_mask": {"i": "1"}}}, {"name": "g_synthesis/strided_slice_12", "op": "StridedSlice", "input": ["Truncation/Lerp/add", "g_synthesis/strided_slice_11/stack_1", "g_synthesis/strided_slice_12/stack_1", "g_synthesis/4x4/Const/StyleMod/strided_slice/stack_2"], "attr": {"T": {"type": "DT_FLOAT"}, "Index": {"type": "DT_INT32"}, "shrink_axis_mask": {"i": "2"}, "begin_mask": {"i": "1"}, "ellipsis_mask": {"i": "0"}, "new_axis_mask": {"i": "0"}, "end_mask": {"i": "1"}}}, {"name": "g_synthesis/strided_slice_11", "op": "StridedSlice", "input": ["Truncation/Lerp/add", "g_synthesis/strided_slice_10/stack_1", "g_synthesis/strided_slice_11/stack_1", "g_synthesis/4x4/Const/StyleMod/strided_slice/stack_2"], "attr": {"T": {"type": "DT_FLOAT"}, "Index": {"type": "DT_INT32"}, "shrink_axis_mask": {"i": "2"}, "begin_mask": {"i": "1"}, "ellipsis_mask": {"i": "0"}, "new_axis_mask": {"i": "0"}, "end_mask": {"i": "1"}}}, {"name": "g_synthesis/strided_slice_10", "op": "StridedSlice", "input": ["Truncation/Lerp/add", "g_synthesis/strided_slice_9/stack_1", "g_synthesis/strided_slice_10/stack_1", "g_synthesis/4x4/Const/StyleMod/strided_slice/stack_2"], "attr": {"T": {"type": "DT_FLOAT"}, "Index": {"type": "DT_INT32"}, "shrink_axis_mask": {"i": "2"}, "begin_mask": {"i": "1"}, "ellipsis_mask": {"i": "0"}, "new_axis_mask": {"i": "0"}, "end_mask": {"i": "1"}}}, {"name": "g_synthesis/strided_slice_9", "op": "StridedSlice", "input": ["Truncation/Lerp/add", "g_synthesis/strided_slice_8/stack_1", "g_synthesis/strided_slice_9/stack_1", "g_synthesis/4x4/Const/StyleMod/strided_slice/stack_2"], "attr": {"T": {"type": "DT_FLOAT"}, "Index": {"type": "DT_INT32"}, "shrink_axis_mask": {"i": "2"}, "begin_mask": {"i": "1"}, "ellipsis_mask": {"i": "0"}, "new_axis_mask": {"i": "0"}, "end_mask": {"i": "1"}}}, {"name": "g_synthesis/strided_slice_8", "op": "StridedSlice", "input": ["Truncation/Lerp/add", "g_synthesis/strided_slice_7/stack_1", "g_synthesis/strided_slice_8/stack_1", "g_synthesis/4x4/Const/StyleMod/strided_slice/stack_2"], "attr": {"T": {"type": "DT_FLOAT"}, "Index": {"type": "DT_INT32"}, "shrink_axis_mask": {"i": "2"}, "begin_mask": {"i": "1"}, "ellipsis_mask": {"i": "0"}, "new_axis_mask": {"i": "0"}, "end_mask": {"i": "1"}}}, {"name": "g_synthesis/strided_slice_7", "op": "StridedSlice", "input": ["Truncation/Lerp/add", "g_synthesis/strided_slice_6/stack_1", "g_synthesis/strided_slice_7/stack_1", "g_synthesis/4x4/Const/StyleMod/strided_slice/stack_2"], "attr": {"T": {"type": "DT_FLOAT"}, "Index": {"type": "DT_INT32"}, "shrink_axis_mask": {"i": "2"}, "begin_mask": {"i": "1"}, "ellipsis_mask": {"i": "0"}, "new_axis_mask": {"i": "0"}, "end_mask": {"i": "1"}}}, {"name": "g_synthesis/strided_slice_6", "op": "StridedSlice", "input": ["Truncation/Lerp/add", "g_synthesis/strided_slice_5/stack_1", "g_synthesis/strided_slice_6/stack_1", "g_synthesis/4x4/Const/StyleMod/strided_slice/stack_2"], "attr": {"T": {"type": "DT_FLOAT"}, "Index": {"type": "DT_INT32"}, "shrink_axis_mask": {"i": "2"}, "begin_mask": {"i": "1"}, "ellipsis_mask": {"i": "0"}, "new_axis_mask": {"i": "0"}, "end_mask": {"i": "1"}}}, {"name": "g_synthesis/strided_slice_5", "op": "StridedSlice", "input": ["Truncation/Lerp/add", "g_synthesis/strided_slice_4/stack_1", "g_synthesis/strided_slice_5/stack_1", "g_synthesis/4x4/Const/StyleMod/strided_slice/stack_2"], "attr": {"T": {"type": "DT_FLOAT"}, "Index": {"type": "DT_INT32"}, "shrink_axis_mask": {"i": "2"}, "begin_mask": {"i": "1"}, "ellipsis_mask": {"i": "0"}, "new_axis_mask": {"i": "0"}, "end_mask": {"i": "1"}}}, {"name": "g_synthesis/strided_slice_4", "op": "StridedSlice", "input": ["Truncation/Lerp/add", "g_synthesis/strided_slice_3/stack_1", "g_synthesis/strided_slice_4/stack_1", "g_synthesis/4x4/Const/StyleMod/strided_slice/stack_2"], "attr": {"T": {"type": "DT_FLOAT"}, "Index": {"type": "DT_INT32"}, "shrink_axis_mask": {"i": "2"}, "begin_mask": {"i": "1"}, "ellipsis_mask": {"i": "0"}, "new_axis_mask": {"i": "0"}, "end_mask": {"i": "1"}}}, {"name": "g_synthesis/strided_slice_3", "op": "StridedSlice", "input": ["Truncation/Lerp/add", "g_synthesis/4x4/Const/StyleMod/strided_slice_1/stack_1", "g_synthesis/strided_slice_3/stack_1", "g_synthesis/4x4/Const/StyleMod/strided_slice/stack_2"], "attr": {"T": {"type": "DT_FLOAT"}, "Index": {"type": "DT_INT32"}, "shrink_axis_mask": {"i": "2"}, "begin_mask": {"i": "1"}, "ellipsis_mask": {"i": "0"}, "new_axis_mask": {"i": "0"}, "end_mask": {"i": "1"}}}, {"name": "g_synthesis/strided_slice_1", "op": "StridedSlice", "input": ["Truncation/Lerp/add", "g_synthesis/4x4/Const/StyleMod/strided_slice/stack_1", "g_synthesis/4x4/Const/StyleMod/strided_slice_1/stack_1", "g_synthesis/4x4/Const/StyleMod/strided_slice/stack_2"], "attr": {"T": {"type": "DT_FLOAT"}, "Index": {"type": "DT_INT32"}, "shrink_axis_mask": {"i": "2"}, "begin_mask": {"i": "1"}, "ellipsis_mask": {"i": "0"}, "new_axis_mask": {"i": "0"}, "end_mask": {"i": "1"}}}, {"name": "g_synthesis/strided_slice", "op": "StridedSlice", "input": ["Truncation/Lerp/add", "g_synthesis/4x4/Const/StyleMod/strided_slice/stack", "g_synthesis/4x4/Const/StyleMod/strided_slice/stack_1", "g_synthesis/4x4/Const/StyleMod/strided_slice/stack_2"], "attr": {"T": {"type": "DT_FLOAT"}, "Index": {"type": "DT_INT32"}, "shrink_axis_mask": {"i": "2"}, "begin_mask": {"i": "1"}, "ellipsis_mask": {"i": "0"}, "new_axis_mask": {"i": "0"}, "end_mask": {"i": "1"}}}, {"name": "g_synthesis/512x512/Conv1/StyleMod/flatten/Shape", "op": "Shape", "input": ["g_synthesis/strided_slice_16"], "attr": {"T": {"type": "DT_FLOAT"}, "out_type": {"type": "DT_INT32"}}}, {"name": "g_synthesis/512x512/Conv0_up/StyleMod/flatten/Shape", "op": "Shape", "input": ["g_synthesis/strided_slice_15"], "attr": {"T": {"type": "DT_FLOAT"}, "out_type": {"type": "DT_INT32"}}}, {"name": "g_synthesis/256x256/Conv1/StyleMod/flatten/Shape", "op": "Shape", "input": ["g_synthesis/strided_slice_14"], "attr": {"T": {"type": "DT_FLOAT"}, "out_type": {"type": "DT_INT32"}}}, {"name": "g_synthesis/256x256/Conv0_up/StyleMod/flatten/Shape", "op": "Shape", "input": ["g_synthesis/strided_slice_13"], "attr": {"T": {"type": "DT_FLOAT"}, "out_type": {"type": "DT_INT32"}}}, {"name": "g_synthesis/128x128/Conv1/StyleMod/flatten/Shape", "op": "Shape", "input": ["g_synthesis/strided_slice_12"], "attr": {"T": {"type": "DT_FLOAT"}, "out_type": {"type": "DT_INT32"}}}, {"name": "g_synthesis/128x128/Conv0_up/StyleMod/flatten/Shape", "op": "Shape", "input": ["g_synthesis/strided_slice_11"], "attr": {"T": {"type": "DT_FLOAT"}, "out_type": {"type": "DT_INT32"}}}, {"name": "g_synthesis/64x64/Conv1/StyleMod/flatten/Shape", "op": "Shape", "input": ["g_synthesis/strided_slice_10"], "attr": {"T": {"type": "DT_FLOAT"}, "out_type": {"type": "DT_INT32"}}}, {"name": "g_synthesis/64x64/Conv0_up/StyleMod/flatten/Shape", "op": "Shape", "input": ["g_synthesis/strided_slice_9"], "attr": {"T": {"type": "DT_FLOAT"}, "out_type": {"type": "DT_INT32"}}}, {"name": "g_synthesis/32x32/Conv1/StyleMod/flatten/Shape", "op": "Shape", "input": ["g_synthesis/strided_slice_8"], "attr": {"T": {"type": "DT_FLOAT"}, "out_type": {"type": "DT_INT32"}}}, {"name": "g_synthesis/32x32/Conv0_up/StyleMod/flatten/Shape", "op": "Shape", "input": ["g_synthesis/strided_slice_7"], "attr": {"T": {"type": "DT_FLOAT"}, "out_type": {"type": "DT_INT32"}}}, {"name": "g_synthesis/16x16/Conv1/StyleMod/flatten/Shape", "op": "Shape", "input": ["g_synthesis/strided_slice_6"], "attr": {"T": {"type": "DT_FLOAT"}, "out_type": {"type": "DT_INT32"}}}, {"name": "g_synthesis/16x16/Conv0_up/StyleMod/flatten/Shape", "op": "Shape", "input": ["g_synthesis/strided_slice_5"], "attr": {"T": {"type": "DT_FLOAT"}, "out_type": {"type": "DT_INT32"}}}, {"name": "g_synthesis/8x8/Conv1/StyleMod/flatten/Shape", "op": "Shape", "input": ["g_synthesis/strided_slice_4"], "attr": {"T": {"type": "DT_FLOAT"}, "out_type": {"type": "DT_INT32"}}}, {"name": "g_synthesis/8x8/Conv0_up/StyleMod/flatten/Shape", "op": "Shape", "input": ["g_synthesis/strided_slice_3"], "attr": {"T": {"type": "DT_FLOAT"}, "out_type": {"type": "DT_INT32"}}}, {"name": "g_synthesis/4x4/Conv/StyleMod/flatten/Shape", "op": "Shape", "input": ["g_synthesis/strided_slice_1"], "attr": {"T": {"type": "DT_FLOAT"}, "out_type": {"type": "DT_INT32"}}}, {"name": "g_synthesis/Shape", "op": "Shape", "input": ["g_synthesis/strided_slice"], "attr": {"T": {"type": "DT_FLOAT"}, "out_type": {"type": "DT_INT32"}}}, {"name": "g_synthesis/512x512/Conv1/StyleMod/flatten/strided_slice", "op": "StridedSlice", "input": ["g_synthesis/512x512/Conv1/StyleMod/flatten/Shape", "g_synthesis/512x512/Conv0_up/strided_slice_4/stack", "g_synthesis/512x512/Conv0_up/strided_slice_4/stack_1", "g_synthesis/512x512/Conv0_up/strided_slice_4/stack_1"], "attr": {"T": {"type": "DT_INT32"}, "Index": {"type": "DT_INT32"}, "shrink_axis_mask": {"i": "1"}, "begin_mask": {"i": "0"}, "ellipsis_mask": {"i": "0"}, "new_axis_mask": {"i": "0"}, "end_mask": {"i": "0"}}}, {"name": "g_synthesis/512x512/Conv0_up/StyleMod/flatten/strided_slice", "op": "StridedSlice", "input": ["g_synthesis/512x512/Conv0_up/StyleMod/flatten/Shape", "g_synthesis/512x512/Conv0_up/strided_slice_4/stack", "g_synthesis/512x512/Conv0_up/strided_slice_4/stack_1", "g_synthesis/512x512/Conv0_up/strided_slice_4/stack_1"], "attr": {"T": {"type": "DT_INT32"}, "Index": {"type": "DT_INT32"}, "shrink_axis_mask": {"i": "1"}, "begin_mask": {"i": "0"}, "ellipsis_mask": {"i": "0"}, "new_axis_mask": {"i": "0"}, "end_mask": {"i": "0"}}}, {"name": "g_synthesis/256x256/Conv1/StyleMod/flatten/strided_slice", "op": "StridedSlice", "input": ["g_synthesis/256x256/Conv1/StyleMod/flatten/Shape", "g_synthesis/512x512/Conv0_up/strided_slice_4/stack", "g_synthesis/512x512/Conv0_up/strided_slice_4/stack_1", "g_synthesis/512x512/Conv0_up/strided_slice_4/stack_1"], "attr": {"T": {"type": "DT_INT32"}, "Index": {"type": "DT_INT32"}, "shrink_axis_mask": {"i": "1"}, "begin_mask": {"i": "0"}, "ellipsis_mask": {"i": "0"}, "new_axis_mask": {"i": "0"}, "end_mask": {"i": "0"}}}, {"name": "g_synthesis/256x256/Conv0_up/StyleMod/flatten/strided_slice", "op": "StridedSlice", "input": ["g_synthesis/256x256/Conv0_up/StyleMod/flatten/Shape", "g_synthesis/512x512/Conv0_up/strided_slice_4/stack", "g_synthesis/512x512/Conv0_up/strided_slice_4/stack_1", "g_synthesis/512x512/Conv0_up/strided_slice_4/stack_1"], "attr": {"T": {"type": "DT_INT32"}, "Index": {"type": "DT_INT32"}, "shrink_axis_mask": {"i": "1"}, "begin_mask": {"i": "0"}, "ellipsis_mask": {"i": "0"}, "new_axis_mask": {"i": "0"}, "end_mask": {"i": "0"}}}, {"name": "g_synthesis/128x128/Conv1/StyleMod/flatten/strided_slice", "op": "StridedSlice", "input": ["g_synthesis/128x128/Conv1/StyleMod/flatten/Shape", "g_synthesis/512x512/Conv0_up/strided_slice_4/stack", "g_synthesis/512x512/Conv0_up/strided_slice_4/stack_1", "g_synthesis/512x512/Conv0_up/strided_slice_4/stack_1"], "attr": {"T": {"type": "DT_INT32"}, "Index": {"type": "DT_INT32"}, "shrink_axis_mask": {"i": "1"}, "begin_mask": {"i": "0"}, "ellipsis_mask": {"i": "0"}, "new_axis_mask": {"i": "0"}, "end_mask": {"i": "0"}}}, {"name": "g_synthesis/128x128/Conv0_up/StyleMod/flatten/strided_slice", "op": "StridedSlice", "input": ["g_synthesis/128x128/Conv0_up/StyleMod/flatten/Shape", "g_synthesis/512x512/Conv0_up/strided_slice_4/stack", "g_synthesis/512x512/Conv0_up/strided_slice_4/stack_1", "g_synthesis/512x512/Conv0_up/strided_slice_4/stack_1"], "attr": {"T": {"type": "DT_INT32"}, "Index": {"type": "DT_INT32"}, "shrink_axis_mask": {"i": "1"}, "begin_mask": {"i": "0"}, "ellipsis_mask": {"i": "0"}, "new_axis_mask": {"i": "0"}, "end_mask": {"i": "0"}}}, {"name": "g_synthesis/64x64/Conv1/StyleMod/flatten/strided_slice", "op": "StridedSlice", "input": ["g_synthesis/64x64/Conv1/StyleMod/flatten/Shape", "g_synthesis/512x512/Conv0_up/strided_slice_4/stack", "g_synthesis/512x512/Conv0_up/strided_slice_4/stack_1", "g_synthesis/512x512/Conv0_up/strided_slice_4/stack_1"], "attr": {"T": {"type": "DT_INT32"}, "Index": {"type": "DT_INT32"}, "shrink_axis_mask": {"i": "1"}, "begin_mask": {"i": "0"}, "ellipsis_mask": {"i": "0"}, "new_axis_mask": {"i": "0"}, "end_mask": {"i": "0"}}}, {"name": "g_synthesis/64x64/Conv0_up/StyleMod/flatten/strided_slice", "op": "StridedSlice", "input": ["g_synthesis/64x64/Conv0_up/StyleMod/flatten/Shape", "g_synthesis/512x512/Conv0_up/strided_slice_4/stack", "g_synthesis/512x512/Conv0_up/strided_slice_4/stack_1", "g_synthesis/512x512/Conv0_up/strided_slice_4/stack_1"], "attr": {"T": {"type": "DT_INT32"}, "Index": {"type": "DT_INT32"}, "shrink_axis_mask": {"i": "1"}, "begin_mask": {"i": "0"}, "ellipsis_mask": {"i": "0"}, "new_axis_mask": {"i": "0"}, "end_mask": {"i": "0"}}}, {"name": "g_synthesis/32x32/Conv1/StyleMod/flatten/strided_slice", "op": "StridedSlice", "input": ["g_synthesis/32x32/Conv1/StyleMod/flatten/Shape", "g_synthesis/512x512/Conv0_up/strided_slice_4/stack", "g_synthesis/512x512/Conv0_up/strided_slice_4/stack_1", "g_synthesis/512x512/Conv0_up/strided_slice_4/stack_1"], "attr": {"T": {"type": "DT_INT32"}, "Index": {"type": "DT_INT32"}, "shrink_axis_mask": {"i": "1"}, "begin_mask": {"i": "0"}, "ellipsis_mask": {"i": "0"}, "new_axis_mask": {"i": "0"}, "end_mask": {"i": "0"}}}, {"name": "g_synthesis/32x32/Conv0_up/StyleMod/flatten/strided_slice", "op": "StridedSlice", "input": ["g_synthesis/32x32/Conv0_up/StyleMod/flatten/Shape", "g_synthesis/512x512/Conv0_up/strided_slice_4/stack", "g_synthesis/512x512/Conv0_up/strided_slice_4/stack_1", "g_synthesis/512x512/Conv0_up/strided_slice_4/stack_1"], "attr": {"T": {"type": "DT_INT32"}, "Index": {"type": "DT_INT32"}, "shrink_axis_mask": {"i": "1"}, "begin_mask": {"i": "0"}, "ellipsis_mask": {"i": "0"}, "new_axis_mask": {"i": "0"}, "end_mask": {"i": "0"}}}, {"name": "g_synthesis/16x16/Conv1/StyleMod/flatten/strided_slice", "op": "StridedSlice", "input": ["g_synthesis/16x16/Conv1/StyleMod/flatten/Shape", "g_synthesis/512x512/Conv0_up/strided_slice_4/stack", "g_synthesis/512x512/Conv0_up/strided_slice_4/stack_1", "g_synthesis/512x512/Conv0_up/strided_slice_4/stack_1"], "attr": {"T": {"type": "DT_INT32"}, "Index": {"type": "DT_INT32"}, "shrink_axis_mask": {"i": "1"}, "begin_mask": {"i": "0"}, "ellipsis_mask": {"i": "0"}, "new_axis_mask": {"i": "0"}, "end_mask": {"i": "0"}}}, {"name": "g_synthesis/16x16/Conv0_up/StyleMod/flatten/strided_slice", "op": "StridedSlice", "input": ["g_synthesis/16x16/Conv0_up/StyleMod/flatten/Shape", "g_synthesis/512x512/Conv0_up/strided_slice_4/stack", "g_synthesis/512x512/Conv0_up/strided_slice_4/stack_1", "g_synthesis/512x512/Conv0_up/strided_slice_4/stack_1"], "attr": {"T": {"type": "DT_INT32"}, "Index": {"type": "DT_INT32"}, "shrink_axis_mask": {"i": "1"}, "begin_mask": {"i": "0"}, "ellipsis_mask": {"i": "0"}, "new_axis_mask": {"i": "0"}, "end_mask": {"i": "0"}}}, {"name": "g_synthesis/8x8/Conv1/StyleMod/flatten/strided_slice", "op": "StridedSlice", "input": ["g_synthesis/8x8/Conv1/StyleMod/flatten/Shape", "g_synthesis/512x512/Conv0_up/strided_slice_4/stack", "g_synthesis/512x512/Conv0_up/strided_slice_4/stack_1", "g_synthesis/512x512/Conv0_up/strided_slice_4/stack_1"], "attr": {"T": {"type": "DT_INT32"}, "Index": {"type": "DT_INT32"}, "shrink_axis_mask": {"i": "1"}, "begin_mask": {"i": "0"}, "ellipsis_mask": {"i": "0"}, "new_axis_mask": {"i": "0"}, "end_mask": {"i": "0"}}}, {"name": "g_synthesis/8x8/Conv0_up/StyleMod/flatten/strided_slice", "op": "StridedSlice", "input": ["g_synthesis/8x8/Conv0_up/StyleMod/flatten/Shape", "g_synthesis/512x512/Conv0_up/strided_slice_4/stack", "g_synthesis/512x512/Conv0_up/strided_slice_4/stack_1", "g_synthesis/512x512/Conv0_up/strided_slice_4/stack_1"], "attr": {"T": {"type": "DT_INT32"}, "Index": {"type": "DT_INT32"}, "shrink_axis_mask": {"i": "1"}, "begin_mask": {"i": "0"}, "ellipsis_mask": {"i": "0"}, "new_axis_mask": {"i": "0"}, "end_mask": {"i": "0"}}}, {"name": "g_synthesis/4x4/Conv/StyleMod/flatten/strided_slice", "op": "StridedSlice", "input": ["g_synthesis/4x4/Conv/StyleMod/flatten/Shape", "g_synthesis/512x512/Conv0_up/strided_slice_4/stack", "g_synthesis/512x512/Conv0_up/strided_slice_4/stack_1", "g_synthesis/512x512/Conv0_up/strided_slice_4/stack_1"], "attr": {"T": {"type": "DT_INT32"}, "Index": {"type": "DT_INT32"}, "shrink_axis_mask": {"i": "1"}, "begin_mask": {"i": "0"}, "ellipsis_mask": {"i": "0"}, "new_axis_mask": {"i": "0"}, "end_mask": {"i": "0"}}}, {"name": "g_synthesis/strided_slice_2", "op": "StridedSlice", "input": ["g_synthesis/Shape", "g_synthesis/512x512/Conv0_up/strided_slice_4/stack", "g_synthesis/512x512/Conv0_up/strided_slice_4/stack_1", "g_synthesis/512x512/Conv0_up/strided_slice_4/stack_1"], "attr": {"T": {"type": "DT_INT32"}, "Index": {"type": "DT_INT32"}, "shrink_axis_mask": {"i": "1"}, "begin_mask": {"i": "0"}, "ellipsis_mask": {"i": "0"}, "new_axis_mask": {"i": "0"}, "end_mask": {"i": "0"}}}, {"name": "g_synthesis/512x512/Conv1/StyleMod/flatten/Reshape/shape", "op": "Pack", "input": ["g_synthesis/512x512/Conv1/StyleMod/flatten/strided_slice", "g_synthesis/4x4/Const/StyleMod/flatten/Reshape/shape/1"], "attr": {"T": {"type": "DT_INT32"}, "axis": {"i": "0"}, "N": {"i": "2"}}}, {"name": "g_synthesis/512x512/Conv0_up/StyleMod/flatten/Reshape/shape", "op": "Pack", "input": ["g_synthesis/512x512/Conv0_up/StyleMod/flatten/strided_slice", "g_synthesis/4x4/Const/StyleMod/flatten/Reshape/shape/1"], "attr": {"T": {"type": "DT_INT32"}, "axis": {"i": "0"}, "N": {"i": "2"}}}, {"name": "g_synthesis/256x256/Conv1/StyleMod/flatten/Reshape/shape", "op": "Pack", "input": ["g_synthesis/256x256/Conv1/StyleMod/flatten/strided_slice", "g_synthesis/4x4/Const/StyleMod/flatten/Reshape/shape/1"], "attr": {"T": {"type": "DT_INT32"}, "axis": {"i": "0"}, "N": {"i": "2"}}}, {"name": "g_synthesis/256x256/Conv0_up/StyleMod/flatten/Reshape/shape", "op": "Pack", "input": ["g_synthesis/256x256/Conv0_up/StyleMod/flatten/strided_slice", "g_synthesis/4x4/Const/StyleMod/flatten/Reshape/shape/1"], "attr": {"T": {"type": "DT_INT32"}, "axis": {"i": "0"}, "N": {"i": "2"}}}, {"name": "g_synthesis/128x128/Conv1/StyleMod/flatten/Reshape/shape", "op": "Pack", "input": ["g_synthesis/128x128/Conv1/StyleMod/flatten/strided_slice", "g_synthesis/4x4/Const/StyleMod/flatten/Reshape/shape/1"], "attr": {"T": {"type": "DT_INT32"}, "axis": {"i": "0"}, "N": {"i": "2"}}}, {"name": "g_synthesis/128x128/Conv0_up/StyleMod/flatten/Reshape/shape", "op": "Pack", "input": ["g_synthesis/128x128/Conv0_up/StyleMod/flatten/strided_slice", "g_synthesis/4x4/Const/StyleMod/flatten/Reshape/shape/1"], "attr": {"T": {"type": "DT_INT32"}, "axis": {"i": "0"}, "N": {"i": "2"}}}, {"name": "g_synthesis/64x64/Conv1/StyleMod/flatten/Reshape/shape", "op": "Pack", "input": ["g_synthesis/64x64/Conv1/StyleMod/flatten/strided_slice", "g_synthesis/4x4/Const/StyleMod/flatten/Reshape/shape/1"], "attr": {"T": {"type": "DT_INT32"}, "axis": {"i": "0"}, "N": {"i": "2"}}}, {"name": "g_synthesis/64x64/Conv0_up/StyleMod/flatten/Reshape/shape", "op": "Pack", "input": ["g_synthesis/64x64/Conv0_up/StyleMod/flatten/strided_slice", "g_synthesis/4x4/Const/StyleMod/flatten/Reshape/shape/1"], "attr": {"T": {"type": "DT_INT32"}, "axis": {"i": "0"}, "N": {"i": "2"}}}, {"name": "g_synthesis/32x32/Conv1/StyleMod/flatten/Reshape/shape", "op": "Pack", "input": ["g_synthesis/32x32/Conv1/StyleMod/flatten/strided_slice", "g_synthesis/4x4/Const/StyleMod/flatten/Reshape/shape/1"], "attr": {"T": {"type": "DT_INT32"}, "axis": {"i": "0"}, "N": {"i": "2"}}}, {"name": "g_synthesis/32x32/Conv0_up/StyleMod/flatten/Reshape/shape", "op": "Pack", "input": ["g_synthesis/32x32/Conv0_up/StyleMod/flatten/strided_slice", "g_synthesis/4x4/Const/StyleMod/flatten/Reshape/shape/1"], "attr": {"T": {"type": "DT_INT32"}, "axis": {"i": "0"}, "N": {"i": "2"}}}, {"name": "g_synthesis/16x16/Conv1/StyleMod/flatten/Reshape/shape", "op": "Pack", "input": ["g_synthesis/16x16/Conv1/StyleMod/flatten/strided_slice", "g_synthesis/4x4/Const/StyleMod/flatten/Reshape/shape/1"], "attr": {"T": {"type": "DT_INT32"}, "axis": {"i": "0"}, "N": {"i": "2"}}}, {"name": "g_synthesis/16x16/Conv0_up/StyleMod/flatten/Reshape/shape", "op": "Pack", "input": ["g_synthesis/16x16/Conv0_up/StyleMod/flatten/strided_slice", "g_synthesis/4x4/Const/StyleMod/flatten/Reshape/shape/1"], "attr": {"T": {"type": "DT_INT32"}, "axis": {"i": "0"}, "N": {"i": "2"}}}, {"name": "g_synthesis/8x8/Conv1/StyleMod/flatten/Reshape/shape", "op": "Pack", "input": ["g_synthesis/8x8/Conv1/StyleMod/flatten/strided_slice", "g_synthesis/4x4/Const/StyleMod/flatten/Reshape/shape/1"], "attr": {"T": {"type": "DT_INT32"}, "axis": {"i": "0"}, "N": {"i": "2"}}}, {"name": "g_synthesis/8x8/Conv0_up/StyleMod/flatten/Reshape/shape", "op": "Pack", "input": ["g_synthesis/8x8/Conv0_up/StyleMod/flatten/strided_slice", "g_synthesis/4x4/Const/StyleMod/flatten/Reshape/shape/1"], "attr": {"T": {"type": "DT_INT32"}, "axis": {"i": "0"}, "N": {"i": "2"}}}, {"name": "g_synthesis/4x4/Conv/StyleMod/flatten/Reshape/shape", "op": "Pack", "input": ["g_synthesis/4x4/Conv/StyleMod/flatten/strided_slice", "g_synthesis/4x4/Const/StyleMod/flatten/Reshape/shape/1"], "attr": {"T": {"type": "DT_INT32"}, "axis": {"i": "0"}, "N": {"i": "2"}}}, {"name": "g_synthesis/4x4/Const/StyleMod/flatten/Reshape/shape", "op": "Pack", "input": ["g_synthesis/strided_slice_2", "g_synthesis/4x4/Const/StyleMod/flatten/Reshape/shape/1"], "attr": {"T": {"type": "DT_INT32"}, "axis": {"i": "0"}, "N": {"i": "2"}}}, {"name": "g_synthesis/4x4/Const/Tile/multiples", "op": "Pack", "input": ["g_synthesis/strided_slice_2", "g_synthesis/4x4/Const/Tile/multiples/1", "g_synthesis/4x4/Const/Tile/multiples/1", "g_synthesis/4x4/Const/Tile/multiples/1"], "attr": {"T": {"type": "DT_INT32"}, "axis": {"i": "0"}, "N": {"i": "4"}}}, {"name": "g_synthesis/512x512/Conv1/StyleMod/flatten/Reshape", "op": "Reshape", "input": ["g_synthesis/strided_slice_16", "g_synthesis/512x512/Conv1/StyleMod/flatten/Reshape/shape"], "attr": {"T": {"type": "DT_FLOAT"}, "Tshape": {"type": "DT_INT32"}}}, {"name": "g_synthesis/512x512/Conv0_up/StyleMod/flatten/Reshape", "op": "Reshape", "input": ["g_synthesis/strided_slice_15", "g_synthesis/512x512/Conv0_up/StyleMod/flatten/Reshape/shape"], "attr": {"T": {"type": "DT_FLOAT"}, "Tshape": {"type": "DT_INT32"}}}, {"name": "g_synthesis/256x256/Conv1/StyleMod/flatten/Reshape", "op": "Reshape", "input": ["g_synthesis/strided_slice_14", "g_synthesis/256x256/Conv1/StyleMod/flatten/Reshape/shape"], "attr": {"T": {"type": "DT_FLOAT"}, "Tshape": {"type": "DT_INT32"}}}, {"name": "g_synthesis/256x256/Conv0_up/StyleMod/flatten/Reshape", "op": "Reshape", "input": ["g_synthesis/strided_slice_13", "g_synthesis/256x256/Conv0_up/StyleMod/flatten/Reshape/shape"], "attr": {"T": {"type": "DT_FLOAT"}, "Tshape": {"type": "DT_INT32"}}}, {"name": "g_synthesis/128x128/Conv1/StyleMod/flatten/Reshape", "op": "Reshape", "input": ["g_synthesis/strided_slice_12", "g_synthesis/128x128/Conv1/StyleMod/flatten/Reshape/shape"], "attr": {"T": {"type": "DT_FLOAT"}, "Tshape": {"type": "DT_INT32"}}}, {"name": "g_synthesis/128x128/Conv0_up/StyleMod/flatten/Reshape", "op": "Reshape", "input": ["g_synthesis/strided_slice_11", "g_synthesis/128x128/Conv0_up/StyleMod/flatten/Reshape/shape"], "attr": {"T": {"type": "DT_FLOAT"}, "Tshape": {"type": "DT_INT32"}}}, {"name": "g_synthesis/64x64/Conv1/StyleMod/flatten/Reshape", "op": "Reshape", "input": ["g_synthesis/strided_slice_10", "g_synthesis/64x64/Conv1/StyleMod/flatten/Reshape/shape"], "attr": {"T": {"type": "DT_FLOAT"}, "Tshape": {"type": "DT_INT32"}}}, {"name": "g_synthesis/64x64/Conv0_up/StyleMod/flatten/Reshape", "op": "Reshape", "input": ["g_synthesis/strided_slice_9", "g_synthesis/64x64/Conv0_up/StyleMod/flatten/Reshape/shape"], "attr": {"T": {"type": "DT_FLOAT"}, "Tshape": {"type": "DT_INT32"}}}, {"name": "g_synthesis/32x32/Conv1/StyleMod/flatten/Reshape", "op": "Reshape", "input": ["g_synthesis/strided_slice_8", "g_synthesis/32x32/Conv1/StyleMod/flatten/Reshape/shape"], "attr": {"T": {"type": "DT_FLOAT"}, "Tshape": {"type": "DT_INT32"}}}, {"name": "g_synthesis/32x32/Conv0_up/StyleMod/flatten/Reshape", "op": "Reshape", "input": ["g_synthesis/strided_slice_7", "g_synthesis/32x32/Conv0_up/StyleMod/flatten/Reshape/shape"], "attr": {"T": {"type": "DT_FLOAT"}, "Tshape": {"type": "DT_INT32"}}}, {"name": "g_synthesis/16x16/Conv1/StyleMod/flatten/Reshape", "op": "Reshape", "input": ["g_synthesis/strided_slice_6", "g_synthesis/16x16/Conv1/StyleMod/flatten/Reshape/shape"], "attr": {"T": {"type": "DT_FLOAT"}, "Tshape": {"type": "DT_INT32"}}}, {"name": "g_synthesis/16x16/Conv0_up/StyleMod/flatten/Reshape", "op": "Reshape", "input": ["g_synthesis/strided_slice_5", "g_synthesis/16x16/Conv0_up/StyleMod/flatten/Reshape/shape"], "attr": {"T": {"type": "DT_FLOAT"}, "Tshape": {"type": "DT_INT32"}}}, {"name": "g_synthesis/8x8/Conv1/StyleMod/flatten/Reshape", "op": "Reshape", "input": ["g_synthesis/strided_slice_4", "g_synthesis/8x8/Conv1/StyleMod/flatten/Reshape/shape"], "attr": {"T": {"type": "DT_FLOAT"}, "Tshape": {"type": "DT_INT32"}}}, {"name": "g_synthesis/8x8/Conv0_up/StyleMod/flatten/Reshape", "op": "Reshape", "input": ["g_synthesis/strided_slice_3", "g_synthesis/8x8/Conv0_up/StyleMod/flatten/Reshape/shape"], "attr": {"T": {"type": "DT_FLOAT"}, "Tshape": {"type": "DT_INT32"}}}, {"name": "g_synthesis/4x4/Conv/StyleMod/flatten/Reshape", "op": "Reshape", "input": ["g_synthesis/strided_slice_1", "g_synthesis/4x4/Conv/StyleMod/flatten/Reshape/shape"], "attr": {"T": {"type": "DT_FLOAT"}, "Tshape": {"type": "DT_INT32"}}}, {"name": "g_synthesis/4x4/Const/StyleMod/flatten/Reshape", "op": "Reshape", "input": ["g_synthesis/strided_slice", "g_synthesis/4x4/Const/StyleMod/flatten/Reshape/shape"], "attr": {"T": {"type": "DT_FLOAT"}, "Tshape": {"type": "DT_INT32"}}}, {"name": "g_synthesis/4x4/Const/Tile", "op": "Tile", "input": ["g_synthesis/4x4/Const/const", "g_synthesis/4x4/Const/Tile/multiples"], "attr": {"Tmultiples": {"type": "DT_INT32"}, "T": {"type": "DT_FLOAT"}}}, {"name": "g_synthesis/512x512/Conv1/StyleMod/MatMul", "op": "MatMul", "input": ["g_synthesis/512x512/Conv1/StyleMod/flatten/Reshape", "g_synthesis/512x512/Conv1/StyleMod/mul"], "attr": {"transpose_b": {"b": false}, "T": {"type": "DT_FLOAT"}, "transpose_a": {"b": false}}}, {"name": "g_synthesis/512x512/Conv0_up/StyleMod/MatMul", "op": "MatMul", "input": ["g_synthesis/512x512/Conv0_up/StyleMod/flatten/Reshape", "g_synthesis/512x512/Conv0_up/StyleMod/mul"], "attr": {"transpose_b": {"b": false}, "T": {"type": "DT_FLOAT"}, "transpose_a": {"b": false}}}, {"name": "g_synthesis/256x256/Conv1/StyleMod/MatMul", "op": "MatMul", "input": ["g_synthesis/256x256/Conv1/StyleMod/flatten/Reshape", "g_synthesis/256x256/Conv1/StyleMod/mul"], "attr": {"transpose_b": {"b": false}, "T": {"type": "DT_FLOAT"}, "transpose_a": {"b": false}}}, {"name": "g_synthesis/256x256/Conv0_up/StyleMod/MatMul", "op": "MatMul", "input": ["g_synthesis/256x256/Conv0_up/StyleMod/flatten/Reshape", "g_synthesis/256x256/Conv0_up/StyleMod/mul"], "attr": {"transpose_b": {"b": false}, "T": {"type": "DT_FLOAT"}, "transpose_a": {"b": false}}}, {"name": "g_synthesis/128x128/Conv1/StyleMod/MatMul", "op": "MatMul", "input": ["g_synthesis/128x128/Conv1/StyleMod/flatten/Reshape", "g_synthesis/128x128/Conv1/StyleMod/mul"], "attr": {"transpose_b": {"b": false}, "T": {"type": "DT_FLOAT"}, "transpose_a": {"b": false}}}, {"name": "g_synthesis/128x128/Conv0_up/StyleMod/MatMul", "op": "MatMul", "input": ["g_synthesis/128x128/Conv0_up/StyleMod/flatten/Reshape", "g_synthesis/128x128/Conv0_up/StyleMod/mul"], "attr": {"transpose_b": {"b": false}, "T": {"type": "DT_FLOAT"}, "transpose_a": {"b": false}}}, {"name": "g_synthesis/64x64/Conv1/StyleMod/MatMul", "op": "MatMul", "input": ["g_synthesis/64x64/Conv1/StyleMod/flatten/Reshape", "g_synthesis/64x64/Conv1/StyleMod/mul"], "attr": {"transpose_b": {"b": false}, "T": {"type": "DT_FLOAT"}, "transpose_a": {"b": false}}}, {"name": "g_synthesis/64x64/Conv0_up/StyleMod/MatMul", "op": "MatMul", "input": ["g_synthesis/64x64/Conv0_up/StyleMod/flatten/Reshape", "g_synthesis/64x64/Conv0_up/StyleMod/mul"], "attr": {"transpose_b": {"b": false}, "T": {"type": "DT_FLOAT"}, "transpose_a": {"b": false}}}, {"name": "g_synthesis/32x32/Conv1/StyleMod/MatMul", "op": "MatMul", "input": ["g_synthesis/32x32/Conv1/StyleMod/flatten/Reshape", "g_synthesis/32x32/Conv1/StyleMod/mul"], "attr": {"transpose_b": {"b": false}, "T": {"type": "DT_FLOAT"}, "transpose_a": {"b": false}}}, {"name": "g_synthesis/32x32/Conv0_up/StyleMod/MatMul", "op": "MatMul", "input": ["g_synthesis/32x32/Conv0_up/StyleMod/flatten/Reshape", "g_synthesis/32x32/Conv0_up/StyleMod/mul"], "attr": {"transpose_b": {"b": false}, "T": {"type": "DT_FLOAT"}, "transpose_a": {"b": false}}}, {"name": "g_synthesis/16x16/Conv1/StyleMod/MatMul", "op": "MatMul", "input": ["g_synthesis/16x16/Conv1/StyleMod/flatten/Reshape", "g_synthesis/16x16/Conv1/StyleMod/mul"], "attr": {"transpose_b": {"b": false}, "T": {"type": "DT_FLOAT"}, "transpose_a": {"b": false}}}, {"name": "g_synthesis/16x16/Conv0_up/StyleMod/MatMul", "op": "MatMul", "input": ["g_synthesis/16x16/Conv0_up/StyleMod/flatten/Reshape", "g_synthesis/16x16/Conv0_up/StyleMod/mul"], "attr": {"transpose_b": {"b": false}, "T": {"type": "DT_FLOAT"}, "transpose_a": {"b": false}}}, {"name": "g_synthesis/8x8/Conv1/StyleMod/MatMul", "op": "MatMul", "input": ["g_synthesis/8x8/Conv1/StyleMod/flatten/Reshape", "g_synthesis/8x8/Conv1/StyleMod/mul"], "attr": {"transpose_b": {"b": false}, "T": {"type": "DT_FLOAT"}, "transpose_a": {"b": false}}}, {"name": "g_synthesis/8x8/Conv0_up/StyleMod/MatMul", "op": "MatMul", "input": ["g_synthesis/8x8/Conv0_up/StyleMod/flatten/Reshape", "g_synthesis/8x8/Conv0_up/StyleMod/mul"], "attr": {"transpose_b": {"b": false}, "T": {"type": "DT_FLOAT"}, "transpose_a": {"b": false}}}, {"name": "g_synthesis/4x4/Conv/StyleMod/MatMul", "op": "MatMul", "input": ["g_synthesis/4x4/Conv/StyleMod/flatten/Reshape", "g_synthesis/4x4/Conv/StyleMod/mul"], "attr": {"transpose_b": {"b": false}, "T": {"type": "DT_FLOAT"}, "transpose_a": {"b": false}}}, {"name": "g_synthesis/4x4/Const/StyleMod/MatMul", "op": "MatMul", "input": ["g_synthesis/4x4/Const/StyleMod/flatten/Reshape", "g_synthesis/4x4/Const/StyleMod/mul"], "attr": {"transpose_b": {"b": false}, "T": {"type": "DT_FLOAT"}, "transpose_a": {"b": false}}}, {"name": "g_synthesis/4x4/Const/Noise/Shape", "op": "Shape", "input": ["g_synthesis/4x4/Const/Tile"], "attr": {"T": {"type": "DT_FLOAT"}, "out_type": {"type": "DT_INT32"}}}, {"name": "g_synthesis/512x512/Conv1/StyleMod/add", "op": "Add", "input": ["g_synthesis/512x512/Conv1/StyleMod/MatMul", "g_synthesis/512x512/Conv1/StyleMod/mul_1"], "attr": {"T": {"type": "DT_FLOAT"}}}, {"name": "g_synthesis/512x512/Conv0_up/StyleMod/add", "op": "Add", "input": ["g_synthesis/512x512/Conv0_up/StyleMod/MatMul", "g_synthesis/512x512/Conv0_up/StyleMod/mul_1"], "attr": {"T": {"type": "DT_FLOAT"}}}, {"name": "g_synthesis/256x256/Conv1/StyleMod/add", "op": "Add", "input": ["g_synthesis/256x256/Conv1/StyleMod/MatMul", "g_synthesis/256x256/Conv1/StyleMod/mul_1"], "attr": {"T": {"type": "DT_FLOAT"}}}, {"name": "g_synthesis/256x256/Conv0_up/StyleMod/add", "op": "Add", "input": ["g_synthesis/256x256/Conv0_up/StyleMod/MatMul", "g_synthesis/256x256/Conv0_up/StyleMod/mul_1"], "attr": {"T": {"type": "DT_FLOAT"}}}, {"name": "g_synthesis/128x128/Conv1/StyleMod/add", "op": "Add", "input": ["g_synthesis/128x128/Conv1/StyleMod/MatMul", "g_synthesis/128x128/Conv1/StyleMod/mul_1"], "attr": {"T": {"type": "DT_FLOAT"}}}, {"name": "g_synthesis/128x128/Conv0_up/StyleMod/add", "op": "Add", "input": ["g_synthesis/128x128/Conv0_up/StyleMod/MatMul", "g_synthesis/128x128/Conv0_up/StyleMod/mul_1"], "attr": {"T": {"type": "DT_FLOAT"}}}, {"name": "g_synthesis/64x64/Conv1/StyleMod/add", "op": "Add", "input": ["g_synthesis/64x64/Conv1/StyleMod/MatMul", "g_synthesis/64x64/Conv1/StyleMod/mul_1"], "attr": {"T": {"type": "DT_FLOAT"}}}, {"name": "g_synthesis/64x64/Conv0_up/StyleMod/add", "op": "Add", "input": ["g_synthesis/64x64/Conv0_up/StyleMod/MatMul", "g_synthesis/64x64/Conv0_up/StyleMod/mul_1"], "attr": {"T": {"type": "DT_FLOAT"}}}, {"name": "g_synthesis/32x32/Conv1/StyleMod/add", "op": "Add", "input": ["g_synthesis/32x32/Conv1/StyleMod/MatMul", "g_synthesis/32x32/Conv1/StyleMod/mul_1"], "attr": {"T": {"type": "DT_FLOAT"}}}, {"name": "g_synthesis/32x32/Conv0_up/StyleMod/add", "op": "Add", "input": ["g_synthesis/32x32/Conv0_up/StyleMod/MatMul", "g_synthesis/32x32/Conv0_up/StyleMod/mul_1"], "attr": {"T": {"type": "DT_FLOAT"}}}, {"name": "g_synthesis/16x16/Conv1/StyleMod/add", "op": "Add", "input": ["g_synthesis/16x16/Conv1/StyleMod/MatMul", "g_synthesis/16x16/Conv1/StyleMod/mul_1"], "attr": {"T": {"type": "DT_FLOAT"}}}, {"name": "g_synthesis/16x16/Conv0_up/StyleMod/add", "op": "Add", "input": ["g_synthesis/16x16/Conv0_up/StyleMod/MatMul", "g_synthesis/16x16/Conv0_up/StyleMod/mul_1"], "attr": {"T": {"type": "DT_FLOAT"}}}, {"name": "g_synthesis/8x8/Conv1/StyleMod/add", "op": "Add", "input": ["g_synthesis/8x8/Conv1/StyleMod/MatMul", "g_synthesis/8x8/Conv1/StyleMod/mul_1"], "attr": {"T": {"type": "DT_FLOAT"}}}, {"name": "g_synthesis/8x8/Conv0_up/StyleMod/add", "op": "Add", "input": ["g_synthesis/8x8/Conv0_up/StyleMod/MatMul", "g_synthesis/8x8/Conv0_up/StyleMod/mul_1"], "attr": {"T": {"type": "DT_FLOAT"}}}, {"name": "g_synthesis/4x4/Conv/StyleMod/add", "op": "Add", "input": ["g_synthesis/4x4/Conv/StyleMod/MatMul", "g_synthesis/4x4/Conv/StyleMod/mul_1"], "attr": {"T": {"type": "DT_FLOAT"}}}, {"name": "g_synthesis/4x4/Const/StyleMod/add", "op": "Add", "input": ["g_synthesis/4x4/Const/StyleMod/MatMul", "g_synthesis/4x4/Const/StyleMod/mul_1"], "attr": {"T": {"type": "DT_FLOAT"}}}, {"name": "g_synthesis/4x4/Const/Noise/strided_slice", "op": "StridedSlice", "input": ["g_synthesis/4x4/Const/Noise/Shape", "g_synthesis/512x512/Conv0_up/strided_slice_4/stack", "g_synthesis/512x512/Conv0_up/strided_slice_4/stack_1", "g_synthesis/512x512/Conv0_up/strided_slice_4/stack_1"], "attr": {"T": {"type": "DT_INT32"}, "Index": {"type": "DT_INT32"}, "shrink_axis_mask": {"i": "1"}, "begin_mask": {"i": "0"}, "ellipsis_mask": {"i": "0"}, "new_axis_mask": {"i": "0"}, "end_mask": {"i": "0"}}}, {"name": "g_synthesis/512x512/Conv1/StyleMod/Reshape", "op": "Reshape", "input": ["g_synthesis/512x512/Conv1/StyleMod/add", "g_synthesis/512x512/Conv0_up/StyleMod/Reshape/shape"], "attr": {"T": {"type": "DT_FLOAT"}, "Tshape": {"type": "DT_INT32"}}}, {"name": "g_synthesis/512x512/Conv0_up/StyleMod/Reshape", "op": "Reshape", "input": ["g_synthesis/512x512/Conv0_up/StyleMod/add", "g_synthesis/512x512/Conv0_up/StyleMod/Reshape/shape"], "attr": {"T": {"type": "DT_FLOAT"}, "Tshape": {"type": "DT_INT32"}}}, {"name": "g_synthesis/256x256/Conv1/StyleMod/Reshape", "op": "Reshape", "input": ["g_synthesis/256x256/Conv1/StyleMod/add", "g_synthesis/256x256/Conv0_up/StyleMod/Reshape/shape"], "attr": {"T": {"type": "DT_FLOAT"}, "Tshape": {"type": "DT_INT32"}}}, {"name": "g_synthesis/256x256/Conv0_up/StyleMod/Reshape", "op": "Reshape", "input": ["g_synthesis/256x256/Conv0_up/StyleMod/add", "g_synthesis/256x256/Conv0_up/StyleMod/Reshape/shape"], "attr": {"T": {"type": "DT_FLOAT"}, "Tshape": {"type": "DT_INT32"}}}, {"name": "g_synthesis/128x128/Conv1/StyleMod/Reshape", "op": "Reshape", "input": ["g_synthesis/128x128/Conv1/StyleMod/add", "g_synthesis/128x128/Conv0_up/StyleMod/Reshape/shape"], "attr": {"T": {"type": "DT_FLOAT"}, "Tshape": {"type": "DT_INT32"}}}, {"name": "g_synthesis/128x128/Conv0_up/StyleMod/Reshape", "op": "Reshape", "input": ["g_synthesis/128x128/Conv0_up/StyleMod/add", "g_synthesis/128x128/Conv0_up/StyleMod/Reshape/shape"], "attr": {"T": {"type": "DT_FLOAT"}, "Tshape": {"type": "DT_INT32"}}}, {"name": "g_synthesis/64x64/Conv1/StyleMod/Reshape", "op": "Reshape", "input": ["g_synthesis/64x64/Conv1/StyleMod/add", "g_synthesis/64x64/Conv0_up/StyleMod/Reshape/shape"], "attr": {"T": {"type": "DT_FLOAT"}, "Tshape": {"type": "DT_INT32"}}}, {"name": "g_synthesis/64x64/Conv0_up/StyleMod/Reshape", "op": "Reshape", "input": ["g_synthesis/64x64/Conv0_up/StyleMod/add", "g_synthesis/64x64/Conv0_up/StyleMod/Reshape/shape"], "attr": {"T": {"type": "DT_FLOAT"}, "Tshape": {"type": "DT_INT32"}}}, {"name": "g_synthesis/32x32/Conv1/StyleMod/Reshape", "op": "Reshape", "input": ["g_synthesis/32x32/Conv1/StyleMod/add", "g_synthesis/4x4/Const/StyleMod/Reshape/shape"], "attr": {"T": {"type": "DT_FLOAT"}, "Tshape": {"type": "DT_INT32"}}}, {"name": "g_synthesis/32x32/Conv0_up/StyleMod/Reshape", "op": "Reshape", "input": ["g_synthesis/32x32/Conv0_up/StyleMod/add", "g_synthesis/4x4/Const/StyleMod/Reshape/shape"], "attr": {"T": {"type": "DT_FLOAT"}, "Tshape": {"type": "DT_INT32"}}}, {"name": "g_synthesis/16x16/Conv1/StyleMod/Reshape", "op": "Reshape", "input": ["g_synthesis/16x16/Conv1/StyleMod/add", "g_synthesis/4x4/Const/StyleMod/Reshape/shape"], "attr": {"T": {"type": "DT_FLOAT"}, "Tshape": {"type": "DT_INT32"}}}, {"name": "g_synthesis/16x16/Conv0_up/StyleMod/Reshape", "op": "Reshape", "input": ["g_synthesis/16x16/Conv0_up/StyleMod/add", "g_synthesis/4x4/Const/StyleMod/Reshape/shape"], "attr": {"T": {"type": "DT_FLOAT"}, "Tshape": {"type": "DT_INT32"}}}, {"name": "g_synthesis/8x8/Conv1/StyleMod/Reshape", "op": "Reshape", "input": ["g_synthesis/8x8/Conv1/StyleMod/add", "g_synthesis/4x4/Const/StyleMod/Reshape/shape"], "attr": {"T": {"type": "DT_FLOAT"}, "Tshape": {"type": "DT_INT32"}}}, {"name": "g_synthesis/8x8/Conv0_up/StyleMod/Reshape", "op": "Reshape", "input": ["g_synthesis/8x8/Conv0_up/StyleMod/add", "g_synthesis/4x4/Const/StyleMod/Reshape/shape"], "attr": {"T": {"type": "DT_FLOAT"}, "Tshape": {"type": "DT_INT32"}}}, {"name": "g_synthesis/4x4/Conv/StyleMod/Reshape", "op": "Reshape", "input": ["g_synthesis/4x4/Conv/StyleMod/add", "g_synthesis/4x4/Const/StyleMod/Reshape/shape"], "attr": {"T": {"type": "DT_FLOAT"}, "Tshape": {"type": "DT_INT32"}}}, {"name": "g_synthesis/4x4/Const/StyleMod/Reshape", "op": "Reshape", "input": ["g_synthesis/4x4/Const/StyleMod/add", "g_synthesis/4x4/Const/StyleMod/Reshape/shape"], "attr": {"T": {"type": "DT_FLOAT"}, "Tshape": {"type": "DT_INT32"}}}, {"name": "g_synthesis/4x4/Const/Noise/random_uniform/shape", "op": "Pack", "input": ["g_synthesis/4x4/Const/Noise/strided_slice", "g_synthesis/4x4/Const/Tile/multiples/1", "g_synthesis/4x4/Const/Noise/random_uniform/shape/2", "g_synthesis/4x4/Const/Noise/random_uniform/shape/2"], "attr": {"T": {"type": "DT_INT32"}, "axis": {"i": "0"}, "N": {"i": "4"}}}, {"name": "g_synthesis/512x512/Conv1/StyleMod/strided_slice_1", "op": "StridedSlice", "input": ["g_synthesis/512x512/Conv1/StyleMod/Reshape", "g_synthesis/4x4/Const/StyleMod/strided_slice/stack_1", "g_synthesis/4x4/Const/StyleMod/strided_slice_1/stack_1", "g_synthesis/4x4/Const/StyleMod/strided_slice/stack_2"], "attr": {"T": {"type": "DT_FLOAT"}, "Index": {"type": "DT_INT32"}, "shrink_axis_mask": {"i": "2"}, "begin_mask": {"i": "1"}, "ellipsis_mask": {"i": "0"}, "new_axis_mask": {"i": "0"}, "end_mask": {"i": "1"}}}, {"name": "g_synthesis/512x512/Conv1/StyleMod/strided_slice", "op": "StridedSlice", "input": ["g_synthesis/512x512/Conv1/StyleMod/Reshape", "g_synthesis/4x4/Const/StyleMod/strided_slice/stack", "g_synthesis/4x4/Const/StyleMod/strided_slice/stack_1", "g_synthesis/4x4/Const/StyleMod/strided_slice/stack_2"], "attr": {"T": {"type": "DT_FLOAT"}, "Index": {"type": "DT_INT32"}, "shrink_axis_mask": {"i": "2"}, "begin_mask": {"i": "1"}, "ellipsis_mask": {"i": "0"}, "new_axis_mask": {"i": "0"}, "end_mask": {"i": "1"}}}, {"name": "g_synthesis/512x512/Conv0_up/StyleMod/strided_slice_1", "op": "StridedSlice", "input": ["g_synthesis/512x512/Conv0_up/StyleMod/Reshape", "g_synthesis/4x4/Const/StyleMod/strided_slice/stack_1", "g_synthesis/4x4/Const/StyleMod/strided_slice_1/stack_1", "g_synthesis/4x4/Const/StyleMod/strided_slice/stack_2"], "attr": {"T": {"type": "DT_FLOAT"}, "Index": {"type": "DT_INT32"}, "shrink_axis_mask": {"i": "2"}, "begin_mask": {"i": "1"}, "ellipsis_mask": {"i": "0"}, "new_axis_mask": {"i": "0"}, "end_mask": {"i": "1"}}}, {"name": "g_synthesis/512x512/Conv0_up/StyleMod/strided_slice", "op": "StridedSlice", "input": ["g_synthesis/512x512/Conv0_up/StyleMod/Reshape", "g_synthesis/4x4/Const/StyleMod/strided_slice/stack", "g_synthesis/4x4/Const/StyleMod/strided_slice/stack_1", "g_synthesis/4x4/Const/StyleMod/strided_slice/stack_2"], "attr": {"T": {"type": "DT_FLOAT"}, "Index": {"type": "DT_INT32"}, "shrink_axis_mask": {"i": "2"}, "begin_mask": {"i": "1"}, "ellipsis_mask": {"i": "0"}, "new_axis_mask": {"i": "0"}, "end_mask": {"i": "1"}}}, {"name": "g_synthesis/256x256/Conv1/StyleMod/strided_slice_1", "op": "StridedSlice", "input": ["g_synthesis/256x256/Conv1/StyleMod/Reshape", "g_synthesis/4x4/Const/StyleMod/strided_slice/stack_1", "g_synthesis/4x4/Const/StyleMod/strided_slice_1/stack_1", "g_synthesis/4x4/Const/StyleMod/strided_slice/stack_2"], "attr": {"T": {"type": "DT_FLOAT"}, "Index": {"type": "DT_INT32"}, "shrink_axis_mask": {"i": "2"}, "begin_mask": {"i": "1"}, "ellipsis_mask": {"i": "0"}, "new_axis_mask": {"i": "0"}, "end_mask": {"i": "1"}}}, {"name": "g_synthesis/256x256/Conv1/StyleMod/strided_slice", "op": "StridedSlice", "input": ["g_synthesis/256x256/Conv1/StyleMod/Reshape", "g_synthesis/4x4/Const/StyleMod/strided_slice/stack", "g_synthesis/4x4/Const/StyleMod/strided_slice/stack_1", "g_synthesis/4x4/Const/StyleMod/strided_slice/stack_2"], "attr": {"T": {"type": "DT_FLOAT"}, "Index": {"type": "DT_INT32"}, "shrink_axis_mask": {"i": "2"}, "begin_mask": {"i": "1"}, "ellipsis_mask": {"i": "0"}, "new_axis_mask": {"i": "0"}, "end_mask": {"i": "1"}}}, {"name": "g_synthesis/256x256/Conv0_up/StyleMod/strided_slice_1", "op": "StridedSlice", "input": ["g_synthesis/256x256/Conv0_up/StyleMod/Reshape", "g_synthesis/4x4/Const/StyleMod/strided_slice/stack_1", "g_synthesis/4x4/Const/StyleMod/strided_slice_1/stack_1", "g_synthesis/4x4/Const/StyleMod/strided_slice/stack_2"], "attr": {"T": {"type": "DT_FLOAT"}, "Index": {"type": "DT_INT32"}, "shrink_axis_mask": {"i": "2"}, "begin_mask": {"i": "1"}, "ellipsis_mask": {"i": "0"}, "new_axis_mask": {"i": "0"}, "end_mask": {"i": "1"}}}, {"name": "g_synthesis/256x256/Conv0_up/StyleMod/strided_slice", "op": "StridedSlice", "input": ["g_synthesis/256x256/Conv0_up/StyleMod/Reshape", "g_synthesis/4x4/Const/StyleMod/strided_slice/stack", "g_synthesis/4x4/Const/StyleMod/strided_slice/stack_1", "g_synthesis/4x4/Const/StyleMod/strided_slice/stack_2"], "attr": {"T": {"type": "DT_FLOAT"}, "Index": {"type": "DT_INT32"}, "shrink_axis_mask": {"i": "2"}, "begin_mask": {"i": "1"}, "ellipsis_mask": {"i": "0"}, "new_axis_mask": {"i": "0"}, "end_mask": {"i": "1"}}}, {"name": "g_synthesis/128x128/Conv1/StyleMod/strided_slice_1", "op": "StridedSlice", "input": ["g_synthesis/128x128/Conv1/StyleMod/Reshape", "g_synthesis/4x4/Const/StyleMod/strided_slice/stack_1", "g_synthesis/4x4/Const/StyleMod/strided_slice_1/stack_1", "g_synthesis/4x4/Const/StyleMod/strided_slice/stack_2"], "attr": {"T": {"type": "DT_FLOAT"}, "Index": {"type": "DT_INT32"}, "shrink_axis_mask": {"i": "2"}, "begin_mask": {"i": "1"}, "ellipsis_mask": {"i": "0"}, "new_axis_mask": {"i": "0"}, "end_mask": {"i": "1"}}}, {"name": "g_synthesis/128x128/Conv1/StyleMod/strided_slice", "op": "StridedSlice", "input": ["g_synthesis/128x128/Conv1/StyleMod/Reshape", "g_synthesis/4x4/Const/StyleMod/strided_slice/stack", "g_synthesis/4x4/Const/StyleMod/strided_slice/stack_1", "g_synthesis/4x4/Const/StyleMod/strided_slice/stack_2"], "attr": {"T": {"type": "DT_FLOAT"}, "Index": {"type": "DT_INT32"}, "shrink_axis_mask": {"i": "2"}, "begin_mask": {"i": "1"}, "ellipsis_mask": {"i": "0"}, "new_axis_mask": {"i": "0"}, "end_mask": {"i": "1"}}}, {"name": "g_synthesis/128x128/Conv0_up/StyleMod/strided_slice_1", "op": "StridedSlice", "input": ["g_synthesis/128x128/Conv0_up/StyleMod/Reshape", "g_synthesis/4x4/Const/StyleMod/strided_slice/stack_1", "g_synthesis/4x4/Const/StyleMod/strided_slice_1/stack_1", "g_synthesis/4x4/Const/StyleMod/strided_slice/stack_2"], "attr": {"T": {"type": "DT_FLOAT"}, "Index": {"type": "DT_INT32"}, "shrink_axis_mask": {"i": "2"}, "begin_mask": {"i": "1"}, "ellipsis_mask": {"i": "0"}, "new_axis_mask": {"i": "0"}, "end_mask": {"i": "1"}}}, {"name": "g_synthesis/128x128/Conv0_up/StyleMod/strided_slice", "op": "StridedSlice", "input": ["g_synthesis/128x128/Conv0_up/StyleMod/Reshape", "g_synthesis/4x4/Const/StyleMod/strided_slice/stack", "g_synthesis/4x4/Const/StyleMod/strided_slice/stack_1", "g_synthesis/4x4/Const/StyleMod/strided_slice/stack_2"], "attr": {"T": {"type": "DT_FLOAT"}, "Index": {"type": "DT_INT32"}, "shrink_axis_mask": {"i": "2"}, "begin_mask": {"i": "1"}, "ellipsis_mask": {"i": "0"}, "new_axis_mask": {"i": "0"}, "end_mask": {"i": "1"}}}, {"name": "g_synthesis/64x64/Conv1/StyleMod/strided_slice_1", "op": "StridedSlice", "input": ["g_synthesis/64x64/Conv1/StyleMod/Reshape", "g_synthesis/4x4/Const/StyleMod/strided_slice/stack_1", "g_synthesis/4x4/Const/StyleMod/strided_slice_1/stack_1", "g_synthesis/4x4/Const/StyleMod/strided_slice/stack_2"], "attr": {"T": {"type": "DT_FLOAT"}, "Index": {"type": "DT_INT32"}, "shrink_axis_mask": {"i": "2"}, "begin_mask": {"i": "1"}, "ellipsis_mask": {"i": "0"}, "new_axis_mask": {"i": "0"}, "end_mask": {"i": "1"}}}, {"name": "g_synthesis/64x64/Conv1/StyleMod/strided_slice", "op": "StridedSlice", "input": ["g_synthesis/64x64/Conv1/StyleMod/Reshape", "g_synthesis/4x4/Const/StyleMod/strided_slice/stack", "g_synthesis/4x4/Const/StyleMod/strided_slice/stack_1", "g_synthesis/4x4/Const/StyleMod/strided_slice/stack_2"], "attr": {"T": {"type": "DT_FLOAT"}, "Index": {"type": "DT_INT32"}, "shrink_axis_mask": {"i": "2"}, "begin_mask": {"i": "1"}, "ellipsis_mask": {"i": "0"}, "new_axis_mask": {"i": "0"}, "end_mask": {"i": "1"}}}, {"name": "g_synthesis/64x64/Conv0_up/StyleMod/strided_slice_1", "op": "StridedSlice", "input": ["g_synthesis/64x64/Conv0_up/StyleMod/Reshape", "g_synthesis/4x4/Const/StyleMod/strided_slice/stack_1", "g_synthesis/4x4/Const/StyleMod/strided_slice_1/stack_1", "g_synthesis/4x4/Const/StyleMod/strided_slice/stack_2"], "attr": {"T": {"type": "DT_FLOAT"}, "Index": {"type": "DT_INT32"}, "shrink_axis_mask": {"i": "2"}, "begin_mask": {"i": "1"}, "ellipsis_mask": {"i": "0"}, "new_axis_mask": {"i": "0"}, "end_mask": {"i": "1"}}}, {"name": "g_synthesis/64x64/Conv0_up/StyleMod/strided_slice", "op": "StridedSlice", "input": ["g_synthesis/64x64/Conv0_up/StyleMod/Reshape", "g_synthesis/4x4/Const/StyleMod/strided_slice/stack", "g_synthesis/4x4/Const/StyleMod/strided_slice/stack_1", "g_synthesis/4x4/Const/StyleMod/strided_slice/stack_2"], "attr": {"T": {"type": "DT_FLOAT"}, "Index": {"type": "DT_INT32"}, "shrink_axis_mask": {"i": "2"}, "begin_mask": {"i": "1"}, "ellipsis_mask": {"i": "0"}, "new_axis_mask": {"i": "0"}, "end_mask": {"i": "1"}}}, {"name": "g_synthesis/32x32/Conv1/StyleMod/strided_slice_1", "op": "StridedSlice", "input": ["g_synthesis/32x32/Conv1/StyleMod/Reshape", "g_synthesis/4x4/Const/StyleMod/strided_slice/stack_1", "g_synthesis/4x4/Const/StyleMod/strided_slice_1/stack_1", "g_synthesis/4x4/Const/StyleMod/strided_slice/stack_2"], "attr": {"T": {"type": "DT_FLOAT"}, "Index": {"type": "DT_INT32"}, "shrink_axis_mask": {"i": "2"}, "begin_mask": {"i": "1"}, "ellipsis_mask": {"i": "0"}, "new_axis_mask": {"i": "0"}, "end_mask": {"i": "1"}}}, {"name": "g_synthesis/32x32/Conv1/StyleMod/strided_slice", "op": "StridedSlice", "input": ["g_synthesis/32x32/Conv1/StyleMod/Reshape", "g_synthesis/4x4/Const/StyleMod/strided_slice/stack", "g_synthesis/4x4/Const/StyleMod/strided_slice/stack_1", "g_synthesis/4x4/Const/StyleMod/strided_slice/stack_2"], "attr": {"T": {"type": "DT_FLOAT"}, "Index": {"type": "DT_INT32"}, "shrink_axis_mask": {"i": "2"}, "begin_mask": {"i": "1"}, "ellipsis_mask": {"i": "0"}, "new_axis_mask": {"i": "0"}, "end_mask": {"i": "1"}}}, {"name": "g_synthesis/32x32/Conv0_up/StyleMod/strided_slice_1", "op": "StridedSlice", "input": ["g_synthesis/32x32/Conv0_up/StyleMod/Reshape", "g_synthesis/4x4/Const/StyleMod/strided_slice/stack_1", "g_synthesis/4x4/Const/StyleMod/strided_slice_1/stack_1", "g_synthesis/4x4/Const/StyleMod/strided_slice/stack_2"], "attr": {"T": {"type": "DT_FLOAT"}, "Index": {"type": "DT_INT32"}, "shrink_axis_mask": {"i": "2"}, "begin_mask": {"i": "1"}, "ellipsis_mask": {"i": "0"}, "new_axis_mask": {"i": "0"}, "end_mask": {"i": "1"}}}, {"name": "g_synthesis/32x32/Conv0_up/StyleMod/strided_slice", "op": "StridedSlice", "input": ["g_synthesis/32x32/Conv0_up/StyleMod/Reshape", "g_synthesis/4x4/Const/StyleMod/strided_slice/stack", "g_synthesis/4x4/Const/StyleMod/strided_slice/stack_1", "g_synthesis/4x4/Const/StyleMod/strided_slice/stack_2"], "attr": {"T": {"type": "DT_FLOAT"}, "Index": {"type": "DT_INT32"}, "shrink_axis_mask": {"i": "2"}, "begin_mask": {"i": "1"}, "ellipsis_mask": {"i": "0"}, "new_axis_mask": {"i": "0"}, "end_mask": {"i": "1"}}}, {"name": "g_synthesis/16x16/Conv1/StyleMod/strided_slice_1", "op": "StridedSlice", "input": ["g_synthesis/16x16/Conv1/StyleMod/Reshape", "g_synthesis/4x4/Const/StyleMod/strided_slice/stack_1", "g_synthesis/4x4/Const/StyleMod/strided_slice_1/stack_1", "g_synthesis/4x4/Const/StyleMod/strided_slice/stack_2"], "attr": {"T": {"type": "DT_FLOAT"}, "Index": {"type": "DT_INT32"}, "shrink_axis_mask": {"i": "2"}, "begin_mask": {"i": "1"}, "ellipsis_mask": {"i": "0"}, "new_axis_mask": {"i": "0"}, "end_mask": {"i": "1"}}}, {"name": "g_synthesis/16x16/Conv1/StyleMod/strided_slice", "op": "StridedSlice", "input": ["g_synthesis/16x16/Conv1/StyleMod/Reshape", "g_synthesis/4x4/Const/StyleMod/strided_slice/stack", "g_synthesis/4x4/Const/StyleMod/strided_slice/stack_1", "g_synthesis/4x4/Const/StyleMod/strided_slice/stack_2"], "attr": {"T": {"type": "DT_FLOAT"}, "Index": {"type": "DT_INT32"}, "shrink_axis_mask": {"i": "2"}, "begin_mask": {"i": "1"}, "ellipsis_mask": {"i": "0"}, "new_axis_mask": {"i": "0"}, "end_mask": {"i": "1"}}}, {"name": "g_synthesis/16x16/Conv0_up/StyleMod/strided_slice_1", "op": "StridedSlice", "input": ["g_synthesis/16x16/Conv0_up/StyleMod/Reshape", "g_synthesis/4x4/Const/StyleMod/strided_slice/stack_1", "g_synthesis/4x4/Const/StyleMod/strided_slice_1/stack_1", "g_synthesis/4x4/Const/StyleMod/strided_slice/stack_2"], "attr": {"T": {"type": "DT_FLOAT"}, "Index": {"type": "DT_INT32"}, "shrink_axis_mask": {"i": "2"}, "begin_mask": {"i": "1"}, "ellipsis_mask": {"i": "0"}, "new_axis_mask": {"i": "0"}, "end_mask": {"i": "1"}}}, {"name": "g_synthesis/16x16/Conv0_up/StyleMod/strided_slice", "op": "StridedSlice", "input": ["g_synthesis/16x16/Conv0_up/StyleMod/Reshape", "g_synthesis/4x4/Const/StyleMod/strided_slice/stack", "g_synthesis/4x4/Const/StyleMod/strided_slice/stack_1", "g_synthesis/4x4/Const/StyleMod/strided_slice/stack_2"], "attr": {"T": {"type": "DT_FLOAT"}, "Index": {"type": "DT_INT32"}, "shrink_axis_mask": {"i": "2"}, "begin_mask": {"i": "1"}, "ellipsis_mask": {"i": "0"}, "new_axis_mask": {"i": "0"}, "end_mask": {"i": "1"}}}, {"name": "g_synthesis/8x8/Conv1/StyleMod/strided_slice_1", "op": "StridedSlice", "input": ["g_synthesis/8x8/Conv1/StyleMod/Reshape", "g_synthesis/4x4/Const/StyleMod/strided_slice/stack_1", "g_synthesis/4x4/Const/StyleMod/strided_slice_1/stack_1", "g_synthesis/4x4/Const/StyleMod/strided_slice/stack_2"], "attr": {"T": {"type": "DT_FLOAT"}, "Index": {"type": "DT_INT32"}, "shrink_axis_mask": {"i": "2"}, "begin_mask": {"i": "1"}, "ellipsis_mask": {"i": "0"}, "new_axis_mask": {"i": "0"}, "end_mask": {"i": "1"}}}, {"name": "g_synthesis/8x8/Conv1/StyleMod/strided_slice", "op": "StridedSlice", "input": ["g_synthesis/8x8/Conv1/StyleMod/Reshape", "g_synthesis/4x4/Const/StyleMod/strided_slice/stack", "g_synthesis/4x4/Const/StyleMod/strided_slice/stack_1", "g_synthesis/4x4/Const/StyleMod/strided_slice/stack_2"], "attr": {"T": {"type": "DT_FLOAT"}, "Index": {"type": "DT_INT32"}, "shrink_axis_mask": {"i": "2"}, "begin_mask": {"i": "1"}, "ellipsis_mask": {"i": "0"}, "new_axis_mask": {"i": "0"}, "end_mask": {"i": "1"}}}, {"name": "g_synthesis/8x8/Conv0_up/StyleMod/strided_slice_1", "op": "StridedSlice", "input": ["g_synthesis/8x8/Conv0_up/StyleMod/Reshape", "g_synthesis/4x4/Const/StyleMod/strided_slice/stack_1", "g_synthesis/4x4/Const/StyleMod/strided_slice_1/stack_1", "g_synthesis/4x4/Const/StyleMod/strided_slice/stack_2"], "attr": {"T": {"type": "DT_FLOAT"}, "Index": {"type": "DT_INT32"}, "shrink_axis_mask": {"i": "2"}, "begin_mask": {"i": "1"}, "ellipsis_mask": {"i": "0"}, "new_axis_mask": {"i": "0"}, "end_mask": {"i": "1"}}}, {"name": "g_synthesis/8x8/Conv0_up/StyleMod/strided_slice", "op": "StridedSlice", "input": ["g_synthesis/8x8/Conv0_up/StyleMod/Reshape", "g_synthesis/4x4/Const/StyleMod/strided_slice/stack", "g_synthesis/4x4/Const/StyleMod/strided_slice/stack_1", "g_synthesis/4x4/Const/StyleMod/strided_slice/stack_2"], "attr": {"T": {"type": "DT_FLOAT"}, "Index": {"type": "DT_INT32"}, "shrink_axis_mask": {"i": "2"}, "begin_mask": {"i": "1"}, "ellipsis_mask": {"i": "0"}, "new_axis_mask": {"i": "0"}, "end_mask": {"i": "1"}}}, {"name": "g_synthesis/4x4/Conv/StyleMod/strided_slice_1", "op": "StridedSlice", "input": ["g_synthesis/4x4/Conv/StyleMod/Reshape", "g_synthesis/4x4/Const/StyleMod/strided_slice/stack_1", "g_synthesis/4x4/Const/StyleMod/strided_slice_1/stack_1", "g_synthesis/4x4/Const/StyleMod/strided_slice/stack_2"], "attr": {"T": {"type": "DT_FLOAT"}, "Index": {"type": "DT_INT32"}, "shrink_axis_mask": {"i": "2"}, "begin_mask": {"i": "1"}, "ellipsis_mask": {"i": "0"}, "new_axis_mask": {"i": "0"}, "end_mask": {"i": "1"}}}, {"name": "g_synthesis/4x4/Conv/StyleMod/strided_slice", "op": "StridedSlice", "input": ["g_synthesis/4x4/Conv/StyleMod/Reshape", "g_synthesis/4x4/Const/StyleMod/strided_slice/stack", "g_synthesis/4x4/Const/StyleMod/strided_slice/stack_1", "g_synthesis/4x4/Const/StyleMod/strided_slice/stack_2"], "attr": {"T": {"type": "DT_FLOAT"}, "Index": {"type": "DT_INT32"}, "shrink_axis_mask": {"i": "2"}, "begin_mask": {"i": "1"}, "ellipsis_mask": {"i": "0"}, "new_axis_mask": {"i": "0"}, "end_mask": {"i": "1"}}}, {"name": "g_synthesis/4x4/Const/StyleMod/strided_slice_1", "op": "StridedSlice", "input": ["g_synthesis/4x4/Const/StyleMod/Reshape", "g_synthesis/4x4/Const/StyleMod/strided_slice/stack_1", "g_synthesis/4x4/Const/StyleMod/strided_slice_1/stack_1", "g_synthesis/4x4/Const/StyleMod/strided_slice/stack_2"], "attr": {"T": {"type": "DT_FLOAT"}, "Index": {"type": "DT_INT32"}, "shrink_axis_mask": {"i": "2"}, "begin_mask": {"i": "1"}, "ellipsis_mask": {"i": "0"}, "new_axis_mask": {"i": "0"}, "end_mask": {"i": "1"}}}, {"name": "g_synthesis/4x4/Const/StyleMod/strided_slice", "op": "StridedSlice", "input": ["g_synthesis/4x4/Const/StyleMod/Reshape", "g_synthesis/4x4/Const/StyleMod/strided_slice/stack", "g_synthesis/4x4/Const/StyleMod/strided_slice/stack_1", "g_synthesis/4x4/Const/StyleMod/strided_slice/stack_2"], "attr": {"T": {"type": "DT_FLOAT"}, "Index": {"type": "DT_INT32"}, "shrink_axis_mask": {"i": "2"}, "begin_mask": {"i": "1"}, "ellipsis_mask": {"i": "0"}, "new_axis_mask": {"i": "0"}, "end_mask": {"i": "1"}}}, {"name": "g_synthesis/4x4/Const/Noise/random_uniform/RandomUniform", "op": "RandomUniform", "input": ["g_synthesis/4x4/Const/Noise/random_uniform/shape"], "attr": {"seed": {"i": "0"}, "T": {"type": "DT_INT32"}, "dtype": {"type": "DT_FLOAT"}, "seed2": {"i": "0"}}}, {"name": "g_synthesis/512x512/Conv1/StyleMod/add_1", "op": "Add", "input": ["g_synthesis/4x4/Const/Noise/random_uniform/sub", "g_synthesis/512x512/Conv1/StyleMod/strided_slice"], "attr": {"T": {"type": "DT_FLOAT"}}}, {"name": "g_synthesis/512x512/Conv0_up/StyleMod/add_1", "op": "Add", "input": ["g_synthesis/4x4/Const/Noise/random_uniform/sub", "g_synthesis/512x512/Conv0_up/StyleMod/strided_slice"], "attr": {"T": {"type": "DT_FLOAT"}}}, {"name": "g_synthesis/256x256/Conv1/StyleMod/add_1", "op": "Add", "input": ["g_synthesis/256x256/Conv1/StyleMod/strided_slice", "g_synthesis/4x4/Const/Noise/random_uniform/sub"], "attr": {"T": {"type": "DT_FLOAT"}}}, {"name": "g_synthesis/256x256/Conv0_up/StyleMod/add_1", "op": "Add", "input": ["g_synthesis/256x256/Conv0_up/StyleMod/strided_slice", "g_synthesis/4x4/Const/Noise/random_uniform/sub"], "attr": {"T": {"type": "DT_FLOAT"}}}, {"name": "g_synthesis/128x128/Conv1/StyleMod/add_1", "op": "Add", "input": ["g_synthesis/128x128/Conv1/StyleMod/strided_slice", "g_synthesis/4x4/Const/Noise/random_uniform/sub"], "attr": {"T": {"type": "DT_FLOAT"}}}, {"name": "g_synthesis/128x128/Conv0_up/StyleMod/add_1", "op": "Add", "input": ["g_synthesis/128x128/Conv0_up/StyleMod/strided_slice", "g_synthesis/4x4/Const/Noise/random_uniform/sub"], "attr": {"T": {"type": "DT_FLOAT"}}}, {"name": "g_synthesis/64x64/Conv1/StyleMod/add_1", "op": "Add", "input": ["g_synthesis/4x4/Const/Noise/random_uniform/sub", "g_synthesis/64x64/Conv1/StyleMod/strided_slice"], "attr": {"T": {"type": "DT_FLOAT"}}}, {"name": "g_synthesis/64x64/Conv0_up/StyleMod/add_1", "op": "Add", "input": ["g_synthesis/4x4/Const/Noise/random_uniform/sub", "g_synthesis/64x64/Conv0_up/StyleMod/strided_slice"], "attr": {"T": {"type": "DT_FLOAT"}}}, {"name": "g_synthesis/32x32/Conv1/StyleMod/add_1", "op": "Add", "input": ["g_synthesis/32x32/Conv1/StyleMod/strided_slice", "g_synthesis/4x4/Const/Noise/random_uniform/sub"], "attr": {"T": {"type": "DT_FLOAT"}}}, {"name": "g_synthesis/32x32/Conv0_up/StyleMod/add_1", "op": "Add", "input": ["g_synthesis/32x32/Conv0_up/StyleMod/strided_slice", "g_synthesis/4x4/Const/Noise/random_uniform/sub"], "attr": {"T": {"type": "DT_FLOAT"}}}, {"name": "g_synthesis/16x16/Conv1/StyleMod/add_1", "op": "Add", "input": ["g_synthesis/16x16/Conv1/StyleMod/strided_slice", "g_synthesis/4x4/Const/Noise/random_uniform/sub"], "attr": {"T": {"type": "DT_FLOAT"}}}, {"name": "g_synthesis/16x16/Conv0_up/StyleMod/add_1", "op": "Add", "input": ["g_synthesis/16x16/Conv0_up/StyleMod/strided_slice", "g_synthesis/4x4/Const/Noise/random_uniform/sub"], "attr": {"T": {"type": "DT_FLOAT"}}}, {"name": "g_synthesis/8x8/Conv1/StyleMod/add_1", "op": "Add", "input": ["g_synthesis/4x4/Const/Noise/random_uniform/sub", "g_synthesis/8x8/Conv1/StyleMod/strided_slice"], "attr": {"T": {"type": "DT_FLOAT"}}}, {"name": "g_synthesis/8x8/Conv0_up/StyleMod/add_1", "op": "Add", "input": ["g_synthesis/4x4/Const/Noise/random_uniform/sub", "g_synthesis/8x8/Conv0_up/StyleMod/strided_slice"], "attr": {"T": {"type": "DT_FLOAT"}}}, {"name": "g_synthesis/4x4/Conv/StyleMod/add_1", "op": "Add", "input": ["g_synthesis/4x4/Const/Noise/random_uniform/sub", "g_synthesis/4x4/Conv/StyleMod/strided_slice"], "attr": {"T": {"type": "DT_FLOAT"}}}, {"name": "g_synthesis/4x4/Const/StyleMod/add_1", "op": "Add", "input": ["g_synthesis/4x4/Const/Noise/random_uniform/sub", "g_synthesis/4x4/Const/StyleMod/strided_slice"], "attr": {"T": {"type": "DT_FLOAT"}}}, {"name": "g_synthesis/4x4/Const/Noise/mul", "op": "Mul", "input": ["g_synthesis/4x4/Const/Noise/Reshape", "g_synthesis/4x4/Const/Noise/random_uniform/RandomUniform"], "attr": {"T": {"type": "DT_FLOAT"}}}, {"name": "g_synthesis/4x4/Const/Noise/add", "op": "Add", "input": ["g_synthesis/4x4/Const/Noise/mul", "g_synthesis/4x4/Const/Reshape"], "attr": {"T": {"type": "DT_FLOAT"}}}, {"name": "g_synthesis/4x4/Const/add", "op": "Add", "input": ["g_synthesis/4x4/Const/Noise/add", "g_synthesis/4x4/Const/Tile"], "attr": {"T": {"type": "DT_FLOAT"}}}, {"name": "g_synthesis/4x4/Const/LeakyRelu", "op": "LeakyRelu", "input": ["g_synthesis/4x4/Const/add"], "attr": {"T": {"type": "DT_FLOAT"}, "alpha": {"f": 0.20000000298023224}}}, {"name": "g_synthesis/4x4/Const/InstanceNorm/Mean", "op": "Mean", "input": ["g_synthesis/4x4/Const/LeakyRelu", "g_synthesis/4x4/Const/InstanceNorm/Mean/reduction_indices"], "attr": {"keep_dims": {"b": true}, "Tidx": {"type": "DT_INT32"}, "T": {"type": "DT_FLOAT"}}}, {"name": "g_synthesis/4x4/Const/InstanceNorm/sub_1", "op": "Sub", "input": ["g_synthesis/4x4/Const/LeakyRelu", "g_synthesis/4x4/Const/InstanceNorm/Mean"], "attr": {"T": {"type": "DT_FLOAT"}}}, {"name": "g_synthesis/4x4/Const/InstanceNorm/Square", "op": "Square", "input": ["g_synthesis/4x4/Const/InstanceNorm/sub_1"], "attr": {"T": {"type": "DT_FLOAT"}}}, {"name": "g_synthesis/4x4/Const/InstanceNorm/Mean_1", "op": "Mean", "input": ["g_synthesis/4x4/Const/InstanceNorm/Square", "g_synthesis/4x4/Const/InstanceNorm/Mean/reduction_indices"], "attr": {"keep_dims": {"b": true}, "Tidx": {"type": "DT_INT32"}, "T": {"type": "DT_FLOAT"}}}, {"name": "g_synthesis/4x4/Const/InstanceNorm/add", "op": "Add", "input": ["g_synthesis/4x4/Const/InstanceNorm/Mean_1", "g_synthesis/4x4/Const/InstanceNorm/epsilon"], "attr": {"T": {"type": "DT_FLOAT"}}}, {"name": "g_synthesis/4x4/Const/InstanceNorm/Rsqrt", "op": "Rsqrt", "input": ["g_synthesis/4x4/Const/InstanceNorm/add"], "attr": {"T": {"type": "DT_FLOAT"}}}, {"name": "g_synthesis/4x4/Const/InstanceNorm/mul", "op": "Mul", "input": ["g_synthesis/4x4/Const/InstanceNorm/Rsqrt", "g_synthesis/4x4/Const/InstanceNorm/sub_1"], "attr": {"T": {"type": "DT_FLOAT"}}}, {"name": "g_synthesis/4x4/Const/StyleMod/mul_2", "op": "Mul", "input": ["g_synthesis/4x4/Const/InstanceNorm/mul", "g_synthesis/4x4/Const/StyleMod/add_1"], "attr": {"T": {"type": "DT_FLOAT"}}}, {"name": "g_synthesis/4x4/Const/StyleMod/add_2", "op": "Add", "input": ["g_synthesis/4x4/Const/StyleMod/mul_2", "g_synthesis/4x4/Const/StyleMod/strided_slice_1"], "attr": {"T": {"type": "DT_FLOAT"}}}, {"name": "g_synthesis/4x4/Conv/NCHW_to_NHWC", "op": "Transpose", "input": ["g_synthesis/4x4/Const/StyleMod/add_2", "g_synthesis/4x4_1/ToRGB/NCHW_to_NHWC/perm"], "attr": {"Tperm": {"type": "DT_INT32"}, "T": {"type": "DT_FLOAT"}}}, {"name": "g_synthesis/4x4/Conv/Conv2D", "op": "Conv2D", "input": ["g_synthesis/4x4/Conv/NCHW_to_NHWC", "g_synthesis/4x4/Conv/mul"], "attr": {"dilations": {"list": {"i": ["1", "1", "1", "1"]}}, "T": {"type": "DT_FLOAT"}, "data_format": {"s": "TkhXQw=="}, "strides": {"list": {"i": ["1", "1", "1", "1"]}}, "use_cudnn_on_gpu": {"b": true}, "explicit_paddings": {"list": {}}, "padding": {"s": "U0FNRQ=="}}}, {"name": "g_synthesis/4x4/Conv/NHWC_to_NCHW", "op": "Transpose", "input": ["g_synthesis/4x4/Conv/Conv2D", "g_synthesis/4x4_1/ToRGB/NHWC_to_NCHW/perm"], "attr": {"Tperm": {"type": "DT_INT32"}, "T": {"type": "DT_FLOAT"}}}, {"name": "g_synthesis/4x4/Conv/Noise/Shape", "op": "Shape", "input": ["g_synthesis/4x4/Conv/NHWC_to_NCHW"], "attr": {"T": {"type": "DT_FLOAT"}, "out_type": {"type": "DT_INT32"}}}, {"name": "g_synthesis/4x4/Conv/Noise/strided_slice", "op": "StridedSlice", "input": ["g_synthesis/4x4/Conv/Noise/Shape", "g_synthesis/512x512/Conv0_up/strided_slice_4/stack", "g_synthesis/512x512/Conv0_up/strided_slice_4/stack_1", "g_synthesis/512x512/Conv0_up/strided_slice_4/stack_1"], "attr": {"T": {"type": "DT_INT32"}, "Index": {"type": "DT_INT32"}, "shrink_axis_mask": {"i": "1"}, "begin_mask": {"i": "0"}, "ellipsis_mask": {"i": "0"}, "new_axis_mask": {"i": "0"}, "end_mask": {"i": "0"}}}, {"name": "g_synthesis/4x4/Conv/Noise/random_uniform/shape", "op": "Pack", "input": ["g_synthesis/4x4/Conv/Noise/strided_slice", "g_synthesis/4x4/Const/Tile/multiples/1", "g_synthesis/4x4/Const/Noise/random_uniform/shape/2", "g_synthesis/4x4/Const/Noise/random_uniform/shape/2"], "attr": {"T": {"type": "DT_INT32"}, "axis": {"i": "0"}, "N": {"i": "4"}}}, {"name": "g_synthesis/4x4/Conv/Noise/random_uniform/RandomUniform", "op": "RandomUniform", "input": ["g_synthesis/4x4/Conv/Noise/random_uniform/shape"], "attr": {"seed": {"i": "0"}, "T": {"type": "DT_INT32"}, "dtype": {"type": "DT_FLOAT"}, "seed2": {"i": "0"}}}, {"name": "g_synthesis/4x4/Conv/Noise/mul", "op": "Mul", "input": ["g_synthesis/4x4/Conv/Noise/Reshape", "g_synthesis/4x4/Conv/Noise/random_uniform/RandomUniform"], "attr": {"T": {"type": "DT_FLOAT"}}}, {"name": "g_synthesis/4x4/Conv/Noise/add", "op": "Add", "input": ["g_synthesis/4x4/Conv/Noise/mul", "g_synthesis/4x4/Conv/Reshape"], "attr": {"T": {"type": "DT_FLOAT"}}}, {"name": "g_synthesis/4x4/Conv/add", "op": "Add", "input": ["g_synthesis/4x4/Conv/NHWC_to_NCHW", "g_synthesis/4x4/Conv/Noise/add"], "attr": {"T": {"type": "DT_FLOAT"}}}, {"name": "g_synthesis/4x4/Conv/LeakyRelu", "op": "LeakyRelu", "input": ["g_synthesis/4x4/Conv/add"], "attr": {"T": {"type": "DT_FLOAT"}, "alpha": {"f": 0.20000000298023224}}}, {"name": "g_synthesis/4x4/Conv/InstanceNorm/Mean", "op": "Mean", "input": ["g_synthesis/4x4/Conv/LeakyRelu", "g_synthesis/4x4/Const/InstanceNorm/Mean/reduction_indices"], "attr": {"keep_dims": {"b": true}, "Tidx": {"type": "DT_INT32"}, "T": {"type": "DT_FLOAT"}}}, {"name": "g_synthesis/4x4/Conv/InstanceNorm/sub_1", "op": "Sub", "input": ["g_synthesis/4x4/Conv/LeakyRelu", "g_synthesis/4x4/Conv/InstanceNorm/Mean"], "attr": {"T": {"type": "DT_FLOAT"}}}, {"name": "g_synthesis/4x4/Conv/InstanceNorm/Square", "op": "Square", "input": ["g_synthesis/4x4/Conv/InstanceNorm/sub_1"], "attr": {"T": {"type": "DT_FLOAT"}}}, {"name": "g_synthesis/4x4/Conv/InstanceNorm/Mean_1", "op": "Mean", "input": ["g_synthesis/4x4/Conv/InstanceNorm/Square", "g_synthesis/4x4/Const/InstanceNorm/Mean/reduction_indices"], "attr": {"keep_dims": {"b": true}, "Tidx": {"type": "DT_INT32"}, "T": {"type": "DT_FLOAT"}}}, {"name": "g_synthesis/4x4/Conv/InstanceNorm/add", "op": "Add", "input": ["g_synthesis/4x4/Const/InstanceNorm/epsilon", "g_synthesis/4x4/Conv/InstanceNorm/Mean_1"], "attr": {"T": {"type": "DT_FLOAT"}}}, {"name": "g_synthesis/4x4/Conv/InstanceNorm/Rsqrt", "op": "Rsqrt", "input": ["g_synthesis/4x4/Conv/InstanceNorm/add"], "attr": {"T": {"type": "DT_FLOAT"}}}, {"name": "g_synthesis/4x4/Conv/InstanceNorm/mul", "op": "Mul", "input": ["g_synthesis/4x4/Conv/InstanceNorm/Rsqrt", "g_synthesis/4x4/Conv/InstanceNorm/sub_1"], "attr": {"T": {"type": "DT_FLOAT"}}}, {"name": "g_synthesis/4x4/Conv/StyleMod/mul_2", "op": "Mul", "input": ["g_synthesis/4x4/Conv/InstanceNorm/mul", "g_synthesis/4x4/Conv/StyleMod/add_1"], "attr": {"T": {"type": "DT_FLOAT"}}}, {"name": "g_synthesis/4x4/Conv/StyleMod/add_2", "op": "Add", "input": ["g_synthesis/4x4/Conv/StyleMod/mul_2", "g_synthesis/4x4/Conv/StyleMod/strided_slice_1"], "attr": {"T": {"type": "DT_FLOAT"}}}, {"name": "g_synthesis/8x8/Conv0_up/Reshape", "op": "Reshape", "input": ["g_synthesis/4x4/Conv/StyleMod/add_2", "g_synthesis/8x8/Conv0_up/Reshape/shape"], "attr": {"T": {"type": "DT_FLOAT"}, "Tshape": {"type": "DT_INT32"}}}, {"name": "g_synthesis/4x4_1/ToRGB/NCHW_to_NHWC", "op": "Transpose", "input": ["g_synthesis/4x4/Conv/StyleMod/add_2", "g_synthesis/4x4_1/ToRGB/NCHW_to_NHWC/perm"], "attr": {"Tperm": {"type": "DT_INT32"}, "T": {"type": "DT_FLOAT"}}}, {"name": "g_synthesis/8x8/Conv0_up/Tile", "op": "Tile", "input": ["g_synthesis/8x8/Conv0_up/Reshape", "g_synthesis/Tile/multiples"], "attr": {"Tmultiples": {"type": "DT_INT32"}, "T": {"type": "DT_FLOAT"}}}, {"name": "g_synthesis/4x4_1/ToRGB/Conv2D", "op": "Conv2D", "input": ["g_synthesis/4x4_1/ToRGB/NCHW_to_NHWC", "g_synthesis/4x4_1/ToRGB/mul"], "attr": {"dilations": {"list": {"i": ["1", "1", "1", "1"]}}, "T": {"type": "DT_FLOAT"}, "data_format": {"s": "TkhXQw=="}, "strides": {"list": {"i": ["1", "1", "1", "1"]}}, "use_cudnn_on_gpu": {"b": true}, "explicit_paddings": {"list": {}}, "padding": {"s": "U0FNRQ=="}}}, {"name": "g_synthesis/8x8/Conv0_up/Reshape_1", "op": "Reshape", "input": ["g_synthesis/8x8/Conv0_up/Tile", "g_synthesis/8x8/Conv0_up/Reshape_1/shape"], "attr": {"T": {"type": "DT_FLOAT"}, "Tshape": {"type": "DT_INT32"}}}, {"name": "g_synthesis/4x4_1/ToRGB/NHWC_to_NCHW", "op": "Transpose", "input": ["g_synthesis/4x4_1/ToRGB/Conv2D", "g_synthesis/4x4_1/ToRGB/NHWC_to_NCHW/perm"], "attr": {"Tperm": {"type": "DT_INT32"}, "T": {"type": "DT_FLOAT"}}}, {"name": "g_synthesis/8x8/Conv0_up/NCHW_to_NHWC", "op": "Transpose", "input": ["g_synthesis/8x8/Conv0_up/Reshape_1", "g_synthesis/4x4_1/ToRGB/NCHW_to_NHWC/perm"], "attr": {"Tperm": {"type": "DT_INT32"}, "T": {"type": "DT_FLOAT"}}}, {"name": "g_synthesis/Reshape", "op": "Reshape", "input": ["g_synthesis/4x4_1/ToRGB/NHWC_to_NCHW", "g_synthesis/Reshape/shape"], "attr": {"T": {"type": "DT_FLOAT"}, "Tshape": {"type": "DT_INT32"}}}, {"name": "g_synthesis/8x8/Conv0_up/Conv2D", "op": "Conv2D", "input": ["g_synthesis/8x8/Conv0_up/NCHW_to_NHWC", "g_synthesis/8x8/Conv0_up/mul"], "attr": {"dilations": {"list": {"i": ["1", "1", "1", "1"]}}, "T": {"type": "DT_FLOAT"}, "data_format": {"s": "TkhXQw=="}, "strides": {"list": {"i": ["1", "1", "1", "1"]}}, "use_cudnn_on_gpu": {"b": true}, "explicit_paddings": {"list": {}}, "padding": {"s": "U0FNRQ=="}}}, {"name": "g_synthesis/Tile", "op": "Tile", "input": ["g_synthesis/Reshape", "g_synthesis/Tile/multiples"], "attr": {"Tmultiples": {"type": "DT_INT32"}, "T": {"type": "DT_FLOAT"}}}, {"name": "g_synthesis/8x8/Conv0_up/depthwise", "op": "DepthwiseConv2dNative", "input": ["g_synthesis/8x8/Conv0_up/Conv2D", "g_synthesis/8x8/Conv0_up/filter"], "attr": {"padding": {"s": "U0FNRQ=="}, "dilations": {"list": {"i": ["1", "1", "1", "1"]}}, "T": {"type": "DT_FLOAT"}, "strides": {"list": {"i": ["1", "1", "1", "1"]}}, "data_format": {"s": "TkhXQw=="}}}, {"name": "g_synthesis/Reshape_1", "op": "Reshape", "input": ["g_synthesis/Tile", "g_synthesis/Reshape_1/shape"], "attr": {"T": {"type": "DT_FLOAT"}, "Tshape": {"type": "DT_INT32"}}}, {"name": "g_synthesis/8x8/Conv0_up/NHWC_to_NCHW_1", "op": "Transpose", "input": ["g_synthesis/8x8/Conv0_up/depthwise", "g_synthesis/4x4_1/ToRGB/NHWC_to_NCHW/perm"], "attr": {"Tperm": {"type": "DT_INT32"}, "T": {"type": "DT_FLOAT"}}}, {"name": "g_synthesis/8x8/Conv0_up/Noise/Shape", "op": "Shape", "input": ["g_synthesis/8x8/Conv0_up/NHWC_to_NCHW_1"], "attr": {"T": {"type": "DT_FLOAT"}, "out_type": {"type": "DT_INT32"}}}, {"name": "g_synthesis/8x8/Conv0_up/Noise/strided_slice", "op": "StridedSlice", "input": ["g_synthesis/8x8/Conv0_up/Noise/Shape", "g_synthesis/512x512/Conv0_up/strided_slice_4/stack", "g_synthesis/512x512/Conv0_up/strided_slice_4/stack_1", "g_synthesis/512x512/Conv0_up/strided_slice_4/stack_1"], "attr": {"T": {"type": "DT_INT32"}, "Index": {"type": "DT_INT32"}, "shrink_axis_mask": {"i": "1"}, "begin_mask": {"i": "0"}, "ellipsis_mask": {"i": "0"}, "new_axis_mask": {"i": "0"}, "end_mask": {"i": "0"}}}, {"name": "g_synthesis/8x8/Conv0_up/Noise/random_uniform/shape", "op": "Pack", "input": ["g_synthesis/8x8/Conv0_up/Noise/strided_slice", "g_synthesis/4x4/Const/Tile/multiples/1", "g_synthesis/8x8/Conv0_up/Noise/random_uniform/shape/2", "g_synthesis/8x8/Conv0_up/Noise/random_uniform/shape/2"], "attr": {"T": {"type": "DT_INT32"}, "axis": {"i": "0"}, "N": {"i": "4"}}}, {"name": "g_synthesis/8x8/Conv0_up/Noise/random_uniform/RandomUniform", "op": "RandomUniform", "input": ["g_synthesis/8x8/Conv0_up/Noise/random_uniform/shape"], "attr": {"seed": {"i": "0"}, "T": {"type": "DT_INT32"}, "dtype": {"type": "DT_FLOAT"}, "seed2": {"i": "0"}}}, {"name": "g_synthesis/8x8/Conv0_up/Noise/mul", "op": "Mul", "input": ["g_synthesis/8x8/Conv0_up/Noise/Reshape", "g_synthesis/8x8/Conv0_up/Noise/random_uniform/RandomUniform"], "attr": {"T": {"type": "DT_FLOAT"}}}, {"name": "g_synthesis/8x8/Conv0_up/Noise/add", "op": "Add", "input": ["g_synthesis/8x8/Conv0_up/Noise/mul", "g_synthesis/8x8/Conv0_up/Reshape_2"], "attr": {"T": {"type": "DT_FLOAT"}}}, {"name": "g_synthesis/8x8/Conv0_up/add", "op": "Add", "input": ["g_synthesis/8x8/Conv0_up/NHWC_to_NCHW_1", "g_synthesis/8x8/Conv0_up/Noise/add"], "attr": {"T": {"type": "DT_FLOAT"}}}, {"name": "g_synthesis/8x8/Conv0_up/LeakyRelu", "op": "LeakyRelu", "input": ["g_synthesis/8x8/Conv0_up/add"], "attr": {"T": {"type": "DT_FLOAT"}, "alpha": {"f": 0.20000000298023224}}}, {"name": "g_synthesis/8x8/Conv0_up/InstanceNorm/Mean", "op": "Mean", "input": ["g_synthesis/8x8/Conv0_up/LeakyRelu", "g_synthesis/4x4/Const/InstanceNorm/Mean/reduction_indices"], "attr": {"keep_dims": {"b": true}, "Tidx": {"type": "DT_INT32"}, "T": {"type": "DT_FLOAT"}}}, {"name": "g_synthesis/8x8/Conv0_up/InstanceNorm/sub_1", "op": "Sub", "input": ["g_synthesis/8x8/Conv0_up/LeakyRelu", "g_synthesis/8x8/Conv0_up/InstanceNorm/Mean"], "attr": {"T": {"type": "DT_FLOAT"}}}, {"name": "g_synthesis/8x8/Conv0_up/InstanceNorm/Square", "op": "Square", "input": ["g_synthesis/8x8/Conv0_up/InstanceNorm/sub_1"], "attr": {"T": {"type": "DT_FLOAT"}}}, {"name": "g_synthesis/8x8/Conv0_up/InstanceNorm/Mean_1", "op": "Mean", "input": ["g_synthesis/8x8/Conv0_up/InstanceNorm/Square", "g_synthesis/4x4/Const/InstanceNorm/Mean/reduction_indices"], "attr": {"keep_dims": {"b": true}, "Tidx": {"type": "DT_INT32"}, "T": {"type": "DT_FLOAT"}}}, {"name": "g_synthesis/8x8/Conv0_up/InstanceNorm/add", "op": "Add", "input": ["g_synthesis/4x4/Const/InstanceNorm/epsilon", "g_synthesis/8x8/Conv0_up/InstanceNorm/Mean_1"], "attr": {"T": {"type": "DT_FLOAT"}}}, {"name": "g_synthesis/8x8/Conv0_up/InstanceNorm/Rsqrt", "op": "Rsqrt", "input": ["g_synthesis/8x8/Conv0_up/InstanceNorm/add"], "attr": {"T": {"type": "DT_FLOAT"}}}, {"name": "g_synthesis/8x8/Conv0_up/InstanceNorm/mul", "op": "Mul", "input": ["g_synthesis/8x8/Conv0_up/InstanceNorm/Rsqrt", "g_synthesis/8x8/Conv0_up/InstanceNorm/sub_1"], "attr": {"T": {"type": "DT_FLOAT"}}}, {"name": "g_synthesis/8x8/Conv0_up/StyleMod/mul_2", "op": "Mul", "input": ["g_synthesis/8x8/Conv0_up/InstanceNorm/mul", "g_synthesis/8x8/Conv0_up/StyleMod/add_1"], "attr": {"T": {"type": "DT_FLOAT"}}}, {"name": "g_synthesis/8x8/Conv0_up/StyleMod/add_2", "op": "Add", "input": ["g_synthesis/8x8/Conv0_up/StyleMod/mul_2", "g_synthesis/8x8/Conv0_up/StyleMod/strided_slice_1"], "attr": {"T": {"type": "DT_FLOAT"}}}, {"name": "g_synthesis/8x8/Conv1/NCHW_to_NHWC", "op": "Transpose", "input": ["g_synthesis/8x8/Conv0_up/StyleMod/add_2", "g_synthesis/4x4_1/ToRGB/NCHW_to_NHWC/perm"], "attr": {"Tperm": {"type": "DT_INT32"}, "T": {"type": "DT_FLOAT"}}}, {"name": "g_synthesis/8x8/Conv1/Conv2D", "op": "Conv2D", "input": ["g_synthesis/8x8/Conv1/NCHW_to_NHWC", "g_synthesis/8x8/Conv1/mul"], "attr": {"dilations": {"list": {"i": ["1", "1", "1", "1"]}}, "T": {"type": "DT_FLOAT"}, "data_format": {"s": "TkhXQw=="}, "strides": {"list": {"i": ["1", "1", "1", "1"]}}, "use_cudnn_on_gpu": {"b": true}, "explicit_paddings": {"list": {}}, "padding": {"s": "U0FNRQ=="}}}, {"name": "g_synthesis/8x8/Conv1/NHWC_to_NCHW", "op": "Transpose", "input": ["g_synthesis/8x8/Conv1/Conv2D", "g_synthesis/4x4_1/ToRGB/NHWC_to_NCHW/perm"], "attr": {"Tperm": {"type": "DT_INT32"}, "T": {"type": "DT_FLOAT"}}}, {"name": "g_synthesis/8x8/Conv1/Noise/Shape", "op": "Shape", "input": ["g_synthesis/8x8/Conv1/NHWC_to_NCHW"], "attr": {"T": {"type": "DT_FLOAT"}, "out_type": {"type": "DT_INT32"}}}, {"name": "g_synthesis/8x8/Conv1/Noise/strided_slice", "op": "StridedSlice", "input": ["g_synthesis/8x8/Conv1/Noise/Shape", "g_synthesis/512x512/Conv0_up/strided_slice_4/stack", "g_synthesis/512x512/Conv0_up/strided_slice_4/stack_1", "g_synthesis/512x512/Conv0_up/strided_slice_4/stack_1"], "attr": {"T": {"type": "DT_INT32"}, "Index": {"type": "DT_INT32"}, "shrink_axis_mask": {"i": "1"}, "begin_mask": {"i": "0"}, "ellipsis_mask": {"i": "0"}, "new_axis_mask": {"i": "0"}, "end_mask": {"i": "0"}}}, {"name": "g_synthesis/8x8/Conv1/Noise/random_uniform/shape", "op": "Pack", "input": ["g_synthesis/8x8/Conv1/Noise/strided_slice", "g_synthesis/4x4/Const/Tile/multiples/1", "g_synthesis/8x8/Conv0_up/Noise/random_uniform/shape/2", "g_synthesis/8x8/Conv0_up/Noise/random_uniform/shape/2"], "attr": {"T": {"type": "DT_INT32"}, "axis": {"i": "0"}, "N": {"i": "4"}}}, {"name": "g_synthesis/8x8/Conv1/Noise/random_uniform/RandomUniform", "op": "RandomUniform", "input": ["g_synthesis/8x8/Conv1/Noise/random_uniform/shape"], "attr": {"seed": {"i": "0"}, "T": {"type": "DT_INT32"}, "dtype": {"type": "DT_FLOAT"}, "seed2": {"i": "0"}}}, {"name": "g_synthesis/8x8/Conv1/Noise/mul", "op": "Mul", "input": ["g_synthesis/8x8/Conv1/Noise/Reshape", "g_synthesis/8x8/Conv1/Noise/random_uniform/RandomUniform"], "attr": {"T": {"type": "DT_FLOAT"}}}, {"name": "g_synthesis/8x8/Conv1/Noise/add", "op": "Add", "input": ["g_synthesis/8x8/Conv1/Noise/mul", "g_synthesis/8x8/Conv1/Reshape"], "attr": {"T": {"type": "DT_FLOAT"}}}, {"name": "g_synthesis/8x8/Conv1/add", "op": "Add", "input": ["g_synthesis/8x8/Conv1/NHWC_to_NCHW", "g_synthesis/8x8/Conv1/Noise/add"], "attr": {"T": {"type": "DT_FLOAT"}}}, {"name": "g_synthesis/8x8/Conv1/LeakyRelu", "op": "LeakyRelu", "input": ["g_synthesis/8x8/Conv1/add"], "attr": {"T": {"type": "DT_FLOAT"}, "alpha": {"f": 0.20000000298023224}}}, {"name": "g_synthesis/8x8/Conv1/InstanceNorm/Mean", "op": "Mean", "input": ["g_synthesis/8x8/Conv1/LeakyRelu", "g_synthesis/4x4/Const/InstanceNorm/Mean/reduction_indices"], "attr": {"keep_dims": {"b": true}, "Tidx": {"type": "DT_INT32"}, "T": {"type": "DT_FLOAT"}}}, {"name": "g_synthesis/8x8/Conv1/InstanceNorm/sub_1", "op": "Sub", "input": ["g_synthesis/8x8/Conv1/LeakyRelu", "g_synthesis/8x8/Conv1/InstanceNorm/Mean"], "attr": {"T": {"type": "DT_FLOAT"}}}, {"name": "g_synthesis/8x8/Conv1/InstanceNorm/Square", "op": "Square", "input": ["g_synthesis/8x8/Conv1/InstanceNorm/sub_1"], "attr": {"T": {"type": "DT_FLOAT"}}}, {"name": "g_synthesis/8x8/Conv1/InstanceNorm/Mean_1", "op": "Mean", "input": ["g_synthesis/8x8/Conv1/InstanceNorm/Square", "g_synthesis/4x4/Const/InstanceNorm/Mean/reduction_indices"], "attr": {"keep_dims": {"b": true}, "Tidx": {"type": "DT_INT32"}, "T": {"type": "DT_FLOAT"}}}, {"name": "g_synthesis/8x8/Conv1/InstanceNorm/add", "op": "Add", "input": ["g_synthesis/4x4/Const/InstanceNorm/epsilon", "g_synthesis/8x8/Conv1/InstanceNorm/Mean_1"], "attr": {"T": {"type": "DT_FLOAT"}}}, {"name": "g_synthesis/8x8/Conv1/InstanceNorm/Rsqrt", "op": "Rsqrt", "input": ["g_synthesis/8x8/Conv1/InstanceNorm/add"], "attr": {"T": {"type": "DT_FLOAT"}}}, {"name": "g_synthesis/8x8/Conv1/InstanceNorm/mul", "op": "Mul", "input": ["g_synthesis/8x8/Conv1/InstanceNorm/Rsqrt", "g_synthesis/8x8/Conv1/InstanceNorm/sub_1"], "attr": {"T": {"type": "DT_FLOAT"}}}, {"name": "g_synthesis/8x8/Conv1/StyleMod/mul_2", "op": "Mul", "input": ["g_synthesis/8x8/Conv1/InstanceNorm/mul", "g_synthesis/8x8/Conv1/StyleMod/add_1"], "attr": {"T": {"type": "DT_FLOAT"}}}, {"name": "g_synthesis/8x8/Conv1/StyleMod/add_2", "op": "Add", "input": ["g_synthesis/8x8/Conv1/StyleMod/mul_2", "g_synthesis/8x8/Conv1/StyleMod/strided_slice_1"], "attr": {"T": {"type": "DT_FLOAT"}}}, {"name": "g_synthesis/16x16/Conv0_up/Reshape", "op": "Reshape", "input": ["g_synthesis/8x8/Conv1/StyleMod/add_2", "g_synthesis/16x16/Conv0_up/Reshape/shape"], "attr": {"T": {"type": "DT_FLOAT"}, "Tshape": {"type": "DT_INT32"}}}, {"name": "g_synthesis/8x8_1/ToRGB/NCHW_to_NHWC", "op": "Transpose", "input": ["g_synthesis/8x8/Conv1/StyleMod/add_2", "g_synthesis/4x4_1/ToRGB/NCHW_to_NHWC/perm"], "attr": {"Tperm": {"type": "DT_INT32"}, "T": {"type": "DT_FLOAT"}}}, {"name": "g_synthesis/16x16/Conv0_up/Tile", "op": "Tile", "input": ["g_synthesis/16x16/Conv0_up/Reshape", "g_synthesis/Tile/multiples"], "attr": {"Tmultiples": {"type": "DT_INT32"}, "T": {"type": "DT_FLOAT"}}}, {"name": "g_synthesis/8x8_1/ToRGB/Conv2D", "op": "Conv2D", "input": ["g_synthesis/8x8_1/ToRGB/NCHW_to_NHWC", "g_synthesis/8x8_1/ToRGB/mul"], "attr": {"dilations": {"list": {"i": ["1", "1", "1", "1"]}}, "T": {"type": "DT_FLOAT"}, "data_format": {"s": "TkhXQw=="}, "strides": {"list": {"i": ["1", "1", "1", "1"]}}, "use_cudnn_on_gpu": {"b": true}, "explicit_paddings": {"list": {}}, "padding": {"s": "U0FNRQ=="}}}, {"name": "g_synthesis/16x16/Conv0_up/Reshape_1", "op": "Reshape", "input": ["g_synthesis/16x16/Conv0_up/Tile", "g_synthesis/16x16/Conv0_up/Reshape_1/shape"], "attr": {"T": {"type": "DT_FLOAT"}, "Tshape": {"type": "DT_INT32"}}}, {"name": "g_synthesis/8x8_1/ToRGB/NHWC_to_NCHW", "op": "Transpose", "input": ["g_synthesis/8x8_1/ToRGB/Conv2D", "g_synthesis/4x4_1/ToRGB/NHWC_to_NCHW/perm"], "attr": {"Tperm": {"type": "DT_INT32"}, "T": {"type": "DT_FLOAT"}}}, {"name": "g_synthesis/16x16/Conv0_up/NCHW_to_NHWC", "op": "Transpose", "input": ["g_synthesis/16x16/Conv0_up/Reshape_1", "g_synthesis/4x4_1/ToRGB/NCHW_to_NHWC/perm"], "attr": {"Tperm": {"type": "DT_INT32"}, "T": {"type": "DT_FLOAT"}}}, {"name": "g_synthesis/8x8_1/ToRGB/add", "op": "Add", "input": ["g_synthesis/8x8_1/ToRGB/NHWC_to_NCHW", "g_synthesis/8x8_1/ToRGB/Reshape"], "attr": {"T": {"type": "DT_FLOAT"}}}, {"name": "g_synthesis/16x16/Conv0_up/Conv2D", "op": "Conv2D", "input": ["g_synthesis/16x16/Conv0_up/NCHW_to_NHWC", "g_synthesis/16x16/Conv0_up/mul"], "attr": {"dilations": {"list": {"i": ["1", "1", "1", "1"]}}, "T": {"type": "DT_FLOAT"}, "data_format": {"s": "TkhXQw=="}, "strides": {"list": {"i": ["1", "1", "1", "1"]}}, "use_cudnn_on_gpu": {"b": true}, "explicit_paddings": {"list": {}}, "padding": {"s": "U0FNRQ=="}}}, {"name": "g_synthesis/8x8_2/smooth_transition/LerpClip/sub", "op": "Sub", "input": ["g_synthesis/Reshape_1", "g_synthesis/8x8_1/ToRGB/add"], "attr": {"T": {"type": "DT_FLOAT"}}}, {"name": "g_synthesis/16x16/Conv0_up/depthwise", "op": "DepthwiseConv2dNative", "input": ["g_synthesis/16x16/Conv0_up/Conv2D", "g_synthesis/8x8/Conv0_up/filter"], "attr": {"padding": {"s": "U0FNRQ=="}, "dilations": {"list": {"i": ["1", "1", "1", "1"]}}, "T": {"type": "DT_FLOAT"}, "strides": {"list": {"i": ["1", "1", "1", "1"]}}, "data_format": {"s": "TkhXQw=="}}}, {"name": "g_synthesis/8x8_2/smooth_transition/LerpClip/mul", "op": "Mul", "input": ["g_synthesis/8x8_2/smooth_transition/LerpClip/clip_by_value", "g_synthesis/8x8_2/smooth_transition/LerpClip/sub"], "attr": {"T": {"type": "DT_FLOAT"}}}, {"name": "g_synthesis/16x16/Conv0_up/NHWC_to_NCHW_1", "op": "Transpose", "input": ["g_synthesis/16x16/Conv0_up/depthwise", "g_synthesis/4x4_1/ToRGB/NHWC_to_NCHW/perm"], "attr": {"Tperm": {"type": "DT_INT32"}, "T": {"type": "DT_FLOAT"}}}, {"name": "g_synthesis/8x8_2/smooth_transition/LerpClip/add", "op": "Add", "input": ["g_synthesis/8x8_1/ToRGB/add", "g_synthesis/8x8_2/smooth_transition/LerpClip/mul"], "attr": {"T": {"type": "DT_FLOAT"}}}, {"name": "g_synthesis/16x16/Conv0_up/Noise/Shape", "op": "Shape", "input": ["g_synthesis/16x16/Conv0_up/NHWC_to_NCHW_1"], "attr": {"T": {"type": "DT_FLOAT"}, "out_type": {"type": "DT_INT32"}}}, {"name": "g_synthesis/Reshape_2", "op": "Reshape", "input": ["g_synthesis/8x8_2/smooth_transition/LerpClip/add", "g_synthesis/Reshape_2/shape"], "attr": {"T": {"type": "DT_FLOAT"}, "Tshape": {"type": "DT_INT32"}}}, {"name": "g_synthesis/16x16/Conv0_up/Noise/strided_slice", "op": "StridedSlice", "input": ["g_synthesis/16x16/Conv0_up/Noise/Shape", "g_synthesis/512x512/Conv0_up/strided_slice_4/stack", "g_synthesis/512x512/Conv0_up/strided_slice_4/stack_1", "g_synthesis/512x512/Conv0_up/strided_slice_4/stack_1"], "attr": {"T": {"type": "DT_INT32"}, "Index": {"type": "DT_INT32"}, "shrink_axis_mask": {"i": "1"}, "begin_mask": {"i": "0"}, "ellipsis_mask": {"i": "0"}, "new_axis_mask": {"i": "0"}, "end_mask": {"i": "0"}}}, {"name": "g_synthesis/Tile_1", "op": "Tile", "input": ["g_synthesis/Reshape_2", "g_synthesis/Tile/multiples"], "attr": {"Tmultiples": {"type": "DT_INT32"}, "T": {"type": "DT_FLOAT"}}}, {"name": "g_synthesis/16x16/Conv0_up/Noise/random_uniform/shape", "op": "Pack", "input": ["g_synthesis/16x16/Conv0_up/Noise/strided_slice", "g_synthesis/4x4/Const/Tile/multiples/1", "g_synthesis/16x16/Conv0_up/Noise/random_uniform/shape/2", "g_synthesis/16x16/Conv0_up/Noise/random_uniform/shape/2"], "attr": {"T": {"type": "DT_INT32"}, "axis": {"i": "0"}, "N": {"i": "4"}}}, {"name": "g_synthesis/Reshape_3", "op": "Reshape", "input": ["g_synthesis/Tile_1", "g_synthesis/Reshape_3/shape"], "attr": {"T": {"type": "DT_FLOAT"}, "Tshape": {"type": "DT_INT32"}}}, {"name": "g_synthesis/16x16/Conv0_up/Noise/random_uniform/RandomUniform", "op": "RandomUniform", "input": ["g_synthesis/16x16/Conv0_up/Noise/random_uniform/shape"], "attr": {"seed": {"i": "0"}, "T": {"type": "DT_INT32"}, "dtype": {"type": "DT_FLOAT"}, "seed2": {"i": "0"}}}, {"name": "g_synthesis/16x16/Conv0_up/Noise/mul", "op": "Mul", "input": ["g_synthesis/16x16/Conv0_up/Noise/Reshape", "g_synthesis/16x16/Conv0_up/Noise/random_uniform/RandomUniform"], "attr": {"T": {"type": "DT_FLOAT"}}}, {"name": "g_synthesis/16x16/Conv0_up/Noise/add", "op": "Add", "input": ["g_synthesis/16x16/Conv0_up/Noise/mul", "g_synthesis/16x16/Conv0_up/Reshape_2"], "attr": {"T": {"type": "DT_FLOAT"}}}, {"name": "g_synthesis/16x16/Conv0_up/add", "op": "Add", "input": ["g_synthesis/16x16/Conv0_up/NHWC_to_NCHW_1", "g_synthesis/16x16/Conv0_up/Noise/add"], "attr": {"T": {"type": "DT_FLOAT"}}}, {"name": "g_synthesis/16x16/Conv0_up/LeakyRelu", "op": "LeakyRelu", "input": ["g_synthesis/16x16/Conv0_up/add"], "attr": {"T": {"type": "DT_FLOAT"}, "alpha": {"f": 0.20000000298023224}}}, {"name": "g_synthesis/16x16/Conv0_up/InstanceNorm/Mean", "op": "Mean", "input": ["g_synthesis/16x16/Conv0_up/LeakyRelu", "g_synthesis/4x4/Const/InstanceNorm/Mean/reduction_indices"], "attr": {"keep_dims": {"b": true}, "Tidx": {"type": "DT_INT32"}, "T": {"type": "DT_FLOAT"}}}, {"name": "g_synthesis/16x16/Conv0_up/InstanceNorm/sub_1", "op": "Sub", "input": ["g_synthesis/16x16/Conv0_up/LeakyRelu", "g_synthesis/16x16/Conv0_up/InstanceNorm/Mean"], "attr": {"T": {"type": "DT_FLOAT"}}}, {"name": "g_synthesis/16x16/Conv0_up/InstanceNorm/Square", "op": "Square", "input": ["g_synthesis/16x16/Conv0_up/InstanceNorm/sub_1"], "attr": {"T": {"type": "DT_FLOAT"}}}, {"name": "g_synthesis/16x16/Conv0_up/InstanceNorm/Mean_1", "op": "Mean", "input": ["g_synthesis/16x16/Conv0_up/InstanceNorm/Square", "g_synthesis/4x4/Const/InstanceNorm/Mean/reduction_indices"], "attr": {"keep_dims": {"b": true}, "Tidx": {"type": "DT_INT32"}, "T": {"type": "DT_FLOAT"}}}, {"name": "g_synthesis/16x16/Conv0_up/InstanceNorm/add", "op": "Add", "input": ["g_synthesis/16x16/Conv0_up/InstanceNorm/Mean_1", "g_synthesis/4x4/Const/InstanceNorm/epsilon"], "attr": {"T": {"type": "DT_FLOAT"}}}, {"name": "g_synthesis/16x16/Conv0_up/InstanceNorm/Rsqrt", "op": "Rsqrt", "input": ["g_synthesis/16x16/Conv0_up/InstanceNorm/add"], "attr": {"T": {"type": "DT_FLOAT"}}}, {"name": "g_synthesis/16x16/Conv0_up/InstanceNorm/mul", "op": "Mul", "input": ["g_synthesis/16x16/Conv0_up/InstanceNorm/Rsqrt", "g_synthesis/16x16/Conv0_up/InstanceNorm/sub_1"], "attr": {"T": {"type": "DT_FLOAT"}}}, {"name": "g_synthesis/16x16/Conv0_up/StyleMod/mul_2", "op": "Mul", "input": ["g_synthesis/16x16/Conv0_up/InstanceNorm/mul", "g_synthesis/16x16/Conv0_up/StyleMod/add_1"], "attr": {"T": {"type": "DT_FLOAT"}}}, {"name": "g_synthesis/16x16/Conv0_up/StyleMod/add_2", "op": "Add", "input": ["g_synthesis/16x16/Conv0_up/StyleMod/mul_2", "g_synthesis/16x16/Conv0_up/StyleMod/strided_slice_1"], "attr": {"T": {"type": "DT_FLOAT"}}}, {"name": "g_synthesis/16x16/Conv1/NCHW_to_NHWC", "op": "Transpose", "input": ["g_synthesis/16x16/Conv0_up/StyleMod/add_2", "g_synthesis/4x4_1/ToRGB/NCHW_to_NHWC/perm"], "attr": {"Tperm": {"type": "DT_INT32"}, "T": {"type": "DT_FLOAT"}}}, {"name": "g_synthesis/16x16/Conv1/Conv2D", "op": "Conv2D", "input": ["g_synthesis/16x16/Conv1/NCHW_to_NHWC", "g_synthesis/16x16/Conv1/mul"], "attr": {"dilations": {"list": {"i": ["1", "1", "1", "1"]}}, "T": {"type": "DT_FLOAT"}, "data_format": {"s": "TkhXQw=="}, "strides": {"list": {"i": ["1", "1", "1", "1"]}}, "use_cudnn_on_gpu": {"b": true}, "explicit_paddings": {"list": {}}, "padding": {"s": "U0FNRQ=="}}}, {"name": "g_synthesis/16x16/Conv1/NHWC_to_NCHW", "op": "Transpose", "input": ["g_synthesis/16x16/Conv1/Conv2D", "g_synthesis/4x4_1/ToRGB/NHWC_to_NCHW/perm"], "attr": {"Tperm": {"type": "DT_INT32"}, "T": {"type": "DT_FLOAT"}}}, {"name": "g_synthesis/16x16/Conv1/Noise/Shape", "op": "Shape", "input": ["g_synthesis/16x16/Conv1/NHWC_to_NCHW"], "attr": {"T": {"type": "DT_FLOAT"}, "out_type": {"type": "DT_INT32"}}}, {"name": "g_synthesis/16x16/Conv1/Noise/strided_slice", "op": "StridedSlice", "input": ["g_synthesis/16x16/Conv1/Noise/Shape", "g_synthesis/512x512/Conv0_up/strided_slice_4/stack", "g_synthesis/512x512/Conv0_up/strided_slice_4/stack_1", "g_synthesis/512x512/Conv0_up/strided_slice_4/stack_1"], "attr": {"T": {"type": "DT_INT32"}, "Index": {"type": "DT_INT32"}, "shrink_axis_mask": {"i": "1"}, "begin_mask": {"i": "0"}, "ellipsis_mask": {"i": "0"}, "new_axis_mask": {"i": "0"}, "end_mask": {"i": "0"}}}, {"name": "g_synthesis/16x16/Conv1/Noise/random_uniform/shape", "op": "Pack", "input": ["g_synthesis/16x16/Conv1/Noise/strided_slice", "g_synthesis/4x4/Const/Tile/multiples/1", "g_synthesis/16x16/Conv0_up/Noise/random_uniform/shape/2", "g_synthesis/16x16/Conv0_up/Noise/random_uniform/shape/2"], "attr": {"T": {"type": "DT_INT32"}, "axis": {"i": "0"}, "N": {"i": "4"}}}, {"name": "g_synthesis/16x16/Conv1/Noise/random_uniform/RandomUniform", "op": "RandomUniform", "input": ["g_synthesis/16x16/Conv1/Noise/random_uniform/shape"], "attr": {"seed": {"i": "0"}, "T": {"type": "DT_INT32"}, "dtype": {"type": "DT_FLOAT"}, "seed2": {"i": "0"}}}, {"name": "g_synthesis/16x16/Conv1/Noise/mul", "op": "Mul", "input": ["g_synthesis/16x16/Conv1/Noise/Reshape", "g_synthesis/16x16/Conv1/Noise/random_uniform/RandomUniform"], "attr": {"T": {"type": "DT_FLOAT"}}}, {"name": "g_synthesis/16x16/Conv1/Noise/add", "op": "Add", "input": ["g_synthesis/16x16/Conv1/Noise/mul", "g_synthesis/16x16/Conv1/Reshape"], "attr": {"T": {"type": "DT_FLOAT"}}}, {"name": "g_synthesis/16x16/Conv1/add", "op": "Add", "input": ["g_synthesis/16x16/Conv1/NHWC_to_NCHW", "g_synthesis/16x16/Conv1/Noise/add"], "attr": {"T": {"type": "DT_FLOAT"}}}, {"name": "g_synthesis/16x16/Conv1/LeakyRelu", "op": "LeakyRelu", "input": ["g_synthesis/16x16/Conv1/add"], "attr": {"T": {"type": "DT_FLOAT"}, "alpha": {"f": 0.20000000298023224}}}, {"name": "g_synthesis/16x16/Conv1/InstanceNorm/Mean", "op": "Mean", "input": ["g_synthesis/16x16/Conv1/LeakyRelu", "g_synthesis/4x4/Const/InstanceNorm/Mean/reduction_indices"], "attr": {"keep_dims": {"b": true}, "Tidx": {"type": "DT_INT32"}, "T": {"type": "DT_FLOAT"}}}, {"name": "g_synthesis/16x16/Conv1/InstanceNorm/sub_1", "op": "Sub", "input": ["g_synthesis/16x16/Conv1/LeakyRelu", "g_synthesis/16x16/Conv1/InstanceNorm/Mean"], "attr": {"T": {"type": "DT_FLOAT"}}}, {"name": "g_synthesis/16x16/Conv1/InstanceNorm/Square", "op": "Square", "input": ["g_synthesis/16x16/Conv1/InstanceNorm/sub_1"], "attr": {"T": {"type": "DT_FLOAT"}}}, {"name": "g_synthesis/16x16/Conv1/InstanceNorm/Mean_1", "op": "Mean", "input": ["g_synthesis/16x16/Conv1/InstanceNorm/Square", "g_synthesis/4x4/Const/InstanceNorm/Mean/reduction_indices"], "attr": {"keep_dims": {"b": true}, "Tidx": {"type": "DT_INT32"}, "T": {"type": "DT_FLOAT"}}}, {"name": "g_synthesis/16x16/Conv1/InstanceNorm/add", "op": "Add", "input": ["g_synthesis/16x16/Conv1/InstanceNorm/Mean_1", "g_synthesis/4x4/Const/InstanceNorm/epsilon"], "attr": {"T": {"type": "DT_FLOAT"}}}, {"name": "g_synthesis/16x16/Conv1/InstanceNorm/Rsqrt", "op": "Rsqrt", "input": ["g_synthesis/16x16/Conv1/InstanceNorm/add"], "attr": {"T": {"type": "DT_FLOAT"}}}, {"name": "g_synthesis/16x16/Conv1/InstanceNorm/mul", "op": "Mul", "input": ["g_synthesis/16x16/Conv1/InstanceNorm/Rsqrt", "g_synthesis/16x16/Conv1/InstanceNorm/sub_1"], "attr": {"T": {"type": "DT_FLOAT"}}}, {"name": "g_synthesis/16x16/Conv1/StyleMod/mul_2", "op": "Mul", "input": ["g_synthesis/16x16/Conv1/InstanceNorm/mul", "g_synthesis/16x16/Conv1/StyleMod/add_1"], "attr": {"T": {"type": "DT_FLOAT"}}}, {"name": "g_synthesis/16x16/Conv1/StyleMod/add_2", "op": "Add", "input": ["g_synthesis/16x16/Conv1/StyleMod/mul_2", "g_synthesis/16x16/Conv1/StyleMod/strided_slice_1"], "attr": {"T": {"type": "DT_FLOAT"}}}, {"name": "g_synthesis/32x32/Conv0_up/Reshape", "op": "Reshape", "input": ["g_synthesis/16x16/Conv1/StyleMod/add_2", "g_synthesis/32x32/Conv0_up/Reshape/shape"], "attr": {"T": {"type": "DT_FLOAT"}, "Tshape": {"type": "DT_INT32"}}}, {"name": "g_synthesis/16x16_1/ToRGB/NCHW_to_NHWC", "op": "Transpose", "input": ["g_synthesis/16x16/Conv1/StyleMod/add_2", "g_synthesis/4x4_1/ToRGB/NCHW_to_NHWC/perm"], "attr": {"Tperm": {"type": "DT_INT32"}, "T": {"type": "DT_FLOAT"}}}, {"name": "g_synthesis/32x32/Conv0_up/Tile", "op": "Tile", "input": ["g_synthesis/32x32/Conv0_up/Reshape", "g_synthesis/Tile/multiples"], "attr": {"Tmultiples": {"type": "DT_INT32"}, "T": {"type": "DT_FLOAT"}}}, {"name": "g_synthesis/16x16_1/ToRGB/Conv2D", "op": "Conv2D", "input": ["g_synthesis/16x16_1/ToRGB/NCHW_to_NHWC", "g_synthesis/16x16_1/ToRGB/mul"], "attr": {"dilations": {"list": {"i": ["1", "1", "1", "1"]}}, "T": {"type": "DT_FLOAT"}, "data_format": {"s": "TkhXQw=="}, "strides": {"list": {"i": ["1", "1", "1", "1"]}}, "use_cudnn_on_gpu": {"b": true}, "explicit_paddings": {"list": {}}, "padding": {"s": "U0FNRQ=="}}}, {"name": "g_synthesis/32x32/Conv0_up/Reshape_1", "op": "Reshape", "input": ["g_synthesis/32x32/Conv0_up/Tile", "g_synthesis/32x32/Conv0_up/Reshape_1/shape"], "attr": {"T": {"type": "DT_FLOAT"}, "Tshape": {"type": "DT_INT32"}}}, {"name": "g_synthesis/16x16_1/ToRGB/NHWC_to_NCHW", "op": "Transpose", "input": ["g_synthesis/16x16_1/ToRGB/Conv2D", "g_synthesis/4x4_1/ToRGB/NHWC_to_NCHW/perm"], "attr": {"Tperm": {"type": "DT_INT32"}, "T": {"type": "DT_FLOAT"}}}, {"name": "g_synthesis/32x32/Conv0_up/NCHW_to_NHWC", "op": "Transpose", "input": ["g_synthesis/32x32/Conv0_up/Reshape_1", "g_synthesis/4x4_1/ToRGB/NCHW_to_NHWC/perm"], "attr": {"Tperm": {"type": "DT_INT32"}, "T": {"type": "DT_FLOAT"}}}, {"name": "g_synthesis/16x16_1/ToRGB/add", "op": "Add", "input": ["g_synthesis/16x16_1/ToRGB/NHWC_to_NCHW", "g_synthesis/16x16_1/ToRGB/Reshape"], "attr": {"T": {"type": "DT_FLOAT"}}}, {"name": "g_synthesis/32x32/Conv0_up/Conv2D", "op": "Conv2D", "input": ["g_synthesis/32x32/Conv0_up/NCHW_to_NHWC", "g_synthesis/32x32/Conv0_up/mul"], "attr": {"dilations": {"list": {"i": ["1", "1", "1", "1"]}}, "T": {"type": "DT_FLOAT"}, "data_format": {"s": "TkhXQw=="}, "strides": {"list": {"i": ["1", "1", "1", "1"]}}, "use_cudnn_on_gpu": {"b": true}, "explicit_paddings": {"list": {}}, "padding": {"s": "U0FNRQ=="}}}, {"name": "g_synthesis/16x16_2/smooth_transition/LerpClip/sub", "op": "Sub", "input": ["g_synthesis/Reshape_3", "g_synthesis/16x16_1/ToRGB/add"], "attr": {"T": {"type": "DT_FLOAT"}}}, {"name": "g_synthesis/32x32/Conv0_up/depthwise", "op": "DepthwiseConv2dNative", "input": ["g_synthesis/32x32/Conv0_up/Conv2D", "g_synthesis/8x8/Conv0_up/filter"], "attr": {"padding": {"s": "U0FNRQ=="}, "dilations": {"list": {"i": ["1", "1", "1", "1"]}}, "T": {"type": "DT_FLOAT"}, "strides": {"list": {"i": ["1", "1", "1", "1"]}}, "data_format": {"s": "TkhXQw=="}}}, {"name": "g_synthesis/16x16_2/smooth_transition/LerpClip/mul", "op": "Mul", "input": ["g_synthesis/16x16_2/smooth_transition/LerpClip/sub", "g_synthesis/8x8_2/smooth_transition/LerpClip/clip_by_value"], "attr": {"T": {"type": "DT_FLOAT"}}}, {"name": "g_synthesis/32x32/Conv0_up/NHWC_to_NCHW_1", "op": "Transpose", "input": ["g_synthesis/32x32/Conv0_up/depthwise", "g_synthesis/4x4_1/ToRGB/NHWC_to_NCHW/perm"], "attr": {"Tperm": {"type": "DT_INT32"}, "T": {"type": "DT_FLOAT"}}}, {"name": "g_synthesis/16x16_2/smooth_transition/LerpClip/add", "op": "Add", "input": ["g_synthesis/16x16_1/ToRGB/add", "g_synthesis/16x16_…
Norm/Mean/reduction_indices"], "attr": {"keep_dims": {"b": true}, "Tidx": {"type": "DT_INT32"}, "T": {"type": "DT_FLOAT"}}}, {"name": "g_synthesis/256x256/Conv1/InstanceNorm/add", "op": "Add", "input": ["g_synthesis/256x256/Conv1/InstanceNorm/Mean_1", "g_synthesis/4x4/Const/InstanceNorm/epsilon"], "attr": {"T": {"type": "DT_FLOAT"}}}, {"name": "g_synthesis/256x256/Conv1/InstanceNorm/Rsqrt", "op": "Rsqrt", "input": ["g_synthesis/256x256/Conv1/InstanceNorm/add"], "attr": {"T": {"type": "DT_FLOAT"}}}, {"name": "g_synthesis/256x256/Conv1/InstanceNorm/mul", "op": "Mul", "input": ["g_synthesis/256x256/Conv1/InstanceNorm/Rsqrt", "g_synthesis/256x256/Conv1/InstanceNorm/sub_1"], "attr": {"T": {"type": "DT_FLOAT"}}}, {"name": "g_synthesis/256x256/Conv1/StyleMod/mul_2", "op": "Mul", "input": ["g_synthesis/256x256/Conv1/InstanceNorm/mul", "g_synthesis/256x256/Conv1/StyleMod/add_1"], "attr": {"T": {"type": "DT_FLOAT"}}}, {"name": "g_synthesis/256x256/Conv1/StyleMod/add_2", "op": "Add", "input": ["g_synthesis/256x256/Conv1/StyleMod/mul_2", "g_synthesis/256x256/Conv1/StyleMod/strided_slice_1"], "attr": {"T": {"type": "DT_FLOAT"}}}, {"name": "g_synthesis/256x256_1/ToRGB/NCHW_to_NHWC", "op": "Transpose", "input": ["g_synthesis/256x256/Conv1/StyleMod/add_2", "g_synthesis/4x4_1/ToRGB/NCHW_to_NHWC/perm"], "attr": {"Tperm": {"type": "DT_INT32"}, "T": {"type": "DT_FLOAT"}}}, {"name": "g_synthesis/512x512/Conv0_up/Shape", "op": "Shape", "input": ["g_synthesis/256x256/Conv1/StyleMod/add_2"], "attr": {"T": {"type": "DT_FLOAT"}, "out_type": {"type": "DT_INT32"}}}, {"name": "g_synthesis/256x256_1/ToRGB/Conv2D", "op": "Conv2D", "input": ["g_synthesis/256x256_1/ToRGB/NCHW_to_NHWC", "g_synthesis/256x256_1/ToRGB/mul"], "attr": {"dilations": {"list": {"i": ["1", "1", "1", "1"]}}, "T": {"type": "DT_FLOAT"}, "data_format": {"s": "TkhXQw=="}, "strides": {"list": {"i": ["1", "1", "1", "1"]}}, "use_cudnn_on_gpu": {"b": true}, "explicit_paddings": {"list": {}}, "padding": {"s": "U0FNRQ=="}}}, {"name": "g_synthesis/512x512/Conv0_up/strided_slice_4", "op": "StridedSlice", "input": ["g_synthesis/512x512/Conv0_up/Shape", "g_synthesis/512x512/Conv0_up/strided_slice_4/stack", "g_synthesis/512x512/Conv0_up/strided_slice_4/stack_1", "g_synthesis/512x512/Conv0_up/strided_slice_4/stack_1"], "attr": {"T": {"type": "DT_INT32"}, "Index": {"type": "DT_INT32"}, "shrink_axis_mask": {"i": "1"}, "begin_mask": {"i": "0"}, "ellipsis_mask": {"i": "0"}, "new_axis_mask": {"i": "0"}, "end_mask": {"i": "0"}}}, {"name": "g_synthesis/256x256_1/ToRGB/NHWC_to_NCHW", "op": "Transpose", "input": ["g_synthesis/256x256_1/ToRGB/Conv2D", "g_synthesis/4x4_1/ToRGB/NHWC_to_NCHW/perm"], "attr": {"Tperm": {"type": "DT_INT32"}, "T": {"type": "DT_FLOAT"}}}, {"name": "g_synthesis/512x512/Conv0_up/conv2d_transpose/input_sizes", "op": "Pack", "input": ["g_synthesis/512x512/Conv0_up/strided_slice_4", "g_synthesis/512x512/Conv0_up/conv2d_transpose/input_sizes/1", "g_synthesis/512x512/Conv0_up/conv2d_transpose/input_sizes/1", "g_synthesis/512x512/Conv0_up/conv2d_transpose/input_sizes/3"], "attr": {"T": {"type": "DT_INT32"}, "axis": {"i": "0"}, "N": {"i": "4"}}}, {"name": "g_synthesis/256x256_1/ToRGB/add", "op": "Add", "input": ["g_synthesis/256x256_1/ToRGB/NHWC_to_NCHW", "g_synthesis/256x256_1/ToRGB/Reshape"], "attr": {"T": {"type": "DT_FLOAT"}}}, {"name": "g_synthesis/512x512/Conv0_up/conv2d_transpose", "op": "Conv2DBackpropInput", "input": ["g_synthesis/512x512/Conv0_up/conv2d_transpose/input_sizes", "g_synthesis/512x512/Conv0_up/AddN", "g_synthesis/256x256_1/ToRGB/NCHW_to_NHWC"], "attr": {"dilations": {"list": {"i": ["1", "1", "1", "1"]}}, "T": {"type": "DT_FLOAT"}, "data_format": {"s": "TkhXQw=="}, "strides": {"list": {"i": ["1", "2", "2", "1"]}}, "use_cudnn_on_gpu": {"b": true}, "explicit_paddings": {"list": {}}, "padding": {"s": "U0FNRQ=="}}}, {"name": "g_synthesis/256x256_2/smooth_transition/LerpClip/sub", "op": "Sub", "input": ["g_synthesis/Reshape_11", "g_synthesis/256x256_1/ToRGB/add"], "attr": {"T": {"type": "DT_FLOAT"}}}, {"name": "g_synthesis/512x512/Conv0_up/depthwise", "op": "DepthwiseConv2dNative", "input": ["g_synthesis/512x512/Conv0_up/conv2d_transpose", "g_synthesis/512x512/Conv0_up/filter"], "attr": {"padding": {"s": "U0FNRQ=="}, "dilations": {"list": {"i": ["1", "1", "1", "1"]}}, "T": {"type": "DT_FLOAT"}, "strides": {"list": {"i": ["1", "1", "1", "1"]}}, "data_format": {"s": "TkhXQw=="}}}, {"name": "g_synthesis/256x256_2/smooth_transition/LerpClip/mul", "op": "Mul", "input": ["g_synthesis/256x256_2/smooth_transition/LerpClip/sub", "g_synthesis/8x8_2/smooth_transition/LerpClip/clip_by_value"], "attr": {"T": {"type": "DT_FLOAT"}}}, {"name": "g_synthesis/512x512/Conv0_up/NHWC_to_NCHW_1", "op": "Transpose", "input": ["g_synthesis/512x512/Conv0_up/depthwise", "g_synthesis/4x4_1/ToRGB/NHWC_to_NCHW/perm"], "attr": {"Tperm": {"type": "DT_INT32"}, "T": {"type": "DT_FLOAT"}}}, {"name": "g_synthesis/256x256_2/smooth_transition/LerpClip/add", "op": "Add", "input": ["g_synthesis/256x256_1/ToRGB/add", "g_synthesis/256x256_2/smooth_transition/LerpClip/mul"], "attr": {"T": {"type": "DT_FLOAT"}}}, {"name": "g_synthesis/512x512/Conv0_up/Noise/Shape", "op": "Shape", "input": ["g_synthesis/512x512/Conv0_up/NHWC_to_NCHW_1"], "attr": {"T": {"type": "DT_FLOAT"}, "out_type": {"type": "DT_INT32"}}}, {"name": "g_synthesis/Reshape_12", "op": "Reshape", "input": ["g_synthesis/256x256_2/smooth_transition/LerpClip/add", "g_synthesis/Reshape_12/shape"], "attr": {"T": {"type": "DT_FLOAT"}, "Tshape": {"type": "DT_INT32"}}}, {"name": "g_synthesis/512x512/Conv0_up/Noise/strided_slice", "op": "StridedSlice", "input": ["g_synthesis/512x512/Conv0_up/Noise/Shape", "g_synthesis/512x512/Conv0_up/strided_slice_4/stack", "g_synthesis/512x512/Conv0_up/strided_slice_4/stack_1", "g_synthesis/512x512/Conv0_up/strided_slice_4/stack_1"], "attr": {"T": {"type": "DT_INT32"}, "Index": {"type": "DT_INT32"}, "shrink_axis_mask": {"i": "1"}, "begin_mask": {"i": "0"}, "ellipsis_mask": {"i": "0"}, "new_axis_mask": {"i": "0"}, "end_mask": {"i": "0"}}}, {"name": "g_synthesis/Tile_6", "op": "Tile", "input": ["g_synthesis/Reshape_12", "g_synthesis/Tile/multiples"], "attr": {"Tmultiples": {"type": "DT_INT32"}, "T": {"type": "DT_FLOAT"}}}, {"name": "g_synthesis/512x512/Conv0_up/Noise/random_uniform/shape", "op": "Pack", "input": ["g_synthesis/512x512/Conv0_up/Noise/strided_slice", "g_synthesis/4x4/Const/Tile/multiples/1", "g_synthesis/512x512/Conv0_up/conv2d_transpose/input_sizes/1", "g_synthesis/512x512/Conv0_up/conv2d_transpose/input_sizes/1"], "attr": {"T": {"type": "DT_INT32"}, "axis": {"i": "0"}, "N": {"i": "4"}}}, {"name": "g_synthesis/Reshape_13", "op": "Reshape", "input": ["g_synthesis/Tile_6", "g_synthesis/Reshape_13/shape"], "attr": {"T": {"type": "DT_FLOAT"}, "Tshape": {"type": "DT_INT32"}}}, {"name": "g_synthesis/512x512/Conv0_up/Noise/random_uniform/RandomUniform", "op": "RandomUniform", "input": ["g_synthesis/512x512/Conv0_up/Noise/random_uniform/shape"], "attr": {"seed": {"i": "0"}, "T": {"type": "DT_INT32"}, "dtype": {"type": "DT_FLOAT"}, "seed2": {"i": "0"}}}, {"name": "g_synthesis/512x512/Conv0_up/Noise/mul", "op": "Mul", "input": ["g_synthesis/512x512/Conv0_up/Noise/Reshape", "g_synthesis/512x512/Conv0_up/Noise/random_uniform/RandomUniform"], "attr": {"T": {"type": "DT_FLOAT"}}}, {"name": "g_synthesis/512x512/Conv0_up/Noise/add", "op": "Add", "input": ["g_synthesis/512x512/Conv0_up/Noise/mul", "g_synthesis/512x512/Conv0_up/Reshape"], "attr": {"T": {"type": "DT_FLOAT"}}}, {"name": "g_synthesis/512x512/Conv0_up/add", "op": "Add", "input": ["g_synthesis/512x512/Conv0_up/NHWC_to_NCHW_1", "g_synthesis/512x512/Conv0_up/Noise/add"], "attr": {"T": {"type": "DT_FLOAT"}}}, {"name": "g_synthesis/512x512/Conv0_up/LeakyRelu", "op": "LeakyRelu", "input": ["g_synthesis/512x512/Conv0_up/add"], "attr": {"T": {"type": "DT_FLOAT"}, "alpha": {"f": 0.20000000298023224}}}, {"name": "g_synthesis/512x512/Conv0_up/InstanceNorm/Mean", "op": "Mean", "input": ["g_synthesis/512x512/Conv0_up/LeakyRelu", "g_synthesis/4x4/Const/InstanceNorm/Mean/reduction_indices"], "attr": {"keep_dims": {"b": true}, "Tidx": {"type": "DT_INT32"}, "T": {"type": "DT_FLOAT"}}}, {"name": "g_synthesis/512x512/Conv0_up/InstanceNorm/sub_1", "op": "Sub", "input": ["g_synthesis/512x512/Conv0_up/LeakyRelu", "g_synthesis/512x512/Conv0_up/InstanceNorm/Mean"], "attr": {"T": {"type": "DT_FLOAT"}}}, {"name": "g_synthesis/512x512/Conv0_up/InstanceNorm/Square", "op": "Square", "input": ["g_synthesis/512x512/Conv0_up/InstanceNorm/sub_1"], "attr": {"T": {"type": "DT_FLOAT"}}}, {"name": "g_synthesis/512x512/Conv0_up/InstanceNorm/Mean_1", "op": "Mean", "input": ["g_synthesis/512x512/Conv0_up/InstanceNorm/Square", "g_synthesis/4x4/Const/InstanceNorm/Mean/reduction_indices"], "attr": {"keep_dims": {"b": true}, "Tidx": {"type": "DT_INT32"}, "T": {"type": "DT_FLOAT"}}}, {"name": "g_synthesis/512x512/Conv0_up/InstanceNorm/add", "op": "Add", "input": ["g_synthesis/4x4/Const/InstanceNorm/epsilon", "g_synthesis/512x512/Conv0_up/InstanceNorm/Mean_1"], "attr": {"T": {"type": "DT_FLOAT"}}}, {"name": "g_synthesis/512x512/Conv0_up/InstanceNorm/Rsqrt", "op": "Rsqrt", "input": ["g_synthesis/512x512/Conv0_up/InstanceNorm/add"], "attr": {"T": {"type": "DT_FLOAT"}}}, {"name": "g_synthesis/512x512/Conv0_up/InstanceNorm/mul", "op": "Mul", "input": ["g_synthesis/512x512/Conv0_up/InstanceNorm/Rsqrt", "g_synthesis/512x512/Conv0_up/InstanceNorm/sub_1"], "attr": {"T": {"type": "DT_FLOAT"}}}, {"name": "g_synthesis/512x512/Conv0_up/StyleMod/mul_2", "op": "Mul", "input": ["g_synthesis/512x512/Conv0_up/InstanceNorm/mul", "g_synthesis/512x512/Conv0_up/StyleMod/add_1"], "attr": {"T": {"type": "DT_FLOAT"}}}, {"name": "g_synthesis/512x512/Conv0_up/StyleMod/add_2", "op": "Add", "input": ["g_synthesis/512x512/Conv0_up/StyleMod/mul_2", "g_synthesis/512x512/Conv0_up/StyleMod/strided_slice_1"], "attr": {"T": {"type": "DT_FLOAT"}}}, {"name": "g_synthesis/512x512/Conv1/NCHW_to_NHWC", "op": "Transpose", "input": ["g_synthesis/512x512/Conv0_up/StyleMod/add_2", "g_synthesis/4x4_1/ToRGB/NCHW_to_NHWC/perm"], "attr": {"Tperm": {"type": "DT_INT32"}, "T": {"type": "DT_FLOAT"}}}, {"name": "g_synthesis/512x512/Conv1/Conv2D", "op": "Conv2D", "input": ["g_synthesis/512x512/Conv1/NCHW_to_NHWC", "g_synthesis/512x512/Conv1/mul"], "attr": {"dilations": {"list": {"i": ["1", "1", "1", "1"]}}, "T": {"type": "DT_FLOAT"}, "data_format": {"s": "TkhXQw=="}, "strides": {"list": {"i": ["1", "1", "1", "1"]}}, "use_cudnn_on_gpu": {"b": true}, "explicit_paddings": {"list": {}}, "padding": {"s": "U0FNRQ=="}}}, {"name": "g_synthesis/512x512/Conv1/NHWC_to_NCHW", "op": "Transpose", "input": ["g_synthesis/512x512/Conv1/Conv2D", "g_synthesis/4x4_1/ToRGB/NHWC_to_NCHW/perm"], "attr": {"Tperm": {"type": "DT_INT32"}, "T": {"type": "DT_FLOAT"}}}, {"name": "g_synthesis/512x512/Conv1/Noise/Shape", "op": "Shape", "input": ["g_synthesis/512x512/Conv1/NHWC_to_NCHW"], "attr": {"T": {"type": "DT_FLOAT"}, "out_type": {"type": "DT_INT32"}}}, {"name": "g_synthesis/512x512/Conv1/Noise/strided_slice", "op": "StridedSlice", "input": ["g_synthesis/512x512/Conv1/Noise/Shape", "g_synthesis/512x512/Conv0_up/strided_slice_4/stack", "g_synthesis/512x512/Conv0_up/strided_slice_4/stack_1", "g_synthesis/512x512/Conv0_up/strided_slice_4/stack_1"], "attr": {"T": {"type": "DT_INT32"}, "Index": {"type": "DT_INT32"}, "shrink_axis_mask": {"i": "1"}, "begin_mask": {"i": "0"}, "ellipsis_mask": {"i": "0"}, "new_axis_mask": {"i": "0"}, "end_mask": {"i": "0"}}}, {"name": "g_synthesis/512x512/Conv1/Noise/random_uniform/shape", "op": "Pack", "input": ["g_synthesis/512x512/Conv1/Noise/strided_slice", "g_synthesis/4x4/Const/Tile/multiples/1", "g_synthesis/512x512/Conv0_up/conv2d_transpose/input_sizes/1", "g_synthesis/512x512/Conv0_up/conv2d_transpose/input_sizes/1"], "attr": {"T": {"type": "DT_INT32"}, "axis": {"i": "0"}, "N": {"i": "4"}}}, {"name": "g_synthesis/512x512/Conv1/Noise/random_uniform/RandomUniform", "op": "RandomUniform", "input": ["g_synthesis/512x512/Conv1/Noise/random_uniform/shape"], "attr": {"seed": {"i": "0"}, "T": {"type": "DT_INT32"}, "dtype": {"type": "DT_FLOAT"}, "seed2": {"i": "0"}}}, {"name": "g_synthesis/512x512/Conv1/Noise/mul", "op": "Mul", "input": ["g_synthesis/512x512/Conv1/Noise/Reshape", "g_synthesis/512x512/Conv1/Noise/random_uniform/RandomUniform"], "attr": {"T": {"type": "DT_FLOAT"}}}, {"name": "g_synthesis/512x512/Conv1/Noise/add", "op": "Add", "input": ["g_synthesis/512x512/Conv1/Noise/mul", "g_synthesis/512x512/Conv1/Reshape"], "attr": {"T": {"type": "DT_FLOAT"}}}, {"name": "g_synthesis/512x512/Conv1/add", "op": "Add", "input": ["g_synthesis/512x512/Conv1/NHWC_to_NCHW", "g_synthesis/512x512/Conv1/Noise/add"], "attr": {"T": {"type": "DT_FLOAT"}}}, {"name": "g_synthesis/512x512/Conv1/LeakyRelu", "op": "LeakyRelu", "input": ["g_synthesis/512x512/Conv1/add"], "attr": {"T": {"type": "DT_FLOAT"}, "alpha": {"f": 0.20000000298023224}}}, {"name": "g_synthesis/512x512/Conv1/InstanceNorm/Mean", "op": "Mean", "input": ["g_synthesis/512x512/Conv1/LeakyRelu", "g_synthesis/4x4/Const/InstanceNorm/Mean/reduction_indices"], "attr": {"keep_dims": {"b": true}, "Tidx": {"type": "DT_INT32"}, "T": {"type": "DT_FLOAT"}}}, {"name": "g_synthesis/512x512/Conv1/InstanceNorm/sub_1", "op": "Sub", "input": ["g_synthesis/512x512/Conv1/LeakyRelu", "g_synthesis/512x512/Conv1/InstanceNorm/Mean"], "attr": {"T": {"type": "DT_FLOAT"}}}, {"name": "g_synthesis/512x512/Conv1/InstanceNorm/Square", "op": "Square", "input": ["g_synthesis/512x512/Conv1/InstanceNorm/sub_1"], "attr": {"T": {"type": "DT_FLOAT"}}}, {"name": "g_synthesis/512x512/Conv1/InstanceNorm/Mean_1", "op": "Mean", "input": ["g_synthesis/512x512/Conv1/InstanceNorm/Square", "g_synthesis/4x4/Const/InstanceNorm/Mean/reduction_indices"], "attr": {"keep_dims": {"b": true}, "Tidx": {"type": "DT_INT32"}, "T": {"type": "DT_FLOAT"}}}, {"name": "g_synthesis/512x512/Conv1/InstanceNorm/add", "op": "Add", "input": ["g_synthesis/4x4/Const/InstanceNorm/epsilon", "g_synthesis/512x512/Conv1/InstanceNorm/Mean_1"], "attr": {"T": {"type": "DT_FLOAT"}}}, {"name": "g_synthesis/512x512/Conv1/InstanceNorm/Rsqrt", "op": "Rsqrt", "input": ["g_synthesis/512x512/Conv1/InstanceNorm/add"], "attr": {"T": {"type": "DT_FLOAT"}}}, {"name": "g_synthesis/512x512/Conv1/InstanceNorm/mul", "op": "Mul", "input": ["g_synthesis/512x512/Conv1/InstanceNorm/Rsqrt", "g_synthesis/512x512/Conv1/InstanceNorm/sub_1"], "attr": {"T": {"type": "DT_FLOAT"}}}, {"name": "g_synthesis/512x512/Conv1/StyleMod/mul_2", "op": "Mul", "input": ["g_synthesis/512x512/Conv1/InstanceNorm/mul", "g_synthesis/512x512/Conv1/StyleMod/add_1"], "attr": {"T": {"type": "DT_FLOAT"}}}, {"name": "g_synthesis/512x512/Conv1/StyleMod/add_2", "op": "Add", "input": ["g_synthesis/512x512/Conv1/StyleMod/mul_2", "g_synthesis/512x512/Conv1/StyleMod/strided_slice_1"], "attr": {"T": {"type": "DT_FLOAT"}}}, {"name": "g_synthesis/512x512_1/ToRGB/NCHW_to_NHWC", "op": "Transpose", "input": ["g_synthesis/512x512/Conv1/StyleMod/add_2", "g_synthesis/4x4_1/ToRGB/NCHW_to_NHWC/perm"], "attr": {"Tperm": {"type": "DT_INT32"}, "T": {"type": "DT_FLOAT"}}}, {"name": "g_synthesis/512x512_1/ToRGB/Conv2D", "op": "Conv2D", "input": ["g_synthesis/512x512_1/ToRGB/NCHW_to_NHWC", "g_synthesis/512x512_1/ToRGB/mul"], "attr": {"dilations": {"list": {"i": ["1", "1", "1", "1"]}}, "T": {"type": "DT_FLOAT"}, "data_format": {"s": "TkhXQw=="}, "strides": {"list": {"i": ["1", "1", "1", "1"]}}, "use_cudnn_on_gpu": {"b": true}, "explicit_paddings": {"list": {}}, "padding": {"s": "U0FNRQ=="}}}, {"name": "g_synthesis/512x512_1/ToRGB/NHWC_to_NCHW", "op": "Transpose", "input": ["g_synthesis/512x512_1/ToRGB/Conv2D", "g_synthesis/4x4_1/ToRGB/NHWC_to_NCHW/perm"], "attr": {"Tperm": {"type": "DT_INT32"}, "T": {"type": "DT_FLOAT"}}}, {"name": "g_synthesis/512x512_1/ToRGB/add", "op": "Add", "input": ["g_synthesis/512x512_1/ToRGB/NHWC_to_NCHW", "g_synthesis/512x512_1/ToRGB/Reshape"], "attr": {"T": {"type": "DT_FLOAT"}}}, {"name": "g_synthesis/512x512_2/smooth_transition/LerpClip/sub", "op": "Sub", "input": ["g_synthesis/Reshape_13", "g_synthesis/512x512_1/ToRGB/add"], "attr": {"T": {"type": "DT_FLOAT"}}}, {"name": "g_synthesis/512x512_2/smooth_transition/LerpClip/mul", "op": "Mul", "input": ["g_synthesis/512x512_2/smooth_transition/LerpClip/sub", "g_synthesis/8x8_2/smooth_transition/LerpClip/clip_by_value"], "attr": {"T": {"type": "DT_FLOAT"}}}, {"name": "g_synthesis/512x512_2/smooth_transition/LerpClip/add", "op": "Add", "input": ["g_synthesis/512x512_1/ToRGB/add", "g_synthesis/512x512_2/smooth_transition/LerpClip/mul"], "attr": {"T": {"type": "DT_FLOAT"}}}, {"name": "images_out", "op": "Identity", "input": ["g_synthesis/512x512_2/smooth_transition/LerpClip/add"], "attr": {"T": {"type": "DT_FLOAT"}}}], "library": {}, "versions": {"producer": 38}}, "weightsManifest": [{"paths": ["group1-shard1of13.bin", "group1-shard2of13.bin", "group1-shard3of13.bin", "group1-shard4of13.bin", "group1-shard5of13.bin", "group1-shard6of13.bin", "group1-shard7of13.bin", "group1-shard8of13.bin", "group1-shard9of13.bin", "group1-shard10of13.bin", "group1-shard11of13.bin", "group1-shard12of13.bin", "group1-shard13of13.bin"], "weights": [{"name": "g_synthesis/8x8_2/smooth_transition/LerpClip/clip_by_value", "shape": [], "dtype": "float32", "quantization": {"min": 0.0, "scale": 1.0, "dtype": "uint16"}}, {"name": "g_synthesis/512x512_1/ToRGB/Reshape", "shape": [1, 3, 1, 1], "dtype": "float32", "quantization": {"min": -0.269148483415215, "scale": 4.423946537832887e-06, "dtype": "uint16"}}, {"name": "g_synthesis/4x4_1/ToRGB/NHWC_to_NCHW/perm", "shape": [4], "dtype": "int32", "quantization": {"min": -0.0, "scale": 4.5777065690089265e-05, "dtype": "uint16"}}, {"name": "g_synthesis/512x512_1/ToRGB/mul", "shape": [1, 1, 32, 3], "dtype": "float32", "quantization": {"min": -0.09422692256014925, "scale": 2.8438136826265846e-06, "dtype": "uint16"}}, {"name": "g_synthesis/4x4_1/ToRGB/NCHW_to_NHWC/perm", "shape": [4], "dtype": "int32", "quantization": {"min": -0.0, "scale": 4.5777065690089265e-05, "dtype": "uint16"}}, {"name": "g_synthesis/4x4/Const/StyleMod/strided_slice/stack_2", "shape": [2], "dtype": "int32", "quantization": {"min": 1.0, "scale": 1.0, "dtype": "uint16"}}, {"name": "g_synthesis/4x4/Const/StyleMod/strided_slice_1/stack_1", "shape": [2], "dtype": "int32", "quantization": {"min": -0.0, "scale": 3.0518043793392844e-05, "dtype": "uint16"}}, {"name": "g_synthesis/4x4/Const/StyleMod/strided_slice/stack_1", "shape": [2], "dtype": "int32", "quantization": {"min": -0.0, "scale": 1.5259021896696422e-05, "dtype": "uint16"}}, {"name": "g_synthesis/512x512/Conv0_up/StyleMod/Reshape/shape", "shape": [5], "dtype": "int32", "quantization": {"min": -1.00004577706569, "scale": 0.000503547722590982, "dtype": "uint16"}}, {"name": "g_synthesis/512x512/Conv1/StyleMod/mul_1", "shape": [64], "dtype": "float32", "quantization": {"min": -1.8280038719420268, "scale": 0.00011819500012556749, "dtype": "uint16"}}, {"name": "g_synthesis/512x512/Conv1/StyleMod/mul", "shape": [512, 64], "dtype": "float32", "quantization": {"min": -1.7160081904149305, "scale": 4.34168654593394e-05, "dtype": "uint16"}}, {"name": "g_synthesis/4x4/Const/StyleMod/flatten/Reshape/shape/1", "shape": [], "dtype": "int32", "quantization": {"min": -1.0, "scale": 1.0, "dtype": "uint16"}}, {"name": "g_synthesis/512x512/Conv0_up/strided_slice_4/stack_1", "shape": [1], "dtype": "int32", "quantization": {"min": 1.0, "scale": 1.0, "dtype": "uint16"}}, {"name": "g_synthesis/512x512/Conv0_up/strided_slice_4/stack", "shape": [1], "dtype": "int32", "quantization": {"min": 0.0, "scale": 1.0, "dtype": "uint16"}}, {"name": "g_synthesis/strided_slice_16/stack_1", "shape": [2], "dtype": "int32", "quantization": {"min": -0.0, "scale": 0.00024414435034714275, "dtype": "uint16"}}, {"name": "g_synthesis/strided_slice_15/stack_1", "shape": [2], "dtype": "int32", "quantization": {"min": -0.0, "scale": 0.00022888532845044633, "dtype": "uint16"}}, {"name": "w_avg", "shape": [512], "dtype": "float32", "quantization": {"min": -0.2430552139351895, "scale": 1.2151545542205255e-05, "dtype": "uint16"}}, {"name": "Truncation/Select", "shape": [1, 16, 1], "dtype": "float32", "quantization": {"min": 0.699999988079071, "scale": 4.577706750910642e-06, "dtype": "uint16"}}, {"name": "g_mapping/Broadcast/Tile/multiples", "shape": [3], "dtype": "int32", "quantization": {"min": 1.0, "scale": 0.00022888532845044633, "dtype": "uint16"}}, {"name": "g_synthesis/4x4/Const/Tile/multiples/1", "shape": [], "dtype": "int32", "quantization": {"min": 1.0, "scale": 1.0, "dtype": "uint16"}}, {"name": "g_mapping/Dense7/mul_1", "shape": [512], "dtype": "float32", "quantization": {"min": -0.23908152475667743, "scale": 6.639677981467381e-06, "dtype": "uint16"}}, {"name": "g_mapping/Dense7/mul", "shape": [512, 512], "dtype": "float32", "quantization": {"min": -0.298961299270371, "scale": 8.796342697807132e-06, "dtype": "uint16"}}, {"name": "g_mapping/Dense6/mul_1", "shape": [512], "dtype": "float32", "quantization": {"min": -0.23063405526487454, "scale": 5.2921995242054736e-06, "dtype": "uint16"}}, {"name": "g_mapping/Dense6/mul", "shape": [512, 512], "dtype": "float32", "quantization": {"min": -0.2733224165028508, "scale": 8.895187180748227e-06, "dtype": "uint16"}}, {"name": "g_mapping/Dense5/mul_1", "shape": [512], "dtype": "float32", "quantization": {"min": -0.21838115643398107, "scale": 5.610017633878313e-06, "dtype": "uint16"}}, {"name": "g_mapping/Dense5/mul", "shape": [512, 512], "dtype": "float32", "quantization": {"min": -0.28273411543279975, "scale": 8.70111760425924e-06, "dtype": "uint16"}}, {"name": "g_mapping/Dense4/mul_1", "shape": [512], "dtype": "float32", "quantization": {"min": -0.205500941931351, "scale": 5.262642882822889e-06, "dtype": "uint16"}}, {"name": "g_mapping/Dense4/mul", "shape": [512, 512], "dtype": "float32", "quantization": {"min": -0.27959742394375514, "scale": 8.551949102090754e-06, "dtype": "uint16"}}, {"name": "g_mapping/Dense3/mul_1", "shape": [512], "dtype": "float32", "quantization": {"min": -0.1571758770648007, "scale": 4.908831539548415e-06, "dtype": "uint16"}}, {"name": "g_mapping/Dense3/mul", "shape": [512, 512], "dtype": "float32", "quantization": {"min": -0.27036075101724943, "scale": 8.254281950822782e-06, "dtype": "uint16"}}, {"name": "g_mapping/Dense2/mul_1", "shape": [512], "dtype": "float32", "quantization": {"min": -0.20473792332142055, "scale": 6.127126240353749e-06, "dtype": "uint16"}}, {"name": "g_mapping/Dense2/mul", "shape": [512, 512], "dtype": "float32", "quantization": {"min": -0.27630751097767103, "scale": 8.61656877717501e-06, "dtype": "uint16"}}, {"name": "g_mapping/Dense1/mul_1", "shape": [512], "dtype": "float32", "quantization": {"min": -0.19671264278190198, "scale": 6.581439418578808e-06, "dtype": "uint16"}}, {"name": "g_mapping/Dense1/mul", "shape": [512, 512], "dtype": "float32", "quantization": {"min": -0.3112053620062204, "scale": 9.216257352036616e-06, "dtype": "uint16"}}, {"name": "g_mapping/Dense0/mul_1", "shape": [512], "dtype": "float32", "quantization": {"min": -0.17683760796921508, "scale": 4.8381058786138565e-06, "dtype": "uint16"}}, {"name": "g_mapping/Dense0/mul", "shape": [512, 512], "dtype": "float32", "quantization": {"min": -0.301946578540054, "scale": 8.90645326352587e-06, "dtype": "uint16"}}, {"name": "g_synthesis/4x4/Const/InstanceNorm/epsilon", "shape": [], "dtype": "float32", "quantization": {"min": 9.99999993922529e-09, "scale": 1.0, "dtype": "uint16"}}, {"name": "g_synthesis/4x4/Const/StyleMod/strided_slice/stack", "shape": [2], "dtype": "int32", "quantization": {"min": 0.0, "scale": 1.0, "dtype": "uint16"}}, {"name": "g_synthesis/4x4/Const/Noise/random_uniform/sub", "shape": [], "dtype": "float32", "quantization": {"min": 1.0, "scale": 1.0, "dtype": "uint16"}}, {"name": "g_synthesis/4x4/Const/InstanceNorm/Mean/reduction_indices", "shape": [2], "dtype": "int32", "quantization": {"min": 2.0, "scale": 1.5259021896696422e-05, "dtype": "uint16"}}, {"name": "g_synthesis/512x512/Conv1/Reshape", "shape": [1, 32, 1, 1], "dtype": "float32", "quantization": {"min": -27.03716673350056, "scale": 0.0007577893644300725, "dtype": "uint16"}}, {"name": "g_synthesis/512x512/Conv0_up/conv2d_transpose/input_sizes/1", "shape": [], "dtype": "int32", "quantization": {"min": 512.0, "scale": 1.0, "dtype": "uint16"}}, {"name": "g_synthesis/512x512/Conv1/mul", "shape": [3, 3, 32, 32], "dtype": "float32", "quantization": {"min": -2.7660064968972216, "scale": 7.099788230953622e-05, "dtype": "uint16"}}, {"name": "g_synthesis/512x512/Conv0_up/StyleMod/mul_1", "shape": [64], "dtype": "float32", "quantization": {"min": -7.771811911166101, "scale": 0.0004159830814733234, "dtype": "uint16"}}, {"name": "g_synthesis/512x512/Conv0_up/StyleMod/mul", "shape": [512, 64], "dtype": "float32", "quantization": {"min": -0.9451155152848012, "scale": 3.868350995762939e-05, "dtype": "uint16"}}, {"name": "g_synthesis/strided_slice_14/stack_1", "shape": [2], "dtype": "int32", "quantization": {"min": -0.0, "scale": 0.0002136263065537499, "dtype": "uint16"}}, {"name": "g_synthesis/512x512/Conv0_up/Reshape", "shape": [1, 32, 1, 1], "dtype": "float32", "quantization": {"min": -35.70973820734726, "scale": 0.0010110058664065927, "dtype": "uint16"}}, {"name": "g_synthesis/512x512/Conv0_up/filter", "shape": [3, 3, 32, 1], "dtype": "float32", "quantization": {"min": 0.0625, "scale": 2.861066605630579e-06, "dtype": "uint16"}}, {"name": "g_synthesis/256x256/Conv0_up/StyleMod/Reshape/shape", "shape": [5], "dtype": "int32", "quantization": {"min": -0.9997711146715496, "scale": 0.0009918364232852674, "dtype": "uint16"}}, {"name": "g_synthesis/256x256/Conv1/StyleMod/mul_1", "shape": [128], "dtype": "float32", "quantization": {"min": -11.949232999147227, "scale": 0.0006486040818079155, "dtype": "uint16"}}, {"name": "g_synthesis/256x256/Conv1/StyleMod/mul", "shape": [512, 128], "dtype": "float32", "quantization": {"min": -1.727713591208254, "scale": 5.6273649638728874e-05, "dtype": "uint16"}}, {"name": "g_synthesis/strided_slice_13/stack_1", "shape": [2], "dtype": "int32", "quantization": {"min": -0.0, "scale": 0.00019836728465705348, "dtype": "uint16"}}, {"name": "g_synthesis/256x256/Conv1/Reshape", "shape": [1, 64, 1, 1], "dtype": "float32", "quantization": {"min": -272.8056089696217, "scale": 0.004735057606998675, "dtype": "uint16"}}, {"name": "g_synthesis/256x256/Conv0_up/conv2d_transpose/input_sizes/1", "shape": [], "dtype": "int32", "quantization": {"min": 256.0, "scale": 1.0, "dtype": "uint16"}}, {"name": "g_synthesis/256x256/Conv1/mul", "shape": [3, 3, 64, 64], "dtype": "float32", "quantization": {"min": -2.911227483379038, "scale": 9.583972489396358e-05, "dtype": "uint16"}}, {"name": "g_synthesis/256x256/Conv0_up/StyleMod/mul_1", "shape": [128], "dtype": "float32", "quantization": {"min": -4.775140566930278, "scale": 0.0005661103221019892, "dtype": "uint16"}}, {"name": "g_synthesis/256x256/Conv0_up/StyleMod/mul", "shape": [512, 128], "dtype": "float32", "quantization": {"min": -1.5035476447188574, "scale": 6.19891834557352e-05, "dtype": "uint16"}}, {"name": "g_synthesis/strided_slice_12/stack_1", "shape": [2], "dtype": "int32", "quantization": {"min": -0.0, "scale": 0.00018310826276035706, "dtype": "uint16"}}, {"name": "g_synthesis/256x256/Conv0_up/Reshape", "shape": [1, 64, 1, 1], "dtype": "float32", "quantization": {"min": -101.25488845587704, "scale": 0.0020673967057165004, "dtype": "uint16"}}, {"name": "g_synthesis/256x256/Conv0_up/filter", "shape": [3, 3, 64, 1], "dtype": "float32", "quantization": {"min": 0.0625, "scale": 2.861066605630579e-06, "dtype": "uint16"}}, {"name": "g_synthesis/128x128/Conv0_up/StyleMod/Reshape/shape", "shape": [5], "dtype": "int32", "quantization": {"min": -0.9999542229343099, "scale": 0.0019684138246738384, "dtype": "uint16"}}, {"name": "g_synthesis/128x128/Conv1/StyleMod/mul_1", "shape": [256], "dtype": "float32", "quantization": {"min": -30.31521000887224, "scale": 0.0008121958475250432, "dtype": "uint16"}}, {"name": "g_synthesis/128x128/Conv1/StyleMod/mul", "shape": [512, 256], "dtype": "float32", "quantization": {"min": -1.5901051084355158, "scale": 5.763129674297835e-05, "dtype": "uint16"}}, {"name": "g_synthesis/strided_slice_11/stack_1", "shape": [2], "dtype": "int32", "quantization": {"min": -0.0, "scale": 0.00016784924086366064, "dtype": "uint16"}}, {"name": "g_synthesis/128x128/Conv1/Reshape", "shape": [1, 128, 1, 1], "dtype": "float32", "quantization": {"min": -75.57562671328715, "scale": 0.0018014785162396823, "dtype": "uint16"}}, {"name": "g_synthesis/128x128/Conv0_up/conv2d_transpose/input_sizes/1", "shape": [], "dtype": "int32", "quantization": {"min": 128.0, "scale": 1.0, "dtype": "uint16"}}, {"name": "g_synthesis/128x128/Conv1/mul", "shape": [3, 3, 128, 128], "dtype": "float32", "quantization": {"min": -1.7819467509703293, "scale": 6.606164272893636e-05, "dtype": "uint16"}}, {"name": "g_synthesis/128x128/Conv0_up/StyleMod/mul_1", "shape": [256], "dtype": "float32", "quantization": {"min": -6.251678569156609, "scale": 0.0005752372625282121, "dtype": "uint16"}}, {"name": "g_synthesis/128x128/Conv0_up/StyleMod/mul", "shape": [512, 256], "dtype": "float32", "quantization": {"min": -1.436490685521233, "scale": 4.86500723243551e-05, "dtype": "uint16"}}, {"name": "g_synthesis/strided_slice_10/stack_1", "shape": [2], "dtype": "int32", "quantization": {"min": -0.0, "scale": 0.00015259021896696422, "dtype": "uint16"}}, {"name": "g_synthesis/128x128/Conv0_up/Reshape", "shape": [1, 128, 1, 1], "dtype": "float32", "quantization": {"min": -43.4514664771983, "scale": 0.0014623230287809888, "dtype": "uint16"}}, {"name": "g_synthesis/128x128/Conv0_up/filter", "shape": [3, 3, 128, 1], "dtype": "float32", "quantization": {"min": 0.0625, "scale": 2.861066605630579e-06, "dtype": "uint16"}}, {"name": "g_synthesis/64x64/Conv0_up/StyleMod/Reshape/shape", "shape": [5], "dtype": "int32", "quantization": {"min": -1.0, "scale": 0.00392156862745098, "dtype": "uint16"}}, {"name": "g_synthesis/64x64/Conv1/StyleMod/mul_1", "shape": [512], "dtype": "float32", "quantization": {"min": -6.046227491999724, "scale": 0.00043058164734366357, "dtype": "uint16"}}, {"name": "g_synthesis/64x64/Conv1/StyleMod/mul", "shape": [512, 512], "dtype": "float32", "quantization": {"min": -1.5926544286152078, "scale": 5.8719700203340626e-05, "dtype": "uint16"}}, {"name": "g_synthesis/strided_slice_9/stack_1", "shape": [2], "dtype": "int32", "quantization": {"min": -0.0, "scale": 0.0001373311970702678, "dtype": "uint16"}}, {"name": "g_synthesis/64x64/Conv1/Reshape", "shape": [1, 256, 1, 1], "dtype": "float32", "quantization": {"min": -92.14317382931246, "scale": 0.001991251541455514, "dtype": "uint16"}}, {"name": "g_synthesis/256x256/Conv0_up/conv2d_transpose/input_sizes/3", "shape": [], "dtype": "int32", "quantization": {"min": 64.0, "scale": 1.0, "dtype": "uint16"}}, {"name": "g_synthesis/64x64/Conv1/mul", "shape": [3, 3, 256, 256], "dtype": "float32", "quantization": {"min": -1.7716914536888033, "scale": 4.520082288215132e-05, "dtype": "uint16"}}, {"name": "g_synthesis/64x64/Conv0_up/StyleMod/mul_1", "shape": [512], "dtype": "float32", "quantization": {"min": -8.249266807283735, "scale": 0.0006061625988157643, "dtype": "uint16"}}, {"name": "g_synthesis/64x64/Conv0_up/StyleMod/mul", "shape": [512, 512], "dtype": "float32", "quantization": {"min": -1.8253179860004092, "scale": 5.9578874759291354e-05, "dtype": "uint16"}}, {"name": "g_synthesis/strided_slice_8/stack_1", "shape": [2], "dtype": "int32", "quantization": {"min": -0.0, "scale": 0.00012207217517357137, "dtype": "uint16"}}, {"name": "g_synthesis/64x64/Conv0_up/Reshape_2", "shape": [1, 256, 1, 1], "dtype": "float32", "quantization": {"min": -43.17133436016008, "scale": 0.0008919697181851256, "dtype": "uint16"}}, {"name": "g_synthesis/64x64/Conv0_up/filter", "shape": [3, 3, 256, 1], "dtype": "float32", "quantization": {"min": 0.0625, "scale": 2.861066605630579e-06, "dtype": "uint16"}}, {"name": "g_synthesis/64x64/Conv0_up/mul", "shape": [3, 3, 512, 256], "dtype": "float32", "quantization": {"min": -0.862392010692056, "scale": 2.4824179927808175e-05, "dtype": "uint16"}}, {"name": "g_synthesis/64x64/Conv0_up/Reshape_1/shape", "shape": [4], "dtype": "int32", "quantization": {"min": -1.0019684138246738, "scale": 0.007827878233005264, "dtype": "uint16"}}, {"name": "g_synthesis/Tile/multiples", "shape": [6], "dtype": "int32", "quantization": {"min": 1.0, "scale": 1.5259021896696422e-05, "dtype": "uint16"}}, {"name": "g_synthesis/64x64/Conv0_up/Reshape/shape", "shape": [6], "dtype": "int32", "quantization": {"min": -1.0019684138246738, "scale": 0.007827878233005264, "dtype": "uint16"}}, {"name": "g_synthesis/4x4/Const/StyleMod/Reshape/shape", "shape": [5], "dtype": "int32", "quantization": {"min": -1.0019684138246738, "scale": 0.007827878233005264, "dtype": "uint16"}}, {"name": "g_synthesis/32x32/Conv1/StyleMod/mul_1", "shape": [1024], "dtype": "float32", "quantization": {"min": -6.8504841544748745, "scale": 0.0005146483475677916, "dtype": "uint16"}}, {"name": "g_synthesis/32x32/Conv1/StyleMod/mul", "shape": [512, 1024], "dtype": "float32", "quantization": {"min": -2.1712983268744486, "scale": 6.865331289323833e-05, "dtype": "uint16"}}, {"name": "g_synthesis/strided_slice_7/stack_1", "shape": [2], "dtype": "int32", "quantization": {"min": -0.0, "scale": 0.00010681315327687495, "dtype": "uint16"}}, {"name": "g_synthesis/32x32/Conv1/Reshape", "shape": [1, 512, 1, 1], "dtype": "float32", "quantization": {"min": -33.39272989410007, "scale": 0.0008143972366436619, "dtype": "uint16"}}, {"name": "g_synthesis/512x512/Conv0_up/conv2d_transpose/input_sizes/3", "shape": [], "dtype": "int32", "quantization": {"min": 32.0, "scale": 1.0, "dtype": "uint16"}}, {"name": "g_synthesis/32x32/Conv1/mul", "shape": [3, 3, 512, 512], "dtype": "float32", "quantization": {"min": -0.9033901874393514, "scale": 2.93004082589307e-05, "dtype": "uint16"}}, {"name": "g_synthesis/32x32/Conv0_up/StyleMod/mul_1", "shape": [1024], "dtype": "float32", "quantization": {"min": -7.275027798089262, "scale": 0.0005266035322540183, "dtype": "uint16"}}, {"name": "g_synthesis/32x32/Conv0_up/StyleMod/mul", "shape": [512, 1024], "dtype": "float32", "quantization": {"min": -2.1093270098307206, "scale": 7.924438386921334e-05, "dtype": "uint16"}}, {"name": "g_synthesis/strided_slice_6/stack_1", "shape": [2], "dtype": "int32", "quantization": {"min": -0.0, "scale": 9.155413138017853e-05, "dtype": "uint16"}}, {"name": "g_synthesis/32x32/Conv0_up/Reshape_2", "shape": [1, 512, 1, 1], "dtype": "float32", "quantization": {"min": -20.676767900885583, "scale": 0.0005490087595158404, "dtype": "uint16"}}, {"name": "g_synthesis/8x8/Conv0_up/filter", "shape": [3, 3, 512, 1], "dtype": "float32", "quantization": {"min": 0.0625, "scale": 2.861066605630579e-06, "dtype": "uint16"}}, {"name": "g_synthesis/32x32/Conv0_up/mul", "shape": [3, 3, 512, 512], "dtype": "float32", "quantization": {"min": -0.8662564943663869, "scale": 2.9295113099979265e-05, "dtype": "uint16"}}, {"name": "g_synthesis/32x32/Conv0_up/Reshape_1/shape", "shape": [4], "dtype": "int32", "quantization": {"min": -1.0019684138246738, "scale": 0.007827878233005264, "dtype": "uint16"}}, {"name": "g_synthesis/32x32/Conv0_up/Reshape/shape", "shape": [6], "dtype": "int32", "quantization": {"min": -1.0019684138246738, "scale": 0.007827878233005264, "dtype": "uint16"}}, {"name": "g_synthesis/16x16/Conv1/StyleMod/mul_1", "shape": [1024], "dtype": "float32", "quantization": {"min": -27.949225559759952, "scale": 0.0007492889080657342, "dtype": "uint16"}}, {"name": "g_synthesis/16x16/Conv1/StyleMod/mul", "shape": [512, 1024], "dtype": "float32", "quantization": {"min": -2.392323852944194, "scale": 6.86089034083052e-05, "dtype": "uint16"}}, {"name": "g_synthesis/strided_slice_5/stack_1", "shape": [2], "dtype": "int32", "quantization": {"min": -0.0, "scale": 7.629510948348211e-05, "dtype": "uint16"}}, {"name": "g_synthesis/16x16/Conv1/Reshape", "shape": [1, 512, 1, 1], "dtype": "float32", "quantization": {"min": -17.725408412281123, "scale": 0.0005501880501685794, "dtype": "uint16"}}, {"name": "g_synthesis/16x16/Conv0_up/Noise/random_uniform/shape/2", "shape": [], "dtype": "int32", "quantization": {"min": 16.0, "scale": 1.0, "dtype": "uint16"}}, {"name": "g_synthesis/16x16/Conv1/mul", "shape": [3, 3, 512, 512], "dtype": "float32", "quantization": {"min": -0.7066284603800446, "scale": 2.2216130423493086e-05, "dtype": "uint16"}}, {"name": "g_synthesis/16x16/Conv0_up/StyleMod/mul_1", "shape": [1024], "dtype": "float32", "quantization": {"min": -4.80181022616976, "scale": 0.00029797146920072977, "dtype": "uint16"}}, {"name": "g_synthesis/16x16/Conv0_up/StyleMod/mul", "shape": [512, 1024], "dtype": "float32", "quantization": {"min": -1.4904020430703926, "scale": 4.908289290533155e-05, "dtype": "uint16"}}, {"name": "g_synthesis/strided_slice_4/stack_1", "shape": [2], "dtype": "int32", "quantization": {"min": -0.0, "scale": 6.103608758678569e-05, "dtype": "uint16"}}, {"name": "g_synthesis/16x16/Conv0_up/Reshape_2", "shape": [1, 512, 1, 1], "dtype": "float32", "quantization": {"min": -15.78369357981543, "scale": 0.0005628189124167533, "dtype": "uint16"}}, {"name": "g_synthesis/16x16/Conv0_up/mul", "shape": [3, 3, 512, 512], "dtype": "float32", "quantization": {"min": -0.7405865797418437, "scale": 2.042434031279216e-05, "dtype": "uint16"}}, {"name": "g_synthesis/16x16/Conv0_up/Reshape_1/shape", "shape": [4], "dtype": "int32", "quantization": {"min": -1.0019684138246738, "scale": 0.007827878233005264, "dtype": "uint16"}}, {"name": "g_synthesis/16x16/Conv0_up/Reshape/shape", "shape": [6], "dtype": "int32", "quantization": {"min": -1.0019684138246738, "scale": 0.007827878233005264, "dtype": "uint16"}}, {"name": "g_synthesis/8x8/Conv1/StyleMod/mul_1", "shape": [1024], "dtype": "float32", "quantization": {"min": -5.2854316471897596, "scale": 0.00029703448618577946, "dtype": "uint16"}}, {"name": "g_synthesis/8x8/Conv1/StyleMod/mul", "shape": [512, 1024], "dtype": "float32", "quantization": {"min": -1.1898909507376603, "scale": 3.9067897387715804e-05, "dtype": "uint16"}}, {"name": "g_synthesis/strided_slice_3/stack_1", "shape": [2], "dtype": "int32", "quantization": {"min": -0.0, "scale": 4.5777065690089265e-05, "dtype": "uint16"}}, {"name": "g_synthesis/8x8/Conv1/Reshape", "shape": [1, 512, 1, 1], "dtype": "float32", "quantization": {"min": -19.27369713035648, "scale": 0.0007052470683287527, "dtype": "uint16"}}, {"name": "g_synthesis/8x8/Conv0_up/Noise/random_uniform/shape/2", "shape": [], "dtype": "int32", "quantization": {"min": 8.0, "scale": 1.0, "dtype": "uint16"}}, {"name": "g_synthesis/8x8/Conv1/mul", "shape": [3, 3, 512, 512], "dtype": "float32", "quantization": {"min": -0.4959452404504402, "scale": 1.7410750937350894e-05, "dtype": "uint16"}}, {"name": "g_synthesis/8x8/Conv0_up/StyleMod/mul_1", "shape": [1024], "dtype": "float32", "quantization": {"min": -4.1128379264139445, "scale": 0.00021134830043237124, "dtype": "uint16"}}, {"name": "g_synthesis/8x8/Conv0_up/StyleMod/mul", "shape": [512, 1024], "dtype": "float32", "quantization": {"min": -1.1179158580287731, "scale": 3.658939737599493e-05, "dtype": "uint16"}}, {"name": "g_synthesis/8x8/Conv0_up/Reshape_2", "shape": [1, 512, 1, 1], "dtype": "float32", "quantization": {"min": -15.639893500497669, "scale": 0.0003980224334630648, "dtype": "uint16"}}, {"name": "g_synthesis/8x8/Conv0_up/mul", "shape": [3, 3, 512, 512], "dtype": "float32", "quantization": {"min": -0.4909641326014943, "scale": 1.5138729382427131e-05, "dtype": "uint16"}}, {"name": "g_synthesis/8x8/Conv0_up/Reshape_1/shape", "shape": [4], "dtype": "int32", "quantization": {"min": -1.0019684138246738, "scale": 0.007827878233005264, "dtype": "uint16"}}, {"name": "g_synthesis/8x8/Conv0_up/Reshape/shape", "shape": [6], "dtype": "int32", "quantization": {"min": -1.0019684138246738, "scale": 0.007827878233005264, "dtype": "uint16"}}, {"name": "g_synthesis/4x4/Conv/StyleMod/mul_1", "shape": [1024], "dtype": "float32", "quantization": {"min": -5.97911659679324, "scale": 0.00022878689051784038, "dtype": "uint16"}}, {"name": "g_synthesis/4x4/Conv/StyleMod/mul", "shape": [512, 1024], "dtype": "float32", "quantization": {"min": -1.1543279431473248, "scale": 3.3573612446842093e-05, "dtype": "uint16"}}, {"name": "g_synthesis/4x4/Conv/Reshape", "shape": [1, 512, 1, 1], "dtype": "float32", "quantization": {"min": -13.350085459579873, "scale": 0.0003519849572764151, "dtype": "uint16"}}, {"name": "g_synthesis/4x4/Const/Noise/random_uniform/shape/2", "shape": [], "dtype": "int32", "quantization": {"min": 4.0, "scale": 1.0, "dtype": "uint16"}}, {"name": "g_synthesis/4x4/Conv/mul", "shape": [3, 3, 512, 512], "dtype": "float32", "quantization": {"min": -0.43365340028755395, "scale": 1.4266791692576456e-05, "dtype": "uint16"}}, {"name": "g_synthesis/4x4/Const/StyleMod/mul_1", "shape": [1024], "dtype": "float32", "quantization": {"min": -3.7574646050664264, "scale": 0.00015225968899693762, "dtype": "uint16"}}, {"name": "g_synthesis/4x4/Const/StyleMod/mul", "shape": [512, 1024], "dtype": "float32", "quantization": {"min": -1.0751789875340478, "scale": 3.227215114461664e-05, "dtype": "uint16"}}, {"name": "g_synthesis/4x4/Const/const", "shape": [1, 512, 4, 4], "dtype": "float32", "quantization": {"min": -17.19084936147643, "scale": 0.0005612788742809335, "dtype": "uint16"}}, {"name": "g_synthesis/4x4/Const/Reshape", "shape": [1, 512, 1, 1], "dtype": "float32", "quantization": {"min": -8.43480024092565, "scale": 0.00033302275114204243, "dtype": "uint16"}}, {"name": "g_synthesis/4x4/Const/Noise/Reshape", "shape": [1, 512, 1, 1], "dtype": "float32", "quantization": {"min": -4.961588809134949, "scale": 0.0001452966150033662, "dtype": "uint16"}}, {"name": "g_synthesis/4x4/Conv/Noise/Reshape", "shape": [1, 512, 1, 1], "dtype": "float32", "quantization": {"min": -9.882625432275312, "scale": 0.00028882208937882665, "dtype": "uint16"}}, {"name": "g_synthesis/8x8/Conv0_up/Noise/Reshape", "shape": [1, 512, 1, 1], "dtype": "float32", "quantization": {"min": -5.026268439723287, "scale": 0.00019782227801177924, "dtype": "uint16"}}, {"name": "g_synthesis/8x8/Conv1/Noise/Reshape", "shape": [1, 512, 1, 1], "dtype": "float32", "quantization": {"min": -5.856755439282155, "scale": 0.00018242502536309468, "dtype": "uint16"}}, {"name": "g_synthesis/16x16/Conv0_up/Noise/Reshape", "shape": [1, 512, 1, 1], "dtype": "float32", "quantization": {"min": -42.4333561007924, "scale": 0.0010582939969271848, "dtype": "uint16"}}, {"name": "g_synthesis/16x16/Conv1/Noise/Reshape", "shape": [1, 512, 1, 1], "dtype": "float32", "quantization": {"min": -5.157086925465846, "scale": 0.00014431473136884975, "dtype": "uint16"}}, {"name": "g_synthesis/32x32/Conv0_up/Noise/Reshape", "shape": [1, 512, 1, 1], "dtype": "float32", "quantization": {"min": -26.765187119466265, "scale": 0.0010089790447267413, "dtype": "uint16"}}, {"name": "g_synthesis/32x32/Conv1/Noise/Reshape", "shape": [1, 512, 1, 1], "dtype": "float32", "quantization": {"min": -3.1725075442994535, "scale": 0.00010879655501712803, "dtype": "uint16"}}, {"name": "g_synthesis/64x64/Conv0_up/Noise/Reshape", "shape": [1, 256, 1, 1], "dtype": "float32", "quantization": {"min": -2.7058052639252916, "scale": 9.555746800131699e-05, "dtype": "uint16"}}, {"name": "g_synthesis/64x64/Conv1/Noise/Reshape", "shape": [1, 256, 1, 1], "dtype": "float32", "quantization": {"min": -2.7313821469108523, "scale": 8.176322058644712e-05, "dtype": "uint16"}}, {"name": "g_synthesis/128x128/Conv0_up/AddN", "shape": [4, 4, 128, 256], "dtype": "float32", "quantization": {"min": -4.145732619883022, "scale": 0.00015361392544401296, "dtype": "uint16"}}, {"name": "g_synthesis/128x128/Conv0_up/Noise/Reshape", "shape": [1, 128, 1, 1], "dtype": "float32", "quantization": {"min": -37.779981635715, "scale": 0.0013802923399114024, "dtype": "uint16"}}, {"name": "g_synthesis/128x128/Conv1/Noise/Reshape", "shape": [1, 128, 1, 1], "dtype": "float32", "quantization": {"min": -1.4782736234955234, "scale": 6.104532637493902e-05, "dtype": "uint16"}}, {"name": "g_synthesis/256x256/Conv0_up/AddN", "shape": [4, 4, 64, 128], "dtype": "float32", "quantization": {"min": -5.049182514130428, "scale": 0.00016518410423431898, "dtype": "uint16"}}, {"name": "g_synthesis/256x256/Conv0_up/Noise/Reshape", "shape": [1, 64, 1, 1], "dtype": "float32", "quantization": {"min": -2.7273417259723303, "scale": 7.227426664120019e-05, "dtype": "uint16"}}, {"name": "g_synthesis/256x256/Conv1/Noise/Reshape", "shape": [1, 64, 1, 1], "dtype": "float32", "quantization": {"min": -3.147055756713775, "scale": 0.00013563141648553098, "dtype": "uint16"}}, {"name": "g_synthesis/512x512/Conv0_up/AddN", "shape": [4, 4, 32, 64], "dtype": "float32", "quantization": {"min": -7.06762058540077, "scale": 0.0002211395677534659, "dtype": "uint16"}}, {"name": "g_synthesis/512x512/Conv0_up/Noise/Reshape", "shape": [1, 32, 1, 1], "dtype": "float32", "quantization": {"min": -26.03115879605125, "scale": 0.0006692846916247044, "dtype": "uint16"}}, {"name": "g_synthesis/512x512/Conv1/Noise/Reshape", "shape": [1, 32, 1, 1], "dtype": "float32", "quantization": {"min": -25.52452264507675, "scale": 0.0005305671124361177, "dtype": "uint16"}}, {"name": "g_synthesis/Reshape_13/shape", "shape": [4], "dtype": "int32", "quantization": {"min": -1.0019684138246738, "scale": 0.007827878233005264, "dtype": "uint16"}}, {"name": "g_synthesis/Reshape_12/shape", "shape": [6], "dtype": "int32", "quantization": {"min": -1.0, "scale": 0.00392156862745098, "dtype": "uint16"}}, {"name": "g_synthesis/256x256_1/ToRGB/Reshape", "shape": [1, 3, 1, 1], "dtype": "float32", "quantization": {"min": 0.542483925819397, "scale": 3.6065325799209898e-06, "dtype": "uint16"}}, {"name": "g_synthesis/256x256_1/ToRGB/mul", "shape": [1, 1, 64, 3], "dtype": "float32", "quantization": {"min": -0.7821504415932423, "scale": 1.820436265782014e-05, "dtype": "uint16"}}, {"name": "g_synthesis/Reshape_11/shape", "shape": [4], "dtype": "int32", "quantization": {"min": -1.0, "scale": 0.00392156862745098, "dtype": "uint16"}}, {"name": "g_synthesis/Reshape_10/shape", "shape": [6], "dtype": "int32", "quantization": {"min": -0.9999542229343099, "scale": 0.0019684138246738384, "dtype": "uint16"}}, {"name": "g_synthesis/128x128_1/ToRGB/Reshape", "shape": [1, 3, 1, 1], "dtype": "float32", "quantization": {"min": 0.3476170599460602, "scale": 3.5522599291945157e-06, "dtype": "uint16"}}, {"name": "g_synthesis/128x128_1/ToRGB/mul", "shape": [1, 1, 128, 3], "dtype": "float32", "quantization": {"min": -0.39455744801992276, "scale": 1.0691454802187372e-05, "dtype": "uint16"}}, {"name": "g_synthesis/Reshape_9/shape", "shape": [4], "dtype": "int32", "quantization": {"min": -0.9999542229343099, "scale": 0.0019684138246738384, "dtype": "uint16"}}, {"name": "g_synthesis/Reshape_8/shape", "shape": [6], "dtype": "int32", "quantization": {"min": -0.9997711146715496, "scale": 0.0009918364232852674, "dtype": "uint16"}}, {"name": "g_synthesis/64x64_1/ToRGB/Reshape", "shape": [1, 3, 1, 1], "dtype": "float32", "quantization": {"min": 0.09193149209022522, "scale": 9.895250982265773e-07, "dtype": "uint16"}}, {"name": "g_synthesis/64x64_1/ToRGB/mul", "shape": [1, 1, 256, 3], "dtype": "float32", "quantization": {"min": -0.14509209087632238, "scale": 4.6447304845483825e-06, "dtype": "uint16"}}, {"name": "g_synthesis/Reshape_7/shape", "shape": [4], "dtype": "int32", "quantization": {"min": -0.9997711146715496, "scale": 0.0009918364232852674, "dtype": "uint16"}}, {"name": "g_synthesis/Reshape_6/shape", "shape": [6], "dtype": "int32", "quantization": {"min": -1.00004577706569, "scale": 0.000503547722590982, "dtype": "uint16"}}, {"name": "g_synthesis/32x32_1/ToRGB/Reshape", "shape": [1, 3, 1, 1], "dtype": "float32", "quantization": {"min": 0.03684820234775543, "scale": 8.846081675640586e-07, "dtype": "uint16"}}, {"name": "g_synthesis/32x32_1/ToRGB/mul", "shape": [1, 1, 512, 3], "dtype": "float32", "quantization": {"min": -0.1233438385630478, "scale": 3.487540321855057e-06, "dtype": "uint16"}}, {"name": "g_synthesis/Reshape_5/shape", "shape": [4], "dtype": "int32", "quantization": {"min": -1.00004577706569, "scale": 0.000503547722590982, "dtype": "uint16"}}, {"name": "g_synthesis/Reshape_4/shape", "shape": [6], "dtype": "int32", "quantization": {"min": -1.0, "scale": 0.00025940337224383917, "dtype": "uint16"}}, {"name": "g_synthesis/16x16_1/ToRGB/Reshape", "shape": [1, 3, 1, 1], "dtype": "float32", "quantization": {"min": -0.018711573378268002, "scale": 1.188564655927587e-06, "dtype": "uint16"}}, {"name": "g_synthesis/16x16_1/ToRGB/mul", "shape": [1, 1, 512, 3], "dtype": "float32", "quantization": {"min": -0.11650217976669812, "scale": 3.54023884060709e-06, "dtype": "uint16"}}, {"name": "g_synthesis/Reshape_3/shape", "shape": [4], "dtype": "int32", "quantization": {"min": -1.0, "scale": 0.00025940337224383917, "dtype": "uint16"}}, {"name": "g_synthesis/Reshape_2/shape", "shape": [6], "dtype": "int32", "quantization": {"min": -1.00004577706569, "scale": 0.0001373311970702678, "dtype": "uint16"}}, {"name": "g_synthesis/8x8_1/ToRGB/Reshape", "shape": [1, 3, 1, 1], "dtype": "float32", "quantization": {"min": -0.016554964446835945, "scale": 1.2549245335685222e-06, "dtype": "uint16"}}, {"name": "g_synthesis/8x8_1/ToRGB/mul", "shape": [1, 1, 512, 3], "dtype": "float32", "quantization": {"min": -0.11258626809127545, "scale": 3.7921879514727828e-06, "dtype": "uint16"}}, {"name": "g_synthesis/Reshape_1/shape", "shape": [4], "dtype": "int32", "quantization": {"min": -1.00004577706569, "scale": 0.0001373311970702678, "dtype": "uint16"}}, {"name": "g_synthesis/Reshape/shape", "shape": [6], "dtype": "int32", "quantization": {"min": -1.0, "scale": 7.629510948348211e-05, "dtype": "uint16"}}, {"name": "g_synthesis/4x4_1/ToRGB/mul", "shape": [1, 1, 512, 3], "dtype": "float32", "quantization": {"min": -0.1486268524329777, "scale": 4.6617794502533626e-06, "dtype": "uint16"}}]}]}