{"format": "graph-model", "generatedBy": "1.14.0", "convertedBy": "TensorFlow.js Converter v1.2.6", "modelTopology": {"node": [{"name": "z", "op": "Placeholder", "attr": {"shape": {"shape": {"dim": [{"size": "-1"}, {"size": "512"}]}}, "dtype": {"type": "DT_FLOAT"}}}, {"name": "g_synthesis/8x8_2/smooth_transition/LerpClip/clip_by_value", "op": "Const", "attr": {"value": {"tensor": {"dtype": "DT_FLOAT", "tensorShape": {}}}, "dtype": {"type": "DT_FLOAT"}}}, {"name": "g_synthesis/512x512_1/ToRGB/Reshape", "op": "Const", "attr": {"value": {"tensor": {"dtype": "DT_FLOAT", "tensorShape": {"dim": [{"size": "1"}, {"size": "3"}, {"size": "1"}, {"size": "1"}]}}}, "dtype": {"type": "DT_FLOAT"}}}, {"name": "g_synthesis/4x4_1/ToRGB/NHWC_to_NCHW/perm", "op": "Const", "attr": {"value": {"tensor": {"dtype": "DT_INT32", "tensorShape": {"dim": [{"size": "4"}]}}}, "dtype": {"type": "DT_INT32"}}}, {"name": "g_synthesis/512x512_1/ToRGB/mul", "op": "Const", "attr": {"value": {"tensor": {"dtype": "DT_FLOAT", "tensorShape": {"dim": [{"size": "1"}, {"size": "1"}, {"size": "32"}, {"size": "3"}]}}}, "dtype": {"type": "DT_FLOAT"}}}, {"name": "g_synthesis/4x4_1/ToRGB/NCHW_to_NHWC/perm", "op": "Const", "attr": {"value": {"tensor": {"dtype": "DT_INT32", "tensorShape": {"dim": [{"size": "4"}]}}}, "dtype": {"type": "DT_INT32"}}}, {"name": "g_synthesis/4x4/Const/StyleMod/strided_slice/stack_2", "op": "Const", "attr": {"value": {"tensor": {"dtype": "DT_INT32", "tensorShape": {"dim": [{"size": "2"}]}}}, "dtype": {"type": "DT_INT32"}}}, {"name": "g_synthesis/4x4/Const/StyleMod/strided_slice_1/stack_1", "op": "Const", "attr": {"value": {"tensor": {"dtype": "DT_INT32", "tensorShape": {"dim": [{"size": "2"}]}}}, "dtype": {"type": "DT_INT32"}}}, {"name": "g_synthesis/4x4/Const/StyleMod/strided_slice/stack_1", "op": "Const", "attr": {"value": {"tensor": {"dtype": "DT_INT32", "tensorShape": {"dim": [{"size": "2"}]}}}, "dtype": {"type": "DT_INT32"}}}, {"name": "g_synthesis/512x512/Conv0_up/StyleMod/Reshape/shape", "op": "Const", "attr": {"value": {"tensor": {"dtype": "DT_INT32", "tensorShape": {"dim": [{"size": "5"}]}}}, "dtype": {"type": "DT_INT32"}}}, {"name": "g_synthesis/512x512/Conv1/StyleMod/mul_1", "op": "Const", "attr": {"value": {"tensor": {"dtype": "DT_FLOAT", "tensorShape": {"dim": [{"size": "64"}]}}}, "dtype": {"type": "DT_FLOAT"}}}, {"name": "g_synthesis/512x512/Conv1/StyleMod/mul", "op": "Const", "attr": {"value": {"tensor": {"dtype": "DT_FLOAT", "tensorShape": {"dim": [{"size": "512"}, {"size": "64"}]}}}, "dtype": {"type": "DT_FLOAT"}}}, {"name": "g_synthesis/4x4/Const/StyleMod/flatten/Reshape/shape/1", "op": "Const", "attr": {"value": {"tensor": {"dtype": "DT_INT32", "tensorShape": {}}}, "dtype": {"type": "DT_INT32"}}}, {"name": "g_synthesis/512x512/Conv0_up/strided_slice_4/stack_1", "op": "Const", "attr": {"value": {"tensor": {"dtype": "DT_INT32", "tensorShape": {"dim": [{"size": "1"}]}}}, "dtype": {"type": "DT_INT32"}}}, {"name": "g_synthesis/512x512/Conv0_up/strided_slice_4/stack", "op": "Const", "attr": {"value": {"tensor": {"dtype": "DT_INT32", "tensorShape": {"dim": [{"size": "1"}]}}}, "dtype": {"type": "DT_INT32"}}}, {"name": "g_synthesis/strided_slice_16/stack_1", "op": "Const", "attr": {"value": {"tensor": {"dtype": "DT_INT32", "tensorShape": {"dim": [{"size": "2"}]}}}, "dtype": {"type": "DT_INT32"}}}, {"name": "g_synthesis/strided_slice_15/stack_1", "op": "Const", "attr": {"value": {"tensor": {"dtype": "DT_INT32", "tensorShape": {"dim": [{"size": "2"}]}}}, "dtype": {"type": "DT_INT32"}}}, {"name": "w_avg", "op": "Const", "attr": {"value": {"tensor": {"dtype": "DT_FLOAT", "tensorShape": {"dim": [{"size": "512"}]}}}, "dtype": {"type": "DT_FLOAT"}}}, {"name": "Truncation/Select", "op": "Const", "attr": {"value": {"tensor": {"dtype": "DT_FLOAT", "tensorShape": {"dim": [{"size": "1"}, {"size": "16"}, {"size": "1"}]}}}, "dtype": {"type": "DT_FLOAT"}}}, {"name": "g_mapping/Broadcast/Tile/multiples", "op": "Const", "attr": {"value": {"tensor": {"dtype": "DT_INT32", "tensorShape": {"dim": [{"size": "3"}]}}}, "dtype": {"type": "DT_INT32"}}}, {"name": "g_synthesis/4x4/Const/Tile/multiples/1", "op": "Const", "attr": {"value": {"tensor": {"dtype": "DT_INT32", "tensorShape": {}}}, "dtype": {"type": "DT_INT32"}}}, {"name": "g_mapping/Dense7/mul_1", "op": "Const", "attr": {"value": {"tensor": {"dtype": "DT_FLOAT", "tensorShape": {"dim": [{"size": "512"}]}}}, "dtype": {"type": "DT_FLOAT"}}}, {"name": "g_mapping/Dense7/mul", "op": "Const", "attr": {"value": {"tensor": {"dtype": "DT_FLOAT", "tensorShape": {"dim": [{"size": "512"}, {"size": "512"}]}}}, "dtype": {"type": "DT_FLOAT"}}}, {"name": "g_mapping/Dense6/mul_1", "op": "Const", "attr": {"value": {"tensor": {"dtype": "DT_FLOAT", "tensorShape": {"dim": [{"size": "512"}]}}}, "dtype": {"type": "DT_FLOAT"}}}, {"name": "g_mapping/Dense6/mul", "op": "Const", "attr": {"value": {"tensor": {"dtype": "DT_FLOAT", "tensorShape": {"dim": [{"size": "512"}, {"size": "512"}]}}}, "dtype": {"type": "DT_FLOAT"}}}, {"name": "g_mapping/Dense5/mul_1", "op": "Const", "attr": {"value": {"tensor": {"dtype": "DT_FLOAT", "tensorShape": {"dim": [{"size": "512"}]}}}, "dtype": {"type": "DT_FLOAT"}}}, {"name": "g_mapping/Dense5/mul", "op": "Const", "attr": {"value": {"tensor": {"dtype": "DT_FLOAT", "tensorShape": {"dim": [{"size": "512"}, {"size": "512"}]}}}, "dtype": {"type": "DT_FLOAT"}}}, {"name": "g_mapping/Dense4/mul_1", "op": "Const", "attr": {"value": {"tensor": {"dtype": "DT_FLOAT", "tensorShape": {"dim": [{"size": "512"}]}}}, "dtype": {"type": "DT_FLOAT"}}}, {"name": "g_mapping/Dense4/mul", "op": "Const", "attr": {"value": {"tensor": {"dtype": "DT_FLOAT", "tensorShape": {"dim": [{"size": "512"}, {"size": "512"}]}}}, "dtype": {"type": "DT_FLOAT"}}}, {"name": "g_mapping/Dense3/mul_1", "op": "Const", "attr": {"value": {"tensor": {"dtype": "DT_FLOAT", "tensorShape": {"dim": [{"size": "512"}]}}}, "dtype": {"type": "DT_FLOAT"}}}, {"name": "g_mapping/Dense3/mul", "op": "Const", "attr": {"value": {"tensor": {"dtype": "DT_FLOAT", "tensorShape": {"dim": [{"size": "512"}, {"size": "512"}]}}}, "dtype": {"type": "DT_FLOAT"}}}, {"name": "g_mapping/Dense2/mul_1", "op": "Const", "attr": {"value": {"tensor": {"dtype": "DT_FLOAT", "tensorShape": {"dim": [{"size": "512"}]}}}, "dtype": {"type": "DT_FLOAT"}}}, {"name": "g_mapping/Dense2/mul", "op": "Const", "attr": {"value": {"tensor": {"dtype": "DT_FLOAT", "tensorShape": {"dim": [{"size": "512"}, {"size": "512"}]}}}, "dtype": {"type": "DT_FLOAT"}}}, {"name": "g_mapping/Dense1/mul_1", "op": "Const", "attr": {"value": {"tensor": {"dtype": "DT_FLOAT", "tensorShape": {"dim": [{"size": "512"}]}}}, "dtype": {"type": "DT_FLOAT"}}}, {"name": "g_mapping/Dense1/mul", "op": "Const", "attr": {"value": {"tensor": {"dtype": "DT_FLOAT", "tensorShape": {"dim": [{"size": "512"}, {"size": "512"}]}}}, "dtype": {"type": "DT_FLOAT"}}}, {"name": "g_mapping/Dense0/mul_1", "op": "Const", "attr": {"value": {"tensor": {"dtype": "DT_FLOAT", "tensorShape": {"dim": [{"size": "512"}]}}}, "dtype": {"type": "DT_FLOAT"}}}, {"name": "g_mapping/Dense0/mul", "op": "Const", "attr": {"value": {"tensor": {"dtype": "DT_FLOAT", "tensorShape": {"dim": [{"size": "512"}, {"size": "512"}]}}}, "dtype": {"type": "DT_FLOAT"}}}, {"name": "g_synthesis/4x4/Const/InstanceNorm/epsilon", "op": "Const", "attr": {"value": {"tensor": {"dtype": "DT_FLOAT", "tensorShape": {}}}, "dtype": {"type": "DT_FLOAT"}}}, {"name": "g_synthesis/4x4/Const/StyleMod/strided_slice/stack", "op": "Const", "attr": {"value": {"tensor": {"dtype": "DT_INT32", "tensorShape": {"dim": [{"size": "2"}]}}}, "dtype": {"type": "DT_INT32"}}}, {"name": "g_synthesis/4x4/Const/Noise/random_uniform/sub", "op": "Const", "attr": {"value": {"tensor": {"dtype": "DT_FLOAT", "tensorShape": {}}}, "dtype": {"type": "DT_FLOAT"}}}, {"name": "g_synthesis/4x4/Const/InstanceNorm/Mean/reduction_indices", "op": "Const", "attr": {"value": {"tensor": {"dtype": "DT_INT32", "tensorShape": {"dim": [{"size": "2"}]}}}, "dtype": {"type": "DT_INT32"}}}, {"name": "g_synthesis/512x512/Conv1/Reshape", "op": "Const", "attr": {"value": {"tensor": {"dtype": "DT_FLOAT", "tensorShape": {"dim": [{"size": "1"}, {"size": "32"}, {"size": "1"}, {"size": "1"}]}}}, "dtype": {"type": "DT_FLOAT"}}}, {"name": "g_synthesis/512x512/Conv0_up/conv2d_transpose/input_sizes/1", "op": "Const", "attr": {"value": {"tensor": {"dtype": "DT_INT32", "tensorShape": {}}}, "dtype": {"type": "DT_INT32"}}}, {"name": "g_synthesis/512x512/Conv1/mul", "op": "Const", "attr": {"value": {"tensor": {"dtype": "DT_FLOAT", "tensorShape": {"dim": [{"size": "3"}, {"size": "3"}, {"size": "32"}, {"size": "32"}]}}}, "dtype": {"type": "DT_FLOAT"}}}, {"name": "g_synthesis/512x512/Conv0_up/StyleMod/mul_1", "op": "Const", "attr": {"value": {"tensor": {"dtype": "DT_FLOAT", "tensorShape": {"dim": [{"size": "64"}]}}}, "dtype": {"type": "DT_FLOAT"}}}, {"name": "g_synthesis/512x512/Conv0_up/StyleMod/mul", "op": "Const", "attr": {"value": {"tensor": {"dtype": "DT_FLOAT", "tensorShape": {"dim": [{"size": "512"}, {"size": "64"}]}}}, "dtype": {"type": "DT_FLOAT"}}}, {"name": "g_synthesis/strided_slice_14/stack_1", "op": "Const", "attr": {"value": {"tensor": {"dtype": "DT_INT32", "tensorShape": {"dim": [{"size": "2"}]}}}, "dtype": {"type": "DT_INT32"}}}, {"name": "g_synthesis/512x512/Conv0_up/Reshape", "op": "Const", "attr": {"value": {"tensor": {"dtype": "DT_FLOAT", "tensorShape": {"dim": [{"size": "1"}, {"size": "32"}, {"size": "1"}, {"size": "1"}]}}}, "dtype": {"type": "DT_FLOAT"}}}, {"name": "g_synthesis/512x512/Conv0_up/filter", "op": "Const", "attr": {"value": {"tensor": {"dtype": "DT_FLOAT", "tensorShape": {"dim": [{"size": "3"}, {"size": "3"}, {"size": "32"}, {"size": "1"}]}}}, "dtype": {"type": "DT_FLOAT"}}}, {"name": "g_synthesis/256x256/Conv0_up/StyleMod/Reshape/shape", "op": "Const", "attr": {"value": {"tensor": {"dtype": "DT_INT32", "tensorShape": {"dim": [{"size": "5"}]}}}, "dtype": {"type": "DT_INT32"}}}, {"name": "g_synthesis/256x256/Conv1/StyleMod/mul_1", "op": "Const", "attr": {"value": {"tensor": {"dtype": "DT_FLOAT", "tensorShape": {"dim": [{"size": "128"}]}}}, "dtype": {"type": "DT_FLOAT"}}}, {"name": "g_synthesis/256x256/Conv1/StyleMod/mul", "op": "Const", "attr": {"value": {"tensor": {"dtype": "DT_FLOAT", "tensorShape": {"dim": [{"size": "512"}, {"size": "128"}]}}}, "dtype": {"type": "DT_FLOAT"}}}, {"name": "g_synthesis/strided_slice_13/stack_1", "op": "Const", "attr": {"value": {"tensor": {"dtype": "DT_INT32", "tensorShape": {"dim": [{"size": "2"}]}}}, "dtype": {"type": "DT_INT32"}}}, {"name": "g_synthesis/256x256/Conv1/Reshape", "op": "Const", "attr": {"value": {"tensor": {"dtype": "DT_FLOAT", "tensorShape": {"dim": [{"size": "1"}, {"size": "64"}, {"size": "1"}, {"size": "1"}]}}}, "dtype": {"type": "DT_FLOAT"}}}, {"name": "g_synthesis/256x256/Conv0_up/conv2d_transpose/input_sizes/1", "op": "Const", "attr": {"value": {"tensor": {"dtype": "DT_INT32", "tensorShape": {}}}, "dtype": {"type": "DT_INT32"}}}, {"name": "g_synthesis/256x256/Conv1/mul", "op": "Const", "attr": {"value": {"tensor": {"dtype": "DT_FLOAT", "tensorShape": {"dim": [{"size": "3"}, {"size": "3"}, {"size": "64"}, {"size": "64"}]}}}, "dtype": {"type": "DT_FLOAT"}}}, {"name": "g_synthesis/256x256/Conv0_up/StyleMod/mul_1", "op": "Const", "attr": {"value": {"tensor": {"dtype": "DT_FLOAT", "tensorShape": {"dim": [{"size": "128"}]}}}, "dtype": {"type": "DT_FLOAT"}}}, {"name": "g_synthesis/256x256/Conv0_up/StyleMod/mul", "op": "Const", "attr": {"value": {"tensor": {"dtype": "DT_FLOAT", "tensorShape": {"dim": [{"size": "512"}, {"size": "128"}]}}}, "dtype": {"type": "DT_FLOAT"}}}, {"name": "g_synthesis/strided_slice_12/stack_1", "op": "Const", "attr": {"value": {"tensor": {"dtype": "DT_INT32", "tensorShape": {"dim": [{"size": "2"}]}}}, "dtype": {"type": "DT_INT32"}}}, {"name": "g_synthesis/256x256/Conv0_up/Reshape", "op": "Const", "attr": {"value": {"tensor": {"dtype": "DT_FLOAT", "tensorShape": {"dim": [{"size": "1"}, {"size": "64"}, {"size": "1"}, {"size": "1"}]}}}, "dtype": {"type": "DT_FLOAT"}}}, {"name": "g_synthesis/256x256/Conv0_up/filter", "op": "Const", "attr": {"value": {"tensor": {"dtype": "DT_FLOAT", "tensorShape": {"dim": [{"size": "3"}, {"size": "3"}, {"size": "64"}, {"size": "1"}]}}}, "dtype": {"type": "DT_FLOAT"}}}, {"name": "g_synthesis/128x128/Conv0_up/StyleMod/Reshape/shape", "op": "Const", "attr": {"value": {"tensor": {"dtype": "DT_INT32", "tensorShape": {"dim": [{"size": "5"}]}}}, "dtype": {"type": "DT_INT32"}}}, {"name": "g_synthesis/128x128/Conv1/StyleMod/mul_1", "op": "Const", "attr": {"value": {"tensor": {"dtype": "DT_FLOAT", "tensorShape": {"dim": [{"size": "256"}]}}}, "dtype": {"type": "DT_FLOAT"}}}, {"name": "g_synthesis/128x128/Conv1/StyleMod/mul", "op": "Const", "attr": {"value": {"tensor": {"dtype": "DT_FLOAT", "tensorShape": {"dim": [{"size": "512"}, {"size": "256"}]}}}, "dtype": {"type": "DT_FLOAT"}}}, {"name": "g_synthesis/strided_slice_11/stack_1", "op": "Const", "attr": {"value": {"tensor": {"dtype": "DT_INT32", "tensorShape": {"dim": [{"size": "2"}]}}}, "dtype": {"type": "DT_INT32"}}}, {"name": "g_synthesis/128x128/Conv1/Reshape", "op": "Const", "attr": {"value": {"tensor": {"dtype": "DT_FLOAT", "tensorShape": {"dim": [{"size": "1"}, {"size": "128"}, {"size": "1"}, {"size": "1"}]}}}, "dtype": {"type": "DT_FLOAT"}}}, {"name": "g_synthesis/128x128/Conv0_up/conv2d_transpose/input_sizes/1", "op": "Const", "attr": {"value": {"tensor": {"dtype": "DT_INT32", "tensorShape": {}}}, "dtype": {"type": "DT_INT32"}}}, {"name": "g_synthesis/128x128/Conv1/mul", "op": "Const", "attr": {"value": {"tensor": {"dtype": "DT_FLOAT", "tensorShape": {"dim": [{"size": "3"}, {"size": "3"}, {"size": "128"}, {"size": "128"}]}}}, "dtype": {"type": "DT_FLOAT"}}}, {"name": "g_synthesis/128x128/Conv0_up/StyleMod/mul_1", "op": "Const", "attr": {"value": {"tensor": {"dtype": "DT_FLOAT", "tensorShape": {"dim": [{"size": "256"}]}}}, "dtype": {"type": "DT_FLOAT"}}}, {"name": "g_synthesis/128x128/Conv0_up/StyleMod/mul", "op": "Const", "attr": {"value": {"tensor": {"dtype": "DT_FLOAT", "tensorShape": {"dim": [{"size": "512"}, {"size": "256"}]}}}, "dtype": {"type": "DT_FLOAT"}}}, {"name": "g_synthesis/strided_slice_10/stack_1", "op": "Const", "attr": {"value": {"tensor": {"dtype": "DT_INT32", "tensorShape": {"dim": [{"size": "2"}]}}}, "dtype": {"type": "DT_INT32"}}}, {"name": "g_synthesis/128x128/Conv0_up/Reshape", "op": "Const", "attr": {"value": {"tensor": {"dtype": "DT_FLOAT", "tensorShape": {"dim": [{"size": "1"}, {"size": "128"}, {"size": "1"}, {"size": "1"}]}}}, "dtype": {"type": "DT_FLOAT"}}}, {"name": "g_synthesis/128x128/Conv0_up/filter", "op": "Const", "attr": {"value": {"tensor": {"dtype": "DT_FLOAT", "tensorShape": {"dim": [{"size": "3"}, {"size": "3"}, {"size": "128"}, {"size": "1"}]}}}, "dtype": {"type": "DT_FLOAT"}}}, {"name": "g_synthesis/64x64/Conv0_up/StyleMod/Reshape/shape", "op": "Const", "attr": {"value": {"tensor": {"dtype": "DT_INT32", "tensorShape": {"dim": [{"size": "5"}]}}}, "dtype": {"type": "DT_INT32"}}}, {"name": "g_synthesis/64x64/Conv1/StyleMod/mul_1", "op": "Const", "attr": {"value": {"tensor": {"dtype": "DT_FLOAT", "tensorShape": {"dim": [{"size": "512"}]}}}, "dtype": {"type": "DT_FLOAT"}}}, {"name": "g_synthesis/64x64/Conv1/StyleMod/mul", "op": "Const", "attr": {"value": {"tensor": {"dtype": "DT_FLOAT", "tensorShape": {"dim": [{"size": "512"}, {"size": "512"}]}}}, "dtype": {"type": "DT_FLOAT"}}}, {"name": "g_synthesis/strided_slice_9/stack_1", "op": "Const", "attr": {"value": {"tensor": {"dtype": "DT_INT32", "tensorShape": {"dim": [{"size": "2"}]}}}, "dtype": {"type": "DT_INT32"}}}, {"name": "g_synthesis/64x64/Conv1/Reshape", "op": "Const", "attr": {"value": {"tensor": {"dtype": "DT_FLOAT", "tensorShape": {"dim": [{"size": "1"}, {"size": "256"}, {"size": "1"}, {"size": "1"}]}}}, "dtype": {"type": "DT_FLOAT"}}}, {"name": "g_synthesis/256x256/Conv0_up/conv2d_transpose/input_sizes/3", "op": "Const", "attr": {"value": {"tensor": {"dtype": "DT_INT32", "tensorShape": {}}}, "dtype": {"type": "DT_INT32"}}}, {"name": "g_synthesis/64x64/Conv1/mul", "op": "Const", "attr": {"value": {"tensor": {"dtype": "DT_FLOAT", "tensorShape": {"dim": [{"size": "3"}, {"size": "3"}, {"size": "256"}, {"size": "256"}]}}}, "dtype": {"type": "DT_FLOAT"}}}, {"name": "g_synthesis/64x64/Conv0_up/StyleMod/mul_1", "op": "Const", "attr": {"value": {"tensor": {"dtype": "DT_FLOAT", "tensorShape": {"dim": [{"size": "512"}]}}}, "dtype": {"type": "DT_FLOAT"}}}, {"name": "g_synthesis/64x64/Conv0_up/StyleMod/mul", "op": "Const", "attr": {"value": {"tensor": {"dtype": "DT_FLOAT", "tensorShape": {"dim": [{"size": "512"}, {"size": "512"}]}}}, "dtype": {"type": "DT_FLOAT"}}}, {"name": "g_synthesis/strided_slice_8/stack_1", "op": "Const", "attr": {"value": {"tensor": {"dtype": "DT_INT32", "tensorShape": {"dim": [{"size": "2"}]}}}, "dtype": {"type": "DT_INT32"}}}, {"name": "g_synthesis/64x64/Conv0_up/Reshape_2", "op": "Const", "attr": {"value": {"tensor": {"dtype": "DT_FLOAT", "tensorShape": {"dim": [{"size": "1"}, {"size": "256"}, {"size": "1"}, {"size": "1"}]}}}, "dtype": {"type": "DT_FLOAT"}}}, {"name": "g_synthesis/64x64/Conv0_up/filter", "op": "Const", "attr": {"value": {"tensor": {"dtype": "DT_FLOAT", "tensorShape": {"dim": [{"size": "3"}, {"size": "3"}, {"size": "256"}, {"size": "1"}]}}}, "dtype": {"type": "DT_FLOAT"}}}, {"name": "g_synthesis/64x64/Conv0_up/mul", "op": "Const", "attr": {"value": {"tensor": {"dtype": "DT_FLOAT", "tensorShape": {"dim": [{"size": "3"}, {"size": "3"}, {"size": "512"}, {"size": "256"}]}}}, "dtype": {"type": "DT_FLOAT"}}}, {"name": "g_synthesis/64x64/Conv0_up/Reshape_1/shape", "op": "Const", "attr": {"value": {"tensor": {"dtype": "DT_INT32", "tensorShape": {"dim": [{"size": "4"}]}}}, "dtype": {"type": "DT_INT32"}}}, {"name": "g_synthesis/Tile/multiples", "op": "Const", "attr": {"value": {"tensor": {"dtype": "DT_INT32", "tensorShape": {"dim": [{"size": "6"}]}}}, "dtype": {"type": "DT_INT32"}}}, {"name": "g_synthesis/64x64/Conv0_up/Reshape/shape", "op": "Const", "attr": {"value": {"tensor": {"dtype": "DT_INT32", "tensorShape": {"dim": [{"size": "6"}]}}}, "dtype": {"type": "DT_INT32"}}}, {"name": "g_synthesis/4x4/Const/StyleMod/Reshape/shape", "op": "Const", "attr": {"value": {"tensor": {"dtype": "DT_INT32", "tensorShape": {"dim": [{"size": "5"}]}}}, "dtype": {"type": "DT_INT32"}}}, {"name": "g_synthesis/32x32/Conv1/StyleMod/mul_1", "op": "Const", "attr": {"value": {"tensor": {"dtype": "DT_FLOAT", "tensorShape": {"dim": [{"size": "1024"}]}}}, "dtype": {"type": "DT_FLOAT"}}}, {"name": "g_synthesis/32x32/Conv1/StyleMod/mul", "op": "Const", "attr": {"value": {"tensor": {"dtype": "DT_FLOAT", "tensorShape": {"dim": [{"size": "512"}, {"size": "1024"}]}}}, "dtype": {"type": "DT_FLOAT"}}}, {"name": "g_synthesis/strided_slice_7/stack_1", "op": "Const", "attr": {"value": {"tensor": {"dtype": "DT_INT32", "tensorShape": {"dim": [{"size": "2"}]}}}, "dtype": {"type": "DT_INT32"}}}, {"name": "g_synthesis/32x32/Conv1/Reshape", "op": "Const", "attr": {"value": {"tensor": {"dtype": "DT_FLOAT", "tensorShape": {"dim": [{"size": "1"}, {"size": "512"}, {"size": "1"}, {"size": "1"}]}}}, "dtype": {"type": "DT_FLOAT"}}}, {"name": "g_synthesis/512x512/Conv0_up/conv2d_transpose/input_sizes/3", "op": "Const", "attr": {"value": {"tensor": {"dtype": "DT_INT32", "tensorShape": {}}}, "dtype": {"type": "DT_INT32"}}}, {"name": "g_synthesis/32x32/Conv1/mul", "op": "Const", "attr": {"value": {"tensor": {"dtype": "DT_FLOAT", "tensorShape": {"dim": [{"size": "3"}, {"size": "3"}, {"size": "512"}, {"size": "512"}]}}}, "dtype": {"type": "DT_FLOAT"}}}, {"name": "g_synthesis/32x32/Conv0_up/StyleMod/mul_1", "op": "Const", "attr": {"value": {"tensor": {"dtype": "DT_FLOAT", "tensorShape": {"dim": [{"size": "1024"}]}}}, "dtype": {"type": "DT_FLOAT"}}}, {"name": "g_synthesis/32x32/Conv0_up/StyleMod/mul", "op": "Const", "attr": {"value": {"tensor": {"dtype": "DT_FLOAT", "tensorShape": {"dim": [{"size": "512"}, {"size": "1024"}]}}}, "dtype": {"type": "DT_FLOAT"}}}, {"name": "g_synthesis/strided_slice_6/stack_1", "op": "Const", "attr": {"value": {"tensor": {"dtype": "DT_INT32", "tensorShape": {"dim": [{"size": "2"}]}}}, "dtype": {"type": "DT_INT32"}}}, {"name": "g_synthesis/32x32/Conv0_up/Reshape_2", "op": "Const", "attr": {"value": {"tensor": {"dtype": "DT_FLOAT", "tensorShape": {"dim": [{"size": "1"}, {"size": "512"}, {"size": "1"}, {"size": "1"}]}}}, "dtype": {"type": "DT_FLOAT"}}}, {"name": "g_synthesis/8x8/Conv0_up/filter", "op": "Const", "attr": {"value": {"tensor": {"dtype": "DT_FLOAT", "tensorShape": {"dim": [{"size": "3"}, {"size": "3"}, {"size": "512"}, {"size": "1"}]}}}, "dtype": {"type": "DT_FLOAT"}}}, {"name": "g_synthesis/32x32/Conv0_up/mul", "op": "Const", "attr": {"value": {"tensor": {"dtype": "DT_FLOAT", "tensorShape": {"dim": [{"size": "3"}, {"size": "3"}, {"size": "512"}, {"size": "512"}]}}}, "dtype": {"type": "DT_FLOAT"}}}, {"name": "g_synthesis/32x32/Conv0_up/Reshape_1/shape", "op": "Const", "attr": {"value": {"tensor": {"dtype": "DT_INT32", "tensorShape": {"dim": [{"size": "4"}]}}}, "dtype": {"type": "DT_INT32"}}}, {"name": "g_synthesis/32x32/Conv0_up/Reshape/shape", "op": "Const", "attr": {"value": {"tensor": {"dtype": "DT_INT32", "tensorShape": {"dim": [{"size": "6"}]}}}, "dtype": {"type": "DT_INT32"}}}, {"name": "g_synthesis/16x16/Conv1/StyleMod/mul_1", "op": "Const", "attr": {"value": {"tensor": {"dtype": "DT_FLOAT", "tensorShape": {"dim": [{"size": "1024"}]}}}, "dtype": {"type": "DT_FLOAT"}}}, {"name": "g_synthesis/16x16/Conv1/StyleMod/mul", "op": "Const", "attr": {"value": {"tensor": {"dtype": "DT_FLOAT", "tensorShape": {"dim": [{"size": "512"}, {"size": "1024"}]}}}, "dtype": {"type": "DT_FLOAT"}}}, {"name": "g_synthesis/strided_slice_5/stack_1", "op": "Const", "attr": {"value": {"tensor": {"dtype": "DT_INT32", "tensorShape": {"dim": [{"size": "2"}]}}}, "dtype": {"type": "DT_INT32"}}}, {"name": "g_synthesis/16x16/Conv1/Reshape", "op": "Const", "attr": {"value": {"tensor": {"dtype": "DT_FLOAT", "tensorShape": {"dim": [{"size": "1"}, {"size": "512"}, {"size": "1"}, {"size": "1"}]}}}, "dtype": {"type": "DT_FLOAT"}}}, {"name": "g_synthesis/16x16/Conv0_up/Noise/random_uniform/shape/2", "op": "Const", "attr": {"value": {"tensor": {"dtype": "DT_INT32", "tensorShape": {}}}, "dtype": {"type": "DT_INT32"}}}, {"name": "g_synthesis/16x16/Conv1/mul", "op": "Const", "attr": {"value": {"tensor": {"dtype": "DT_FLOAT", "tensorShape": {"dim": [{"size": "3"}, {"size": "3"}, {"size": "512"}, {"size": "512"}]}}}, "dtype": {"type": "DT_FLOAT"}}}, {"name": "g_synthesis/16x16/Conv0_up/StyleMod/mul_1", "op": "Const", "attr": {"value": {"tensor": {"dtype": "DT_FLOAT", "tensorShape": {"dim": [{"size": "1024"}]}}}, "dtype": {"type": "DT_FLOAT"}}}, {"name": "g_synthesis/16x16/Conv0_up/StyleMod/mul", "op": "Const", "attr": {"value": {"tensor": {"dtype": "DT_FLOAT", "tensorShape": {"dim": [{"size": "512"}, {"size": "1024"}]}}}, "dtype": {"type": "DT_FLOAT"}}}, {"name": "g_synthesis/strided_slice_4/stack_1", "op": "Const", "attr": {"value": {"tensor": {"dtype": "DT_INT32", "tensorShape": {"dim": [{"size": "2"}]}}}, "dtype": {"type": "DT_INT32"}}}, {"name": "g_synthesis/16x16/Conv0_up/Reshape_2", "op": "Const", "attr": {"value": {"tensor": {"dtype": "DT_FLOAT", "tensorShape": {"dim": [{"size": "1"}, {"size": "512"}, {"size": "1"}, {"size": "1"}]}}}, "dtype": {"type": "DT_FLOAT"}}}, {"name": "g_synthesis/16x16/Conv0_up/mul", "op": "Const", "attr": {"value": {"tensor": {"dtype": "DT_FLOAT", "tensorShape": {"dim": [{"size": "3"}, {"size": "3"}, {"size": "512"}, {"size": "512"}]}}}, "dtype": {"type": "DT_FLOAT"}}}, {"name": "g_synthesis/16x16/Conv0_up/Reshape_1/shape", "op": "Const", "attr": {"value": {"tensor": {"dtype": "DT_INT32", "tensorShape": {"dim": [{"size": "4"}]}}}, "dtype": {"type": "DT_INT32"}}}, {"name": "g_synthesis/16x16/Conv0_up/Reshape/shape", "op": "Const", "attr": {"value": {"tensor": {"dtype": "DT_INT32", "tensorShape": {"dim": [{"size": "6"}]}}}, "dtype": {"type": "DT_INT32"}}}, {"name": "g_synthesis/8x8/Conv1/StyleMod/mul_1", "op": "Const", "attr": {"value": {"tensor": {"dtype": "DT_FLOAT", "tensorShape": {"dim": [{"size": "1024"}]}}}, "dtype": {"type": "DT_FLOAT"}}}, {"name": "g_synthesis/8x8/Conv1/StyleMod/mul", "op": "Const", "attr": {"value": {"tensor": {"dtype": "DT_FLOAT", "tensorShape": {"dim": [{"size": "512"}, {"size": "1024"}]}}}, "dtype": {"type": "DT_FLOAT"}}}, {"name": "g_synthesis/strided_slice_3/stack_1", "op": "Const", "attr": {"value": {"tensor": {"dtype": "DT_INT32", "tensorShape": {"dim": [{"size": "2"}]}}}, "dtype": {"type": "DT_INT32"}}}, {"name": "g_synthesis/8x8/Conv1/Reshape", "op": "Const", "attr": {"value": {"tensor": {"dtype": "DT_FLOAT", "tensorShape": {"dim": [{"size": "1"}, {"size": "512"}, {"size": "1"}, {"size": "1"}]}}}, "dtype": {"type": "DT_FLOAT"}}}, {"name": "g_synthesis/8x8/Conv0_up/Noise/random_uniform/shape/2", "op": "Const", "attr": {"value": {"tensor": {"dtype": "DT_INT32", "tensorShape": {}}}, "dtype": {"type": "DT_INT32"}}}, {"name": "g_synthesis/8x8/Conv1/mul", "op": "Const", "attr": {"value": {"tensor": {"dtype": "DT_FLOAT", "tensorShape": {"dim": [{"size": "3"}, {"size": "3"}, {"size": "512"}, {"size": "512"}]}}}, "dtype": {"type": "DT_FLOAT"}}}, {"name": "g_synthesis/8x8/Conv0_up/StyleMod/mul_1", "op": "Const", "attr": {"value": {"tensor": {"dtype": "DT_FLOAT", "tensorShape": {"dim": [{"size": "1024"}]}}}, "dtype": {"type": "DT_FLOAT"}}}, {"name": "g_synthesis/8x8/Conv0_up/StyleMod/mul", "op": "Const", "attr": {"value": {"tensor": {"dtype": "DT_FLOAT", "tensorShape": {"dim": [{"size": "512"}, {"size": "1024"}]}}}, "dtype": {"type": "DT_FLOAT"}}}, {"name": "g_synthesis/8x8/Conv0_up/Reshape_2", "op": "Const", "attr": {"value": {"tensor": {"dtype": "DT_FLOAT", "tensorShape": {"dim": [{"size": "1"}, {"size": "512"}, {"size": "1"}, {"size": "1"}]}}}, "dtype": {"type": "DT_FLOAT"}}}, {"name": "g_synthesis/8x8/Conv0_up/mul", "op": "Const", "attr": {"value": {"tensor": {"dtype": "DT_FLOAT", "tensorShape": {"dim": [{"size": "3"}, {"size": "3"}, {"size": "512"}, {"size": "512"}]}}}, "dtype": {"type": "DT_FLOAT"}}}, {"name": "g_synthesis/8x8/Conv0_up/Reshape_1/shape", "op": "Const", "attr": {"value": {"tensor": {"dtype": "DT_INT32", "tensorShape": {"dim": [{"size": "4"}]}}}, "dtype": {"type": "DT_INT32"}}}, {"name": "g_synthesis/8x8/Conv0_up/Reshape/shape", "op": "Const", "attr": {"value": {"tensor": {"dtype": "DT_INT32", "tensorShape": {"dim": [{"size": "6"}]}}}, "dtype": {"type": "DT_INT32"}}}, {"name": "g_synthesis/4x4/Conv/StyleMod/mul_1", "op": "Const", "attr": {"value": {"tensor": {"dtype": "DT_FLOAT", "tensorShape": {"dim": [{"size": "1024"}]}}}, "dtype": {"type": "DT_FLOAT"}}}, {"name": "g_synthesis/4x4/Conv/StyleMod/mul", "op": "Const", "attr": {"value": {"tensor": {"dtype": "DT_FLOAT", "tensorShape": {"dim": [{"size": "512"}, {"size": "1024"}]}}}, "dtype": {"type": "DT_FLOAT"}}}, {"name": "g_synthesis/4x4/Conv/Reshape", "op": "Const", "attr": {"value": {"tensor": {"dtype": "DT_FLOAT", "tensorShape": {"dim": [{"size": "1"}, {"size": "512"}, {"size": "1"}, {"size": "1"}]}}}, "dtype": {"type": "DT_FLOAT"}}}, {"name": "g_synthesis/4x4/Const/Noise/random_uniform/shape/2", "op": "Const", "attr": {"value": {"tensor": {"dtype": "DT_INT32", "tensorShape": {}}}, "dtype": {"type": "DT_INT32"}}}, {"name": "g_synthesis/4x4/Conv/mul", "op": "Const", "attr": {"value": {"tensor": {"dtype": "DT_FLOAT", "tensorShape": {"dim": [{"size": "3"}, {"size": "3"}, {"size": "512"}, {"size": "512"}]}}}, "dtype": {"type": "DT_FLOAT"}}}, {"name": "g_synthesis/4x4/Const/StyleMod/mul_1", "op": "Const", "attr": {"value": {"tensor": {"dtype": "DT_FLOAT", "tensorShape": {"dim": [{"size": "1024"}]}}}, "dtype": {"type": "DT_FLOAT"}}}, {"name": "g_synthesis/4x4/Const/StyleMod/mul", "op": "Const", "attr": {"value": {"tensor": {"dtype": "DT_FLOAT", "tensorShape": {"dim": [{"size": "512"}, {"size": "1024"}]}}}, "dtype": {"type": "DT_FLOAT"}}}, {"name": "g_synthesis/4x4/Const/const", "op": "Const", "attr": {"value": {"tensor": {"dtype": "DT_FLOAT", "tensorShape": {"dim": [{"size": "1"}, {"size": "512"}, {"size": "4"}, {"size": "4"}]}}}, "dtype": {"type": "DT_FLOAT"}}}, {"name": "g_synthesis/4x4/Const/Reshape", "op": "Const", "attr": {"value": {"tensor": {"dtype": "DT_FLOAT", "tensorShape": {"dim": [{"size": "1"}, {"size": "512"}, {"size": "1"}, {"size": "1"}]}}}, "dtype": {"type": "DT_FLOAT"}}}, {"name": "g_synthesis/4x4/Const/Noise/Reshape", "op": "Const", "attr": {"value": {"tensor": {"dtype": "DT_FLOAT", "tensorShape": {"dim": [{"size": "1"}, {"size": "512"}, {"size": "1"}, {"size": "1"}]}}}, "dtype": {"type": "DT_FLOAT"}}}, {"name": "g_synthesis/4x4/Conv/Noise/Reshape", "op": "Const", "attr": {"value": {"tensor": {"dtype": "DT_FLOAT", "tensorShape": {"dim": [{"size": "1"}, {"size": "512"}, {"size": "1"}, {"size": "1"}]}}}, "dtype": {"type": "DT_FLOAT"}}}, {"name": "g_synthesis/8x8/Conv0_up/Noise/Reshape", "op": "Const", "attr": {"value": {"tensor": {"dtype": "DT_FLOAT", "tensorShape": {"dim": [{"size": "1"}, {"size": "512"}, {"size": "1"}, {"size": "1"}]}}}, "dtype": {"type": "DT_FLOAT"}}}, {"name": "g_synthesis/8x8/Conv1/Noise/Reshape", "op": "Const", "attr": {"value": {"tensor": {"dtype": "DT_FLOAT", "tensorShape": {"dim": [{"size": "1"}, {"size": "512"}, {"size": "1"}, {"size": "1"}]}}}, "dtype": {"type": "DT_FLOAT"}}}, {"name": "g_synthesis/16x16/Conv0_up/Noise/Reshape", "op": "Const", "attr": {"value": {"tensor": {"dtype": "DT_FLOAT", "tensorShape": {"dim": [{"size": "1"}, {"size": "512"}, {"size": "1"}, {"size": "1"}]}}}, "dtype": {"type": "DT_FLOAT"}}}, {"name": "g_synthesis/16x16/Conv1/Noise/Reshape", "op": "Const", "attr": {"value": {"tensor": {"dtype": "DT_FLOAT", "tensorShape": {"dim": [{"size": "1"}, {"size": "512"}, {"size": "1"}, {"size": "1"}]}}}, "dtype": {"type": "DT_FLOAT"}}}, {"name": "g_synthesis/32x32/Conv0_up/Noise/Reshape", "op": "Const", "attr": {"value": {"tensor": {"dtype": "DT_FLOAT", "tensorShape": {"dim": [{"size": "1"}, {"size": "512"}, {"size": "1"}, {"size": "1"}]}}}, "dtype": {"type": "DT_FLOAT"}}}, {"name": "g_synthesis/32x32/Conv1/Noise/Reshape", "op": "Const", "attr": {"value": {"tensor": {"dtype": "DT_FLOAT", "tensorShape": {"dim": [{"size": "1"}, {"size": "512"}, {"size": "1"}, {"size": "1"}]}}}, "dtype": {"type": "DT_FLOAT"}}}, {"name": "g_synthesis/64x64/Conv0_up/Noise/Reshape", "op": "Const", "attr": {"value": {"tensor": {"dtype": "DT_FLOAT", "tensorShape": {"dim": [{"size": "1"}, {"size": "256"}, {"size": "1"}, {"size": "1"}]}}}, "dtype": {"type": "DT_FLOAT"}}}, {"name": "g_synthesis/64x64/Conv1/Noise/Reshape", "op": "Const", "attr": {"value": {"tensor": {"dtype": "DT_FLOAT", "tensorShape": {"dim": [{"size": "1"}, {"size": "256"}, {"size": "1"}, {"size": "1"}]}}}, "dtype": {"type": "DT_FLOAT"}}}, {"name": "g_synthesis/128x128/Conv0_up/AddN", "op": "Const", "attr": {"value": {"tensor": {"dtype": "DT_FLOAT", "tensorShape": {"dim": [{"size": "4"}, {"size": "4"}, {"size": "128"}, {"size": "256"}]}}}, "dtype": {"type": "DT_FLOAT"}}}, {"name": "g_synthesis/128x128/Conv0_up/Noise/Reshape", "op": "Const", "attr": {"value": {"tensor": {"dtype": "DT_FLOAT", "tensorShape": {"dim": [{"size": "1"}, {"size": "128"}, {"size": "1"}, {"size": "1"}]}}}, "dtype": {"type": "DT_FLOAT"}}}, {"name": "g_synthesis/128x128/Conv1/Noise/Reshape", "op": "Const", "attr": {"value": {"tensor": {"dtype": "DT_FLOAT", "tensorShape": {"dim": [{"size": "1"}, {"size": "128"}, {"size": "1"}, {"size": "1"}]}}}, "dtype": {"type": "DT_FLOAT"}}}, {"name": "g_synthesis/256x256/Conv0_up/AddN", "op": "Const", "attr": {"value": {"tensor": {"dtype": "DT_FLOAT", "tensorShape": {"dim": [{"size": "4"}, {"size": "4"}, {"size": "64"}, {"size": "128"}]}}}, "dtype": {"type": "DT_FLOAT"}}}, {"name": "g_synthesis/256x256/Conv0_up/Noise/Reshape", "op": "Const", "attr": {"value": {"tensor": {"dtype": "DT_FLOAT", "tensorShape": {"dim": [{"size": "1"}, {"size": "64"}, {"size": "1"}, {"size": "1"}]}}}, "dtype": {"type": "DT_FLOAT"}}}, {"name": "g_synthesis/256x256/Conv1/Noise/Reshape", "op": "Const", "attr": {"value": {"tensor": {"dtype": "DT_FLOAT", "tensorShape": {"dim": [{"size": "1"}, {"size": "64"}, {"size": "1"}, {"size": "1"}]}}}, "dtype": {"type": "DT_FLOAT"}}}, {"name": "g_synthesis/512x512/Conv0_up/AddN", "op": "Const", "attr": {"value": {"tensor": {"dtype": "DT_FLOAT", "tensorShape": {"dim": [{"size": "4"}, {"size": "4"}, {"size": "32"}, {"size": "64"}]}}}, "dtype": {"type": "DT_FLOAT"}}}, {"name": "g_synthesis/512x512/Conv0_up/Noise/Reshape", "op": "Const", "attr": {"value": {"tensor": {"dtype": "DT_FLOAT", "tensorShape": {"dim": [{"size": "1"}, {"size": "32"}, {"size": "1"}, {"size": "1"}]}}}, "dtype": {"type": "DT_FLOAT"}}}, {"name": "g_synthesis/512x512/Conv1/Noise/Reshape", "op": "Const", "attr": {"value": {"tensor": {"dtype": "DT_FLOAT", "tensorShape": {"dim": [{"size": "1"}, {"size": "32"}, {"size": "1"}, {"size": "1"}]}}}, "dtype": {"type": "DT_FLOAT"}}}, {"name": "g_synthesis/Reshape_13/shape", "op": "Const", "attr": {"value": {"tensor": {"dtype": "DT_INT32", "tensorShape": {"dim": [{"size": "4"}]}}}, "dtype": {"type": "DT_INT32"}}}, {"name": "g_synthesis/Reshape_12/shape", "op": "Const", "attr": {"value": {"tensor": {"dtype": "DT_INT32", "tensorShape": {"dim": [{"size": "6"}]}}}, "dtype": {"type": "DT_INT32"}}}, {"name": "g_synthesis/256x256_1/ToRGB/Reshape", "op": "Const", "attr": {"value": {"tensor": {"dtype": "DT_FLOAT", "tensorShape": {"dim": [{"size": "1"}, {"size": "3"}, {"size": "1"}, {"size": "1"}]}}}, "dtype": {"type": "DT_FLOAT"}}}, {"name": "g_synthesis/256x256_1/ToRGB/mul", "op": "Const", "attr": {"value": {"tensor": {"dtype": "DT_FLOAT", "tensorShape": {"dim": [{"size": "1"}, {"size": "1"}, {"size": "64"}, {"size": "3"}]}}}, "dtype": {"type": "DT_FLOAT"}}}, {"name": "g_synthesis/Reshape_11/shape", "op": "Const", "attr": {"value": {"tensor": {"dtype": "DT_INT32", "tensorShape": {"dim": [{"size": "4"}]}}}, "dtype": {"type": "DT_INT32"}}}, {"name": "g_synthesis/Reshape_10/shape", "op": "Const", "attr": {"value": {"tensor": {"dtype": "DT_INT32", "tensorShape": {"dim": [{"size": "6"}]}}}, "dtype": {"type": "DT_INT32"}}}, {"name": "g_synthesis/128x128_1/ToRGB/Reshape", "op": "Const", "attr": {"value": {"tensor": {"dtype": "DT_FLOAT", "tensorShape": {"dim": [{"size": "1"}, {"size": "3"}, {"size": "1"}, {"size": "1"}]}}}, "dtype": {"type": "DT_FLOAT"}}}, {"name": "g_synthesis/128x128_1/ToRGB/mul", "op": "Const", "attr": {"value": {"tensor": {"dtype": "DT_FLOAT", "tensorShape": {"dim": [{"size": "1"}, {"size": "1"}, {"size": "128"}, {"size": "3"}]}}}, "dtype": {"type": "DT_FLOAT"}}}, {"name": "g_synthesis/Reshape_9/shape", "op": "Const", "attr": {"value": {"tensor": {"dtype": "DT_INT32", "tensorShape": {"dim": [{"size": "4"}]}}}, "dtype": {"type": "DT_INT32"}}}, {"name": "g_synthesis/Reshape_8/shape", "op": "Const", "attr": {"value": {"tensor": {"dtype": "DT_INT32", "tensorShape": {"dim": [{"size": "6"}]}}}, "dtype": {"type": "DT_INT32"}}}, {"name": "g_synthesis/64x64_1/ToRGB/Reshape", "op": "Const", "attr": {"value": {"tensor": {"dtype": "DT_FLOAT", "tensorShape": {"dim": [{"size": "1"}, {"size": "3"}, {"size": "1"}, {"size": "1"}]}}}, "dtype": {"type": "DT_FLOAT"}}}, {"name": "g_synthesis/64x64_1/ToRGB/mul", "op": "Const", "attr": {"value": {"tensor": {"dtype": "DT_FLOAT", "tensorShape": {"dim": [{"size": "1"}, {"size": "1"}, {"size": "256"}, {"size": "3"}]}}}, "dtype": {"type": "DT_FLOAT"}}}, {"name": "g_synthesis/Reshape_7/shape", "op": "Const", "attr": {"value": {"tensor": {"dtype": "DT_INT32", "tensorShape": {"dim": [{"size": "4"}]}}}, "dtype": {"type": "DT_INT32"}}}, {"name": "g_synthesis/Reshape_6/shape", "op": "Const", "attr": {"value": {"tensor": {"dtype": "DT_INT32", "tensorShape": {"dim": [{"size": "6"}]}}}, "dtype": {"type": "DT_INT32"}}}, {"name": "g_synthesis/32x32_1/ToRGB/Reshape", "op": "Const", "attr": {"value": {"tensor": {"dtype": "DT_FLOAT", "tensorShape": {"dim": [{"size": "1"}, {"size": "3"}, {"size": "1"}, {"size": "1"}]}}}, "dtype": {"type": "DT_FLOAT"}}}, {"name": "g_synthesis/32x32_1/ToRGB/mul", "op": "Const", "attr": {"value": {"tensor": {"dtype": "DT_FLOAT", "tensorShape": {"dim": [{"size": "1"}, {"size": "1"}, {"size": "512"}, {"size": "3"}]}}}, "dtype": {"type": "DT_FLOAT"}}}, {"name": "g_synthesis/Reshape_5/shape", "op": "Const", "attr": {"value": {"tensor": {"dtype": "DT_INT32", "tensorShape": {"dim": [{"size": "4"}]}}}, "dtype": {"type": "DT_INT32"}}}, {"name": "g_synthesis/Reshape_4/shape", "op": "Const", "attr": {"value": {"tensor": {"dtype": "DT_INT32", "tensorShape": {"dim": [{"size": "6"}]}}}, "dtype": {"type": "DT_INT32"}}}, {"name": "g_synthesis/16x16_1/ToRGB/Reshape", "op": "Const", "attr": {"value": {"tensor": {"dtype": "DT_FLOAT", "tensorShape": {"dim": [{"size": "1"}, {"size": "3"}, {"size": "1"}, {"size": "1"}]}}}, "dtype": {"type": "DT_FLOAT"}}}, {"name": "g_synthesis/16x16_1/ToRGB/mul", "op": "Const", "attr": {"value": {"tensor": {"dtype": "DT_FLOAT", "tensorShape": {"dim": [{"size": "1"}, {"size": "1"}, {"size": "512"}, {"size": "3"}]}}}, "dtype": {"type": "DT_FLOAT"}}}, {"name": "g_synthesis/Reshape_3/shape", "op": "Const", "attr": {"value": {"tensor": {"dtype": "DT_INT32", "tensorShape": {"dim": [{"size": "4"}]}}}, "dtype": {"type": "DT_INT32"}}}, {"name": "g_synthesis/Reshape_2/shape", "op": "Const", "attr": {"value": {"tensor": {"dtype": "DT_INT32", "tensorShape": {"dim": [{"size": "6"}]}}}, "dtype": {"type": "DT_INT32"}}}, {"name": "g_synthesis/8x8_1/ToRGB/Reshape", "op": "Const", "attr": {"value": {"tensor": {"dtype": "DT_FLOAT", "tensorShape": {"dim": [{"size": "1"}, {"size": "3"}, {"size": "1"}, {"size": "1"}]}}}, "dtype": {"type": "DT_FLOAT"}}}, {"name": "g_synthesis/8x8_1/ToRGB/mul", "op": "Const", "attr": {"value": {"tensor": {"dtype": "DT_FLOAT", "tensorShape": {"dim": [{"size": "1"}, {"size": "1"}, {"size": "512"}, {"size": "3"}]}}}, "dtype": {"type": "DT_FLOAT"}}}, {"name": "g_synthesis/Reshape_1/shape", "op": "Const", "attr": {"value": {"tensor": {"dtype": "DT_INT32", "tensorShape": {"dim": [{"size": "4"}]}}}, "dtype": {"type": "DT_INT32"}}}, {"name": "g_synthesis/Reshape/shape", "op": "Const", "attr": {"value": {"tensor": {"dtype": "DT_INT32", "tensorShape": {"dim": [{"size": "6"}]}}}, "dtype": {"type": "DT_INT32"}}}, {"name": "g_synthesis/4x4_1/ToRGB/mul", "op": "Const", "attr": {"value": {"tensor": {"dtype": "DT_FLOAT", "tensorShape": {"dim": [{"size": "1"}, {"size": "1"}, {"size": "512"}, {"size": "3"}]}}}, "dtype": {"type": "DT_FLOAT"}}}, {"name": "g_mapping/PixelNorm/Square", "op": "Square", "input": ["z"], "attr": {"T": {"type": "DT_FLOAT"}}}, {"name": "g_mapping/PixelNorm/Mean", "op": "Mean", "input": ["g_mapping/PixelNorm/Square", "g_synthesis/4x4/Const/Tile/multiples/1"], "attr": {"keep_dims": {"b": true}, "Tidx": {"type": "DT_INT32"}, "T": {"type": "DT_FLOAT"}}}, {"name": "g_mapping/PixelNorm/add", "op": "Add", "input": ["g_mapping/PixelNorm/Mean", "g_synthesis/4x4/Const/InstanceNorm/epsilon"], "attr": {"T": {"type": "DT_FLOAT"}}}, {"name": "g_mapping/PixelNorm/Rsqrt", "op": "Rsqrt", "input": ["g_mapping/PixelNorm/add"], "attr": {"T": {"type": "DT_FLOAT"}}}, {"name": "g_mapping/PixelNorm/mul", "op": "Mul", "input": ["g_mapping/PixelNorm/Rsqrt", "z"], "attr": {"T": {"type": "DT_FLOAT"}}}, {"name": "g_mapping/Dense0/flatten/Shape", "op": "Shape", "input": ["g_mapping/PixelNorm/mul"], "attr": {"T": {"type": "DT_FLOAT"}, "out_type": {"type": "DT_INT32"}}}, {"name": "g_mapping/Dense0/flatten/strided_slice", "op": "StridedSlice", "input": ["g_mapping/Dense0/flatten/Shape", "g_synthesis/512x512/Conv0_up/strided_slice_4/stack", "g_synthesis/512x512/Conv0_up/strided_slice_4/stack_1", "g_synthesis/512x512/Conv0_up/strided_slice_4/stack_1"], "attr": {"T": {"type": "DT_INT32"}, "Index": {"type": "DT_INT32"}, "shrink_axis_mask": {"i": "1"}, "begin_mask": {"i": "0"}, "ellipsis_mask": {"i": "0"}, "new_axis_mask": {"i": "0"}, "end_mask": {"i": "0"}}}, {"name": "g_mapping/Dense0/flatten/Reshape/shape", "op": "Pack", "input": ["g_mapping/Dense0/flatten/strided_slice", "g_synthesis/4x4/Const/StyleMod/flatten/Reshape/shape/1"], "attr": {"T": {"type": "DT_INT32"}, "axis": {"i": "0"}, "N": {"i": "2"}}}, {"name": "g_mapping/Dense0/flatten/Reshape", "op": "Reshape", "input": ["g_mapping/PixelNorm/mul", "g_mapping/Dense0/flatten/Reshape/shape"], "attr": {"T": {"type": "DT_FLOAT"}, "Tshape": {"type": "DT_INT32"}}}, {"name": "g_mapping/Dense0/MatMul", "op": "MatMul", "input": ["g_mapping/Dense0/flatten/Reshape", "g_mapping/Dense0/mul"], "attr": {"transpose_b": {"b": false}, "T": {"type": "DT_FLOAT"}, "transpose_a": {"b": false}}}, {"name": "g_mapping/Dense0/add", "op": "Add", "input": ["g_mapping/Dense0/MatMul", "g_mapping/Dense0/mul_1"], "attr": {"T": {"type": "DT_FLOAT"}}}, {"name": "g_mapping/Dense0/LeakyRelu", "op": "LeakyRelu", "input": ["g_mapping/Dense0/add"], "attr": {"T": {"type": "DT_FLOAT"}, "alpha": {"f": 0.20000000298023224}}}, {"name": "g_mapping/Dense1/flatten/Shape", "op": "Shape", "input": ["g_mapping/Dense0/LeakyRelu"], "attr": {"T": {"type": "DT_FLOAT"}, "out_type": {"type": "DT_INT32"}}}, {"name": "g_mapping/Dense1/flatten/strided_slice", "op": "StridedSlice", "input": ["g_mapping/Dense1/flatten/Shape", "g_synthesis/512x512/Conv0_up/strided_slice_4/stack", "g_synthesis/512x512/Conv0_up/strided_slice_4/stack_1", "g_synthesis/512x512/Conv0_up/strided_slice_4/stack_1"], "attr": {"T": {"type": "DT_INT32"}, "Index": {"type": "DT_INT32"}, "shrink_axis_mask": {"i": "1"}, "begin_mask": {"i": "0"}, "ellipsis_mask": {"i": "0"}, "new_axis_mask": {"i": "0"}, "end_mask": {"i": "0"}}}, {"name": "g_mapping/Dense1/flatten/Reshape/shape", "op": "Pack", "input": ["g_mapping/Dense1/flatten/strided_slice", "g_synthesis/4x4/Const/StyleMod/flatten/Reshape/shape/1"], "attr": {"T": {"type": "DT_INT32"}, "axis": {"i": "0"}, "N": {"i": "2"}}}, {"name": "g_mapping/Dense1/flatten/Reshape", "op": "Reshape", "input": ["g_mapping/Dense0/LeakyRelu", "g_mapping/Dense1/flatten/Reshape/shape"], "attr": {"T": {"type": "DT_FLOAT"}, "Tshape": {"type": "DT_INT32"}}}, {"name": "g_mapping/Dense1/MatMul", "op": "MatMul", "input": ["g_mapping/Dense1/flatten/Reshape", "g_mapping/Dense1/mul"], "attr": {"transpose_b": {"b": false}, "T": {"type": "DT_FLOAT"}, "transpose_a": {"b": false}}}, {"name": "g_mapping/Dense1/add", "op": "Add", "input": ["g_mapping/Dense1/MatMul", "g_mapping/Dense1/mul_1"], "attr": {"T": {"type": "DT_FLOAT"}}}, {"name": "g_mapping/Dense1/LeakyRelu", "op": "LeakyRelu", "input": ["g_mapping/Dense1/add"], "attr": {"T": {"type": "DT_FLOAT"}, "alpha": {"f": 0.20000000298023224}}}, {"name": "g_mapping/Dense2/flatten/Shape", "op": "Shape", "input": ["g_mapping/Dense1/LeakyRelu"], "attr": {"T": {"type": "DT_FLOAT"}, "out_type": {"type": "DT_INT32"}}}, {"name": "g_mapping/Dense2/flatten/strided_slice", "op": "StridedSlice", "input": ["g_mapping/Dense2/flatten/Shape", "g_synthesis/512x512/Conv0_up/strided_slice_4/stack", "g_synthesis/512x512/Conv0_up/strided_slice_4/stack_1", "g_synthesis/512x512/Conv0_up/strided_slice_4/stack_1"], "attr": {"T": {"type": "DT_INT32"}, "Index": {"type": "DT_INT32"}, "shrink_axis_mask": {"i": "1"}, "begin_mask": {"i": "0"}, "ellipsis_mask": {"i": "0"}, "new_axis_mask": {"i": "0"}, "end_mask": {"i": "0"}}}, {"name": "g_mapping/Dense2/flatten/Reshape/shape", "op": "Pack", "input": ["g_mapping/Dense2/flatten/strided_slice", "g_synthesis/4x4/Const/StyleMod/flatten/Reshape/shape/1"], "attr": {"T": {"type": "DT_INT32"}, "axis": {"i": "0"}, "N": {"i": "2"}}}, {"name": "g_mapping/Dense2/flatten/Reshape", "op": "Reshape", "input": ["g_mapping/Dense1/LeakyRelu", "g_mapping/Dense2/flatten/Reshape/shape"], "attr": {"T": {"type": "DT_FLOAT"}, "Tshape": {"type": "DT_INT32"}}}, {"name": "g_mapping/Dense2/MatMul", "op": "MatMul", "input": ["g_mapping/Dense2/flatten/Reshape", "g_mapping/Dense2/mul"], "attr": {"transpose_b": {"b": false}, "T": {"type": "DT_FLOAT"}, "transpose_a": {"b": false}}}, {"name": "g_mapping/Dense2/add", "op": "Add", "input": ["g_mapping/Dense2/MatMul", "g_mapping/Dense2/mul_1"], "attr": {"T": {"type": "DT_FLOAT"}}}, {"name": "g_mapping/Dense2/LeakyRelu", "op": "LeakyRelu", "input": ["g_mapping/Dense2/add"], "attr": {"T": {"type": "DT_FLOAT"}, "alpha": {"f": 0.20000000298023224}}}, {"name": "g_mapping/Dense3/flatten/Shape", "op": "Shape", "input": ["g_mapping/Dense2/LeakyRelu"], "attr": {"T": {"type": "DT_FLOAT"}, "out_type": {"type": "DT_INT32"}}}, {"name": "g_mapping/Dense3/flatten/strided_slice", "op": "StridedSlice", "input": ["g_mapping/Dense3/flatten/Shape", "g_synthesis/512x512/Conv0_up/strided_slice_4/stack", "g_synthesis/512x512/Conv0_up/strided_slice_4/stack_1", "g_synthesis/512x512/Conv0_up/strided_slice_4/stack_1"], "attr": {"T": {"type": "DT_INT32"}, "Index": {"type": "DT_INT32"}, "shrink_axis_mask": {"i": "1"}, "begin_mask": {"i": "0"}, "ellipsis_mask": {"i": "0"}, "new_axis_mask": {"i": "0"}, "end_mask": {"i": "0"}}}, {"name": "g_mapping/Dense3/flatten/Reshape/shape", "op": "Pack", "input": ["g_mapping/Dense3/flatten/strided_slice", "g_synthesis/4x4/Const/StyleMod/flatten/Reshape/shape/1"], "attr": {"T": {"type": "DT_INT32"}, "axis": {"i": "0"}, "N": {"i": "2"}}}, {"name": "g_mapping/Dense3/flatten/Reshape", "op": "Reshape", "input": ["g_mapping/Dense2/LeakyRelu", "g_mapping/Dense3/flatten/Reshape/shape"], "attr": {"T": {"type": "DT_FLOAT"}, "Tshape": {"type": "DT_INT32"}}}, {"name": "g_mapping/Dense3/MatMul", "op": "MatMul", "input": ["g_mapping/Dense3/flatten/Reshape", "g_mapping/Dense3/mul"], "attr": {"transpose_b": {"b": false}, "T": {"type": "DT_FLOAT"}, "transpose_a": {"b": false}}}, {"name": "g_mapping/Dense3/add", "op": "Add", "input": ["g_mapping/Dense3/MatMul", "g_mapping/Dense3/mul_1"], "attr": {"T": {"type": "DT_FLOAT"}}}, {"name": "g_mapping/Dense3/LeakyRelu", "op": "LeakyRelu", "input": ["g_mapping/Dense3/add"], "attr": {"T": {"type": "DT_FLOAT"}, "alpha": {"f": 0.20000000298023224}}}, {"name": "g_mapping/Dense4/flatten/Shape", "op": "Shape", "input": ["g_mapping/Dense3/LeakyRelu"], "attr": {"T": {"type": "DT_FLOAT"}, "out_type": {"type": "DT_INT32"}}}, {"name": "g_mapping/Dense4/flatten/strided_slice", "op": "StridedSlice", "input": ["g_mapping/Dense4/flatten/Shape", "g_synthesis/512x512/Conv0_up/strided_slice_4/stack", "g_synthesis/512x512/Conv0_up/strided_slice_4/stack_1", "g_synthesis/512x512/Conv0_up/strided_slice_4/stack_1"], "attr": {"T": {"type": "DT_INT32"}, "Index": {"type": "DT_INT32"}, "shrink_axis_mask": {"i": "1"}, "begin_mask": {"i": "0"}, "ellipsis_mask": {"i": "0"}, "new_axis_mask": {"i": "0"}, "end_mask": {"i": "0"}}}, {"name": "g_mapping/Dense4/flatten/Reshape/shape", "op": "Pack", "input": ["g_mapping/Dense4/flatten/strided_slice", "g_synthesis/4x4/Const/StyleMod/flatten/Reshape/shape/1"], "attr": {"T": {"type": "DT_INT32"}, "axis": {"i": "0"}, "N": {"i": "2"}}}, {"name": "g_mapping/Dense4/flatten/Reshape", "op": "Reshape", "input": ["g_mapping/Dense3/LeakyRelu", "g_mapping/Dense4/flatten/Reshape/shape"], "attr": {"T": {"type": "DT_FLOAT"}, "Tshape": {"type": "DT_INT32"}}}, {"name": "g_mapping/Dense4/MatMul", "op": "MatMul", "input": ["g_mapping/Dense4/flatten/Reshape", "g_mapping/Dense4/mul"], "attr": {"transpose_b": {"b": false}, "T": {"type": "DT_FLOAT"}, "transpose_a": {"b": false}}}, {"name": "g_mapping/Dense4/add", "op": "Add", "input": ["g_mapping/Dense4/MatMul", "g_mapping/Dense4/mul_1"], "attr": {"T": {"type": "DT_FLOAT"}}}, {"name": "g_mapping/Dense4/LeakyRelu", "op": "LeakyRelu", "input": ["g_mapping/Dense4/add"], "attr": {"T": {"type": "DT_FLOAT"}, "alpha": {"f": 0.20000000298023224}}}, {"name": "g_mapping/Dense5/flatten/Shape", "op": "Shape", "input": ["g_mapping/Dense4/LeakyRelu"], "attr": {"T": {"type": "DT_FLOAT"}, "out_type": {"type": "DT_INT32"}}}, {"name": "g_mapping/Dense5/flatten/strided_slice", "op": "StridedSlice", "input": ["g_mapping/Dense5/flatten/Shape", "g_synthesis/512x512/Conv0_up/strided_slice_4/stack", "g_synthesis/512x512/Conv0_up/strided_slice_4/stack_1", "g_synthesis/512x512/Conv0_up/strided_slice_4/stack_1"], "attr": {"T": {"type": "DT_INT32"}, "Index": {"type": "DT_INT32"}, "shrink_axis_mask": {"i": "1"}, "begin_mask": {"i": "0"}, "ellipsis_mask": {"i": "0"}, "new_axis_mask": {"i": "0"}, "end_mask": {"i": "0"}}}, {"name": "g_mapping/Dense5/flatten/Reshape/shape", "op": "Pack", "input": ["g_mapping/Dense5/flatten/strided_slice", "g_synthesis/4x4/Const/StyleMod/flatten/Reshape/shape/1"], "attr": {"T": {"type": "DT_INT32"}, "axis": {"i": "0"}, "N": {"i": "2"}}}, {"name": "g_mapping/Dense5/flatten/Reshape", "op": "Reshape", "input": ["g_mapping/Dense4/LeakyRelu", "g_mapping/Dense5/flatten/Reshape/shape"], "attr": {"T": {"type": "DT_FLOAT"}, "Tshape": {"type": "DT_INT32"}}}, {"name": "g_mapping/Dense5/MatMul", "op": "MatMul", "input": ["g_mapping/Dense5/flatten/Reshape", "g_mapping/Dense5/mul"], "attr": {"transpose_b": {"b": false}, "T": {"type": "DT_FLOAT"}, "transpose_a": {"b": false}}}, {"name": "g_mapping/Dense5/add", "op": "Add", "input": ["g_mapping/Dense5/MatMul", "g_mapping/Dense5/mul_1"], "attr": {"T": {"type": "DT_FLOAT"}}}, {"name": "g_mapping/Dense5/LeakyRelu", "op": "LeakyRelu", "input": ["g_mapping/Dense5/add"], "attr": {"T": {"type": "DT_FLOAT"}, "alpha": {"f": 0.20000000298023224}}}, {"name": "g_mapping/Dense6/flatten/Shape", "op": "Shape", "input": ["g_mapping/Dense5/LeakyRelu"], "attr": {"T": {"type": "DT_FLOAT"}, "out_type": {"type": "DT_INT32"}}}, {"name": "g_mapping/Dense6/flatten/strided_slice", "op": "StridedSlice", "input": ["g_mapping/Dense6/flatten/Shape", "g_synthesis/512x512/Conv0_up/strided_slice_4/stack", "g_synthesis/512x512/Conv0_up/strided_slice_4/stack_1", "g_synthesis/512x512/Conv0_up/strided_slice_4/stack_1"], "attr": {"T": {"type": "DT_INT32"}, "Index": {"type": "DT_INT32"}, "shrink_axis_mask": {"i": "1"}, "begin_mask": {"i": "0"}, "ellipsis_mask": {"i": "0"}, "new_axis_mask": {"i": "0"}, "end_mask": {"i": "0"}}}, {"name": "g_mapping/Dense6/flatten/Reshape/shape", "op": "Pack", "input": ["g_mapping/Dense6/flatten/strided_slice", "g_synthesis/4x4/Const/StyleMod/flatten/Reshape/shape/1"], "attr": {"T": {"type": "DT_INT32"}, "axis": {"i": "0"}, "N": {"i": "2"}}}, {"name": "g_mapping/Dense6/flatten/Reshape", "op": "Reshape", "input": ["g_mapping/Dense5/LeakyRelu", "g_mapping/Dense6/flatten/Reshape/shape"], "attr": {"T": {"type": "DT_FLOAT"}, "Tshape": {"type": "DT_INT32"}}}, {"name": "g_mapping/Dense6/MatMul", "op": "MatMul", "input": ["g_mapping/Dense6/flatten/Reshape", "g_mapping/Dense6/mul"], "attr": {"transpose_b": {"b": false}, "T": {"type": "DT_FLOAT"}, "transpose_a": {"b": false}}}, {"name": "g_mapping/Dense6/add", "op": "Add", "input": ["g_mapping/Dense6/MatMul", "g_mapping/Dense6/mul_1"], "attr": {"T": {"type": "DT_FLOAT"}}}, {"name": "g_mapping/Dense6/LeakyRelu", "op": "LeakyRelu", "input": ["g_mapping/Dense6/add"], "attr": {"T": {"type": "DT_FLOAT"}, "alpha": {"f": 0.20000000298023224}}}, {"name": "g_mapping/Dense7/flatten/Shape", "op": "Shape", "input": ["g_mapping/Dense6/LeakyRelu"], "attr": {"T": {"type": "DT_FLOAT"}, "out_type": {"type": "DT_INT32"}}}, {"name": "g_mapping/Dense7/flatten/strided_slice", "op": "StridedSlice", "input": ["g_mapping/Dense7/flatten/Shape", "g_synthesis/512x512/Conv0_up/strided_slice_4/stack", "g_synthesis/512x512/Conv0_up/strided_slice_4/stack_1", "g_synthesis/512x512/Conv0_up/strided_slice_4/stack_1"], "attr": {"T": {"type": "DT_INT32"}, "Index": {"type": "DT_INT32"}, "shrink_axis_mask": {"i": "1"}, "begin_mask": {"i": "0"}, "ellipsis_mask": {"i": "0"}, "new_axis_mask": {"i": "0"}, "end_mask": {"i": "0"}}}, {"name": "g_mapping/Dense7/flatten/Reshape/shape", "op": "Pack", "input": ["g_mapping/Dense7/flatten/strided_slice", "g_synthesis/4x4/Const/StyleMod/flatten/Reshape/shape/1"], "attr": {"T": {"type": "DT_INT32"}, "axis": {"i": "0"}, "N": {"i": "2"}}}, {"name": "g_mapping/Dense7/flatten/Reshape", "op": "Reshape", "input": ["g_mapping/Dense6/LeakyRelu", "g_mapping/Dense7/flatten/Reshape/shape"], "attr": {"T": {"type": "DT_FLOAT"}, "Tshape": {"type": "DT_INT32"}}}, {"name": "g_mapping/Dense7/MatMul", "op": "MatMul", "input": ["g_mapping/Dense7/flatten/Reshape", "g_mapping/Dense7/mul"], "attr": {"transpose_b": {"b": false}, "T": {"type": "DT_FLOAT"}, "transpose_a": {"b": false}}}, {"name": "g_mapping/Dense7/add", "op": "Add", "input": ["g_mapping/Dense7/MatMul", "g_mapping/Dense7/mul_1"], "attr": {"T": {"type": "DT_FLOAT"}}}, {"name": "g_mapping/Dense7/LeakyRelu", "op": "LeakyRelu", "input": ["g_mapping/Dense7/add"], "attr": {"T": {"type": "DT_FLOAT"}, "alpha": {"f": 0.20000000298023224}}}, {"name": "g_mapping/Broadcast/ExpandDims", "op": "ExpandDims", "input": ["g_mapping/Dense7/LeakyRelu", "g_synthesis/4x4/Const/Tile/multiples/1"], "attr": {"Tdim": {"type": "DT_INT32"}, "T": {"type": "DT_FLOAT"}}}, {"name": "g_mapping/Broadcast/Tile", "op": "Tile", "input": ["g_mapping/Broadcast/ExpandDims", "g_mapping/Broadcast/Tile/multiples"], "attr": {"Tmultiples": {"type": "DT_INT32"}, "T": {"type": "DT_FLOAT"}}}, {"name": "Truncation/Lerp/sub", "op": "Sub", "input": ["g_mapping/Broadcast/Tile", "w_avg"], "attr": {"T": {"type": "DT_FLOAT"}}}, {"name": "Truncation/Lerp/mul", "op": "Mul", "input": ["Truncation/Lerp/sub", "Truncation/Select"], "attr": {"T": {"type": "DT_FLOAT"}}}, {"name": "Truncation/Lerp/add", "op": "Add", "input": ["Truncation/Lerp/mul", "w_avg"], "attr": {"T": {"type": "DT_FLOAT"}}}, {"name": "g_synthesis/strided_slice_16", "op": "StridedSlice", "input": ["Truncation/Lerp/add", "g_synthesis/strided_slice_15/stack_1", "g_synthesis/strided_slice_16/stack_1", "g_synthesis/4x4/Const/StyleMod/strided_slice/stack_2"], "attr": {"T": {"type": "DT_FLOAT"}, "Index": {"type": "DT_INT32"}, "shrink_axis_mask": {"i": "2"}, "begin_mask": {"i": "1"}, "ellipsis_mask": {"i": "0"}, "new_axis_mask": {"i": "0"}, "end_mask": {"i": "1"}}}, {"name": "g_synthesis/strided_slice_15", "op": "StridedSlice", "input": ["Truncation/Lerp/add", "g_synthesis/strided_slice_14/stack_1", "g_synthesis/strided_slice_15/stack_1", "g_synthesis/4x4/Const/StyleMod/strided_slice/stack_2"], "attr": {"T": {"type": "DT_FLOAT"}, "Index": {"type": "DT_INT32"}, "shrink_axis_mask": {"i": "2"}, "begin_mask": {"i": "1"}, "ellipsis_mask": {"i": "0"}, "new_axis_mask": {"i": "0"}, "end_mask": {"i": "1"}}}, {"name": "g_synthesis/strided_slice_14", "op": "StridedSlice", "input": ["Truncation/Lerp/add", "g_synthesis/strided_slice_13/stack_1", "g_synthesis/strided_slice_14/stack_1", "g_synthesis/4x4/Const/StyleMod/strided_slice/stack_2"], "attr": {"T": {"type": "DT_FLOAT"}, "Index": {"type": "DT_INT32"}, "shrink_axis_mask": {"i": "2"}, "begin_mask": {"i": "1"}, "ellipsis_mask": {"i": "0"}, "new_axis_mask": {"i": "0"}, "end_mask": {"i": "1"}}}, {"name": "g_synthesis/strided_slice_13", "op": "StridedSlice", "input": ["Truncation/Lerp/add", "g_synthesis/strided_slice_12/stack_1", "g_synthesis/strided_slice_13/stack_1", "g_synthesis/4x4/Const/StyleMod/strided_slice/stack_2"], "attr": {"T": {"type": "DT_FLOAT"}, "Index": {"type": "DT_INT32"}, "shrink_axis_mask": {"i": "2"}, "begin_mask": {"i": "1"}, "ellipsis_mask": {"i": "0"}, "new_axis_mask": {"i": "0"}, "end_mask": {"i": "1"}}}, {"name": "g_synthesis/strided_slice_12", "op": "StridedSlice", "input": ["Truncation/Lerp/add", "g_synthesis/strided_slice_11/stack_1", "g_synthesis/strided_slice_12/stack_1", "g_synthesis/4x4/Const/StyleMod/strided_slice/stack_2"], "attr": {"T": {"type": "DT_FLOAT"}, "Index": {"type": "DT_INT32"}, "shrink_axis_mask": {"i": "2"}, "begin_mask": {"i": "1"}, "ellipsis_mask": {"i": "0"}, "new_axis_mask": {"i": "0"}, "end_mask": {"i": "1"}}}, {"name": "g_synthesis/strided_slice_11", "op": "StridedSlice", "input": ["Truncation/Lerp/add", "g_synthesis/strided_slice_10/stack_1", "g_synthesis/strided_slice_11/stack_1", "g_synthesis/4x4/Const/StyleMod/strided_slice/stack_2"], "attr": {"T": {"type": "DT_FLOAT"}, "Index": {"type": "DT_INT32"}, "shrink_axis_mask": {"i": "2"}, "begin_mask": {"i": "1"}, "ellipsis_mask": {"i": "0"}, "new_axis_mask": {"i": "0"}, "end_mask": {"i": "1"}}}, {"name": "g_synthesis/strided_slice_10", "op": "StridedSlice", "input": ["Truncation/Lerp/add", "g_synthesis/strided_slice_9/stack_1", "g_synthesis/strided_slice_10/stack_1", "g_synthesis/4x4/Const/StyleMod/strided_slice/stack_2"], "attr": {"T": {"type": "DT_FLOAT"}, "Index": {"type": "DT_INT32"}, "shrink_axis_mask": {"i": "2"}, "begin_mask": {"i": "1"}, "ellipsis_mask": {"i": "0"}, "new_axis_mask": {"i": "0"}, "end_mask": {"i": "1"}}}, {"name": "g_synthesis/strided_slice_9", "op": "StridedSlice", "input": ["Truncation/Lerp/add", "g_synthesis/strided_slice_8/stack_1", "g_synthesis/strided_slice_9/stack_1", "g_synthesis/4x4/Const/StyleMod/strided_slice/stack_2"], "attr": {"T": {"type": "DT_FLOAT"}, "Index": {"type": "DT_INT32"}, "shrink_axis_mask": {"i": "2"}, "begin_mask": {"i": "1"}, "ellipsis_mask": {"i": "0"}, "new_axis_mask": {"i": "0"}, "end_mask": {"i": "1"}}}, {"name": "g_synthesis/strided_slice_8", "op": "StridedSlice", "input": ["Truncation/Lerp/add", "g_synthesis/strided_slice_7/stack_1", "g_synthesis/strided_slice_8/stack_1", "g_synthesis/4x4/Const/StyleMod/strided_slice/stack_2"], "attr": {"T": {"type": "DT_FLOAT"}, "Index": {"type": "DT_INT32"}, "shrink_axis_mask": {"i": "2"}, "begin_mask": {"i": "1"}, "ellipsis_mask": {"i": "0"}, "new_axis_mask": {"i": "0"}, "end_mask": {"i": "1"}}}, {"name": "g_synthesis/strided_slice_7", "op": "StridedSlice", "input": ["Truncation/Lerp/add", "g_synthesis/strided_slice_6/stack_1", "g_synthesis/strided_slice_7/stack_1", "g_synthesis/4x4/Const/StyleMod/strided_slice/stack_2"], "attr": {"T": {"type": "DT_FLOAT"}, "Index": {"type": "DT_INT32"}, "shrink_axis_mask": {"i": "2"}, "begin_mask": {"i": "1"}, "ellipsis_mask": {"i": "0"}, "new_axis_mask": {"i": "0"}, "end_mask": {"i": "1"}}}, {"name": "g_synthesis/strided_slice_6", "op": "StridedSlice", "input": ["Truncation/Lerp/add", "g_synthesis/strided_slice_5/stack_1", "g_synthesis/strided_slice_6/stack_1", "g_synthesis/4x4/Const/StyleMod/strided_slice/stack_2"], "attr": {"T": {"type": "DT_FLOAT"}, "Index": {"type": "DT_INT32"}, "shrink_axis_mask": {"i": "2"}, "begin_mask": {"i": "1"}, "ellipsis_mask": {"i": "0"}, "new_axis_mask": {"i": "0"}, "end_mask": {"i": "1"}}}, {"name": "g_synthesis/strided_slice_5", "op": "StridedSlice", "input": ["Truncation/Lerp/add", "g_synthesis/strided_slice_4/stack_1", "g_synthesis/strided_slice_5/stack_1", "g_synthesis/4x4/Const/StyleMod/strided_slice/stack_2"], "attr": {"T": {"type": "DT_FLOAT"}, "Index": {"type": "DT_INT32"}, "shrink_axis_mask": {"i": "2"}, "begin_mask": {"i": "1"}, "ellipsis_mask": {"i": "0"}, "new_axis_mask": {"i": "0"}, "end_mask": {"i": "1"}}}, {"name": "g_synthesis/strided_slice_4", "op": "StridedSlice", "input": ["Truncation/Lerp/add", "g_synthesis/strided_slice_3/stack_1", "g_synthesis/strided_slice_4/stack_1", "g_synthesis/4x4/Const/StyleMod/strided_slice/stack_2"], "attr": {"T": {"type": "DT_FLOAT"}, "Index": {"type": "DT_INT32"}, "shrink_axis_mask": {"i": "2"}, "begin_mask": {"i": "1"}, "ellipsis_mask": {"i": "0"}, "new_axis_mask": {"i": "0"}, "end_mask": {"i": "1"}}}, {"name": "g_synthesis/strided_slice_3", "op": "StridedSlice", "input": ["Truncation/Lerp/add", "g_synthesis/4x4/Const/StyleMod/strided_slice_1/stack_1", "g_synthesis/strided_slice_3/stack_1", "g_synthesis/4x4/Const/StyleMod/strided_slice/stack_2"], "attr": {"T": {"type": "DT_FLOAT"}, "Index": {"type": "DT_INT32"}, "shrink_axis_mask": {"i": "2"}, "begin_mask": {"i": "1"}, "ellipsis_mask": {"i": "0"}, "new_axis_mask": {"i": "0"}, "end_mask": {"i": "1"}}}, {"name": "g_synthesis/strided_slice_1", "op": "StridedSlice", "input": ["Truncation/Lerp/add", "g_synthesis/4x4/Const/StyleMod/strided_slice/stack_1", "g_synthesis/4x4/Const/StyleMod/strided_slice_1/stack_1", "g_synthesis/4x4/Const/StyleMod/strided_slice/stack_2"], "attr": {"T": {"type": "DT_FLOAT"}, "Index": {"type": "DT_INT32"}, "shrink_axis_mask": {"i": "2"}, "begin_mask": {"i": "1"}, "ellipsis_mask": {"i": "0"}, "new_axis_mask": {"i": "0"}, "end_mask": {"i": "1"}}}, {"name": "g_synthesis/strided_slice", "op": "StridedSlice", "input": ["Truncation/Lerp/add", "g_synthesis/4x4/Const/StyleMod/strided_slice/stack", "g_synthesis/4x4/Const/StyleMod/strided_slice/stack_1", "g_synthesis/4x4/Const/StyleMod/strided_slice/stack_2"], "attr": {"T": {"type": "DT_FLOAT"}, "Index": {"type": "DT_INT32"}, "shrink_axis_mask": {"i": "2"}, "begin_mask": {"i": "1"}, "ellipsis_mask": {"i": "0"}, "new_axis_mask": {"i": "0"}, "end_mask": {"i": "1"}}}, {"name": "g_synthesis/512x512/Conv1/StyleMod/flatten/Shape", "op": "Shape", "input": ["g_synthesis/strided_slice_16"], "attr": {"T": {"type": "DT_FLOAT"}, "out_type": {"type": "DT_INT32"}}}, {"name": "g_synthesis/512x512/Conv0_up/StyleMod/flatten/Shape", "op": "Shape", "input": ["g_synthesis/strided_slice_15"], "attr": {"T": {"type": "DT_FLOAT"}, "out_type": {"type": "DT_INT32"}}}, {"name": "g_synthesis/256x256/Conv1/StyleMod/flatten/Shape", "op": "Shape", "input": ["g_synthesis/strided_slice_14"], "attr": {"T": {"type": "DT_FLOAT"}, "out_type": {"type": "DT_INT32"}}}, {"name": "g_synthesis/256x256/Conv0_up/StyleMod/flatten/Shape", "op": "Shape", "input": ["g_synthesis/strided_slice_13"], "attr": {"T": {"type": "DT_FLOAT"}, "out_type": {"type": "DT_INT32"}}}, {"name": "g_synthesis/128x128/Conv1/StyleMod/flatten/Shape", "op": "Shape", "input": ["g_synthesis/strided_slice_12"], "attr": {"T": {"type": "DT_FLOAT"}, "out_type": {"type": "DT_INT32"}}}, {"name": "g_synthesis/128x128/Conv0_up/StyleMod/flatten/Shape", "op": "Shape", "input": ["g_synthesis/strided_slice_11"], "attr": {"T": {"type": "DT_FLOAT"}, "out_type": {"type": "DT_INT32"}}}, {"name": "g_synthesis/64x64/Conv1/StyleMod/flatten/Shape", "op": "Shape", "input": ["g_synthesis/strided_slice_10"], "attr": {"T": {"type": "DT_FLOAT"}, "out_type": {"type": "DT_INT32"}}}, {"name": "g_synthesis/64x64/Conv0_up/StyleMod/flatten/Shape", "op": "Shape", "input": ["g_synthesis/strided_slice_9"], "attr": {"T": {"type": "DT_FLOAT"}, "out_type": {"type": "DT_INT32"}}}, {"name": "g_synthesis/32x32/Conv1/StyleMod/flatten/Shape", "op": "Shape", "input": ["g_synthesis/strided_slice_8"], "attr": {"T": {"type": "DT_FLOAT"}, "out_type": {"type": "DT_INT32"}}}, {"name": "g_synthesis/32x32/Conv0_up/StyleMod/flatten/Shape", "op": "Shape", "input": ["g_synthesis/strided_slice_7"], "attr": {"T": {"type": "DT_FLOAT"}, "out_type": {"type": "DT_INT32"}}}, {"name": "g_synthesis/16x16/Conv1/StyleMod/flatten/Shape", "op": "Shape", "input": ["g_synthesis/strided_slice_6"], "attr": {"T": {"type": "DT_FLOAT"}, "out_type": {"type": "DT_INT32"}}}, {"name": "g_synthesis/16x16/Conv0_up/StyleMod/flatten/Shape", "op": "Shape", "input": ["g_synthesis/strided_slice_5"], "attr": {"T": {"type": "DT_FLOAT"}, "out_type": {"type": "DT_INT32"}}}, {"name": "g_synthesis/8x8/Conv1/StyleMod/flatten/Shape", "op": "Shape", "input": ["g_synthesis/strided_slice_4"], "attr": {"T": {"type": "DT_FLOAT"}, "out_type": {"type": "DT_INT32"}}}, {"name": "g_synthesis/8x8/Conv0_up/StyleMod/flatten/Shape", "op": "Shape", "input": ["g_synthesis/strided_slice_3"], "attr": {"T": {"type": "DT_FLOAT"}, "out_type": {"type": "DT_INT32"}}}, {"name": "g_synthesis/4x4/Conv/StyleMod/flatten/Shape", "op": "Shape", "input": ["g_synthesis/strided_slice_1"], "attr": {"T": {"type": "DT_FLOAT"}, "out_type": {"type": "DT_INT32"}}}, {"name": "g_synthesis/Shape", "op": "Shape", "input": ["g_synthesis/strided_slice"], "attr": {"T": {"type": "DT_FLOAT"}, "out_type": {"type": "DT_INT32"}}}, {"name": "g_synthesis/512x512/Conv1/StyleMod/flatten/strided_slice", "op": "StridedSlice", "input": ["g_synthesis/512x512/Conv1/StyleMod/flatten/Shape", "g_synthesis/512x512/Conv0_up/strided_slice_4/stack", "g_synthesis/512x512/Conv0_up/strided_slice_4/stack_1", "g_synthesis/512x512/Conv0_up/strided_slice_4/stack_1"], "attr": {"T": {"type": "DT_INT32"}, "Index": {"type": "DT_INT32"}, "shrink_axis_mask": {"i": "1"}, "begin_mask": {"i": "0"}, "ellipsis_mask": {"i": "0"}, "new_axis_mask": {"i": "0"}, "end_mask": {"i": "0"}}}, {"name": "g_synthesis/512x512/Conv0_up/StyleMod/flatten/strided_slice", "op": "StridedSlice", "input": ["g_synthesis/512x512/Conv0_up/StyleMod/flatten/Shape", "g_synthesis/512x512/Conv0_up/strided_slice_4/stack", "g_synthesis/512x512/Conv0_up/strided_slice_4/stack_1", "g_synthesis/512x512/Conv0_up/strided_slice_4/stack_1"], "attr": {"T": {"type": "DT_INT32"}, "Index": {"type": "DT_INT32"}, "shrink_axis_mask": {"i": "1"}, "begin_mask": {"i": "0"}, "ellipsis_mask": {"i": "0"}, "new_axis_mask": {"i": "0"}, "end_mask": {"i": "0"}}}, {"name": "g_synthesis/256x256/Conv1/StyleMod/flatten/strided_slice", "op": "StridedSlice", "input": ["g_synthesis/256x256/Conv1/StyleMod/flatten/Shape", "g_synthesis/512x512/Conv0_up/strided_slice_4/stack", "g_synthesis/512x512/Conv0_up/strided_slice_4/stack_1", "g_synthesis/512x512/Conv0_up/strided_slice_4/stack_1"], "attr": {"T": {"type": "DT_INT32"}, "Index": {"type": "DT_INT32"}, "shrink_axis_mask": {"i": "1"}, "begin_mask": {"i": "0"}, "ellipsis_mask": {"i": "0"}, "new_axis_mask": {"i": "0"}, "end_mask": {"i": "0"}}}, {"name": "g_synthesis/256x256/Conv0_up/StyleMod/flatten/strided_slice", "op": "StridedSlice", "input": ["g_synthesis/256x256/Conv0_up/StyleMod/flatten/Shape", "g_synthesis/512x512/Conv0_up/strided_slice_4/stack", "g_synthesis/512x512/Conv0_up/strided_slice_4/stack_1", "g_synthesis/512x512/Conv0_up/strided_slice_4/stack_1"], "attr": {"T": {"type": "DT_INT32"}, "Index": {"type": "DT_INT32"}, "shrink_axis_mask": {"i": "1"}, "begin_mask": {"i": "0"}, "ellipsis_mask": {"i": "0"}, "new_axis_mask": {"i": "0"}, "end_mask": {"i": "0"}}}, {"name": "g_synthesis/128x128/Conv1/StyleMod/flatten/strided_slice", "op": "StridedSlice", "input": ["g_synthesis/128x128/Conv1/StyleMod/flatten/Shape", "g_synthesis/512x512/Conv0_up/strided_slice_4/stack", "g_synthesis/512x512/Conv0_up/strided_slice_4/stack_1", "g_synthesis/512x512/Conv0_up/strided_slice_4/stack_1"], "attr": {"T": {"type": "DT_INT32"}, "Index": {"type": "DT_INT32"}, "shrink_axis_mask": {"i": "1"}, "begin_mask": {"i": "0"}, "ellipsis_mask": {"i": "0"}, "new_axis_mask": {"i": "0"}, "end_mask": {"i": "0"}}}, {"name": "g_synthesis/128x128/Conv0_up/StyleMod/flatten/strided_slice", "op": "StridedSlice", "input": ["g_synthesis/128x128/Conv0_up/StyleMod/flatten/Shape", "g_synthesis/512x512/Conv0_up/strided_slice_4/stack", "g_synthesis/512x512/Conv0_up/strided_slice_4/stack_1", "g_synthesis/512x512/Conv0_up/strided_slice_4/stack_1"], "attr": {"T": {"type": "DT_INT32"}, "Index": {"type": "DT_INT32"}, "shrink_axis_mask": {"i": "1"}, "begin_mask": {"i": "0"}, "ellipsis_mask": {"i": "0"}, "new_axis_mask": {"i": "0"}, "end_mask": {"i": "0"}}}, {"name": "g_synthesis/64x64/Conv1/StyleMod/flatten/strided_slice", "op": "StridedSlice", "input": ["g_synthesis/64x64/Conv1/StyleMod/flatten/Shape", "g_synthesis/512x512/Conv0_up/strided_slice_4/stack", "g_synthesis/512x512/Conv0_up/strided_slice_4/stack_1", "g_synthesis/512x512/Conv0_up/strided_slice_4/stack_1"], "attr": {"T": {"type": "DT_INT32"}, "Index": {"type": "DT_INT32"}, "shrink_axis_mask": {"i": "1"}, "begin_mask": {"i": "0"}, "ellipsis_mask": {"i": "0"}, "new_axis_mask": {"i": "0"}, "end_mask": {"i": "0"}}}, {"name": "g_synthesis/64x64/Conv0_up/StyleMod/flatten/strided_slice", "op": "StridedSlice", "input": ["g_synthesis/64x64/Conv0_up/StyleMod/flatten/Shape", "g_synthesis/512x512/Conv0_up/strided_slice_4/stack", "g_synthesis/512x512/Conv0_up/strided_slice_4/stack_1", "g_synthesis/512x512/Conv0_up/strided_slice_4/stack_1"], "attr": {"T": {"type": "DT_INT32"}, "Index": {"type": "DT_INT32"}, "shrink_axis_mask": {"i": "1"}, "begin_mask": {"i": "0"}, "ellipsis_mask": {"i": "0"}, "new_axis_mask": {"i": "0"}, "end_mask": {"i": "0"}}}, {"name": "g_synthesis/32x32/Conv1/StyleMod/flatten/strided_slice", "op": "StridedSlice", "input": ["g_synthesis/32x32/Conv1/StyleMod/flatten/Shape", "g_synthesis/512x512/Conv0_up/strided_slice_4/stack", "g_synthesis/512x512/Conv0_up/strided_slice_4/stack_1", "g_synthesis/512x512/Conv0_up/strided_slice_4/stack_1"], "attr": {"T": {"type": "DT_INT32"}, "Index": {"type": "DT_INT32"}, "shrink_axis_mask": {"i": "1"}, "begin_mask": {"i": "0"}, "ellipsis_mask": {"i": "0"}, "new_axis_mask": {"i": "0"}, "end_mask": {"i": "0"}}}, {"name": "g_synthesis/32x32/Conv0_up/StyleMod/flatten/strided_slice", "op": "StridedSlice", "input": ["g_synthesis/32x32/Conv0_up/StyleMod/flatten/Shape", "g_synthesis/512x512/Conv0_up/strided_slice_4/stack", "g_synthesis/512x512/Conv0_up/strided_slice_4/stack_1", "g_synthesis/512x512/Conv0_up/strided_slice_4/stack_1"], "attr": {"T": {"type": "DT_INT32"}, "Index": {"type": "DT_INT32"}, "shrink_axis_mask": {"i": "1"}, "begin_mask": {"i": "0"}, "ellipsis_mask": {"i": "0"}, "new_axis_mask": {"i": "0"}, "end_mask": {"i": "0"}}}, {"name": "g_synthesis/16x16/Conv1/StyleMod/flatten/strided_slice", "op": "StridedSlice", "input": ["g_synthesis/16x16/Conv1/StyleMod/flatten/Shape", "g_synthesis/512x512/Conv0_up/strided_slice_4/stack", "g_synthesis/512x512/Conv0_up/strided_slice_4/stack_1", "g_synthesis/512x512/Conv0_up/strided_slice_4/stack_1"], "attr": {"T": {"type": "DT_INT32"}, "Index": {"type": "DT_INT32"}, "shrink_axis_mask": {"i": "1"}, "begin_mask": {"i": "0"}, "ellipsis_mask": {"i": "0"}, "new_axis_mask": {"i": "0"}, "end_mask": {"i": "0"}}}, {"name": "g_synthesis/16x16/Conv0_up/StyleMod/flatten/strided_slice", "op": "StridedSlice", "input": ["g_synthesis/16x16/Conv0_up/StyleMod/flatten/Shape", "g_synthesis/512x512/Conv0_up/strided_slice_4/stack", "g_synthesis/512x512/Conv0_up/strided_slice_4/stack_1", "g_synthesis/512x512/Conv0_up/strided_slice_4/stack_1"], "attr": {"T": {"type": "DT_INT32"}, "Index": {"type": "DT_INT32"}, "shrink_axis_mask": {"i": "1"}, "begin_mask": {"i": "0"}, "ellipsis_mask": {"i": "0"}, "new_axis_mask": {"i": "0"}, "end_mask": {"i": "0"}}}, {"name": "g_synthesis/8x8/Conv1/StyleMod/flatten/strided_slice", "op": "StridedSlice", "input": ["g_synthesis/8x8/Conv1/StyleMod/flatten/Shape", "g_synthesis/512x512/Conv0_up/strided_slice_4/stack", "g_synthesis/512x512/Conv0_up/strided_slice_4/stack_1", "g_synthesis/512x512/Conv0_up/strided_slice_4/stack_1"], "attr": {"T": {"type": "DT_INT32"}, "Index": {"type": "DT_INT32"}, "shrink_axis_mask": {"i": "1"}, "begin_mask": {"i": "0"}, "ellipsis_mask": {"i": "0"}, "new_axis_mask": {"i": "0"}, "end_mask": {"i": "0"}}}, {"name": "g_synthesis/8x8/Conv0_up/StyleMod/flatten/strided_slice", "op": "StridedSlice", "input": ["g_synthesis/8x8/Conv0_up/StyleMod/flatten/Shape", "g_synthesis/512x512/Conv0_up/strided_slice_4/stack", "g_synthesis/512x512/Conv0_up/strided_slice_4/stack_1", "g_synthesis/512x512/Conv0_up/strided_slice_4/stack_1"], "attr": {"T": {"type": "DT_INT32"}, "Index": {"type": "DT_INT32"}, "shrink_axis_mask": {"i": "1"}, "begin_mask": {"i": "0"}, "ellipsis_mask": {"i": "0"}, "new_axis_mask": {"i": "0"}, "end_mask": {"i": "0"}}}, {"name": "g_synthesis/4x4/Conv/StyleMod/flatten/strided_slice", "op": "StridedSlice", "input": ["g_synthesis/4x4/Conv/StyleMod/flatten/Shape", "g_synthesis/512x512/Conv0_up/strided_slice_4/stack", "g_synthesis/512x512/Conv0_up/strided_slice_4/stack_1", "g_synthesis/512x512/Conv0_up/strided_slice_4/stack_1"], "attr": {"T": {"type": "DT_INT32"}, "Index": {"type": "DT_INT32"}, "shrink_axis_mask": {"i": "1"}, "begin_mask": {"i": "0"}, "ellipsis_mask": {"i": "0"}, "new_axis_mask": {"i": "0"}, "end_mask": {"i": "0"}}}, {"name": "g_synthesis/strided_slice_2", "op": "StridedSlice", "input": ["g_synthesis/Shape", "g_synthesis/512x512/Conv0_up/strided_slice_4/stack", "g_synthesis/512x512/Conv0_up/strided_slice_4/stack_1", "g_synthesis/512x512/Conv0_up/strided_slice_4/stack_1"], "attr": {"T": {"type": "DT_INT32"}, "Index": {"type": "DT_INT32"}, "shrink_axis_mask": {"i": "1"}, "begin_mask": {"i": "0"}, "ellipsis_mask": {"i": "0"}, "new_axis_mask": {"i": "0"}, "end_mask": {"i": "0"}}}, {"name": "g_synthesis/512x512/Conv1/StyleMod/flatten/Reshape/shape", "op": "Pack", "input": ["g_synthesis/512x512/Conv1/StyleMod/flatten/strided_slice", "g_synthesis/4x4/Const/StyleMod/flatten/Reshape/shape/1"], "attr": {"T": {"type": "DT_INT32"}, "axis": {"i": "0"}, "N": {"i": "2"}}}, {"name": "g_synthesis/512x512/Conv0_up/StyleMod/flatten/Reshape/shape", "op": "Pack", "input": ["g_synthesis/512x512/Conv0_up/StyleMod/flatten/strided_slice", "g_synthesis/4x4/Const/StyleMod/flatten/Reshape/shape/1"], "attr": {"T": {"type": "DT_INT32"}, "axis": {"i": "0"}, "N": {"i": "2"}}}, {"name": "g_synthesis/256x256/Conv1/StyleMod/flatten/Reshape/shape", "op": "Pack", "input": ["g_synthesis/256x256/Conv1/StyleMod/flatten/strided_slice", "g_synthesis/4x4/Const/StyleMod/flatten/Reshape/shape/1"], "attr": {"T": {"type": "DT_INT32"}, "axis": {"i": "0"}, "N": {"i": "2"}}}, {"name": "g_synthesis/256x256/Conv0_up/StyleMod/flatten/Reshape/shape", "op": "Pack", "input": ["g_synthesis/256x256/Conv0_up/StyleMod/flatten/strided_slice", "g_synthesis/4x4/Const/StyleMod/flatten/Reshape/shape/1"], "attr": {"T": {"type": "DT_INT32"}, "axis": {"i": "0"}, "N": {"i": "2"}}}, {"name": "g_synthesis/128x128/Conv1/StyleMod/flatten/Reshape/shape", "op": "Pack", "input": ["g_synthesis/128x128/Conv1/StyleMod/flatten/strided_slice", "g_synthesis/4x4/Const/StyleMod/flatten/Reshape/shape/1"], "attr": {"T": {"type": "DT_INT32"}, "axis": {"i": "0"}, "N": {"i": "2"}}}, {"name": "g_synthesis/128x128/Conv0_up/StyleMod/flatten/Reshape/shape", "op": "Pack", "input": ["g_synthesis/128x128/Conv0_up/StyleMod/flatten/strided_slice", "g_synthesis/4x4/Const/StyleMod/flatten/Reshape/shape/1"], "attr": {"T": {"type": "DT_INT32"}, "axis": {"i": "0"}, "N": {"i": "2"}}}, {"name": "g_synthesis/64x64/Conv1/StyleMod/flatten/Reshape/shape", "op": "Pack", "input": ["g_synthesis/64x64/Conv1/StyleMod/flatten/strided_slice", "g_synthesis/4x4/Const/StyleMod/flatten/Reshape/shape/1"], "attr": {"T": {"type": "DT_INT32"}, "axis": {"i": "0"}, "N": {"i": "2"}}}, {"name": "g_synthesis/64x64/Conv0_up/StyleMod/flatten/Reshape/shape", "op": "Pack", "input": ["g_synthesis/64x64/Conv0_up/StyleMod/flatten/strided_slice", "g_synthesis/4x4/Const/StyleMod/flatten/Reshape/shape/1"], "attr": {"T": {"type": "DT_INT32"}, "axis": {"i": "0"}, "N": {"i": "2"}}}, {"name": "g_synthesis/32x32/Conv1/StyleMod/flatten/Reshape/shape", "op": "Pack", "input": ["g_synthesis/32x32/Conv1/StyleMod/flatten/strided_slice", "g_synthesis/4x4/Const/StyleMod/flatten/Reshape/shape/1"], "attr": {"T": {"type": "DT_INT32"}, "axis": {"i": "0"}, "N": {"i": "2"}}}, {"name": "g_synthesis/32x32/Conv0_up/StyleMod/flatten/Reshape/shape", "op": "Pack", "input": ["g_synthesis/32x32/Conv0_up/StyleMod/flatten/strided_slice", "g_synthesis/4x4/Const/StyleMod/flatten/Reshape/shape/1"], "attr": {"T": {"type": "DT_INT32"}, "axis": {"i": "0"}, "N": {"i": "2"}}}, {"name": "g_synthesis/16x16/Conv1/StyleMod/flatten/Reshape/shape", "op": "Pack", "input": ["g_synthesis/16x16/Conv1/StyleMod/flatten/strided_slice", "g_synthesis/4x4/Const/StyleMod/flatten/Reshape/shape/1"], "attr": {"T": {"type": "DT_INT32"}, "axis": {"i": "0"}, "N": {"i": "2"}}}, {"name": "g_synthesis/16x16/Conv0_up/StyleMod/flatten/Reshape/shape", "op": "Pack", "input": ["g_synthesis/16x16/Conv0_up/StyleMod/flatten/strided_slice", "g_synthesis/4x4/Const/StyleMod/flatten/Reshape/shape/1"], "attr": {"T": {"type": "DT_INT32"}, "axis": {"i": "0"}, "N": {"i": "2"}}}, {"name": "g_synthesis/8x8/Conv1/StyleMod/flatten/Reshape/shape", "op": "Pack", "input": ["g_synthesis/8x8/Conv1/StyleMod/flatten/strided_slice", "g_synthesis/4x4/Const/StyleMod/flatten/Reshape/shape/1"], "attr": {"T": {"type": "DT_INT32"}, "axis": {"i": "0"}, "N": {"i": "2"}}}, {"name": "g_synthesis/8x8/Conv0_up/StyleMod/flatten/Reshape/shape", "op": "Pack", "input": ["g_synthesis/8x8/Conv0_up/StyleMod/flatten/strided_slice", "g_synthesis/4x4/Const/StyleMod/flatten/Reshape/shape/1"], "attr": {"T": {"type": "DT_INT32"}, "axis": {"i": "0"}, "N": {"i": "2"}}}, {"name": "g_synthesis/4x4/Conv/StyleMod/flatten/Reshape/shape", "op": "Pack", "input": ["g_synthesis/4x4/Conv/StyleMod/flatten/strided_slice", "g_synthesis/4x4/Const/StyleMod/flatten/Reshape/shape/1"], "attr": {"T": {"type": "DT_INT32"}, "axis": {"i": "0"}, "N": {"i": "2"}}}, {"name": "g_synthesis/4x4/Const/StyleMod/flatten/Reshape/shape", "op": "Pack", "input": ["g_synthesis/strided_slice_2", "g_synthesis/4x4/Const/StyleMod/flatten/Reshape/shape/1"], "attr": {"T": {"type": "DT_INT32"}, "axis": {"i": "0"}, "N": {"i": "2"}}}, {"name": "g_synthesis/4x4/Const/Tile/multiples", "op": "Pack", "input": ["g_synthesis/strided_slice_2", "g_synthesis/4x4/Const/Tile/multiples/1", "g_synthesis/4x4/Const/Tile/multiples/1", "g_synthesis/4x4/Const/Tile/multiples/1"], "attr": {"T": {"type": "DT_INT32"}, "axis": {"i": "0"}, "N": {"i": "4"}}}, {"name": "g_synthesis/512x512/Conv1/StyleMod/flatten/Reshape", "op": "Reshape", "input": ["g_synthesis/strided_slice_16", "g_synthesis/512x512/Conv1/StyleMod/flatten/Reshape/shape"], "attr": {"T": {"type": "DT_FLOAT"}, "Tshape": {"type": "DT_INT32"}}}, {"name": "g_synthesis/512x512/Conv0_up/StyleMod/flatten/Reshape", "op": "Reshape", "input": ["g_synthesis/strided_slice_15", "g_synthesis/512x512/Conv0_up/StyleMod/flatten/Reshape/shape"], "attr": {"T": {"type": "DT_FLOAT"}, "Tshape": {"type": "DT_INT32"}}}, {"name": "g_synthesis/256x256/Conv1/StyleMod/flatten/Reshape", "op": "Reshape", "input": ["g_synthesis/strided_slice_14", "g_synthesis/256x256/Conv1/StyleMod/flatten/Reshape/shape"], "attr": {"T": {"type": "DT_FLOAT"}, "Tshape": {"type": "DT_INT32"}}}, {"name": "g_synthesis/256x256/Conv0_up/StyleMod/flatten/Reshape", "op": "Reshape", "input": ["g_synthesis/strided_slice_13", "g_synthesis/256x256/Conv0_up/StyleMod/flatten/Reshape/shape"], "attr": {"T": {"type": "DT_FLOAT"}, "Tshape": {"type": "DT_INT32"}}}, {"name": "g_synthesis/128x128/Conv1/StyleMod/flatten/Reshape", "op": "Reshape", "input": ["g_synthesis/strided_slice_12", "g_synthesis/128x128/Conv1/StyleMod/flatten/Reshape/shape"], "attr": {"T": {"type": "DT_FLOAT"}, "Tshape": {"type": "DT_INT32"}}}, {"name": "g_synthesis/128x128/Conv0_up/StyleMod/flatten/Reshape", "op": "Reshape", "input": ["g_synthesis/strided_slice_11", "g_synthesis/128x128/Conv0_up/StyleMod/flatten/Reshape/shape"], "attr": {"T": {"type": "DT_FLOAT"}, "Tshape": {"type": "DT_INT32"}}}, {"name": "g_synthesis/64x64/Conv1/StyleMod/flatten/Reshape", "op": "Reshape", "input": ["g_synthesis/strided_slice_10", "g_synthesis/64x64/Conv1/StyleMod/flatten/Reshape/shape"], "attr": {"T": {"type": "DT_FLOAT"}, "Tshape": {"type": "DT_INT32"}}}, {"name": "g_synthesis/64x64/Conv0_up/StyleMod/flatten/Reshape", "op": "Reshape", "input": ["g_synthesis/strided_slice_9", "g_synthesis/64x64/Conv0_up/StyleMod/flatten/Reshape/shape"], "attr": {"T": {"type": "DT_FLOAT"}, "Tshape": {"type": "DT_INT32"}}}, {"name": "g_synthesis/32x32/Conv1/StyleMod/flatten/Reshape", "op": "Reshape", "input": ["g_synthesis/strided_slice_8", "g_synthesis/32x32/Conv1/StyleMod/flatten/Reshape/shape"], "attr": {"T": {"type": "DT_FLOAT"}, "Tshape": {"type": "DT_INT32"}}}, {"name": "g_synthesis/32x32/Conv0_up/StyleMod/flatten/Reshape", "op": "Reshape", "input": ["g_synthesis/strided_slice_7", "g_synthesis/32x32/Conv0_up/StyleMod/flatten/Reshape/shape"], "attr": {"T": {"type": "DT_FLOAT"}, "Tshape": {"type": "DT_INT32"}}}, {"name": "g_synthesis/16x16/Conv1/StyleMod/flatten/Reshape", "op": "Reshape", "input": ["g_synthesis/strided_slice_6", "g_synthesis/16x16/Conv1/StyleMod/flatten/Reshape/shape"], "attr": {"T": {"type": "DT_FLOAT"}, "Tshape": {"type": "DT_INT32"}}}, {"name": "g_synthesis/16x16/Conv0_up/StyleMod/flatten/Reshape", "op": "Reshape", "input": ["g_synthesis/strided_slice_5", "g_synthesis/16x16/Conv0_up/StyleMod/flatten/Reshape/shape"], "attr": {"T": {"type": "DT_FLOAT"}, "Tshape": {"type": "DT_INT32"}}}, {"name": "g_synthesis/8x8/Conv1/StyleMod/flatten/Reshape", "op": "Reshape", "input": ["g_synthesis/strided_slice_4", "g_synthesis/8x8/Conv1/StyleMod/flatten/Reshape/shape"], "attr": {"T": {"type": "DT_FLOAT"}, "Tshape": {"type": "DT_INT32"}}}, {"name": "g_synthesis/8x8/Conv0_up/StyleMod/flatten/Reshape", "op": "Reshape", "input": ["g_synthesis/strided_slice_3", "g_synthesis/8x8/Conv0_up/StyleMod/flatten/Reshape/shape"], "attr": {"T": {"type": "DT_FLOAT"}, "Tshape": {"type": "DT_INT32"}}}, {"name": "g_synthesis/4x4/Conv/StyleMod/flatten/Reshape", "op": "Reshape", "input": ["g_synthesis/strided_slice_1", "g_synthesis/4x4/Conv/StyleMod/flatten/Reshape/shape"], "attr": {"T": {"type": "DT_FLOAT"}, "Tshape": {"type": "DT_INT32"}}}, {"name": "g_synthesis/4x4/Const/StyleMod/flatten/Reshape", "op": "Reshape", "input": ["g_synthesis/strided_slice", "g_synthesis/4x4/Const/StyleMod/flatten/Reshape/shape"], "attr": {"T": {"type": "DT_FLOAT"}, "Tshape": {"type": "DT_INT32"}}}, {"name": "g_synthesis/4x4/Const/Tile", "op": "Tile", "input": ["g_synthesis/4x4/Const/const", "g_synthesis/4x4/Const/Tile/multiples"], "attr": {"Tmultiples": {"type": "DT_INT32"}, "T": {"type": "DT_FLOAT"}}}, {"name": "g_synthesis/512x512/Conv1/StyleMod/MatMul", "op": "MatMul", "input": ["g_synthesis/512x512/Conv1/StyleMod/flatten/Reshape", "g_synthesis/512x512/Conv1/StyleMod/mul"], "attr": {"transpose_b": {"b": false}, "T": {"type": "DT_FLOAT"}, "transpose_a": {"b": false}}}, {"name": "g_synthesis/512x512/Conv0_up/StyleMod/MatMul", "op": "MatMul", "input": ["g_synthesis/512x512/Conv0_up/StyleMod/flatten/Reshape", "g_synthesis/512x512/Conv0_up/StyleMod/mul"], "attr": {"transpose_b": {"b": false}, "T": {"type": "DT_FLOAT"}, "transpose_a": {"b": false}}}, {"name": "g_synthesis/256x256/Conv1/StyleMod/MatMul", "op": "MatMul", "input": ["g_synthesis/256x256/Conv1/StyleMod/flatten/Reshape", "g_synthesis/256x256/Conv1/StyleMod/mul"], "attr": {"transpose_b": {"b": false}, "T": {"type": "DT_FLOAT"}, "transpose_a": {"b": false}}}, {"name": "g_synthesis/256x256/Conv0_up/StyleMod/MatMul", "op": "MatMul", "input": ["g_synthesis/256x256/Conv0_up/StyleMod/flatten/Reshape", "g_synthesis/256x256/Conv0_up/StyleMod/mul"], "attr": {"transpose_b": {"b": false}, "T": {"type": "DT_FLOAT"}, "transpose_a": {"b": false}}}, {"name": "g_synthesis/128x128/Conv1/StyleMod/MatMul", "op": "MatMul", "input": ["g_synthesis/128x128/Conv1/StyleMod/flatten/Reshape", "g_synthesis/128x128/Conv1/StyleMod/mul"], "attr": {"transpose_b": {"b": false}, "T": {"type": "DT_FLOAT"}, "transpose_a": {"b": false}}}, {"name": "g_synthesis/128x128/Conv0_up/StyleMod/MatMul", "op": "MatMul", "input": ["g_synthesis/128x128/Conv0_up/StyleMod/flatten/Reshape", "g_synthesis/128x128/Conv0_up/StyleMod/mul"], "attr": {"transpose_b": {"b": false}, "T": {"type": "DT_FLOAT"}, "transpose_a": {"b": false}}}, {"name": "g_synthesis/64x64/Conv1/StyleMod/MatMul", "op": "MatMul", "input": ["g_synthesis/64x64/Conv1/StyleMod/flatten/Reshape", "g_synthesis/64x64/Conv1/StyleMod/mul"], "attr": {"transpose_b": {"b": false}, "T": {"type": "DT_FLOAT"}, "transpose_a": {"b": false}}}, {"name": "g_synthesis/64x64/Conv0_up/StyleMod/MatMul", "op": "MatMul", "input": ["g_synthesis/64x64/Conv0_up/StyleMod/flatten/Reshape", "g_synthesis/64x64/Conv0_up/StyleMod/mul"], "attr": {"transpose_b": {"b": false}, "T": {"type": "DT_FLOAT"}, "transpose_a": {"b": false}}}, {"name": "g_synthesis/32x32/Conv1/StyleMod/MatMul", "op": "MatMul", "input": ["g_synthesis/32x32/Conv1/StyleMod/flatten/Reshape", "g_synthesis/32x32/Conv1/StyleMod/mul"], "attr": {"transpose_b": {"b": false}, "T": {"type": "DT_FLOAT"}, "transpose_a": {"b": false}}}, {"name": "g_synthesis/32x32/Conv0_up/StyleMod/MatMul", "op": "MatMul", "input": ["g_synthesis/32x32/Conv0_up/StyleMod/flatten/Reshape", "g_synthesis/32x32/Conv0_up/StyleMod/mul"], "attr": {"transpose_b": {"b": false}, "T": {"type": "DT_FLOAT"}, "transpose_a": {"b": false}}}, {"name": "g_synthesis/16x16/Conv1/StyleMod/MatMul", "op": "MatMul", "input": ["g_synthesis/16x16/Conv1/StyleMod/flatten/Reshape", "g_synthesis/16x16/Conv1/StyleMod/mul"], "attr": {"transpose_b": {"b": false}, "T": {"type": "DT_FLOAT"}, "transpose_a": {"b": false}}}, {"name": "g_synthesis/16x16/Conv0_up/StyleMod/MatMul", "op": "MatMul", "input": ["g_synthesis/16x16/Conv0_up/StyleMod/flatten/Reshape", "g_synthesis/16x16/Conv0_up/StyleMod/mul"], "attr": {"transpose_b": {"b": false}, "T": {"type": "DT_FLOAT"}, "transpose_a": {"b": false}}}, {"name": "g_synthesis/8x8/Conv1/StyleMod/MatMul", "op": "MatMul", "input": ["g_synthesis/8x8/Conv1/StyleMod/flatten/Reshape", "g_synthesis/8x8/Conv1/StyleMod/mul"], "attr": {"transpose_b": {"b": false}, "T": {"type": "DT_FLOAT"}, "transpose_a": {"b": false}}}, {"name": "g_synthesis/8x8/Conv0_up/StyleMod/MatMul", "op": "MatMul", "input": ["g_synthesis/8x8/Conv0_up/StyleMod/flatten/Reshape", "g_synthesis/8x8/Conv0_up/StyleMod/mul"], "attr": {"transpose_b": {"b": false}, "T": {"type": "DT_FLOAT"}, "transpose_a": {"b": false}}}, {"name": "g_synthesis/4x4/Conv/StyleMod/MatMul", "op": "MatMul", "input": ["g_synthesis/4x4/Conv/StyleMod/flatten/Reshape", "g_synthesis/4x4/Conv/StyleMod/mul"], "attr": {"transpose_b": {"b": false}, "T": {"type": "DT_FLOAT"}, "transpose_a": {"b": false}}}, {"name": "g_synthesis/4x4/Const/StyleMod/MatMul", "op": "MatMul", "input": ["g_synthesis/4x4/Const/StyleMod/flatten/Reshape", "g_synthesis/4x4/Const/StyleMod/mul"], "attr": {"transpose_b": {"b": false}, "T": {"type": "DT_FLOAT"}, "transpose_a": {"b": false}}}, {"name": "g_synthesis/4x4/Const/Noise/Shape", "op": "Shape", "input": ["g_synthesis/4x4/Const/Tile"], "attr": {"T": {"type": "DT_FLOAT"}, "out_type": {"type": "DT_INT32"}}}, {"name": "g_synthesis/512x512/Conv1/StyleMod/add", "op": "Add", "input": ["g_synthesis/512x512/Conv1/StyleMod/MatMul", "g_synthesis/512x512/Conv1/StyleMod/mul_1"], "attr": {"T": {"type": "DT_FLOAT"}}}, {"name": "g_synthesis/512x512/Conv0_up/StyleMod/add", "op": "Add", "input": ["g_synthesis/512x512/Conv0_up/StyleMod/MatMul", "g_synthesis/512x512/Conv0_up/StyleMod/mul_1"], "attr": {"T": {"type": "DT_FLOAT"}}}, {"name": "g_synthesis/256x256/Conv1/StyleMod/add", "op": "Add", "input": ["g_synthesis/256x256/Conv1/StyleMod/MatMul", "g_synthesis/256x256/Conv1/StyleMod/mul_1"], "attr": {"T": {"type": "DT_FLOAT"}}}, {"name": "g_synthesis/256x256/Conv0_up/StyleMod/add", "op": "Add", "input": ["g_synthesis/256x256/Conv0_up/StyleMod/MatMul", "g_synthesis/256x256/Conv0_up/StyleMod/mul_1"], "attr": {"T": {"type": "DT_FLOAT"}}}, {"name": "g_synthesis/128x128/Conv1/StyleMod/add", "op": "Add", "input": ["g_synthesis/128x128/Conv1/StyleMod/MatMul", "g_synthesis/128x128/Conv1/StyleMod/mul_1"], "attr": {"T": {"type": "DT_FLOAT"}}}, {"name": "g_synthesis/128x128/Conv0_up/StyleMod/add", "op": "Add", "input": ["g_synthesis/128x128/Conv0_up/StyleMod/MatMul", "g_synthesis/128x128/Conv0_up/StyleMod/mul_1"], "attr": {"T": {"type": "DT_FLOAT"}}}, {"name": "g_synthesis/64x64/Conv1/StyleMod/add", "op": "Add", "input": ["g_synthesis/64x64/Conv1/StyleMod/MatMul", "g_synthesis/64x64/Conv1/StyleMod/mul_1"], "attr": {"T": {"type": "DT_FLOAT"}}}, {"name": "g_synthesis/64x64/Conv0_up/StyleMod/add", "op": "Add", "input": ["g_synthesis/64x64/Conv0_up/StyleMod/MatMul", "g_synthesis/64x64/Conv0_up/StyleMod/mul_1"], "attr": {"T": {"type": "DT_FLOAT"}}}, {"name": "g_synthesis/32x32/Conv1/StyleMod/add", "op": "Add", "input": ["g_synthesis/32x32/Conv1/StyleMod/MatMul", "g_synthesis/32x32/Conv1/StyleMod/mul_1"], "attr": {"T": {"type": "DT_FLOAT"}}}, {"name": "g_synthesis/32x32/Conv0_up/StyleMod/add", "op": "Add", "input": ["g_synthesis/32x32/Conv0_up/StyleMod/MatMul", "g_synthesis/32x32/Conv0_up/StyleMod/mul_1"], "attr": {"T": {"type": "DT_FLOAT"}}}, {"name": "g_synthesis/16x16/Conv1/StyleMod/add", "op": "Add", "input": ["g_synthesis/16x16/Conv1/StyleMod/MatMul", "g_synthesis/16x16/Conv1/StyleMod/mul_1"], "attr": {"T": {"type": "DT_FLOAT"}}}, {"name": "g_synthesis/16x16/Conv0_up/StyleMod/add", "op": "Add", "input": ["g_synthesis/16x16/Conv0_up/StyleMod/MatMul", "g_synthesis/16x16/Conv0_up/StyleMod/mul_1"], "attr": {"T": {"type": "DT_FLOAT"}}}, {"name": "g_synthesis/8x8/Conv1/StyleMod/add", "op": "Add", "input": ["g_synthesis/8x8/Conv1/StyleMod/MatMul", "g_synthesis/8x8/Conv1/StyleMod/mul_1"], "attr": {"T": {"type": "DT_FLOAT"}}}, {"name": "g_synthesis/8x8/Conv0_up/StyleMod/add", "op": "Add", "input": ["g_synthesis/8x8/Conv0_up/StyleMod/MatMul", "g_synthesis/8x8/Conv0_up/StyleMod/mul_1"], "attr": {"T": {"type": "DT_FLOAT"}}}, {"name": "g_synthesis/4x4/Conv/StyleMod/add", "op": "Add", "input": ["g_synthesis/4x4/Conv/StyleMod/MatMul", "g_synthesis/4x4/Conv/StyleMod/mul_1"], "attr": {"T": {"type": "DT_FLOAT"}}}, {"name": "g_synthesis/4x4/Const/StyleMod/add", "op": "Add", "input": ["g_synthesis/4x4/Const/StyleMod/MatMul", "g_synthesis/4x4/Const/StyleMod/mul_1"], "attr": {"T": {"type": "DT_FLOAT"}}}, {"name": "g_synthesis/4x4/Const/Noise/strided_slice", "op": "StridedSlice", "input": ["g_synthesis/4x4/Const/Noise/Shape", "g_synthesis/512x512/Conv0_up/strided_slice_4/stack", "g_synthesis/512x512/Conv0_up/strided_slice_4/stack_1", "g_synthesis/512x512/Conv0_up/strided_slice_4/stack_1"], "attr": {"T": {"type": "DT_INT32"}, "Index": {"type": "DT_INT32"}, "shrink_axis_mask": {"i": "1"}, "begin_mask": {"i": "0"}, "ellipsis_mask": {"i": "0"}, "new_axis_mask": {"i": "0"}, "end_mask": {"i": "0"}}}, {"name": "g_synthesis/512x512/Conv1/StyleMod/Reshape", "op": "Reshape", "input": ["g_synthesis/512x512/Conv1/StyleMod/add", "g_synthesis/512x512/Conv0_up/StyleMod/Reshape/shape"], "attr": {"T": {"type": "DT_FLOAT"}, "Tshape": {"type": "DT_INT32"}}}, {"name": "g_synthesis/512x512/Conv0_up/StyleMod/Reshape", "op": "Reshape", "input": ["g_synthesis/512x512/Conv0_up/StyleMod/add", "g_synthesis/512x512/Conv0_up/StyleMod/Reshape/shape"], "attr": {"T": {"type": "DT_FLOAT"}, "Tshape": {"type": "DT_INT32"}}}, {"name": "g_synthesis/256x256/Conv1/StyleMod/Reshape", "op": "Reshape", "input": ["g_synthesis/256x256/Conv1/StyleMod/add", "g_synthesis/256x256/Conv0_up/StyleMod/Reshape/shape"], "attr": {"T": {"type": "DT_FLOAT"}, "Tshape": {"type": "DT_INT32"}}}, {"name": "g_synthesis/256x256/Conv0_up/StyleMod/Reshape", "op": "Reshape", "input": ["g_synthesis/256x256/Conv0_up/StyleMod/add", "g_synthesis/256x256/Conv0_up/StyleMod/Reshape/shape"], "attr": {"T": {"type": "DT_FLOAT"}, "Tshape": {"type": "DT_INT32"}}}, {"name": "g_synthesis/128x128/Conv1/StyleMod/Reshape", "op": "Reshape", "input": ["g_synthesis/128x128/Conv1/StyleMod/add", "g_synthesis/128x128/Conv0_up/StyleMod/Reshape/shape"], "attr": {"T": {"type": "DT_FLOAT"}, "Tshape": {"type": "DT_INT32"}}}, {"name": "g_synthesis/128x128/Conv0_up/StyleMod/Reshape", "op": "Reshape", "input": ["g_synthesis/128x128/Conv0_up/StyleMod/add", "g_synthesis/128x128/Conv0_up/StyleMod/Reshape/shape"], "attr": {"T": {"type": "DT_FLOAT"}, "Tshape": {"type": "DT_INT32"}}}, {"name": "g_synthesis/64x64/Conv1/StyleMod/Reshape", "op": "Reshape", "input": ["g_synthesis/64x64/Conv1/StyleMod/add", "g_synthesis/64x64/Conv0_up/StyleMod/Reshape/shape"], "attr": {"T": {"type": "DT_FLOAT"}, "Tshape": {"type": "DT_INT32"}}}, {"name": "g_synthesis/64x64/Conv0_up/StyleMod/Reshape", "op": "Reshape", "input": ["g_synthesis/64x64/Conv0_up/StyleMod/add", "g_synthesis/64x64/Conv0_up/StyleMod/Reshape/shape"], "attr": {"T": {"type": "DT_FLOAT"}, "Tshape": {"type": "DT_INT32"}}}, {"name": "g_synthesis/32x32/Conv1/StyleMod/Reshape", "op": "Reshape", "input": ["g_synthesis/32x32/Conv1/StyleMod/add", "g_synthesis/4x4/Const/StyleMod/Reshape/shape"], "attr": {"T": {"type": "DT_FLOAT"}, "Tshape": {"type": "DT_INT32"}}}, {"name": "g_synthesis/32x32/Conv0_up/StyleMod/Reshape", "op": "Reshape", "input": ["g_synthesis/32x32/Conv0_up/StyleMod/add", "g_synthesis/4x4/Const/StyleMod/Reshape/shape"], "attr": {"T": {"type": "DT_FLOAT"}, "Tshape": {"type": "DT_INT32"}}}, {"name": "g_synthesis/16x16/Conv1/StyleMod/Reshape", "op": "Reshape", "input": ["g_synthesis/16x16/Conv1/StyleMod/add", "g_synthesis/4x4/Const/StyleMod/Reshape/shape"], "attr": {"T": {"type": "DT_FLOAT"}, "Tshape": {"type": "DT_INT32"}}}, {"name": "g_synthesis/16x16/Conv0_up/StyleMod/Reshape", "op": "Reshape", "input": ["g_synthesis/16x16/Conv0_up/StyleMod/add", "g_synthesis/4x4/Const/StyleMod/Reshape/shape"], "attr": {"T": {"type": "DT_FLOAT"}, "Tshape": {"type": "DT_INT32"}}}, {"name": "g_synthesis/8x8/Conv1/StyleMod/Reshape", "op": "Reshape", "input": ["g_synthesis/8x8/Conv1/StyleMod/add", "g_synthesis/4x4/Const/StyleMod/Reshape/shape"], "attr": {"T": {"type": "DT_FLOAT"}, "Tshape": {"type": "DT_INT32"}}}, {"name": "g_synthesis/8x8/Conv0_up/StyleMod/Reshape", "op": "Reshape", "input": ["g_synthesis/8x8/Conv0_up/StyleMod/add", "g_synthesis/4x4/Const/StyleMod/Reshape/shape"], "attr": {"T": {"type": "DT_FLOAT"}, "Tshape": {"type": "DT_INT32"}}}, {"name": "g_synthesis/4x4/Conv/StyleMod/Reshape", "op": "Reshape", "input": ["g_synthesis/4x4/Conv/StyleMod/add", "g_synthesis/4x4/Const/StyleMod/Reshape/shape"], "attr": {"T": {"type": "DT_FLOAT"}, "Tshape": {"type": "DT_INT32"}}}, {"name": "g_synthesis/4x4/Const/StyleMod/Reshape", "op": "Reshape", "input": ["g_synthesis/4x4/Const/StyleMod/add", "g_synthesis/4x4/Const/StyleMod/Reshape/shape"], "attr": {"T": {"type": "DT_FLOAT"}, "Tshape": {"type": "DT_INT32"}}}, {"name": "g_synthesis/4x4/Const/Noise/random_uniform/shape", "op": "Pack", "input": ["g_synthesis/4x4/Const/Noise/strided_slice", "g_synthesis/4x4/Const/Tile/multiples/1", "g_synthesis/4x4/Const/Noise/random_uniform/shape/2", "g_synthesis/4x4/Const/Noise/random_uniform/shape/2"], "attr": {"T": {"type": "DT_INT32"}, "axis": {"i": "0"}, "N": {"i": "4"}}}, {"name": "g_synthesis/512x512/Conv1/StyleMod/strided_slice_1", "op": "StridedSlice", "input": ["g_synthesis/512x512/Conv1/StyleMod/Reshape", "g_synthesis/4x4/Const/StyleMod/strided_slice/stack_1", "g_synthesis/4x4/Const/StyleMod/strided_slice_1/stack_1", "g_synthesis/4x4/Const/StyleMod/strided_slice/stack_2"], "attr": {"T": {"type": "DT_FLOAT"}, "Index": {"type": "DT_INT32"}, "shrink_axis_mask": {"i": "2"}, "begin_mask": {"i": "1"}, "ellipsis_mask": {"i": "0"}, "new_axis_mask": {"i": "0"}, "end_mask": {"i": "1"}}}, {"name": "g_synthesis/512x512/Conv1/StyleMod/strided_slice", "op": "StridedSlice", "input": ["g_synthesis/512x512/Conv1/StyleMod/Reshape", "g_synthesis/4x4/Const/StyleMod/strided_slice/stack", "g_synthesis/4x4/Const/StyleMod/strided_slice/stack_1", "g_synthesis/4x4/Const/StyleMod/strided_slice/stack_2"], "attr": {"T": {"type": "DT_FLOAT"}, "Index": {"type": "DT_INT32"}, "shrink_axis_mask": {"i": "2"}, "begin_mask": {"i": "1"}, "ellipsis_mask": {"i": "0"}, "new_axis_mask": {"i": "0"}, "end_mask": {"i": "1"}}}, {"name": "g_synthesis/512x512/Conv0_up/StyleMod/strided_slice_1", "op": "StridedSlice", "input": ["g_synthesis/512x512/Conv0_up/StyleMod/Reshape", "g_synthesis/4x4/Const/StyleMod/strided_slice/stack_1", "g_synthesis/4x4/Const/StyleMod/strided_slice_1/stack_1", "g_synthesis/4x4/Const/StyleMod/strided_slice/stack_2"], "attr": {"T": {"type": "DT_FLOAT"}, "Index": {"type": "DT_INT32"}, "shrink_axis_mask": {"i": "2"}, "begin_mask": {"i": "1"}, "ellipsis_mask": {"i": "0"}, "new_axis_mask": {"i": "0"}, "end_mask": {"i": "1"}}}, {"name": "g_synthesis/512x512/Conv0_up/StyleMod/strided_slice", "op": "StridedSlice", "input": ["g_synthesis/512x512/Conv0_up/StyleMod/Reshape", "g_synthesis/4x4/Const/StyleMod/strided_slice/stack", "g_synthesis/4x4/Const/StyleMod/strided_slice/stack_1", "g_synthesis/4x4/Const/StyleMod/strided_slice/stack_2"], "attr": {"T": {"type": "DT_FLOAT"}, "Index": {"type": "DT_INT32"}, "shrink_axis_mask": {"i": "2"}, "begin_mask": {"i": "1"}, "ellipsis_mask": {"i": "0"}, "new_axis_mask": {"i": "0"}, "end_mask": {"i": "1"}}}, {"name": "g_synthesis/256x256/Conv1/StyleMod/strided_slice_1", "op": "StridedSlice", "input": ["g_synthesis/256x256/Conv1/StyleMod/Reshape", "g_synthesis/4x4/Const/StyleMod/strided_slice/stack_1", "g_synthesis/4x4/Const/StyleMod/strided_slice_1/stack_1", "g_synthesis/4x4/Const/StyleMod/strided_slice/stack_2"], "attr": {"T": {"type": "DT_FLOAT"}, "Index": {"type": "DT_INT32"}, "shrink_axis_mask": {"i": "2"}, "begin_mask": {"i": "1"}, "ellipsis_mask": {"i": "0"}, "new_axis_mask": {"i": "0"}, "end_mask": {"i": "1"}}}, {"name": "g_synthesis/256x256/Conv1/StyleMod/strided_slice", "op": "StridedSlice", "input": ["g_synthesis/256x256/Conv1/StyleMod/Reshape", "g_synthesis/4x4/Const/StyleMod/strided_slice/stack", "g_synthesis/4x4/Const/StyleMod/strided_slice/stack_1", "g_synthesis/4x4/Const/StyleMod/strided_slice/stack_2"], "attr": {"T": {"type": "DT_FLOAT"}, "Index": {"type": "DT_INT32"}, "shrink_axis_mask": {"i": "2"}, "begin_mask": {"i": "1"}, "ellipsis_mask": {"i": "0"}, "new_axis_mask": {"i": "0"}, "end_mask": {"i": "1"}}}, {"name": "g_synthesis/256x256/Conv0_up/StyleMod/strided_slice_1", "op": "StridedSlice", "input": ["g_synthesis/256x256/Conv0_up/StyleMod/Reshape", "g_synthesis/4x4/Const/StyleMod/strided_slice/stack_1", "g_synthesis/4x4/Const/StyleMod/strided_slice_1/stack_1", "g_synthesis/4x4/Const/StyleMod/strided_slice/stack_2"], "attr": {"T": {"type": "DT_FLOAT"}, "Index": {"type": "DT_INT32"}, "shrink_axis_mask": {"i": "2"}, "begin_mask": {"i": "1"}, "ellipsis_mask": {"i": "0"}, "new_axis_mask": {"i": "0"}, "end_mask": {"i": "1"}}}, {"name": "g_synthesis/256x256/Conv0_up/StyleMod/strided_slice", "op": "StridedSlice", "input": ["g_synthesis/256x256/Conv0_up/StyleMod/Reshape", "g_synthesis/4x4/Const/StyleMod/strided_slice/stack", "g_synthesis/4x4/Const/StyleMod/strided_slice/stack_1", "g_synthesis/4x4/Const/StyleMod/strided_slice/stack_2"], "attr": {"T": {"type": "DT_FLOAT"}, "Index": {"type": "DT_INT32"}, "shrink_axis_mask": {"i": "2"}, "begin_mask": {"i": "1"}, "ellipsis_mask": {"i": "0"}, "new_axis_mask": {"i": "0"}, "end_mask": {"i": "1"}}}, {"name": "g_synthesis/128x128/Conv1/StyleMod/strided_slice_1", "op": "StridedSlice", "input": ["g_synthesis/128x128/Conv1/StyleMod/Reshape", "g_synthesis/4x4/Const/StyleMod/strided_slice/stack_1", "g_synthesis/4x4/Const/StyleMod/strided_slice_1/stack_1", "g_synthesis/4x4/Const/StyleMod/strided_slice/stack_2"], "attr": {"T": {"type": "DT_FLOAT"}, "Index": {"type": "DT_INT32"}, "shrink_axis_mask": {"i": "2"}, "begin_mask": {"i": "1"}, "ellipsis_mask": {"i": "0"}, "new_axis_mask": {"i": "0"}, "end_mask": {"i": "1"}}}, {"name": "g_synthesis/128x128/Conv1/StyleMod/strided_slice", "op": "StridedSlice", "input": ["g_synthesis/128x128/Conv1/StyleMod/Reshape", "g_synthesis/4x4/Const/StyleMod/strided_slice/stack", "g_synthesis/4x4/Const/StyleMod/strided_slice/stack_1", "g_synthesis/4x4/Const/StyleMod/strided_slice/stack_2"], "attr": {"T": {"type": "DT_FLOAT"}, "Index": {"type": "DT_INT32"}, "shrink_axis_mask": {"i": "2"}, "begin_mask": {"i": "1"}, "ellipsis_mask": {"i": "0"}, "new_axis_mask": {"i": "0"}, "end_mask": {"i": "1"}}}, {"name": "g_synthesis/128x128/Conv0_up/StyleMod/strided_slice_1", "op": "StridedSlice", "input": ["g_synthesis/128x128/Conv0_up/StyleMod/Reshape", "g_synthesis/4x4/Const/StyleMod/strided_slice/stack_1", "g_synthesis/4x4/Const/StyleMod/strided_slice_1/stack_1", "g_synthesis/4x4/Const/StyleMod/strided_slice/stack_2"], "attr": {"T": {"type": "DT_FLOAT"}, "Index": {"type": "DT_INT32"}, "shrink_axis_mask": {"i": "2"}, "begin_mask": {"i": "1"}, "ellipsis_mask": {"i": "0"}, "new_axis_mask": {"i": "0"}, "end_mask": {"i": "1"}}}, {"name": "g_synthesis/128x128/Conv0_up/StyleMod/strided_slice", "op": "StridedSlice", "input": ["g_synthesis/128x128/Conv0_up/StyleMod/Reshape", "g_synthesis/4x4/Const/StyleMod/strided_slice/stack", "g_synthesis/4x4/Const/StyleMod/strided_slice/stack_1", "g_synthesis/4x4/Const/StyleMod/strided_slice/stack_2"], "attr": {"T": {"type": "DT_FLOAT"}, "Index": {"type": "DT_INT32"}, "shrink_axis_mask": {"i": "2"}, "begin_mask": {"i": "1"}, "ellipsis_mask": {"i": "0"}, "new_axis_mask": {"i": "0"}, "end_mask": {"i": "1"}}}, {"name": "g_synthesis/64x64/Conv1/StyleMod/strided_slice_1", "op": "StridedSlice", "input": ["g_synthesis/64x64/Conv1/StyleMod/Reshape", "g_synthesis/4x4/Const/StyleMod/strided_slice/stack_1", "g_synthesis/4x4/Const/StyleMod/strided_slice_1/stack_1", "g_synthesis/4x4/Const/StyleMod/strided_slice/stack_2"], "attr": {"T": {"type": "DT_FLOAT"}, "Index": {"type": "DT_INT32"}, "shrink_axis_mask": {"i": "2"}, "begin_mask": {"i": "1"}, "ellipsis_mask": {"i": "0"}, "new_axis_mask": {"i": "0"}, "end_mask": {"i": "1"}}}, {"name": "g_synthesis/64x64/Conv1/StyleMod/strided_slice", "op": "StridedSlice", "input": ["g_synthesis/64x64/Conv1/StyleMod/Reshape", "g_synthesis/4x4/Const/StyleMod/strided_slice/stack", "g_synthesis/4x4/Const/StyleMod/strided_slice/stack_1", "g_synthesis/4x4/Const/StyleMod/strided_slice/stack_2"], "attr": {"T": {"type": "DT_FLOAT"}, "Index": {"type": "DT_INT32"}, "shrink_axis_mask": {"i": "2"}, "begin_mask": {"i": "1"}, "ellipsis_mask": {"i": "0"}, "new_axis_mask": {"i": "0"}, "end_mask": {"i": "1"}}}, {"name": "g_synthesis/64x64/Conv0_up/StyleMod/strided_slice_1", "op": "StridedSlice", "input": ["g_synthesis/64x64/Conv0_up/StyleMod/Reshape", "g_synthesis/4x4/Const/StyleMod/strided_slice/stack_1", "g_synthesis/4x4/Const/StyleMod/strided_slice_1/stack_1", "g_synthesis/4x4/Const/StyleMod/strided_slice/stack_2"], "attr": {"T": {"type": "DT_FLOAT"}, "Index": {"type": "DT_INT32"}, "shrink_axis_mask": {"i": "2"}, "begin_mask": {"i": "1"}, "ellipsis_mask": {"i": "0"}, "new_axis_mask": {"i": "0"}, "end_mask": {"i": "1"}}}, {"name": "g_synthesis/64x64/Conv0_up/StyleMod/strided_slice", "op": "StridedSlice", "input": ["g_synthesis/64x64/Conv0_up/StyleMod/Reshape", "g_synthesis/4x4/Const/StyleMod/strided_slice/stack", "g_synthesis/4x4/Const/StyleMod/strided_slice/stack_1", "g_synthesis/4x4/Const/StyleMod/strided_slice/stack_2"], "attr": {"T": {"type": "DT_FLOAT"}, "Index": {"type": "DT_INT32"}, "shrink_axis_mask": {"i": "2"}, "begin_mask": {"i": "1"}, "ellipsis_mask": {"i": "0"}, "new_axis_mask": {"i": "0"}, "end_mask": {"i": "1"}}}, {"name": "g_synthesis/32x32/Conv1/StyleMod/strided_slice_1", "op": "StridedSlice", "input": ["g_synthesis/32x32/Conv1/StyleMod/Reshape", "g_synthesis/4x4/Const/StyleMod/strided_slice/stack_1", "g_synthesis/4x4/Const/StyleMod/strided_slice_1/stack_1", "g_synthesis/4x4/Const/StyleMod/strided_slice/stack_2"], "attr": {"T": {"type": "DT_FLOAT"}, "Index": {"type": "DT_INT32"}, "shrink_axis_mask": {"i": "2"}, "begin_mask": {"i": "1"}, "ellipsis_mask": {"i": "0"}, "new_axis_mask": {"i": "0"}, "end_mask": {"i": "1"}}}, {"name": "g_synthesis/32x32/Conv1/StyleMod/strided_slice", "op": "StridedSlice", "input": ["g_synthesis/32x32/Conv1/StyleMod/Reshape", "g_synthesis/4x4/Const/StyleMod/strided_slice/stack", "g_synthesis/4x4/Const/StyleMod/strided_slice/stack_1", "g_synthesis/4x4/Const/StyleMod/strided_slice/stack_2"], "attr": {"T": {"type": "DT_FLOAT"}, "Index": {"type": "DT_INT32"}, "shrink_axis_mask": {"i": "2"}, "begin_mask": {"i": "1"}, "ellipsis_mask": {"i": "0"}, "new_axis_mask": {"i": "0"}, "end_mask": {"i": "1"}}}, {"name": "g_synthesis/32x32/Conv0_up/StyleMod/strided_slice_1", "op": "StridedSlice", "input": ["g_synthesis/32x32/Conv0_up/StyleMod/Reshape", "g_synthesis/4x4/Const/StyleMod/strided_slice/stack_1", "g_synthesis/4x4/Const/StyleMod/strided_slice_1/stack_1", "g_synthesis/4x4/Const/StyleMod/strided_slice/stack_2"], "attr": {"T": {"type": "DT_FLOAT"}, "Index": {"type": "DT_INT32"}, "shrink_axis_mask": {"i": "2"}, "begin_mask": {"i": "1"}, "ellipsis_mask": {"i": "0"}, "new_axis_mask": {"i": "0"}, "end_mask": {"i": "1"}}}, {"name": "g_synthesis/32x32/Conv0_up/StyleMod/strided_slice", "op": "StridedSlice", "input": ["g_synthesis/32x32/Conv0_up/StyleMod/Reshape", "g_synthesis/4x4/Const/StyleMod/strided_slice/stack", "g_synthesis/4x4/Const/StyleMod/strided_slice/stack_1", "g_synthesis/4x4/Const/StyleMod/strided_slice/stack_2"], "attr": {"T": {"type": "DT_FLOAT"}, "Index": {"type": "DT_INT32"}, "shrink_axis_mask": {"i": "2"}, "begin_mask": {"i": "1"}, "ellipsis_mask": {"i": "0"}, "new_axis_mask": {"i": "0"}, "end_mask": {"i": "1"}}}, {"name": "g_synthesis/16x16/Conv1/StyleMod/strided_slice_1", "op": "StridedSlice", "input": ["g_synthesis/16x16/Conv1/StyleMod/Reshape", "g_synthesis/4x4/Const/StyleMod/strided_slice/stack_1", "g_synthesis/4x4/Const/StyleMod/strided_slice_1/stack_1", "g_synthesis/4x4/Const/StyleMod/strided_slice/stack_2"], "attr": {"T": {"type": "DT_FLOAT"}, "Index": {"type": "DT_INT32"}, "shrink_axis_mask": {"i": "2"}, "begin_mask": {"i": "1"}, "ellipsis_mask": {"i": "0"}, "new_axis_mask": {"i": "0"}, "end_mask": {"i": "1"}}}, {"name": "g_synthesis/16x16/Conv1/StyleMod/strided_slice", "op": "StridedSlice", "input": ["g_synthesis/16x16/Conv1/StyleMod/Reshape", "g_synthesis/4x4/Const/StyleMod/strided_slice/stack", "g_synthesis/4x4/Const/StyleMod/strided_slice/stack_1", "g_synthesis/4x4/Const/StyleMod/strided_slice/stack_2"], "attr": {"T": {"type": "DT_FLOAT"}, "Index": {"type": "DT_INT32"}, "shrink_axis_mask": {"i": "2"}, "begin_mask": {"i": "1"}, "ellipsis_mask": {"i": "0"}, "new_axis_mask": {"i": "0"}, "end_mask": {"i": "1"}}}, {"name": "g_synthesis/16x16/Conv0_up/StyleMod/strided_slice_1", "op": "StridedSlice", "input": ["g_synthesis/16x16/Conv0_up/StyleMod/Reshape", "g_synthesis/4x4/Const/StyleMod/strided_slice/stack_1", "g_synthesis/4x4/Const/StyleMod/strided_slice_1/stack_1", "g_synthesis/4x4/Const/StyleMod/strided_slice/stack_2"], "attr": {"T": {"type": "DT_FLOAT"}, "Index": {"type": "DT_INT32"}, "shrink_axis_mask": {"i": "2"}, "begin_mask": {"i": "1"}, "ellipsis_mask": {"i": "0"}, "new_axis_mask": {"i": "0"}, "end_mask": {"i": "1"}}}, {"name": "g_synthesis/16x16/Conv0_up/StyleMod/strided_slice", "op": "StridedSlice", "input": ["g_synthesis/16x16/Conv0_up/StyleMod/Reshape", "g_synthesis/4x4/Const/StyleMod/strided_slice/stack", "g_synthesis/4x4/Const/StyleMod/strided_slice/stack_1", "g_synthesis/4x4/Const/StyleMod/strided_slice/stack_2"], "attr": {"T": {"type": "DT_FLOAT"}, "Index": {"type": "DT_INT32"}, "shrink_axis_mask": {"i": "2"}, "begin_mask": {"i": "1"}, "ellipsis_mask": {"i": "0"}, "new_axis_mask": {"i": "0"}, "end_mask": {"i": "1"}}}, {"name": "g_synthesis/8x8/Conv1/StyleMod/strided_slice_1", "op": "StridedSlice", "input": ["g_synthesis/8x8/Conv1/StyleMod/Reshape", "g_synthesis/4x4/Const/StyleMod/strided_slice/stack_1", "g_synthesis/4x4/Const/StyleMod/strided_slice_1/stack_1", "g_synthesis/4x4/Const/StyleMod/strided_slice/stack_2"], "attr": {"T": {"type": "DT_FLOAT"}, "Index": {"type": "DT_INT32"}, "shrink_axis_mask": {"i": "2"}, "begin_mask": {"i": "1"}, "ellipsis_mask": {"i": "0"}, "new_axis_mask": {"i": "0"}, "end_mask": {"i": "1"}}}, {"name": "g_synthesis/8x8/Conv1/StyleMod/strided_slice", "op": "StridedSlice", "input": ["g_synthesis/8x8/Conv1/StyleMod/Reshape", "g_synthesis/4x4/Const/StyleMod/strided_slice/stack", "g_synthesis/4x4/Const/StyleMod/strided_slice/stack_1", "g_synthesis/4x4/Const/StyleMod/strided_slice/stack_2"], "attr": {"T": {"type": "DT_FLOAT"}, "Index": {"type": "DT_INT32"}, "shrink_axis_mask": {"i": "2"}, "begin_mask": {"i": "1"}, "ellipsis_mask": {"i": "0"}, "new_axis_mask": {"i": "0"}, "end_mask": {"i": "1"}}}, {"name": "g_synthesis/8x8/Conv0_up/StyleMod/strided_slice_1", "op": "StridedSlice", "input": ["g_synthesis/8x8/Conv0_up/StyleMod/Reshape", "g_synthesis/4x4/Const/StyleMod/strided_slice/stack_1", "g_synthesis/4x4/Const/StyleMod/strided_slice_1/stack_1", "g_synthesis/4x4/Const/StyleMod/strided_slice/stack_2"], "attr": {"T": {"type": "DT_FLOAT"}, "Index": {"type": "DT_INT32"}, "shrink_axis_mask": {"i": "2"}, "begin_mask": {"i": "1"}, "ellipsis_mask": {"i": "0"}, "new_axis_mask": {"i": "0"}, "end_mask": {"i": "1"}}}, {"name": "g_synthesis/8x8/Conv0_up/StyleMod/strided_slice", "op": "StridedSlice", "input": ["g_synthesis/8x8/Conv0_up/StyleMod/Reshape", "g_synthesis/4x4/Const/StyleMod/strided_slice/stack", "g_synthesis/4x4/Const/StyleMod/strided_slice/stack_1", "g_synthesis/4x4/Const/StyleMod/strided_slice/stack_2"], "attr": {"T": {"type": "DT_FLOAT"}, "Index": {"type": "DT_INT32"}, "shrink_axis_mask": {"i": "2"}, "begin_mask": {"i": "1"}, "ellipsis_mask": {"i": "0"}, "new_axis_mask": {"i": "0"}, "end_mask": {"i": "1"}}}, {"name": "g_synthesis/4x4/Conv/StyleMod/strided_slice_1", "op": "StridedSlice", "input": ["g_synthesis/4x4/Conv/StyleMod/Reshape", "g_synthesis/4x4/Const/StyleMod/strided_slice/stack_1", "g_synthesis/4x4/Const/StyleMod/strided_slice_1/stack_1", "g_synthesis/4x4/Const/StyleMod/strided_slice/stack_2"], "attr": {"T": {"type": "DT_FLOAT"}, "Index": {"type": "DT_INT32"}, "shrink_axis_mask": {"i": "2"}, "begin_mask": {"i": "1"}, "ellipsis_mask": {"i": "0"}, "new_axis_mask": {"i": "0"}, "end_mask": {"i": "1"}}}, {"name": "g_synthesis/4x4/Conv/StyleMod/strided_slice", "op": "StridedSlice", "input": ["g_synthesis/4x4/Conv/StyleMod/Reshape", "g_synthesis/4x4/Const/StyleMod/strided_slice/stack", "g_synthesis/4x4/Const/StyleMod/strided_slice/stack_1", "g_synthesis/4x4/Const/StyleMod/strided_slice/stack_2"], "attr": {"T": {"type": "DT_FLOAT"}, "Index": {"type": "DT_INT32"}, "shrink_axis_mask": {"i": "2"}, "begin_mask": {"i": "1"}, "ellipsis_mask": {"i": "0"}, "new_axis_mask": {"i": "0"}, "end_mask": {"i": "1"}}}, {"name": "g_synthesis/4x4/Const/StyleMod/strided_slice_1", "op": "StridedSlice", "input": ["g_synthesis/4x4/Const/StyleMod/Reshape", "g_synthesis/4x4/Const/StyleMod/strided_slice/stack_1", "g_synthesis/4x4/Const/StyleMod/strided_slice_1/stack_1", "g_synthesis/4x4/Const/StyleMod/strided_slice/stack_2"], "attr": {"T": {"type": "DT_FLOAT"}, "Index": {"type": "DT_INT32"}, "shrink_axis_mask": {"i": "2"}, "begin_mask": {"i": "1"}, "ellipsis_mask": {"i": "0"}, "new_axis_mask": {"i": "0"}, "end_mask": {"i": "1"}}}, {"name": "g_synthesis/4x4/Const/StyleMod/strided_slice", "op": "StridedSlice", "input": ["g_synthesis/4x4/Const/StyleMod/Reshape", "g_synthesis/4x4/Const/StyleMod/strided_slice/stack", "g_synthesis/4x4/Const/StyleMod/strided_slice/stack_1", "g_synthesis/4x4/Const/StyleMod/strided_slice/stack_2"], "attr": {"T": {"type": "DT_FLOAT"}, "Index": {"type": "DT_INT32"}, "shrink_axis_mask": {"i": "2"}, "begin_mask": {"i": "1"}, "ellipsis_mask": {"i": "0"}, "new_axis_mask": {"i": "0"}, "end_mask": {"i": "1"}}}, {"name": "g_synthesis/4x4/Const/Noise/random_uniform/RandomUniform", "op": "RandomUniform", "input": ["g_synthesis/4x4/Const/Noise/random_uniform/shape"], "attr": {"seed": {"i": "0"}, "T": {"type": "DT_INT32"}, "dtype": {"type": "DT_FLOAT"}, "seed2": {"i": "0"}}}, {"name": "g_synthesis/512x512/Conv1/StyleMod/add_1", "op": "Add", "input": ["g_synthesis/4x4/Const/Noise/random_uniform/sub", "g_synthesis/512x512/Conv1/StyleMod/strided_slice"], "attr": {"T": {"type": "DT_FLOAT"}}}, {"name": "g_synthesis/512x512/Conv0_up/StyleMod/add_1", "op": "Add", "input": ["g_synthesis/4x4/Const/Noise/random_uniform/sub", "g_synthesis/512x512/Conv0_up/StyleMod/strided_slice"], "attr": {"T": {"type": "DT_FLOAT"}}}, {"name": "g_synthesis/256x256/Conv1/StyleMod/add_1", "op": "Add", "input": ["g_synthesis/256x256/Conv1/StyleMod/strided_slice", "g_synthesis/4x4/Const/Noise/random_uniform/sub"], "attr": {"T": {"type": "DT_FLOAT"}}}, {"name": "g_synthesis/256x256/Conv0_up/StyleMod/add_1", "op": "Add", "input": ["g_synthesis/256x256/Conv0_up/StyleMod/strided_slice", "g_synthesis/4x4/Const/Noise/random_uniform/sub"], "attr": {"T": {"type": "DT_FLOAT"}}}, {"name": "g_synthesis/128x128/Conv1/StyleMod/add_1", "op": "Add", "input": ["g_synthesis/128x128/Conv1/StyleMod/strided_slice", "g_synthesis/4x4/Const/Noise/random_uniform/sub"], "attr": {"T": {"type": "DT_FLOAT"}}}, {"name": "g_synthesis/128x128/Conv0_up/StyleMod/add_1", "op": "Add", "input": ["g_synthesis/128x128/Conv0_up/StyleMod/strided_slice", "g_synthesis/4x4/Const/Noise/random_uniform/sub"], "attr": {"T": {"type": "DT_FLOAT"}}}, {"name": "g_synthesis/64x64/Conv1/StyleMod/add_1", "op": "Add", "input": ["g_synthesis/4x4/Const/Noise/random_uniform/sub", "g_synthesis/64x64/Conv1/StyleMod/strided_slice"], "attr": {"T": {"type": "DT_FLOAT"}}}, {"name": "g_synthesis/64x64/Conv0_up/StyleMod/add_1", "op": "Add", "input": ["g_synthesis/4x4/Const/Noise/random_uniform/sub", "g_synthesis/64x64/Conv0_up/StyleMod/strided_slice"], "attr": {"T": {"type": "DT_FLOAT"}}}, {"name": "g_synthesis/32x32/Conv1/StyleMod/add_1", "op": "Add", "input": ["g_synthesis/32x32/Conv1/StyleMod/strided_slice", "g_synthesis/4x4/Const/Noise/random_uniform/sub"], "attr": {"T": {"type": "DT_FLOAT"}}}, {"name": "g_synthesis/32x32/Conv0_up/StyleMod/add_1", "op": "Add", "input": ["g_synthesis/32x32/Conv0_up/StyleMod/strided_slice", "g_synthesis/4x4/Const/Noise/random_uniform/sub"], "attr": {"T": {"type": "DT_FLOAT"}}}, {"name": "g_synthesis/16x16/Conv1/StyleMod/add_1", "op": "Add", "input": ["g_synthesis/16x16/Conv1/StyleMod/strided_slice", "g_synthesis/4x4/Const/Noise/random_uniform/sub"], "attr": {"T": {"type": "DT_FLOAT"}}}, {"name": "g_synthesis/16x16/Conv0_up/StyleMod/add_1", "op": "Add", "input": ["g_synthesis/16x16/Conv0_up/StyleMod/strided_slice", "g_synthesis/4x4/Const/Noise/random_uniform/sub"], "attr": {"T": {"type": "DT_FLOAT"}}}, {"name": "g_synthesis/8x8/Conv1/StyleMod/add_1", "op": "Add", "input": ["g_synthesis/4x4/Const/Noise/random_uniform/sub", "g_synthesis/8x8/Conv1/StyleMod/strided_slice"], "attr": {"T": {"type": "DT_FLOAT"}}}, {"name": "g_synthesis/8x8/Conv0_up/StyleMod/add_1", "op": "Add", "input": ["g_synthesis/4x4/Const/Noise/random_uniform/sub", "g_synthesis/8x8/Conv0_up/StyleMod/strided_slice"], "attr": {"T": {"type": "DT_FLOAT"}}}, {"name": "g_synthesis/4x4/Conv/StyleMod/add_1", "op": "Add", "input": ["g_synthesis/4x4/Const/Noise/random_uniform/sub", "g_synthesis/4x4/Conv/StyleMod/strided_slice"], "attr": {"T": {"type": "DT_FLOAT"}}}, {"name": "g_synthesis/4x4/Const/StyleMod/add_1", "op": "Add", "input": ["g_synthesis/4x4/Const/Noise/random_uniform/sub", "g_synthesis/4x4/Const/StyleMod/strided_slice"], "attr": {"T": {"type": "DT_FLOAT"}}}, {"name": "g_synthesis/4x4/Const/Noise/mul", "op": "Mul", "input": ["g_synthesis/4x4/Const/Noise/Reshape", "g_synthesis/4x4/Const/Noise/random_uniform/RandomUniform"], "attr": {"T": {"type": "DT_FLOAT"}}}, {"name": "g_synthesis/4x4/Const/Noise/add", "op": "Add", "input": ["g_synthesis/4x4/Const/Noise/mul", "g_synthesis/4x4/Const/Reshape"], "attr": {"T": {"type": "DT_FLOAT"}}}, {"name": "g_synthesis/4x4/Const/add", "op": "Add", "input": ["g_synthesis/4x4/Const/Noise/add", "g_synthesis/4x4/Const/Tile"], "attr": {"T": {"type": "DT_FLOAT"}}}, {"name": "g_synthesis/4x4/Const/LeakyRelu", "op": "LeakyRelu", "input": ["g_synthesis/4x4/Const/add"], "attr": {"T": {"type": "DT_FLOAT"}, "alpha": {"f": 0.20000000298023224}}}, {"name": "g_synthesis/4x4/Const/InstanceNorm/Mean", "op": "Mean", "input": ["g_synthesis/4x4/Const/LeakyRelu", "g_synthesis/4x4/Const/InstanceNorm/Mean/reduction_indices"], "attr": {"keep_dims": {"b": true}, "Tidx": {"type": "DT_INT32"}, "T": {"type": "DT_FLOAT"}}}, {"name": "g_synthesis/4x4/Const/InstanceNorm/sub_1", "op": "Sub", "input": ["g_synthesis/4x4/Const/LeakyRelu", "g_synthesis/4x4/Const/InstanceNorm/Mean"], "attr": {"T": {"type": "DT_FLOAT"}}}, {"name": "g_synthesis/4x4/Const/InstanceNorm/Square", "op": "Square", "input": ["g_synthesis/4x4/Const/InstanceNorm/sub_1"], "attr": {"T": {"type": "DT_FLOAT"}}}, {"name": "g_synthesis/4x4/Const/InstanceNorm/Mean_1", "op": "Mean", "input": ["g_synthesis/4x4/Const/InstanceNorm/Square", "g_synthesis/4x4/Const/InstanceNorm/Mean/reduction_indices"], "attr": {"keep_dims": {"b": true}, "Tidx": {"type": "DT_INT32"}, "T": {"type": "DT_FLOAT"}}}, {"name": "g_synthesis/4x4/Const/InstanceNorm/add", "op": "Add", "input": ["g_synthesis/4x4/Const/InstanceNorm/Mean_1", "g_synthesis/4x4/Const/InstanceNorm/epsilon"], "attr": {"T": {"type": "DT_FLOAT"}}}, {"name": "g_synthesis/4x4/Const/InstanceNorm/Rsqrt", "op": "Rsqrt", "input": ["g_synthesis/4x4/Const/InstanceNorm/add"], "attr": {"T": {"type": "DT_FLOAT"}}}, {"name": "g_synthesis/4x4/Const/InstanceNorm/mul", "op": "Mul", "input": ["g_synthesis/4x4/Const/InstanceNorm/Rsqrt", "g_synthesis/4x4/Const/InstanceNorm/sub_1"], "attr": {"T": {"type": "DT_FLOAT"}}}, {"name": "g_synthesis/4x4/Const/StyleMod/mul_2", "op": "Mul", "input": ["g_synthesis/4x4/Const/InstanceNorm/mul", "g_synthesis/4x4/Const/StyleMod/add_1"], "attr": {"T": {"type": "DT_FLOAT"}}}, {"name": "g_synthesis/4x4/Const/StyleMod/add_2", "op": "Add", "input": ["g_synthesis/4x4/Const/StyleMod/mul_2", "g_synthesis/4x4/Const/StyleMod/strided_slice_1"], "attr": {"T": {"type": "DT_FLOAT"}}}, {"name": "g_synthesis/4x4/Conv/NCHW_to_NHWC", "op": "Transpose", "input": ["g_synthesis/4x4/Const/StyleMod/add_2", "g_synthesis/4x4_1/ToRGB/NCHW_to_NHWC/perm"], "attr": {"Tperm": {"type": "DT_INT32"}, "T": {"type": "DT_FLOAT"}}}, {"name": "g_synthesis/4x4/Conv/Conv2D", "op": "Conv2D", "input": ["g_synthesis/4x4/Conv/NCHW_to_NHWC", "g_synthesis/4x4/Conv/mul"], "attr": {"dilations": {"list": {"i": ["1", "1", "1", "1"]}}, "T": {"type": "DT_FLOAT"}, "data_format": {"s": "TkhXQw=="}, "strides": {"list": {"i": ["1", "1", "1", "1"]}}, "use_cudnn_on_gpu": {"b": true}, "explicit_paddings": {"list": {}}, "padding": {"s": "U0FNRQ=="}}}, {"name": "g_synthesis/4x4/Conv/NHWC_to_NCHW", "op": "Transpose", "input": ["g_synthesis/4x4/Conv/Conv2D", "g_synthesis/4x4_1/ToRGB/NHWC_to_NCHW/perm"], "attr": {"Tperm": {"type": "DT_INT32"}, "T": {"type": "DT_FLOAT"}}}, {"name": "g_synthesis/4x4/Conv/Noise/Shape", "op": "Shape", "input": ["g_synthesis/4x4/Conv/NHWC_to_NCHW"], "attr": {"T": {"type": "DT_FLOAT"}, "out_type": {"type": "DT_INT32"}}}, {"name": "g_synthesis/4x4/Conv/Noise/strided_slice", "op": "StridedSlice", "input": ["g_synthesis/4x4/Conv/Noise/Shape", "g_synthesis/512x512/Conv0_up/strided_slice_4/stack", "g_synthesis/512x512/Conv0_up/strided_slice_4/stack_1", "g_synthesis/512x512/Conv0_up/strided_slice_4/stack_1"], "attr": {"T": {"type": "DT_INT32"}, "Index": {"type": "DT_INT32"}, "shrink_axis_mask": {"i": "1"}, "begin_mask": {"i": "0"}, "ellipsis_mask": {"i": "0"}, "new_axis_mask": {"i": "0"}, "end_mask": {"i": "0"}}}, {"name": "g_synthesis/4x4/Conv/Noise/random_uniform/shape", "op": "Pack", "input": ["g_synthesis/4x4/Conv/Noise/strided_slice", "g_synthesis/4x4/Const/Tile/multiples/1", "g_synthesis/4x4/Const/Noise/random_uniform/shape/2", "g_synthesis/4x4/Const/Noise/random_uniform/shape/2"], "attr": {"T": {"type": "DT_INT32"}, "axis": {"i": "0"}, "N": {"i": "4"}}}, {"name": "g_synthesis/4x4/Conv/Noise/random_uniform/RandomUniform", "op": "RandomUniform", "input": ["g_synthesis/4x4/Conv/Noise/random_uniform/shape"], "attr": {"seed": {"i": "0"}, "T": {"type": "DT_INT32"}, "dtype": {"type": "DT_FLOAT"}, "seed2": {"i": "0"}}}, {"name": "g_synthesis/4x4/Conv/Noise/mul", "op": "Mul", "input": ["g_synthesis/4x4/Conv/Noise/Reshape", "g_synthesis/4x4/Conv/Noise/random_uniform/RandomUniform"], "attr": {"T": {"type": "DT_FLOAT"}}}, {"name": "g_synthesis/4x4/Conv/Noise/add", "op": "Add", "input": ["g_synthesis/4x4/Conv/Noise/mul", "g_synthesis/4x4/Conv/Reshape"], "attr": {"T": {"type": "DT_FLOAT"}}}, {"name": "g_synthesis/4x4/Conv/add", "op": "Add", "input": ["g_synthesis/4x4/Conv/NHWC_to_NCHW", "g_synthesis/4x4/Conv/Noise/add"], "attr": {"T": {"type": "DT_FLOAT"}}}, {"name": "g_synthesis/4x4/Conv/LeakyRelu", "op": "LeakyRelu", "input": ["g_synthesis/4x4/Conv/add"], "attr": {"T": {"type": "DT_FLOAT"}, "alpha": {"f": 0.20000000298023224}}}, {"name": "g_synthesis/4x4/Conv/InstanceNorm/Mean", "op": "Mean", "input": ["g_synthesis/4x4/Conv/LeakyRelu", "g_synthesis/4x4/Const/InstanceNorm/Mean/reduction_indices"], "attr": {"keep_dims": {"b": true}, "Tidx": {"type": "DT_INT32"}, "T": {"type": "DT_FLOAT"}}}, {"name": "g_synthesis/4x4/Conv/InstanceNorm/sub_1", "op": "Sub", "input": ["g_synthesis/4x4/Conv/LeakyRelu", "g_synthesis/4x4/Conv/InstanceNorm/Mean"], "attr": {"T": {"type": "DT_FLOAT"}}}, {"name": "g_synthesis/4x4/Conv/InstanceNorm/Square", "op": "Square", "input": ["g_synthesis/4x4/Conv/InstanceNorm/sub_1"], "attr": {"T": {"type": "DT_FLOAT"}}}, {"name": "g_synthesis/4x4/Conv/InstanceNorm/Mean_1", "op": "Mean", "input": ["g_synthesis/4x4/Conv/InstanceNorm/Square", "g_synthesis/4x4/Const/InstanceNorm/Mean/reduction_indices"], "attr": {"keep_dims": {"b": true}, "Tidx": {"type": "DT_INT32"}, "T": {"type": "DT_FLOAT"}}}, {"name": "g_synthesis/4x4/Conv/InstanceNorm/add", "op": "Add", "input": ["g_synthesis/4x4/Const/InstanceNorm/epsilon", "g_synthesis/4x4/Conv/InstanceNorm/Mean_1"], "attr": {"T": {"type": "DT_FLOAT"}}}, {"name": "g_synthesis/4x4/Conv/InstanceNorm/Rsqrt", "op": "Rsqrt", "input": ["g_synthesis/4x4/Conv/InstanceNorm/add"], "attr": {"T": {"type": "DT_FLOAT"}}}, {"name": "g_synthesis/4x4/Conv/InstanceNorm/mul", "op": "Mul", "input": ["g_synthesis/4x4/Conv/InstanceNorm/Rsqrt", "g_synthesis/4x4/Conv/InstanceNorm/sub_1"], "attr": {"T": {"type": "DT_FLOAT"}}}, {"name": "g_synthesis/4x4/Conv/StyleMod/mul_2", "op": "Mul", "input": ["g_synthesis/4x4/Conv/InstanceNorm/mul", "g_synthesis/4x4/Conv/StyleMod/add_1"], "attr": {"T": {"type": "DT_FLOAT"}}}, {"name": "g_synthesis/4x4/Conv/StyleMod/add_2", "op": "Add", "input": ["g_synthesis/4x4/Conv/StyleMod/mul_2", "g_synthesis/4x4/Conv/StyleMod/strided_slice_1"], "attr": {"T": {"type": "DT_FLOAT"}}}, {"name": "g_synthesis/8x8/Conv0_up/Reshape", "op": "Reshape", "input": ["g_synthesis/4x4/Conv/StyleMod/add_2", "g_synthesis/8x8/Conv0_up/Reshape/shape"], "attr": {"T": {"type": "DT_FLOAT"}, "Tshape": {"type": "DT_INT32"}}}, {"name": "g_synthesis/4x4_1/ToRGB/NCHW_to_NHWC", "op": "Transpose", "input": ["g_synthesis/4x4/Conv/StyleMod/add_2", "g_synthesis/4x4_1/ToRGB/NCHW_to_NHWC/perm"], "attr": {"Tperm": {"type": "DT_INT32"}, "T": {"type": "DT_FLOAT"}}}, {"name": "g_synthesis/8x8/Conv0_up/Tile", "op": "Tile", "input": ["g_synthesis/8x8/Conv0_up/Reshape", "g_synthesis/Tile/multiples"], "attr": {"Tmultiples": {"type": "DT_INT32"}, "T": {"type": "DT_FLOAT"}}}, {"name": "g_synthesis/4x4_1/ToRGB/Conv2D", "op": "Conv2D", "input": ["g_synthesis/4x4_1/ToRGB/NCHW_to_NHWC", "g_synthesis/4x4_1/ToRGB/mul"], "attr": {"dilations": {"list": {"i": ["1", "1", "1", "1"]}}, "T": {"type": "DT_FLOAT"}, "data_format": {"s": "TkhXQw=="}, "strides": {"list": {"i": ["1", "1", "1", "1"]}}, "use_cudnn_on_gpu": {"b": true}, "explicit_paddings": {"list": {}}, "padding": {"s": "U0FNRQ=="}}}, {"name": "g_synthesis/8x8/Conv0_up/Reshape_1", "op": "Reshape", "input": ["g_synthesis/8x8/Conv0_up/Tile", "g_synthesis/8x8/Conv0_up/Reshape_1/shape"], "attr": {"T": {"type": "DT_FLOAT"}, "Tshape": {"type": "DT_INT32"}}}, {"name": "g_synthesis/4x4_1/ToRGB/NHWC_to_NCHW", "op": "Transpose", "input": ["g_synthesis/4x4_1/ToRGB/Conv2D", "g_synthesis/4x4_1/ToRGB/NHWC_to_NCHW/perm"], "attr": {"Tperm": {"type": "DT_INT32"}, "T": {"type": "DT_FLOAT"}}}, {"name": "g_synthesis/8x8/Conv0_up/NCHW_to_NHWC", "op": "Transpose", "input": ["g_synthesis/8x8/Conv0_up/Reshape_1", "g_synthesis/4x4_1/ToRGB/NCHW_to_NHWC/perm"], "attr": {"Tperm": {"type": "DT_INT32"}, "T": {"type": "DT_FLOAT"}}}, {"name": "g_synthesis/Reshape", "op": "Reshape", "input": ["g_synthesis/4x4_1/ToRGB/NHWC_to_NCHW", "g_synthesis/Reshape/shape"], "attr": {"T": {"type": "DT_FLOAT"}, "Tshape": {"type": "DT_INT32"}}}, {"name": "g_synthesis/8x8/Conv0_up/Conv2D", "op": "Conv2D", "input": ["g_synthesis/8x8/Conv0_up/NCHW_to_NHWC", "g_synthesis/8x8/Conv0_up/mul"], "attr": {"dilations": {"list": {"i": ["1", "1", "1", "1"]}}, "T": {"type": "DT_FLOAT"}, "data_format": {"s": "TkhXQw=="}, "strides": {"list": {"i": ["1", "1", "1", "1"]}}, "use_cudnn_on_gpu": {"b": true}, "explicit_paddings": {"list": {}}, "padding": {"s": "U0FNRQ=="}}}, {"name": "g_synthesis/Tile", "op": "Tile", "input": ["g_synthesis/Reshape", "g_synthesis/Tile/multiples"], "attr": {"Tmultiples": {"type": "DT_INT32"}, "T": {"type": "DT_FLOAT"}}}, {"name": "g_synthesis/8x8/Conv0_up/depthwise", "op": "DepthwiseConv2dNative", "input": ["g_synthesis/8x8/Conv0_up/Conv2D", "g_synthesis/8x8/Conv0_up/filter"], "attr": {"padding": {"s": "U0FNRQ=="}, "dilations": {"list": {"i": ["1", "1", "1", "1"]}}, "T": {"type": "DT_FLOAT"}, "strides": {"list": {"i": ["1", "1", "1", "1"]}}, "data_format": {"s": "TkhXQw=="}}}, {"name": "g_synthesis/Reshape_1", "op": "Reshape", "input": ["g_synthesis/Tile", "g_synthesis/Reshape_1/shape"], "attr": {"T": {"type": "DT_FLOAT"}, "Tshape": {"type": "DT_INT32"}}}, {"name": "g_synthesis/8x8/Conv0_up/NHWC_to_NCHW_1", "op": "Transpose", "input": ["g_synthesis/8x8/Conv0_up/depthwise", "g_synthesis/4x4_1/ToRGB/NHWC_to_NCHW/perm"], "attr": {"Tperm": {"type": "DT_INT32"}, "T": {"type": "DT_FLOAT"}}}, {"name": "g_synthesis/8x8/Conv0_up/Noise/Shape", "op": "Shape", "input": ["g_synthesis/8x8/Conv0_up/NHWC_to_NCHW_1"], "attr": {"T": {"type": "DT_FLOAT"}, "out_type": {"type": "DT_INT32"}}}, {"name": "g_synthesis/8x8/Conv0_up/Noise/strided_slice", "op": "StridedSlice", "input": ["g_synthesis/8x8/Conv0_up/Noise/Shape", "g_synthesis/512x512/Conv0_up/strided_slice_4/stack", "g_synthesis/512x512/Conv0_up/strided_slice_4/stack_1", "g_synthesis/512x512/Conv0_up/strided_slice_4/stack_1"], "attr": {"T": {"type": "DT_INT32"}, "Index": {"type": "DT_INT32"}, "shrink_axis_mask": {"i": "1"}, "begin_mask": {"i": "0"}, "ellipsis_mask": {"i": "0"}, "new_axis_mask": {"i": "0"}, "end_mask": {"i": "0"}}}, {"name": "g_synthesis/8x8/Conv0_up/Noise/random_uniform/shape", "op": "Pack", "input": ["g_synthesis/8x8/Conv0_up/Noise/strided_slice", "g_synthesis/4x4/Const/Tile/multiples/1", "g_synthesis/8x8/Conv0_up/Noise/random_uniform/shape/2", "g_synthesis/8x8/Conv0_up/Noise/random_uniform/shape/2"], "attr": {"T": {"type": "DT_INT32"}, "axis": {"i": "0"}, "N": {"i": "4"}}}, {"name": "g_synthesis/8x8/Conv0_up/Noise/random_uniform/RandomUniform", "op": "RandomUniform", "input": ["g_synthesis/8x8/Conv0_up/Noise/random_uniform/shape"], "attr": {"seed": {"i": "0"}, "T": {"type": "DT_INT32"}, "dtype": {"type": "DT_FLOAT"}, "seed2": {"i": "0"}}}, {"name": "g_synthesis/8x8/Conv0_up/Noise/mul", "op": "Mul", "input": ["g_synthesis/8x8/Conv0_up/Noise/Reshape", "g_synthesis/8x8/Conv0_up/Noise/random_uniform/RandomUniform"], "attr": {"T": {"type": "DT_FLOAT"}}}, {"name": "g_synthesis/8x8/Conv0_up/Noise/add", "op": "Add", "input": ["g_synthesis/8x8/Conv0_up/Noise/mul", "g_synthesis/8x8/Conv0_up/Reshape_2"], "attr": {"T": {"type": "DT_FLOAT"}}}, {"name": "g_synthesis/8x8/Conv0_up/add", "op": "Add", "input": ["g_synthesis/8x8/Conv0_up/NHWC_to_NCHW_1", "g_synthesis/8x8/Conv0_up/Noise/add"], "attr": {"T": {"type": "DT_FLOAT"}}}, {"name": "g_synthesis/8x8/Conv0_up/LeakyRelu", "op": "LeakyRelu", "input": ["g_synthesis/8x8/Conv0_up/add"], "attr": {"T": {"type": "DT_FLOAT"}, "alpha": {"f": 0.20000000298023224}}}, {"name": "g_synthesis/8x8/Conv0_up/InstanceNorm/Mean", "op": "Mean", "input": ["g_synthesis/8x8/Conv0_up/LeakyRelu", "g_synthesis/4x4/Const/InstanceNorm/Mean/reduction_indices"], "attr": {"keep_dims": {"b": true}, "Tidx": {"type": "DT_INT32"}, "T": {"type": "DT_FLOAT"}}}, {"name": "g_synthesis/8x8/Conv0_up/InstanceNorm/sub_1", "op": "Sub", "input": ["g_synthesis/8x8/Conv0_up/LeakyRelu", "g_synthesis/8x8/Conv0_up/InstanceNorm/Mean"], "attr": {"T": {"type": "DT_FLOAT"}}}, {"name": "g_synthesis/8x8/Conv0_up/InstanceNorm/Square", "op": "Square", "input": ["g_synthesis/8x8/Conv0_up/InstanceNorm/sub_1"], "attr": {"T": {"type": "DT_FLOAT"}}}, {"name": "g_synthesis/8x8/Conv0_up/InstanceNorm/Mean_1", "op": "Mean", "input": ["g_synthesis/8x8/Conv0_up/InstanceNorm/Square", "g_synthesis/4x4/Const/InstanceNorm/Mean/reduction_indices"], "attr": {"keep_dims": {"b": true}, "Tidx": {"type": "DT_INT32"}, "T": {"type": "DT_FLOAT"}}}, {"name": "g_synthesis/8x8/Conv0_up/InstanceNorm/add", "op": "Add", "input": ["g_synthesis/4x4/Const/InstanceNorm/epsilon", "g_synthesis/8x8/Conv0_up/InstanceNorm/Mean_1"], "attr": {"T": {"type": "DT_FLOAT"}}}, {"name": "g_synthesis/8x8/Conv0_up/InstanceNorm/Rsqrt", "op": "Rsqrt", "input": ["g_synthesis/8x8/Conv0_up/InstanceNorm/add"], "attr": {"T": {"type": "DT_FLOAT"}}}, {"name": "g_synthesis/8x8/Conv0_up/InstanceNorm/mul", "op": "Mul", "input": ["g_synthesis/8x8/Conv0_up/InstanceNorm/Rsqrt", "g_synthesis/8x8/Conv0_up/InstanceNorm/sub_1"], "attr": {"T": {"type": "DT_FLOAT"}}}, {"name": "g_synthesis/8x8/Conv0_up/StyleMod/mul_2", "op": "Mul", "input": ["g_synthesis/8x8/Conv0_up/InstanceNorm/mul", "g_synthesis/8x8/Conv0_up/StyleMod/add_1"], "attr": {"T": {"type": "DT_FLOAT"}}}, {"name": "g_synthesis/8x8/Conv0_up/StyleMod/add_2", "op": "Add", "input": ["g_synthesis/8x8/Conv0_up/StyleMod/mul_2", "g_synthesis/8x8/Conv0_up/StyleMod/strided_slice_1"], "attr": {"T": {"type": "DT_FLOAT"}}}, {"name": "g_synthesis/8x8/Conv1/NCHW_to_NHWC", "op": "Transpose", "input": ["g_synthesis/8x8/Conv0_up/StyleMod/add_2", "g_synthesis/4x4_1/ToRGB/NCHW_to_NHWC/perm"], "attr": {"Tperm": {"type": "DT_INT32"}, "T": {"type": "DT_FLOAT"}}}, {"name": "g_synthesis/8x8/Conv1/Conv2D", "op": "Conv2D", "input": ["g_synthesis/8x8/Conv1/NCHW_to_NHWC", "g_synthesis/8x8/Conv1/mul"], "attr": {"dilations": {"list": {"i": ["1", "1", "1", "1"]}}, "T": {"type": "DT_FLOAT"}, "data_format": {"s": "TkhXQw=="}, "strides": {"list": {"i": ["1", "1", "1", "1"]}}, "use_cudnn_on_gpu": {"b": true}, "explicit_paddings": {"list": {}}, "padding": {"s": "U0FNRQ=="}}}, {"name": "g_synthesis/8x8/Conv1/NHWC_to_NCHW", "op": "Transpose", "input": ["g_synthesis/8x8/Conv1/Conv2D", "g_synthesis/4x4_1/ToRGB/NHWC_to_NCHW/perm"], "attr": {"Tperm": {"type": "DT_INT32"}, "T": {"type": "DT_FLOAT"}}}, {"name": "g_synthesis/8x8/Conv1/Noise/Shape", "op": "Shape", "input": ["g_synthesis/8x8/Conv1/NHWC_to_NCHW"], "attr": {"T": {"type": "DT_FLOAT"}, "out_type": {"type": "DT_INT32"}}}, {"name": "g_synthesis/8x8/Conv1/Noise/strided_slice", "op": "StridedSlice", "input": ["g_synthesis/8x8/Conv1/Noise/Shape", "g_synthesis/512x512/Conv0_up/strided_slice_4/stack", "g_synthesis/512x512/Conv0_up/strided_slice_4/stack_1", "g_synthesis/512x512/Conv0_up/strided_slice_4/stack_1"], "attr": {"T": {"type": "DT_INT32"}, "Index": {"type": "DT_INT32"}, "shrink_axis_mask": {"i": "1"}, "begin_mask": {"i": "0"}, "ellipsis_mask": {"i": "0"}, "new_axis_mask": {"i": "0"}, "end_mask": {"i": "0"}}}, {"name": "g_synthesis/8x8/Conv1/Noise/random_uniform/shape", "op": "Pack", "input": ["g_synthesis/8x8/Conv1/Noise/strided_slice", "g_synthesis/4x4/Const/Tile/multiples/1", "g_synthesis/8x8/Conv0_up/Noise/random_uniform/shape/2", "g_synthesis/8x8/Conv0_up/Noise/random_uniform/shape/2"], "attr": {"T": {"type": "DT_INT32"}, "axis": {"i": "0"}, "N": {"i": "4"}}}, {"name": "g_synthesis/8x8/Conv1/Noise/random_uniform/RandomUniform", "op": "RandomUniform", "input": ["g_synthesis/8x8/Conv1/Noise/random_uniform/shape"], "attr": {"seed": {"i": "0"}, "T": {"type": "DT_INT32"}, "dtype": {"type": "DT_FLOAT"}, "seed2": {"i": "0"}}}, {"name": "g_synthesis/8x8/Conv1/Noise/mul", "op": "Mul", "input": ["g_synthesis/8x8/Conv1/Noise/Reshape", "g_synthesis/8x8/Conv1/Noise/random_uniform/RandomUniform"], "attr": {"T": {"type": "DT_FLOAT"}}}, {"name": "g_synthesis/8x8/Conv1/Noise/add", "op": "Add", "input": ["g_synthesis/8x8/Conv1/Noise/mul", "g_synthesis/8x8/Conv1/Reshape"], "attr": {"T": {"type": "DT_FLOAT"}}}, {"name": "g_synthesis/8x8/Conv1/add", "op": "Add", "input": ["g_synthesis/8x8/Conv1/NHWC_to_NCHW", "g_synthesis/8x8/Conv1/Noise/add"], "attr": {"T": {"type": "DT_FLOAT"}}}, {"name": "g_synthesis/8x8/Conv1/LeakyRelu", "op": "LeakyRelu", "input": ["g_synthesis/8x8/Conv1/add"], "attr": {"T": {"type": "DT_FLOAT"}, "alpha": {"f": 0.20000000298023224}}}, {"name": "g_synthesis/8x8/Conv1/InstanceNorm/Mean", "op": "Mean", "input": ["g_synthesis/8x8/Conv1/LeakyRelu", "g_synthesis/4x4/Const/InstanceNorm/Mean/reduction_indices"], "attr": {"keep_dims": {"b": true}, "Tidx": {"type": "DT_INT32"}, "T": {"type": "DT_FLOAT"}}}, {"name": "g_synthesis/8x8/Conv1/InstanceNorm/sub_1", "op": "Sub", "input": ["g_synthesis/8x8/Conv1/LeakyRelu", "g_synthesis/8x8/Conv1/InstanceNorm/Mean"], "attr": {"T": {"type": "DT_FLOAT"}}}, {"name": "g_synthesis/8x8/Conv1/InstanceNorm/Square", "op": "Square", "input": ["g_synthesis/8x8/Conv1/InstanceNorm/sub_1"], "attr": {"T": {"type": "DT_FLOAT"}}}, {"name": "g_synthesis/8x8/Conv1/InstanceNorm/Mean_1", "op": "Mean", "input": ["g_synthesis/8x8/Conv1/InstanceNorm/Square", "g_synthesis/4x4/Const/InstanceNorm/Mean/reduction_indices"], "attr": {"keep_dims": {"b": true}, "Tidx": {"type": "DT_INT32"}, "T": {"type": "DT_FLOAT"}}}, {"name": "g_synthesis/8x8/Conv1/InstanceNorm/add", "op": "Add", "input": ["g_synthesis/4x4/Const/InstanceNorm/epsilon", "g_synthesis/8x8/Conv1/InstanceNorm/Mean_1"], "attr": {"T": {"type": "DT_FLOAT"}}}, {"name": "g_synthesis/8x8/Conv1/InstanceNorm/Rsqrt", "op": "Rsqrt", "input": ["g_synthesis/8x8/Conv1/InstanceNorm/add"], "attr": {"T": {"type": "DT_FLOAT"}}}, {"name": "g_synthesis/8x8/Conv1/InstanceNorm/mul", "op": "Mul", "input": ["g_synthesis/8x8/Conv1/InstanceNorm/Rsqrt", "g_synthesis/8x8/Conv1/InstanceNorm/sub_1"], "attr": {"T": {"type": "DT_FLOAT"}}}, {"name": "g_synthesis/8x8/Conv1/StyleMod/mul_2", "op": "Mul", "input": ["g_synthesis/8x8/Conv1/InstanceNorm/mul", "g_synthesis/8x8/Conv1/StyleMod/add_1"], "attr": {"T": {"type": "DT_FLOAT"}}}, {"name": "g_synthesis/8x8/Conv1/StyleMod/add_2", "op": "Add", "input": ["g_synthesis/8x8/Conv1/StyleMod/mul_2", "g_synthesis/8x8/Conv1/StyleMod/strided_slice_1"], "attr": {"T": {"type": "DT_FLOAT"}}}, {"name": "g_synthesis/16x16/Conv0_up/Reshape", "op": "Reshape", "input": ["g_synthesis/8x8/Conv1/StyleMod/add_2", "g_synthesis/16x16/Conv0_up/Reshape/shape"], "attr": {"T": {"type": "DT_FLOAT"}, "Tshape": {"type": "DT_INT32"}}}, {"name": "g_synthesis/8x8_1/ToRGB/NCHW_to_NHWC", "op": "Transpose", "input": ["g_synthesis/8x8/Conv1/StyleMod/add_2", "g_synthesis/4x4_1/ToRGB/NCHW_to_NHWC/perm"], "attr": {"Tperm": {"type": "DT_INT32"}, "T": {"type": "DT_FLOAT"}}}, {"name": "g_synthesis/16x16/Conv0_up/Tile", "op": "Tile", "input": ["g_synthesis/16x16/Conv0_up/Reshape", "g_synthesis/Tile/multiples"], "attr": {"Tmultiples": {"type": "DT_INT32"}, "T": {"type": "DT_FLOAT"}}}, {"name": "g_synthesis/8x8_1/ToRGB/Conv2D", "op": "Conv2D", "input": ["g_synthesis/8x8_1/ToRGB/NCHW_to_NHWC", "g_synthesis/8x8_1/ToRGB/mul"], "attr": {"dilations": {"list": {"i": ["1", "1", "1", "1"]}}, "T": {"type": "DT_FLOAT"}, "data_format": {"s": "TkhXQw=="}, "strides": {"list": {"i": ["1", "1", "1", "1"]}}, "use_cudnn_on_gpu": {"b": true}, "explicit_paddings": {"list": {}}, "padding": {"s": "U0FNRQ=="}}}, {"name": "g_synthesis/16x16/Conv0_up/Reshape_1", "op": "Reshape", "input": ["g_synthesis/16x16/Conv0_up/Tile", "g_synthesis/16x16/Conv0_up/Reshape_1/shape"], "attr": {"T": {"type": "DT_FLOAT"}, "Tshape": {"type": "DT_INT32"}}}, {"name": "g_synthesis/8x8_1/ToRGB/NHWC_to_NCHW", "op": "Transpose", "input": ["g_synthesis/8x8_1/ToRGB/Conv2D", "g_synthesis/4x4_1/ToRGB/NHWC_to_NCHW/perm"], "attr": {"Tperm": {"type": "DT_INT32"}, "T": {"type": "DT_FLOAT"}}}, {"name": "g_synthesis/16x16/Conv0_up/NCHW_to_NHWC", "op": "Transpose", "input": ["g_synthesis/16x16/Conv0_up/Reshape_1", "g_synthesis/4x4_1/ToRGB/NCHW_to_NHWC/perm"], "attr": {"Tperm": {"type": "DT_INT32"}, "T": {"type": "DT_FLOAT"}}}, {"name": "g_synthesis/8x8_1/ToRGB/add", "op": "Add", "input": ["g_synthesis/8x8_1/ToRGB/NHWC_to_NCHW", "g_synthesis/8x8_1/ToRGB/Reshape"], "attr": {"T": {"type": "DT_FLOAT"}}}, {"name": "g_synthesis/16x16/Conv0_up/Conv2D", "op": "Conv2D", "input": ["g_synthesis/16x16/Conv0_up/NCHW_to_NHWC", "g_synthesis/16x16/Conv0_up/mul"], "attr": {"dilations": {"list": {"i": ["1", "1", "1", "1"]}}, "T": {"type": "DT_FLOAT"}, "data_format": {"s": "TkhXQw=="}, "strides": {"list": {"i": ["1", "1", "1", "1"]}}, "use_cudnn_on_gpu": {"b": true}, "explicit_paddings": {"list": {}}, "padding": {"s": "U0FNRQ=="}}}, {"name": "g_synthesis/8x8_2/smooth_transition/LerpClip/sub", "op": "Sub", "input": ["g_synthesis/Reshape_1", "g_synthesis/8x8_1/ToRGB/add"], "attr": {"T": {"type": "DT_FLOAT"}}}, {"name": "g_synthesis/16x16/Conv0_up/depthwise", "op": "DepthwiseConv2dNative", "input": ["g_synthesis/16x16/Conv0_up/Conv2D", "g_synthesis/8x8/Conv0_up/filter"], "attr": {"padding": {"s": "U0FNRQ=="}, "dilations": {"list": {"i": ["1", "1", "1", "1"]}}, "T": {"type": "DT_FLOAT"}, "strides": {"list": {"i": ["1", "1", "1", "1"]}}, "data_format": {"s": "TkhXQw=="}}}, {"name": "g_synthesis/8x8_2/smooth_transition/LerpClip/mul", "op": "Mul", "input": ["g_synthesis/8x8_2/smooth_transition/LerpClip/clip_by_value", "g_synthesis/8x8_2/smooth_transition/LerpClip/sub"], "attr": {"T": {"type": "DT_FLOAT"}}}, {"name": "g_synthesis/16x16/Conv0_up/NHWC_to_NCHW_1", "op": "Transpose", "input": ["g_synthesis/16x16/Conv0_up/depthwise", "g_synthesis/4x4_1/ToRGB/NHWC_to_NCHW/perm"], "attr": {"Tperm": {"type": "DT_INT32"}, "T": {"type": "DT_FLOAT"}}}, {"name": "g_synthesis/8x8_2/smooth_transition/LerpClip/add", "op": "Add", "input": ["g_synthesis/8x8_1/ToRGB/add", "g_synthesis/8x8_2/smooth_transition/LerpClip/mul"], "attr": {"T": {"type": "DT_FLOAT"}}}, {"name": "g_synthesis/16x16/Conv0_up/Noise/Shape", "op": "Shape", "input": ["g_synthesis/16x16/Conv0_up/NHWC_to_NCHW_1"], "attr": {"T": {"type": "DT_FLOAT"}, "out_type": {"type": "DT_INT32"}}}, {"name": "g_synthesis/Reshape_2", "op": "Reshape", "input": ["g_synthesis/8x8_2/smooth_transition/LerpClip/add", "g_synthesis/Reshape_2/shape"], "attr": {"T": {"type": "DT_FLOAT"}, "Tshape": {"type": "DT_INT32"}}}, {"name": "g_synthesis/16x16/Conv0_up/Noise/strided_slice", "op": "StridedSlice", "input": ["g_synthesis/16x16/Conv0_up/Noise/Shape", "g_synthesis/512x512/Conv0_up/strided_slice_4/stack", "g_synthesis/512x512/Conv0_up/strided_slice_4/stack_1", "g_synthesis/512x512/Conv0_up/strided_slice_4/stack_1"], "attr": {"T": {"type": "DT_INT32"}, "Index": {"type": "DT_INT32"}, "shrink_axis_mask": {"i": "1"}, "begin_mask": {"i": "0"}, "ellipsis_mask": {"i": "0"}, "new_axis_mask": {"i": "0"}, "end_mask": {"i": "0"}}}, {"name": "g_synthesis/Tile_1", "op": "Tile", "input": ["g_synthesis/Reshape_2", "g_synthesis/Tile/multiples"], "attr": {"Tmultiples": {"type": "DT_INT32"}, "T": {"type": "DT_FLOAT"}}}, {"name": "g_synthesis/16x16/Conv0_up/Noise/random_uniform/shape", "op": "Pack", "input": ["g_synthesis/16x16/Conv0_up/Noise/strided_slice", "g_synthesis/4x4/Const/Tile/multiples/1", "g_synthesis/16x16/Conv0_up/Noise/random_uniform/shape/2", "g_synthesis/16x16/Conv0_up/Noise/random_uniform/shape/2"], "attr": {"T": {"type": "DT_INT32"}, "axis": {"i": "0"}, "N": {"i": "4"}}}, {"name": "g_synthesis/Reshape_3", "op": "Reshape", "input": ["g_synthesis/Tile_1", "g_synthesis/Reshape_3/shape"], "attr": {"T": {"type": "DT_FLOAT"}, "Tshape": {"type": "DT_INT32"}}}, {"name": "g_synthesis/16x16/Conv0_up/Noise/random_uniform/RandomUniform", "op": "RandomUniform", "input": ["g_synthesis/16x16/Conv0_up/Noise/random_uniform/shape"], "attr": {"seed": {"i": "0"}, "T": {"type": "DT_INT32"}, "dtype": {"type": "DT_FLOAT"}, "seed2": {"i": "0"}}}, {"name": "g_synthesis/16x16/Conv0_up/Noise/mul", "op": "Mul", "input": ["g_synthesis/16x16/Conv0_up/Noise/Reshape", "g_synthesis/16x16/Conv0_up/Noise/random_uniform/RandomUniform"], "attr": {"T": {"type": "DT_FLOAT"}}}, {"name": "g_synthesis/16x16/Conv0_up/Noise/add", "op": "Add", "input": ["g_synthesis/16x16/Conv0_up/Noise/mul", "g_synthesis/16x16/Conv0_up/Reshape_2"], "attr": {"T": {"type": "DT_FLOAT"}}}, {"name": "g_synthesis/16x16/Conv0_up/add", "op": "Add", "input": ["g_synthesis/16x16/Conv0_up/NHWC_to_NCHW_1", "g_synthesis/16x16/Conv0_up/Noise/add"], "attr": {"T": {"type": "DT_FLOAT"}}}, {"name": "g_synthesis/16x16/Conv0_up/LeakyRelu", "op": "LeakyRelu", "input": ["g_synthesis/16x16/Conv0_up/add"], "attr": {"T": {"type": "DT_FLOAT"}, "alpha": {"f": 0.20000000298023224}}}, {"name": "g_synthesis/16x16/Conv0_up/InstanceNorm/Mean", "op": "Mean", "input": ["g_synthesis/16x16/Conv0_up/LeakyRelu", "g_synthesis/4x4/Const/InstanceNorm/Mean/reduction_indices"], "attr": {"keep_dims": {"b": true}, "Tidx": {"type": "DT_INT32"}, "T": {"type": "DT_FLOAT"}}}, {"name": "g_synthesis/16x16/Conv0_up/InstanceNorm/sub_1", "op": "Sub", "input": ["g_synthesis/16x16/Conv0_up/LeakyRelu", "g_synthesis/16x16/Conv0_up/InstanceNorm/Mean"], "attr": {"T": {"type": "DT_FLOAT"}}}, {"name": "g_synthesis/16x16/Conv0_up/InstanceNorm/Square", "op": "Square", "input": ["g_synthesis/16x16/Conv0_up/InstanceNorm/sub_1"], "attr": {"T": {"type": "DT_FLOAT"}}}, {"name": "g_synthesis/16x16/Conv0_up/InstanceNorm/Mean_1", "op": "Mean", "input": ["g_synthesis/16x16/Conv0_up/InstanceNorm/Square", "g_synthesis/4x4/Const/InstanceNorm/Mean/reduction_indices"], "attr": {"keep_dims": {"b": true}, "Tidx": {"type": "DT_INT32"}, "T": {"type": "DT_FLOAT"}}}, {"name": "g_synthesis/16x16/Conv0_up/InstanceNorm/add", "op": "Add", "input": ["g_synthesis/16x16/Conv0_up/InstanceNorm/Mean_1", "g_synthesis/4x4/Const/InstanceNorm/epsilon"], "attr": {"T": {"type": "DT_FLOAT"}}}, {"name": "g_synthesis/16x16/Conv0_up/InstanceNorm/Rsqrt", "op": "Rsqrt", "input": ["g_synthesis/16x16/Conv0_up/InstanceNorm/add"], "attr": {"T": {"type": "DT_FLOAT"}}}, {"name": "g_synthesis/16x16/Conv0_up/InstanceNorm/mul", "op": "Mul", "input": ["g_synthesis/16x16/Conv0_up/InstanceNorm/Rsqrt", "g_synthesis/16x16/Conv0_up/InstanceNorm/sub_1"], "attr": {"T": {"type": "DT_FLOAT"}}}, {"name": "g_synthesis/16x16/Conv0_up/StyleMod/mul_2", "op": "Mul", "input": ["g_synthesis/16x16/Conv0_up/InstanceNorm/mul", "g_synthesis/16x16/Conv0_up/StyleMod/add_1"], "attr": {"T": {"type": "DT_FLOAT"}}}, {"name": "g_synthesis/16x16/Conv0_up/StyleMod/add_2", "op": "Add", "input": ["g_synthesis/16x16/Conv0_up/StyleMod/mul_2", "g_synthesis/16x16/Conv0_up/StyleMod/strided_slice_1"], "attr": {"T": {"type": "DT_FLOAT"}}}, {"name": "g_synthesis/16x16/Conv1/NCHW_to_NHWC", "op": "Transpose", "input": ["g_synthesis/16x16/Conv0_up/StyleMod/add_2", "g_synthesis/4x4_1/ToRGB/NCHW_to_NHWC/perm"], "attr": {"Tperm": {"type": "DT_INT32"}, "T": {"type": "DT_FLOAT"}}}, {"name": "g_synthesis/16x16/Conv1/Conv2D", "op": "Conv2D", "input": ["g_synthesis/16x16/Conv1/NCHW_to_NHWC", "g_synthesis/16x16/Conv1/mul"], "attr": {"dilations": {"list": {"i": ["1", "1", "1", "1"]}}, "T": {"type": "DT_FLOAT"}, "data_format": {"s": "TkhXQw=="}, "strides": {"list": {"i": ["1", "1", "1", "1"]}}, "use_cudnn_on_gpu": {"b": true}, "explicit_paddings": {"list": {}}, "padding": {"s": "U0FNRQ=="}}}, {"name": "g_synthesis/16x16/Conv1/NHWC_to_NCHW", "op": "Transpose", "input": ["g_synthesis/16x16/Conv1/Conv2D", "g_synthesis/4x4_1/ToRGB/NHWC_to_NCHW/perm"], "attr": {"Tperm": {"type": "DT_INT32"}, "T": {"type": "DT_FLOAT"}}}, {"name": "g_synthesis/16x16/Conv1/Noise/Shape", "op": "Shape", "input": ["g_synthesis/16x16/Conv1/NHWC_to_NCHW"], "attr": {"T": {"type": "DT_FLOAT"}, "out_type": {"type": "DT_INT32"}}}, {"name": "g_synthesis/16x16/Conv1/Noise/strided_slice", "op": "StridedSlice", "input": ["g_synthesis/16x16/Conv1/Noise/Shape", "g_synthesis/512x512/Conv0_up/strided_slice_4/stack", "g_synthesis/512x512/Conv0_up/strided_slice_4/stack_1", "g_synthesis/512x512/Conv0_up/strided_slice_4/stack_1"], "attr": {"T": {"type": "DT_INT32"}, "Index": {"type": "DT_INT32"}, "shrink_axis_mask": {"i": "1"}, "begin_mask": {"i": "0"}, "ellipsis_mask": {"i": "0"}, "new_axis_mask": {"i": "0"}, "end_mask": {"i": "0"}}}, {"name": "g_synthesis/16x16/Conv1/Noise/random_uniform/shape", "op": "Pack", "input": ["g_synthesis/16x16/Conv1/Noise/strided_slice", "g_synthesis/4x4/Const/Tile/multiples/1", "g_synthesis/16x16/Conv0_up/Noise/random_uniform/shape/2", "g_synthesis/16x16/Conv0_up/Noise/random_uniform/shape/2"], "attr": {"T": {"type": "DT_INT32"}, "axis": {"i": "0"}, "N": {"i": "4"}}}, {"name": "g_synthesis/16x16/Conv1/Noise/random_uniform/RandomUniform", "op": "RandomUniform", "input": ["g_synthesis/16x16/Conv1/Noise/random_uniform/shape"], "attr": {"seed": {"i": "0"}, "T": {"type": "DT_INT32"}, "dtype": {"type": "DT_FLOAT"}, "seed2": {"i": "0"}}}, {"name": "g_synthesis/16x16/Conv1/Noise/mul", "op": "Mul", "input": ["g_synthesis/16x16/Conv1/Noise/Reshape", "g_synthesis/16x16/Conv1/Noise/random_uniform/RandomUniform"], "attr": {"T": {"type": "DT_FLOAT"}}}, {"name": "g_synthesis/16x16/Conv1/Noise/add", "op": "Add", "input": ["g_synthesis/16x16/Conv1/Noise/mul", "g_synthesis/16x16/Conv1/Reshape"], "attr": {"T": {"type": "DT_FLOAT"}}}, {"name": "g_synthesis/16x16/Conv1/add", "op": "Add", "input": ["g_synthesis/16x16/Conv1/NHWC_to_NCHW", "g_synthesis/16x16/Conv1/Noise/add"], "attr": {"T": {"type": "DT_FLOAT"}}}, {"name": "g_synthesis/16x16/Conv1/LeakyRelu", "op": "LeakyRelu", "input": ["g_synthesis/16x16/Conv1/add"], "attr": {"T": {"type": "DT_FLOAT"}, "alpha": {"f": 0.20000000298023224}}}, {"name": "g_synthesis/16x16/Conv1/InstanceNorm/Mean", "op": "Mean", "input": ["g_synthesis/16x16/Conv1/LeakyRelu", "g_synthesis/4x4/Const/InstanceNorm/Mean/reduction_indices"], "attr": {"keep_dims": {"b": true}, "Tidx": {"type": "DT_INT32"}, "T": {"type": "DT_FLOAT"}}}, {"name": "g_synthesis/16x16/Conv1/InstanceNorm/sub_1", "op": "Sub", "input": ["g_synthesis/16x16/Conv1/LeakyRelu", "g_synthesis/16x16/Conv1/InstanceNorm/Mean"], "attr": {"T": {"type": "DT_FLOAT"}}}, {"name": "g_synthesis/16x16/Conv1/InstanceNorm/Square", "op": "Square", "input": ["g_synthesis/16x16/Conv1/InstanceNorm/sub_1"], "attr": {"T": {"type": "DT_FLOAT"}}}, {"name": "g_synthesis/16x16/Conv1/InstanceNorm/Mean_1", "op": "Mean", "input": ["g_synthesis/16x16/Conv1/InstanceNorm/Square", "g_synthesis/4x4/Const/InstanceNorm/Mean/reduction_indices"], "attr": {"keep_dims": {"b": true}, "Tidx": {"type": "DT_INT32"}, "T": {"type": "DT_FLOAT"}}}, {"name": "g_synthesis/16x16/Conv1/InstanceNorm/add", "op": "Add", "input": ["g_synthesis/16x16/Conv1/InstanceNorm/Mean_1", "g_synthesis/4x4/Const/InstanceNorm/epsilon"], "attr": {"T": {"type": "DT_FLOAT"}}}, {"name": "g_synthesis/16x16/Conv1/InstanceNorm/Rsqrt", "op": "Rsqrt", "input": ["g_synthesis/16x16/Conv1/InstanceNorm/add"], "attr": {"T": {"type": "DT_FLOAT"}}}, {"name": "g_synthesis/16x16/Conv1/InstanceNorm/mul", "op": "Mul", "input": ["g_synthesis/16x16/Conv1/InstanceNorm/Rsqrt", "g_synthesis/16x16/Conv1/InstanceNorm/sub_1"], "attr": {"T": {"type": "DT_FLOAT"}}}, {"name": "g_synthesis/16x16/Conv1/StyleMod/mul_2", "op": "Mul", "input": ["g_synthesis/16x16/Conv1/InstanceNorm/mul", "g_synthesis/16x16/Conv1/StyleMod/add_1"], "attr": {"T": {"type": "DT_FLOAT"}}}, {"name": "g_synthesis/16x16/Conv1/StyleMod/add_2", "op": "Add", "input": ["g_synthesis/16x16/Conv1/StyleMod/mul_2", "g_synthesis/16x16/Conv1/StyleMod/strided_slice_1"], "attr": {"T": {"type": "DT_FLOAT"}}}, {"name": "g_synthesis/32x32/Conv0_up/Reshape", "op": "Reshape", "input": ["g_synthesis/16x16/Conv1/StyleMod/add_2", "g_synthesis/32x32/Conv0_up/Reshape/shape"], "attr": {"T": {"type": "DT_FLOAT"}, "Tshape": {"type": "DT_INT32"}}}, {"name": "g_synthesis/16x16_1/ToRGB/NCHW_to_NHWC", "op": "Transpose", "input": ["g_synthesis/16x16/Conv1/StyleMod/add_2", "g_synthesis/4x4_1/ToRGB/NCHW_to_NHWC/perm"], "attr": {"Tperm": {"type": "DT_INT32"}, "T": {"type": "DT_FLOAT"}}}, {"name": "g_synthesis/32x32/Conv0_up/Tile", "op": "Tile", "input": ["g_synthesis/32x32/Conv0_up/Reshape", "g_synthesis/Tile/multiples"], "attr": {"Tmultiples": {"type": "DT_INT32"}, "T": {"type": "DT_FLOAT"}}}, {"name": "g_synthesis/16x16_1/ToRGB/Conv2D", "op": "Conv2D", "input": ["g_synthesis/16x16_1/ToRGB/NCHW_to_NHWC", "g_synthesis/16x16_1/ToRGB/mul"], "attr": {"dilations": {"list": {"i": ["1", "1", "1", "1"]}}, "T": {"type": "DT_FLOAT"}, "data_format": {"s": "TkhXQw=="}, "strides": {"list": {"i": ["1", "1", "1", "1"]}}, "use_cudnn_on_gpu": {"b": true}, "explicit_paddings": {"list": {}}, "padding": {"s": "U0FNRQ=="}}}, {"name": "g_synthesis/32x32/Conv0_up/Reshape_1", "op": "Reshape", "input": ["g_synthesis/32x32/Conv0_up/Tile", "g_synthesis/32x32/Conv0_up/Reshape_1/shape"], "attr": {"T": {"type": "DT_FLOAT"}, "Tshape": {"type": "DT_INT32"}}}, {"name": "g_synthesis/16x16_1/ToRGB/NHWC_to_NCHW", "op": "Transpose", "input": ["g_synthesis/16x16_1/ToRGB/Conv2D", "g_synthesis/4x4_1/ToRGB/NHWC_to_NCHW/perm"], "attr": {"Tperm": {"type": "DT_INT32"}, "T": {"type": "DT_FLOAT"}}}, {"name": "g_synthesis/32x32/Conv0_up/NCHW_to_NHWC", "op": "Transpose", "input": ["g_synthesis/32x32/Conv0_up/Reshape_1", "g_synthesis/4x4_1/ToRGB/NCHW_to_NHWC/perm"], "attr": {"Tperm": {"type": "DT_INT32"}, "T": {"type": "DT_FLOAT"}}}, {"name": "g_synthesis/16x16_1/ToRGB/add", "op": "Add", "input": ["g_synthesis/16x16_1/ToRGB/NHWC_to_NCHW", "g_synthesis/16x16_1/ToRGB/Reshape"], "attr": {"T": {"type": "DT_FLOAT"}}}, {"name": "g_synthesis/32x32/Conv0_up/Conv2D", "op": "Conv2D", "input": ["g_synthesis/32x32/Conv0_up/NCHW_to_NHWC", "g_synthesis/32x32/Conv0_up/mul"], "attr": {"dilations": {"list": {"i": ["1", "1", "1", "1"]}}, "T": {"type": "DT_FLOAT"}, "data_format": {"s": "TkhXQw=="}, "strides": {"list": {"i": ["1", "1", "1", "1"]}}, "use_cudnn_on_gpu": {"b": true}, "explicit_paddings": {"list": {}}, "padding": {"s": "U0FNRQ=="}}}, {"name": "g_synthesis/16x16_2/smooth_transition/LerpClip/sub", "op": "Sub", "input": ["g_synthesis/Reshape_3", "g_synthesis/16x16_1/ToRGB/add"], "attr": {"T": {"type": "DT_FLOAT"}}}, {"name": "g_synthesis/32x32/Conv0_up/depthwise", "op": "DepthwiseConv2dNative", "input": ["g_synthesis/32x32/Conv0_up/Conv2D", "g_synthesis/8x8/Conv0_up/filter"], "attr": {"padding": {"s": "U0FNRQ=="}, "dilations": {"list": {"i": ["1", "1", "1", "1"]}}, "T": {"type": "DT_FLOAT"}, "strides": {"list": {"i": ["1", "1", "1", "1"]}}, "data_format": {"s": "TkhXQw=="}}}, {"name": "g_synthesis/16x16_2/smooth_transition/LerpClip/mul", "op": "Mul", "input": ["g_synthesis/16x16_2/smooth_transition/LerpClip/sub", "g_synthesis/8x8_2/smooth_transition/LerpClip/clip_by_value"], "attr": {"T": {"type": "DT_FLOAT"}}}, {"name": "g_synthesis/32x32/Conv0_up/NHWC_to_NCHW_1", "op": "Transpose", "input": ["g_synthesis/32x32/Conv0_up/depthwise", "g_synthesis/4x4_1/ToRGB/NHWC_to_NCHW/perm"], "attr": {"Tperm": {"type": "DT_INT32"}, "T": {"type": "DT_FLOAT"}}}, {"name": "g_synthesis/16x16_2/smooth_transition/LerpClip/add", "op": "Add", "input": ["g_synthesis/16x16_1/ToRGB/add", "g_synthesis/16x16_…
reduction_indices"], "attr": {"keep_dims": {"b": true}, "Tidx": {"type": "DT_INT32"}, "T": {"type": "DT_FLOAT"}}}, {"name": "g_synthesis/256x256/Conv1/InstanceNorm/add", "op": "Add", "input": ["g_synthesis/256x256/Conv1/InstanceNorm/Mean_1", "g_synthesis/4x4/Const/InstanceNorm/epsilon"], "attr": {"T": {"type": "DT_FLOAT"}}}, {"name": "g_synthesis/256x256/Conv1/InstanceNorm/Rsqrt", "op": "Rsqrt", "input": ["g_synthesis/256x256/Conv1/InstanceNorm/add"], "attr": {"T": {"type": "DT_FLOAT"}}}, {"name": "g_synthesis/256x256/Conv1/InstanceNorm/mul", "op": "Mul", "input": ["g_synthesis/256x256/Conv1/InstanceNorm/Rsqrt", "g_synthesis/256x256/Conv1/InstanceNorm/sub_1"], "attr": {"T": {"type": "DT_FLOAT"}}}, {"name": "g_synthesis/256x256/Conv1/StyleMod/mul_2", "op": "Mul", "input": ["g_synthesis/256x256/Conv1/InstanceNorm/mul", "g_synthesis/256x256/Conv1/StyleMod/add_1"], "attr": {"T": {"type": "DT_FLOAT"}}}, {"name": "g_synthesis/256x256/Conv1/StyleMod/add_2", "op": "Add", "input": ["g_synthesis/256x256/Conv1/StyleMod/mul_2", "g_synthesis/256x256/Conv1/StyleMod/strided_slice_1"], "attr": {"T": {"type": "DT_FLOAT"}}}, {"name": "g_synthesis/256x256_1/ToRGB/NCHW_to_NHWC", "op": "Transpose", "input": ["g_synthesis/256x256/Conv1/StyleMod/add_2", "g_synthesis/4x4_1/ToRGB/NCHW_to_NHWC/perm"], "attr": {"Tperm": {"type": "DT_INT32"}, "T": {"type": "DT_FLOAT"}}}, {"name": "g_synthesis/512x512/Conv0_up/Shape", "op": "Shape", "input": ["g_synthesis/256x256/Conv1/StyleMod/add_2"], "attr": {"T": {"type": "DT_FLOAT"}, "out_type": {"type": "DT_INT32"}}}, {"name": "g_synthesis/256x256_1/ToRGB/Conv2D", "op": "Conv2D", "input": ["g_synthesis/256x256_1/ToRGB/NCHW_to_NHWC", "g_synthesis/256x256_1/ToRGB/mul"], "attr": {"dilations": {"list": {"i": ["1", "1", "1", "1"]}}, "T": {"type": "DT_FLOAT"}, "data_format": {"s": "TkhXQw=="}, "strides": {"list": {"i": ["1", "1", "1", "1"]}}, "use_cudnn_on_gpu": {"b": true}, "explicit_paddings": {"list": {}}, "padding": {"s": "U0FNRQ=="}}}, {"name": "g_synthesis/512x512/Conv0_up/strided_slice_4", "op": "StridedSlice", "input": ["g_synthesis/512x512/Conv0_up/Shape", "g_synthesis/512x512/Conv0_up/strided_slice_4/stack", "g_synthesis/512x512/Conv0_up/strided_slice_4/stack_1", "g_synthesis/512x512/Conv0_up/strided_slice_4/stack_1"], "attr": {"T": {"type": "DT_INT32"}, "Index": {"type": "DT_INT32"}, "shrink_axis_mask": {"i": "1"}, "begin_mask": {"i": "0"}, "ellipsis_mask": {"i": "0"}, "new_axis_mask": {"i": "0"}, "end_mask": {"i": "0"}}}, {"name": "g_synthesis/256x256_1/ToRGB/NHWC_to_NCHW", "op": "Transpose", "input": ["g_synthesis/256x256_1/ToRGB/Conv2D", "g_synthesis/4x4_1/ToRGB/NHWC_to_NCHW/perm"], "attr": {"Tperm": {"type": "DT_INT32"}, "T": {"type": "DT_FLOAT"}}}, {"name": "g_synthesis/512x512/Conv0_up/conv2d_transpose/input_sizes", "op": "Pack", "input": ["g_synthesis/512x512/Conv0_up/strided_slice_4", "g_synthesis/512x512/Conv0_up/conv2d_transpose/input_sizes/1", "g_synthesis/512x512/Conv0_up/conv2d_transpose/input_sizes/1", "g_synthesis/512x512/Conv0_up/conv2d_transpose/input_sizes/3"], "attr": {"T": {"type": "DT_INT32"}, "axis": {"i": "0"}, "N": {"i": "4"}}}, {"name": "g_synthesis/256x256_1/ToRGB/add", "op": "Add", "input": ["g_synthesis/256x256_1/ToRGB/NHWC_to_NCHW", "g_synthesis/256x256_1/ToRGB/Reshape"], "attr": {"T": {"type": "DT_FLOAT"}}}, {"name": "g_synthesis/512x512/Conv0_up/conv2d_transpose", "op": "Conv2DBackpropInput", "input": ["g_synthesis/512x512/Conv0_up/conv2d_transpose/input_sizes", "g_synthesis/512x512/Conv0_up/AddN", "g_synthesis/256x256_1/ToRGB/NCHW_to_NHWC"], "attr": {"dilations": {"list": {"i": ["1", "1", "1", "1"]}}, "T": {"type": "DT_FLOAT"}, "data_format": {"s": "TkhXQw=="}, "strides": {"list": {"i": ["1", "2", "2", "1"]}}, "use_cudnn_on_gpu": {"b": true}, "explicit_paddings": {"list": {}}, "padding": {"s": "U0FNRQ=="}}}, {"name": "g_synthesis/256x256_2/smooth_transition/LerpClip/sub", "op": "Sub", "input": ["g_synthesis/Reshape_11", "g_synthesis/256x256_1/ToRGB/add"], "attr": {"T": {"type": "DT_FLOAT"}}}, {"name": "g_synthesis/512x512/Conv0_up/depthwise", "op": "DepthwiseConv2dNative", "input": ["g_synthesis/512x512/Conv0_up/conv2d_transpose", "g_synthesis/512x512/Conv0_up/filter"], "attr": {"padding": {"s": "U0FNRQ=="}, "dilations": {"list": {"i": ["1", "1", "1", "1"]}}, "T": {"type": "DT_FLOAT"}, "strides": {"list": {"i": ["1", "1", "1", "1"]}}, "data_format": {"s": "TkhXQw=="}}}, {"name": "g_synthesis/256x256_2/smooth_transition/LerpClip/mul", "op": "Mul", "input": ["g_synthesis/256x256_2/smooth_transition/LerpClip/sub", "g_synthesis/8x8_2/smooth_transition/LerpClip/clip_by_value"], "attr": {"T": {"type": "DT_FLOAT"}}}, {"name": "g_synthesis/512x512/Conv0_up/NHWC_to_NCHW_1", "op": "Transpose", "input": ["g_synthesis/512x512/Conv0_up/depthwise", "g_synthesis/4x4_1/ToRGB/NHWC_to_NCHW/perm"], "attr": {"Tperm": {"type": "DT_INT32"}, "T": {"type": "DT_FLOAT"}}}, {"name": "g_synthesis/256x256_2/smooth_transition/LerpClip/add", "op": "Add", "input": ["g_synthesis/256x256_1/ToRGB/add", "g_synthesis/256x256_2/smooth_transition/LerpClip/mul"], "attr": {"T": {"type": "DT_FLOAT"}}}, {"name": "g_synthesis/512x512/Conv0_up/Noise/Shape", "op": "Shape", "input": ["g_synthesis/512x512/Conv0_up/NHWC_to_NCHW_1"], "attr": {"T": {"type": "DT_FLOAT"}, "out_type": {"type": "DT_INT32"}}}, {"name": "g_synthesis/Reshape_12", "op": "Reshape", "input": ["g_synthesis/256x256_2/smooth_transition/LerpClip/add", "g_synthesis/Reshape_12/shape"], "attr": {"T": {"type": "DT_FLOAT"}, "Tshape": {"type": "DT_INT32"}}}, {"name": "g_synthesis/512x512/Conv0_up/Noise/strided_slice", "op": "StridedSlice", "input": ["g_synthesis/512x512/Conv0_up/Noise/Shape", "g_synthesis/512x512/Conv0_up/strided_slice_4/stack", "g_synthesis/512x512/Conv0_up/strided_slice_4/stack_1", "g_synthesis/512x512/Conv0_up/strided_slice_4/stack_1"], "attr": {"T": {"type": "DT_INT32"}, "Index": {"type": "DT_INT32"}, "shrink_axis_mask": {"i": "1"}, "begin_mask": {"i": "0"}, "ellipsis_mask": {"i": "0"}, "new_axis_mask": {"i": "0"}, "end_mask": {"i": "0"}}}, {"name": "g_synthesis/Tile_6", "op": "Tile", "input": ["g_synthesis/Reshape_12", "g_synthesis/Tile/multiples"], "attr": {"Tmultiples": {"type": "DT_INT32"}, "T": {"type": "DT_FLOAT"}}}, {"name": "g_synthesis/512x512/Conv0_up/Noise/random_uniform/shape", "op": "Pack", "input": ["g_synthesis/512x512/Conv0_up/Noise/strided_slice", "g_synthesis/4x4/Const/Tile/multiples/1", "g_synthesis/512x512/Conv0_up/conv2d_transpose/input_sizes/1", "g_synthesis/512x512/Conv0_up/conv2d_transpose/input_sizes/1"], "attr": {"T": {"type": "DT_INT32"}, "axis": {"i": "0"}, "N": {"i": "4"}}}, {"name": "g_synthesis/Reshape_13", "op": "Reshape", "input": ["g_synthesis/Tile_6", "g_synthesis/Reshape_13/shape"], "attr": {"T": {"type": "DT_FLOAT"}, "Tshape": {"type": "DT_INT32"}}}, {"name": "g_synthesis/512x512/Conv0_up/Noise/random_uniform/RandomUniform", "op": "RandomUniform", "input": ["g_synthesis/512x512/Conv0_up/Noise/random_uniform/shape"], "attr": {"seed": {"i": "0"}, "T": {"type": "DT_INT32"}, "dtype": {"type": "DT_FLOAT"}, "seed2": {"i": "0"}}}, {"name": "g_synthesis/512x512/Conv0_up/Noise/mul", "op": "Mul", "input": ["g_synthesis/512x512/Conv0_up/Noise/Reshape", "g_synthesis/512x512/Conv0_up/Noise/random_uniform/RandomUniform"], "attr": {"T": {"type": "DT_FLOAT"}}}, {"name": "g_synthesis/512x512/Conv0_up/Noise/add", "op": "Add", "input": ["g_synthesis/512x512/Conv0_up/Noise/mul", "g_synthesis/512x512/Conv0_up/Reshape"], "attr": {"T": {"type": "DT_FLOAT"}}}, {"name": "g_synthesis/512x512/Conv0_up/add", "op": "Add", "input": ["g_synthesis/512x512/Conv0_up/NHWC_to_NCHW_1", "g_synthesis/512x512/Conv0_up/Noise/add"], "attr": {"T": {"type": "DT_FLOAT"}}}, {"name": "g_synthesis/512x512/Conv0_up/LeakyRelu", "op": "LeakyRelu", "input": ["g_synthesis/512x512/Conv0_up/add"], "attr": {"T": {"type": "DT_FLOAT"}, "alpha": {"f": 0.20000000298023224}}}, {"name": "g_synthesis/512x512/Conv0_up/InstanceNorm/Mean", "op": "Mean", "input": ["g_synthesis/512x512/Conv0_up/LeakyRelu", "g_synthesis/4x4/Const/InstanceNorm/Mean/reduction_indices"], "attr": {"keep_dims": {"b": true}, "Tidx": {"type": "DT_INT32"}, "T": {"type": "DT_FLOAT"}}}, {"name": "g_synthesis/512x512/Conv0_up/InstanceNorm/sub_1", "op": "Sub", "input": ["g_synthesis/512x512/Conv0_up/LeakyRelu", "g_synthesis/512x512/Conv0_up/InstanceNorm/Mean"], "attr": {"T": {"type": "DT_FLOAT"}}}, {"name": "g_synthesis/512x512/Conv0_up/InstanceNorm/Square", "op": "Square", "input": ["g_synthesis/512x512/Conv0_up/InstanceNorm/sub_1"], "attr": {"T": {"type": "DT_FLOAT"}}}, {"name": "g_synthesis/512x512/Conv0_up/InstanceNorm/Mean_1", "op": "Mean", "input": ["g_synthesis/512x512/Conv0_up/InstanceNorm/Square", "g_synthesis/4x4/Const/InstanceNorm/Mean/reduction_indices"], "attr": {"keep_dims": {"b": true}, "Tidx": {"type": "DT_INT32"}, "T": {"type": "DT_FLOAT"}}}, {"name": "g_synthesis/512x512/Conv0_up/InstanceNorm/add", "op": "Add", "input": ["g_synthesis/4x4/Const/InstanceNorm/epsilon", "g_synthesis/512x512/Conv0_up/InstanceNorm/Mean_1"], "attr": {"T": {"type": "DT_FLOAT"}}}, {"name": "g_synthesis/512x512/Conv0_up/InstanceNorm/Rsqrt", "op": "Rsqrt", "input": ["g_synthesis/512x512/Conv0_up/InstanceNorm/add"], "attr": {"T": {"type": "DT_FLOAT"}}}, {"name": "g_synthesis/512x512/Conv0_up/InstanceNorm/mul", "op": "Mul", "input": ["g_synthesis/512x512/Conv0_up/InstanceNorm/Rsqrt", "g_synthesis/512x512/Conv0_up/InstanceNorm/sub_1"], "attr": {"T": {"type": "DT_FLOAT"}}}, {"name": "g_synthesis/512x512/Conv0_up/StyleMod/mul_2", "op": "Mul", "input": ["g_synthesis/512x512/Conv0_up/InstanceNorm/mul", "g_synthesis/512x512/Conv0_up/StyleMod/add_1"], "attr": {"T": {"type": "DT_FLOAT"}}}, {"name": "g_synthesis/512x512/Conv0_up/StyleMod/add_2", "op": "Add", "input": ["g_synthesis/512x512/Conv0_up/StyleMod/mul_2", "g_synthesis/512x512/Conv0_up/StyleMod/strided_slice_1"], "attr": {"T": {"type": "DT_FLOAT"}}}, {"name": "g_synthesis/512x512/Conv1/NCHW_to_NHWC", "op": "Transpose", "input": ["g_synthesis/512x512/Conv0_up/StyleMod/add_2", "g_synthesis/4x4_1/ToRGB/NCHW_to_NHWC/perm"], "attr": {"Tperm": {"type": "DT_INT32"}, "T": {"type": "DT_FLOAT"}}}, {"name": "g_synthesis/512x512/Conv1/Conv2D", "op": "Conv2D", "input": ["g_synthesis/512x512/Conv1/NCHW_to_NHWC", "g_synthesis/512x512/Conv1/mul"], "attr": {"dilations": {"list": {"i": ["1", "1", "1", "1"]}}, "T": {"type": "DT_FLOAT"}, "data_format": {"s": "TkhXQw=="}, "strides": {"list": {"i": ["1", "1", "1", "1"]}}, "use_cudnn_on_gpu": {"b": true}, "explicit_paddings": {"list": {}}, "padding": {"s": "U0FNRQ=="}}}, {"name": "g_synthesis/512x512/Conv1/NHWC_to_NCHW", "op": "Transpose", "input": ["g_synthesis/512x512/Conv1/Conv2D", "g_synthesis/4x4_1/ToRGB/NHWC_to_NCHW/perm"], "attr": {"Tperm": {"type": "DT_INT32"}, "T": {"type": "DT_FLOAT"}}}, {"name": "g_synthesis/512x512/Conv1/Noise/Shape", "op": "Shape", "input": ["g_synthesis/512x512/Conv1/NHWC_to_NCHW"], "attr": {"T": {"type": "DT_FLOAT"}, "out_type": {"type": "DT_INT32"}}}, {"name": "g_synthesis/512x512/Conv1/Noise/strided_slice", "op": "StridedSlice", "input": ["g_synthesis/512x512/Conv1/Noise/Shape", "g_synthesis/512x512/Conv0_up/strided_slice_4/stack", "g_synthesis/512x512/Conv0_up/strided_slice_4/stack_1", "g_synthesis/512x512/Conv0_up/strided_slice_4/stack_1"], "attr": {"T": {"type": "DT_INT32"}, "Index": {"type": "DT_INT32"}, "shrink_axis_mask": {"i": "1"}, "begin_mask": {"i": "0"}, "ellipsis_mask": {"i": "0"}, "new_axis_mask": {"i": "0"}, "end_mask": {"i": "0"}}}, {"name": "g_synthesis/512x512/Conv1/Noise/random_uniform/shape", "op": "Pack", "input": ["g_synthesis/512x512/Conv1/Noise/strided_slice", "g_synthesis/4x4/Const/Tile/multiples/1", "g_synthesis/512x512/Conv0_up/conv2d_transpose/input_sizes/1", "g_synthesis/512x512/Conv0_up/conv2d_transpose/input_sizes/1"], "attr": {"T": {"type": "DT_INT32"}, "axis": {"i": "0"}, "N": {"i": "4"}}}, {"name": "g_synthesis/512x512/Conv1/Noise/random_uniform/RandomUniform", "op": "RandomUniform", "input": ["g_synthesis/512x512/Conv1/Noise/random_uniform/shape"], "attr": {"seed": {"i": "0"}, "T": {"type": "DT_INT32"}, "dtype": {"type": "DT_FLOAT"}, "seed2": {"i": "0"}}}, {"name": "g_synthesis/512x512/Conv1/Noise/mul", "op": "Mul", "input": ["g_synthesis/512x512/Conv1/Noise/Reshape", "g_synthesis/512x512/Conv1/Noise/random_uniform/RandomUniform"], "attr": {"T": {"type": "DT_FLOAT"}}}, {"name": "g_synthesis/512x512/Conv1/Noise/add", "op": "Add", "input": ["g_synthesis/512x512/Conv1/Noise/mul", "g_synthesis/512x512/Conv1/Reshape"], "attr": {"T": {"type": "DT_FLOAT"}}}, {"name": "g_synthesis/512x512/Conv1/add", "op": "Add", "input": ["g_synthesis/512x512/Conv1/NHWC_to_NCHW", "g_synthesis/512x512/Conv1/Noise/add"], "attr": {"T": {"type": "DT_FLOAT"}}}, {"name": "g_synthesis/512x512/Conv1/LeakyRelu", "op": "LeakyRelu", "input": ["g_synthesis/512x512/Conv1/add"], "attr": {"T": {"type": "DT_FLOAT"}, "alpha": {"f": 0.20000000298023224}}}, {"name": "g_synthesis/512x512/Conv1/InstanceNorm/Mean", "op": "Mean", "input": ["g_synthesis/512x512/Conv1/LeakyRelu", "g_synthesis/4x4/Const/InstanceNorm/Mean/reduction_indices"], "attr": {"keep_dims": {"b": true}, "Tidx": {"type": "DT_INT32"}, "T": {"type": "DT_FLOAT"}}}, {"name": "g_synthesis/512x512/Conv1/InstanceNorm/sub_1", "op": "Sub", "input": ["g_synthesis/512x512/Conv1/LeakyRelu", "g_synthesis/512x512/Conv1/InstanceNorm/Mean"], "attr": {"T": {"type": "DT_FLOAT"}}}, {"name": "g_synthesis/512x512/Conv1/InstanceNorm/Square", "op": "Square", "input": ["g_synthesis/512x512/Conv1/InstanceNorm/sub_1"], "attr": {"T": {"type": "DT_FLOAT"}}}, {"name": "g_synthesis/512x512/Conv1/InstanceNorm/Mean_1", "op": "Mean", "input": ["g_synthesis/512x512/Conv1/InstanceNorm/Square", "g_synthesis/4x4/Const/InstanceNorm/Mean/reduction_indices"], "attr": {"keep_dims": {"b": true}, "Tidx": {"type": "DT_INT32"}, "T": {"type": "DT_FLOAT"}}}, {"name": "g_synthesis/512x512/Conv1/InstanceNorm/add", "op": "Add", "input": ["g_synthesis/4x4/Const/InstanceNorm/epsilon", "g_synthesis/512x512/Conv1/InstanceNorm/Mean_1"], "attr": {"T": {"type": "DT_FLOAT"}}}, {"name": "g_synthesis/512x512/Conv1/InstanceNorm/Rsqrt", "op": "Rsqrt", "input": ["g_synthesis/512x512/Conv1/InstanceNorm/add"], "attr": {"T": {"type": "DT_FLOAT"}}}, {"name": "g_synthesis/512x512/Conv1/InstanceNorm/mul", "op": "Mul", "input": ["g_synthesis/512x512/Conv1/InstanceNorm/Rsqrt", "g_synthesis/512x512/Conv1/InstanceNorm/sub_1"], "attr": {"T": {"type": "DT_FLOAT"}}}, {"name": "g_synthesis/512x512/Conv1/StyleMod/mul_2", "op": "Mul", "input": ["g_synthesis/512x512/Conv1/InstanceNorm/mul", "g_synthesis/512x512/Conv1/StyleMod/add_1"], "attr": {"T": {"type": "DT_FLOAT"}}}, {"name": "g_synthesis/512x512/Conv1/StyleMod/add_2", "op": "Add", "input": ["g_synthesis/512x512/Conv1/StyleMod/mul_2", "g_synthesis/512x512/Conv1/StyleMod/strided_slice_1"], "attr": {"T": {"type": "DT_FLOAT"}}}, {"name": "g_synthesis/512x512_1/ToRGB/NCHW_to_NHWC", "op": "Transpose", "input": ["g_synthesis/512x512/Conv1/StyleMod/add_2", "g_synthesis/4x4_1/ToRGB/NCHW_to_NHWC/perm"], "attr": {"Tperm": {"type": "DT_INT32"}, "T": {"type": "DT_FLOAT"}}}, {"name": "g_synthesis/512x512_1/ToRGB/Conv2D", "op": "Conv2D", "input": ["g_synthesis/512x512_1/ToRGB/NCHW_to_NHWC", "g_synthesis/512x512_1/ToRGB/mul"], "attr": {"dilations": {"list": {"i": ["1", "1", "1", "1"]}}, "T": {"type": "DT_FLOAT"}, "data_format": {"s": "TkhXQw=="}, "strides": {"list": {"i": ["1", "1", "1", "1"]}}, "use_cudnn_on_gpu": {"b": true}, "explicit_paddings": {"list": {}}, "padding": {"s": "U0FNRQ=="}}}, {"name": "g_synthesis/512x512_1/ToRGB/NHWC_to_NCHW", "op": "Transpose", "input": ["g_synthesis/512x512_1/ToRGB/Conv2D", "g_synthesis/4x4_1/ToRGB/NHWC_to_NCHW/perm"], "attr": {"Tperm": {"type": "DT_INT32"}, "T": {"type": "DT_FLOAT"}}}, {"name": "g_synthesis/512x512_1/ToRGB/add", "op": "Add", "input": ["g_synthesis/512x512_1/ToRGB/NHWC_to_NCHW", "g_synthesis/512x512_1/ToRGB/Reshape"], "attr": {"T": {"type": "DT_FLOAT"}}}, {"name": "g_synthesis/512x512_2/smooth_transition/LerpClip/sub", "op": "Sub", "input": ["g_synthesis/Reshape_13", "g_synthesis/512x512_1/ToRGB/add"], "attr": {"T": {"type": "DT_FLOAT"}}}, {"name": "g_synthesis/512x512_2/smooth_transition/LerpClip/mul", "op": "Mul", "input": ["g_synthesis/512x512_2/smooth_transition/LerpClip/sub", "g_synthesis/8x8_2/smooth_transition/LerpClip/clip_by_value"], "attr": {"T": {"type": "DT_FLOAT"}}}, {"name": "g_synthesis/512x512_2/smooth_transition/LerpClip/add", "op": "Add", "input": ["g_synthesis/512x512_1/ToRGB/add", "g_synthesis/512x512_2/smooth_transition/LerpClip/mul"], "attr": {"T": {"type": "DT_FLOAT"}}}, {"name": "images_out", "op": "Identity", "input": ["g_synthesis/512x512_2/smooth_transition/LerpClip/add"], "attr": {"T": {"type": "DT_FLOAT"}}}], "library": {}, "versions": {"producer": 38}}, "weightsManifest": [{"paths": ["group1-shard1of13.bin", "group1-shard2of13.bin", "group1-shard3of13.bin", "group1-shard4of13.bin", "group1-shard5of13.bin", "group1-shard6of13.bin", "group1-shard7of13.bin", "group1-shard8of13.bin", "group1-shard9of13.bin", "group1-shard10of13.bin", "group1-shard11of13.bin", "group1-shard12of13.bin", "group1-shard13of13.bin"], "weights": [{"name": "g_synthesis/8x8_2/smooth_transition/LerpClip/clip_by_value", "shape": [], "dtype": "float32", "quantization": {"min": 0.0, "scale": 1.0, "dtype": "uint16"}}, {"name": "g_synthesis/512x512_1/ToRGB/Reshape", "shape": [1, 3, 1, 1], "dtype": "float32", "quantization": {"min": -0.4971950054168701, "scale": 1.4764593933051916e-06, "dtype": "uint16"}}, {"name": "g_synthesis/4x4_1/ToRGB/NHWC_to_NCHW/perm", "shape": [4], "dtype": "int32", "quantization": {"min": -0.0, "scale": 4.5777065690089265e-05, "dtype": "uint16"}}, {"name": "g_synthesis/512x512_1/ToRGB/mul", "shape": [1, 1, 32, 3], "dtype": "float32", "quantization": {"min": -0.09031771604766686, "scale": 3.0755879604871915e-06, "dtype": "uint16"}}, {"name": "g_synthesis/4x4_1/ToRGB/NCHW_to_NHWC/perm", "shape": [4], "dtype": "int32", "quantization": {"min": -0.0, "scale": 4.5777065690089265e-05, "dtype": "uint16"}}, {"name": "g_synthesis/4x4/Const/StyleMod/strided_slice/stack_2", "shape": [2], "dtype": "int32", "quantization": {"min": 1.0, "scale": 1.0, "dtype": "uint16"}}, {"name": "g_synthesis/4x4/Const/StyleMod/strided_slice_1/stack_1", "shape": [2], "dtype": "int32", "quantization": {"min": -0.0, "scale": 3.0518043793392844e-05, "dtype": "uint16"}}, {"name": "g_synthesis/4x4/Const/StyleMod/strided_slice/stack_1", "shape": [2], "dtype": "int32", "quantization": {"min": -0.0, "scale": 1.5259021896696422e-05, "dtype": "uint16"}}, {"name": "g_synthesis/512x512/Conv0_up/StyleMod/Reshape/shape", "shape": [5], "dtype": "int32", "quantization": {"min": -1.00004577706569, "scale": 0.000503547722590982, "dtype": "uint16"}}, {"name": "g_synthesis/512x512/Conv1/StyleMod/mul_1", "shape": [64], "dtype": "float32", "quantization": {"min": -1.8651812367829632, "scale": 0.00012566913062814737, "dtype": "uint16"}}, {"name": "g_synthesis/512x512/Conv1/StyleMod/mul", "shape": [512, 64], "dtype": "float32", "quantization": {"min": -1.9104154587228557, "scale": 4.92197521183814e-05, "dtype": "uint16"}}, {"name": "g_synthesis/4x4/Const/StyleMod/flatten/Reshape/shape/1", "shape": [], "dtype": "int32", "quantization": {"min": -1.0, "scale": 1.0, "dtype": "uint16"}}, {"name": "g_synthesis/512x512/Conv0_up/strided_slice_4/stack_1", "shape": [1], "dtype": "int32", "quantization": {"min": 1.0, "scale": 1.0, "dtype": "uint16"}}, {"name": "g_synthesis/512x512/Conv0_up/strided_slice_4/stack", "shape": [1], "dtype": "int32", "quantization": {"min": 0.0, "scale": 1.0, "dtype": "uint16"}}, {"name": "g_synthesis/strided_slice_16/stack_1", "shape": [2], "dtype": "int32", "quantization": {"min": -0.0, "scale": 0.00024414435034714275, "dtype": "uint16"}}, {"name": "g_synthesis/strided_slice_15/stack_1", "shape": [2], "dtype": "int32", "quantization": {"min": -0.0, "scale": 0.00022888532845044633, "dtype": "uint16"}}, {"name": "w_avg", "shape": [512], "dtype": "float32", "quantization": {"min": -0.438834847972005, "scale": 2.9489607416975003e-05, "dtype": "uint16"}}, {"name": "Truncation/Select", "shape": [1, 16, 1], "dtype": "float32", "quantization": {"min": 0.699999988079071, "scale": 4.577706750910642e-06, "dtype": "uint16"}}, {"name": "g_mapping/Broadcast/Tile/multiples", "shape": [3], "dtype": "int32", "quantization": {"min": 1.0, "scale": 0.00022888532845044633, "dtype": "uint16"}}, {"name": "g_synthesis/4x4/Const/Tile/multiples/1", "shape": [], "dtype": "int32", "quantization": {"min": 1.0, "scale": 1.0, "dtype": "uint16"}}, {"name": "g_mapping/Dense7/mul_1", "shape": [512], "dtype": "float32", "quantization": {"min": -0.22750472469388772, "scale": 6.084966424892685e-06, "dtype": "uint16"}}, {"name": "g_mapping/Dense7/mul", "shape": [512, 512], "dtype": "float32", "quantization": {"min": -0.29952650706664535, "scale": 8.784541369230294e-06, "dtype": "uint16"}}, {"name": "g_mapping/Dense6/mul_1", "shape": [512], "dtype": "float32", "quantization": {"min": -0.21388396210334681, "scale": 5.033629759321899e-06, "dtype": "uint16"}}, {"name": "g_mapping/Dense6/mul", "shape": [512, 512], "dtype": "float32", "quantization": {"min": -0.2721317235074873, "scale": 8.872606811238216e-06, "dtype": "uint16"}}, {"name": "g_mapping/Dense5/mul_1", "shape": [512], "dtype": "float32", "quantization": {"min": -0.20703147986237713, "scale": 5.5171613554264396e-06, "dtype": "uint16"}}, {"name": "g_mapping/Dense5/mul", "shape": [512, 512], "dtype": "float32", "quantization": {"min": -0.28217176120923515, "scale": 8.706586479349413e-06, "dtype": "uint16"}}, {"name": "g_mapping/Dense4/mul_1", "shape": [512], "dtype": "float32", "quantization": {"min": -0.1987563929880585, "scale": 5.149529574528033e-06, "dtype": "uint16"}}, {"name": "g_mapping/Dense4/mul", "shape": [512, 512], "dtype": "float32", "quantization": {"min": -0.27895549751850585, "scale": 8.544859937465718e-06, "dtype": "uint16"}}, {"name": "g_mapping/Dense3/mul_1", "shape": [512], "dtype": "float32", "quantization": {"min": -0.16858598767023952, "scale": 4.825013957362322e-06, "dtype": "uint16"}}, {"name": "g_mapping/Dense3/mul", "shape": [512, 512], "dtype": "float32", "quantization": {"min": -0.26918065145940323, "scale": 8.22830138348729e-06, "dtype": "uint16"}}, {"name": "g_mapping/Dense2/mul_1", "shape": [512], "dtype": "float32", "quantization": {"min": -0.19385397284165704, "scale": 5.928256050203579e-06, "dtype": "uint16"}}, {"name": "g_mapping/Dense2/mul", "shape": [512, 512], "dtype": "float32", "quantization": {"min": -0.2765844113413653, "scale": 8.623321423625531e-06, "dtype": "uint16"}}, {"name": "g_mapping/Dense1/mul_1", "shape": [512], "dtype": "float32", "quantization": {"min": -0.18881501560604272, "scale": 6.201025176723134e-06, "dtype": "uint16"}}, {"name": "g_mapping/Dense1/mul", "shape": [512, 512], "dtype": "float32", "quantization": {"min": -0.3108137900108803, "scale": 9.228437945691219e-06, "dtype": "uint16"}}, {"name": "g_mapping/Dense0/mul_1", "shape": [512], "dtype": "float32", "quantization": {"min": -0.15921122470136329, "scale": 4.630656294030693e-06, "dtype": "uint16"}}, {"name": "g_mapping/Dense0/mul", "shape": [512, 512], "dtype": "float32", "quantization": {"min": -0.300471181615572, "scale": 8.883372209542692e-06, "dtype": "uint16"}}, {"name": "g_synthesis/4x4/Const/InstanceNorm/epsilon", "shape": [], "dtype": "float32", "quantization": {"min": 9.99999993922529e-09, "scale": 1.0, "dtype": "uint16"}}, {"name": "g_synthesis/4x4/Const/StyleMod/strided_slice/stack", "shape": [2], "dtype": "int32", "quantization": {"min": 0.0, "scale": 1.0, "dtype": "uint16"}}, {"name": "g_synthesis/4x4/Const/Noise/random_uniform/sub", "shape": [], "dtype": "float32", "quantization": {"min": 1.0, "scale": 1.0, "dtype": "uint16"}}, {"name": "g_synthesis/4x4/Const/InstanceNorm/Mean/reduction_indices", "shape": [2], "dtype": "int32", "quantization": {"min": 2.0, "scale": 1.5259021896696422e-05, "dtype": "uint16"}}, {"name": "g_synthesis/512x512/Conv1/Reshape", "shape": [1, 32, 1, 1], "dtype": "float32", "quantization": {"min": -30.758154312242056, "scale": 0.0007609637385512631, "dtype": "uint16"}}, {"name": "g_synthesis/512x512/Conv0_up/conv2d_transpose/input_sizes/1", "shape": [], "dtype": "int32", "quantization": {"min": 512.0, "scale": 1.0, "dtype": "uint16"}}, {"name": "g_synthesis/512x512/Conv1/mul", "shape": [3, 3, 32, 32], "dtype": "float32", "quantization": {"min": -2.641582932182642, "scale": 6.805923098401674e-05, "dtype": "uint16"}}, {"name": "g_synthesis/512x512/Conv0_up/StyleMod/mul_1", "shape": [64], "dtype": "float32", "quantization": {"min": -5.5012250507360845, "scale": 0.0003974012172748743, "dtype": "uint16"}}, {"name": "g_synthesis/512x512/Conv0_up/StyleMod/mul", "shape": [512, 64], "dtype": "float32", "quantization": {"min": -0.8399858920026846, "scale": 2.994602110526505e-05, "dtype": "uint16"}}, {"name": "g_synthesis/strided_slice_14/stack_1", "shape": [2], "dtype": "int32", "quantization": {"min": -0.0, "scale": 0.0002136263065537499, "dtype": "uint16"}}, {"name": "g_synthesis/512x512/Conv0_up/Reshape", "shape": [1, 32, 1, 1], "dtype": "float32", "quantization": {"min": -23.946156458360996, "scale": 0.0007780030689223495, "dtype": "uint16"}}, {"name": "g_synthesis/512x512/Conv0_up/filter", "shape": [3, 3, 32, 1], "dtype": "float32", "quantization": {"min": 0.0625, "scale": 2.861066605630579e-06, "dtype": "uint16"}}, {"name": "g_synthesis/256x256/Conv0_up/StyleMod/Reshape/shape", "shape": [5], "dtype": "int32", "quantization": {"min": -0.9997711146715496, "scale": 0.0009918364232852674, "dtype": "uint16"}}, {"name": "g_synthesis/256x256/Conv1/StyleMod/mul_1", "shape": [128], "dtype": "float32", "quantization": {"min": -13.83997076734067, "scale": 0.000641214360977607, "dtype": "uint16"}}, {"name": "g_synthesis/256x256/Conv1/StyleMod/mul", "shape": [512, 128], "dtype": "float32", "quantization": {"min": -1.6438071218882635, "scale": 5.6790710723381017e-05, "dtype": "uint16"}}, {"name": "g_synthesis/strided_slice_13/stack_1", "shape": [2], "dtype": "int32", "quantization": {"min": -0.0, "scale": 0.00019836728465705348, "dtype": "uint16"}}, {"name": "g_synthesis/256x256/Conv1/Reshape", "shape": [1, 64, 1, 1], "dtype": "float32", "quantization": {"min": -267.6572010827554, "scale": 0.004693846361691868, "dtype": "uint16"}}, {"name": "g_synthesis/256x256/Conv0_up/conv2d_transpose/input_sizes/1", "shape": [], "dtype": "int32", "quantization": {"min": 256.0, "scale": 1.0, "dtype": "uint16"}}, {"name": "g_synthesis/256x256/Conv1/mul", "shape": [3, 3, 64, 64], "dtype": "float32", "quantization": {"min": -2.964995179151228, "scale": 9.351232154260031e-05, "dtype": "uint16"}}, {"name": "g_synthesis/256x256/Conv0_up/StyleMod/mul_1", "shape": [128], "dtype": "float32", "quantization": {"min": -5.787473696335199, "scale": 0.0005639163691255187, "dtype": "uint16"}}, {"name": "g_synthesis/256x256/Conv0_up/StyleMod/mul", "shape": [512, 128], "dtype": "float32", "quantization": {"min": -1.4956163232182986, "scale": 5.7621217568897315e-05, "dtype": "uint16"}}, {"name": "g_synthesis/strided_slice_12/stack_1", "shape": [2], "dtype": "int32", "quantization": {"min": -0.0, "scale": 0.00018310826276035706, "dtype": "uint16"}}, {"name": "g_synthesis/256x256/Conv0_up/Reshape", "shape": [1, 64, 1, 1], "dtype": "float32", "quantization": {"min": -100.40387514067376, "scale": 0.0019683174895250687, "dtype": "uint16"}}, {"name": "g_synthesis/256x256/Conv0_up/filter", "shape": [3, 3, 64, 1], "dtype": "float32", "quantization": {"min": 0.0625, "scale": 2.861066605630579e-06, "dtype": "uint16"}}, {"name": "g_synthesis/128x128/Conv0_up/StyleMod/Reshape/shape", "shape": [5], "dtype": "int32", "quantization": {"min": -0.9999542229343099, "scale": 0.0019684138246738384, "dtype": "uint16"}}, {"name": "g_synthesis/128x128/Conv1/StyleMod/mul_1", "shape": [256], "dtype": "float32", "quantization": {"min": -25.08171964921731, "scale": 0.0006719637692015568, "dtype": "uint16"}}, {"name": "g_synthesis/128x128/Conv1/StyleMod/mul", "shape": [512, 256], "dtype": "float32", "quantization": {"min": -1.662506385066739, "scale": 5.138011512398365e-05, "dtype": "uint16"}}, {"name": "g_synthesis/strided_slice_11/stack_1", "shape": [2], "dtype": "int32", "quantization": {"min": -0.0, "scale": 0.00016784924086366064, "dtype": "uint16"}}, {"name": "g_synthesis/128x128/Conv1/Reshape", "shape": [1, 128, 1, 1], "dtype": "float32", "quantization": {"min": -67.51635114024121, "scale": 0.0016719417349373785, "dtype": "uint16"}}, {"name": "g_synthesis/128x128/Conv0_up/conv2d_transpose/input_sizes/1", "shape": [], "dtype": "int32", "quantization": {"min": 128.0, "scale": 1.0, "dtype": "uint16"}}, {"name": "g_synthesis/128x128/Conv1/mul", "shape": [3, 3, 128, 128], "dtype": "float32", "quantization": {"min": -1.808888067553043, "scale": 6.274107965568461e-05, "dtype": "uint16"}}, {"name": "g_synthesis/128x128/Conv0_up/StyleMod/mul_1", "shape": [256], "dtype": "float32", "quantization": {"min": -6.686436122493521, "scale": 0.0005508680278870919, "dtype": "uint16"}}, {"name": "g_synthesis/128x128/Conv0_up/StyleMod/mul", "shape": [512, 256], "dtype": "float32", "quantization": {"min": -1.378208436920103, "scale": 4.4077281467318127e-05, "dtype": "uint16"}}, {"name": "g_synthesis/strided_slice_10/stack_1", "shape": [2], "dtype": "int32", "quantization": {"min": -0.0, "scale": 0.00015259021896696422, "dtype": "uint16"}}, {"name": "g_synthesis/128x128/Conv0_up/Reshape", "shape": [1, 128, 1, 1], "dtype": "float32", "quantization": {"min": -40.24747694228983, "scale": 0.001448793266461117, "dtype": "uint16"}}, {"name": "g_synthesis/128x128/Conv0_up/filter", "shape": [3, 3, 128, 1], "dtype": "float32", "quantization": {"min": 0.0625, "scale": 2.861066605630579e-06, "dtype": "uint16"}}, {"name": "g_synthesis/64x64/Conv0_up/StyleMod/Reshape/shape", "shape": [5], "dtype": "int32", "quantization": {"min": -1.0, "scale": 0.00392156862745098, "dtype": "uint16"}}, {"name": "g_synthesis/64x64/Conv1/StyleMod/mul_1", "shape": [512], "dtype": "float32", "quantization": {"min": -7.411638375729984, "scale": 0.0004276027448064377, "dtype": "uint16"}}, {"name": "g_synthesis/64x64/Conv1/StyleMod/mul", "shape": [512, 512], "dtype": "float32", "quantization": {"min": -1.5756704474583256, "scale": 5.846426653772868e-05, "dtype": "uint16"}}, {"name": "g_synthesis/strided_slice_9/stack_1", "shape": [2], "dtype": "int32", "quantization": {"min": -0.0, "scale": 0.0001373311970702678, "dtype": "uint16"}}, {"name": "g_synthesis/64x64/Conv1/Reshape", "shape": [1, 256, 1, 1], "dtype": "float32", "quantization": {"min": -89.48882497401989, "scale": 0.0019238702563478425, "dtype": "uint16"}}, {"name": "g_synthesis/256x256/Conv0_up/conv2d_transpose/input_sizes/3", "shape": [], "dtype": "int32", "quantization": {"min": 64.0, "scale": 1.0, "dtype": "uint16"}}, {"name": "g_synthesis/64x64/Conv1/mul", "shape": [3, 3, 256, 256], "dtype": "float32", "quantization": {"min": -1.6676042585521356, "scale": 4.2373377170680615e-05, "dtype": "uint16"}}, {"name": "g_synthesis/64x64/Conv0_up/StyleMod/mul_1", "shape": [512], "dtype": "float32", "quantization": {"min": -8.101885539184604, "scale": 0.0005787474490452606, "dtype": "uint16"}}, {"name": "g_synthesis/64x64/Conv0_up/StyleMod/mul", "shape": [512, 512], "dtype": "float32", "quantization": {"min": -1.5951299536389163, "scale": 5.294158491997731e-05, "dtype": "uint16"}}, {"name": "g_synthesis/strided_slice_8/stack_1", "shape": [2], "dtype": "int32", "quantization": {"min": -0.0, "scale": 0.00012207217517357137, "dtype": "uint16"}}, {"name": "g_synthesis/64x64/Conv0_up/Reshape_2", "shape": [1, 256, 1, 1], "dtype": "float32", "quantization": {"min": -41.272102008451995, "scale": 0.0008696186685303833, "dtype": "uint16"}}, {"name": "g_synthesis/64x64/Conv0_up/filter", "shape": [3, 3, 256, 1], "dtype": "float32", "quantization": {"min": 0.0625, "scale": 2.861066605630579e-06, "dtype": "uint16"}}, {"name": "g_synthesis/64x64/Conv0_up/mul", "shape": [3, 3, 512, 256], "dtype": "float32", "quantization": {"min": -0.814254707790598, "scale": 2.3014547987297853e-05, "dtype": "uint16"}}, {"name": "g_synthesis/64x64/Conv0_up/Reshape_1/shape", "shape": [4], "dtype": "int32", "quantization": {"min": -1.0019684138246738, "scale": 0.007827878233005264, "dtype": "uint16"}}, {"name": "g_synthesis/Tile/multiples", "shape": [6], "dtype": "int32", "quantization": {"min": 1.0, "scale": 1.5259021896696422e-05, "dtype": "uint16"}}, {"name": "g_synthesis/64x64/Conv0_up/Reshape/shape", "shape": [6], "dtype": "int32", "quantization": {"min": -1.0019684138246738, "scale": 0.007827878233005264, "dtype": "uint16"}}, {"name": "g_synthesis/4x4/Const/StyleMod/Reshape/shape", "shape": [5], "dtype": "int32", "quantization": {"min": -1.0019684138246738, "scale": 0.007827878233005264, "dtype": "uint16"}}, {"name": "g_synthesis/32x32/Conv1/StyleMod/mul_1", "shape": [1024], "dtype": "float32", "quantization": {"min": -7.564670476726457, "scale": 0.0004988900927736237, "dtype": "uint16"}}, {"name": "g_synthesis/32x32/Conv1/StyleMod/mul", "shape": [512, 1024], "dtype": "float32", "quantization": {"min": -2.0513697894185072, "scale": 6.660507774338476e-05, "dtype": "uint16"}}, {"name": "g_synthesis/strided_slice_7/stack_1", "shape": [2], "dtype": "int32", "quantization": {"min": -0.0, "scale": 0.00010681315327687495, "dtype": "uint16"}}, {"name": "g_synthesis/32x32/Conv1/Reshape", "shape": [1, 512, 1, 1], "dtype": "float32", "quantization": {"min": -32.231545996496784, "scale": 0.000764088518988616, "dtype": "uint16"}}, {"name": "g_synthesis/512x512/Conv0_up/conv2d_transpose/input_sizes/3", "shape": [], "dtype": "int32", "quantization": {"min": 32.0, "scale": 1.0, "dtype": "uint16"}}, {"name": "g_synthesis/32x32/Conv1/mul", "shape": [3, 3, 512, 512], "dtype": "float32", "quantization": {"min": -0.8757176307043167, "scale": 2.7870457041606464e-05, "dtype": "uint16"}}, {"name": "g_synthesis/32x32/Conv0_up/StyleMod/mul_1", "shape": [1024], "dtype": "float32", "quantization": {"min": -8.787890256656302, "scale": 0.0005332457680009892, "dtype": "uint16"}}, {"name": "g_synthesis/32x32/Conv0_up/StyleMod/mul", "shape": [512, 1024], "dtype": "float32", "quantization": {"min": -1.9934448866201337, "scale": 7.408647885755133e-05, "dtype": "uint16"}}, {"name": "g_synthesis/strided_slice_6/stack_1", "shape": [2], "dtype": "int32", "quantization": {"min": -0.0, "scale": 9.155413138017853e-05, "dtype": "uint16"}}, {"name": "g_synthesis/32x32/Conv0_up/Reshape_2", "shape": [1, 512, 1, 1], "dtype": "float32", "quantization": {"min": -21.114523995334643, "scale": 0.0005815551820677733, "dtype": "uint16"}}, {"name": "g_synthesis/8x8/Conv0_up/filter", "shape": [3, 3, 512, 1], "dtype": "float32", "quantization": {"min": 0.0625, "scale": 2.861066605630579e-06, "dtype": "uint16"}}, {"name": "g_synthesis/32x32/Conv0_up/mul", "shape": [3, 3, 512, 512], "dtype": "float32", "quantization": {"min": -0.8840190061253578, "scale": 2.8787905631280377e-05, "dtype": "uint16"}}, {"name": "g_synthesis/32x32/Conv0_up/Reshape_1/shape", "shape": [4], "dtype": "int32", "quantization": {"min": -1.0019684138246738, "scale": 0.007827878233005264, "dtype": "uint16"}}, {"name": "g_synthesis/32x32/Conv0_up/Reshape/shape", "shape": [6], "dtype": "int32", "quantization": {"min": -1.0019684138246738, "scale": 0.007827878233005264, "dtype": "uint16"}}, {"name": "g_synthesis/16x16/Conv1/StyleMod/mul_1", "shape": [1024], "dtype": "float32", "quantization": {"min": -29.347367941193607, "scale": 0.0007439507184443725, "dtype": "uint16"}}, {"name": "g_synthesis/16x16/Conv1/StyleMod/mul", "shape": [512, 1024], "dtype": "float32", "quantization": {"min": -2.340818003577863, "scale": 6.824144375190551e-05, "dtype": "uint16"}}, {"name": "g_synthesis/strided_slice_5/stack_1", "shape": [2], "dtype": "int32", "quantization": {"min": -0.0, "scale": 7.629510948348211e-05, "dtype": "uint16"}}, {"name": "g_synthesis/16x16/Conv1/Reshape", "shape": [1, 512, 1, 1], "dtype": "float32", "quantization": {"min": -16.750308046743307, "scale": 0.0005297042580084532, "dtype": "uint16"}}, {"name": "g_synthesis/16x16/Conv0_up/Noise/random_uniform/shape/2", "shape": [], "dtype": "int32", "quantization": {"min": 16.0, "scale": 1.0, "dtype": "uint16"}}, {"name": "g_synthesis/16x16/Conv1/mul", "shape": [3, 3, 512, 512], "dtype": "float32", "quantization": {"min": -0.7012548527419635, "scale": 2.1119589589867592e-05, "dtype": "uint16"}}, {"name": "g_synthesis/16x16/Conv0_up/StyleMod/mul_1", "shape": [1024], "dtype": "float32", "quantization": {"min": -5.143563364037226, "scale": 0.000293532121442517, "dtype": "uint16"}}, {"name": "g_synthesis/16x16/Conv0_up/StyleMod/mul", "shape": [512, 1024], "dtype": "float32", "quantization": {"min": -1.3866666596787303, "scale": 4.69960909536613e-05, "dtype": "uint16"}}, {"name": "g_synthesis/strided_slice_4/stack_1", "shape": [2], "dtype": "int32", "quantization": {"min": -0.0, "scale": 6.103608758678569e-05, "dtype": "uint16"}}, {"name": "g_synthesis/16x16/Conv0_up/Reshape_2", "shape": [1, 512, 1, 1], "dtype": "float32", "quantization": {"min": -14.916848861229832, "scale": 0.0005312835723627821, "dtype": "uint16"}}, {"name": "g_synthesis/16x16/Conv0_up/mul", "shape": [3, 3, 512, 512], "dtype": "float32", "quantization": {"min": -0.6838485816000365, "scale": 1.9243825461504853e-05, "dtype": "uint16"}}, {"name": "g_synthesis/16x16/Conv0_up/Reshape_1/shape", "shape": [4], "dtype": "int32", "quantization": {"min": -1.0019684138246738, "scale": 0.007827878233005264, "dtype": "uint16"}}, {"name": "g_synthesis/16x16/Conv0_up/Reshape/shape", "shape": [6], "dtype": "int32", "quantization": {"min": -1.0019684138246738, "scale": 0.007827878233005264, "dtype": "uint16"}}, {"name": "g_synthesis/8x8/Conv1/StyleMod/mul_1", "shape": [1024], "dtype": "float32", "quantization": {"min": -5.116985453389334, "scale": 0.0003045280874480351, "dtype": "uint16"}}, {"name": "g_synthesis/8x8/Conv1/StyleMod/mul", "shape": [512, 1024], "dtype": "float32", "quantization": {"min": -1.202541951053774, "scale": 3.7955431968367074e-05, "dtype": "uint16"}}, {"name": "g_synthesis/strided_slice_3/stack_1", "shape": [2], "dtype": "int32", "quantization": {"min": -0.0, "scale": 4.5777065690089265e-05, "dtype": "uint16"}}, {"name": "g_synthesis/8x8/Conv1/Reshape", "shape": [1, 512, 1, 1], "dtype": "float32", "quantization": {"min": -16.971333560840286, "scale": 0.0006586716432834078, "dtype": "uint16"}}, {"name": "g_synthesis/8x8/Conv0_up/Noise/random_uniform/shape/2", "shape": [], "dtype": "int32", "quantization": {"min": 8.0, "scale": 1.0, "dtype": "uint16"}}, {"name": "g_synthesis/8x8/Conv1/mul", "shape": [3, 3, 512, 512], "dtype": "float32", "quantization": {"min": -0.4947415926795334, "scale": 1.6650117543229905e-05, "dtype": "uint16"}}, {"name": "g_synthesis/8x8/Conv0_up/StyleMod/mul_1", "shape": [1024], "dtype": "float32", "quantization": {"min": -4.737374764248391, "scale": 0.0002336444448731698, "dtype": "uint16"}}, {"name": "g_synthesis/8x8/Conv0_up/StyleMod/mul", "shape": [512, 1024], "dtype": "float32", "quantization": {"min": -1.0556500664799258, "scale": 3.5765349860412173e-05, "dtype": "uint16"}}, {"name": "g_synthesis/8x8/Conv0_up/Reshape_2", "shape": [1, 512, 1, 1], "dtype": "float32", "quantization": {"min": -14.009792606758017, "scale": 0.00035795882791042, "dtype": "uint16"}}, {"name": "g_synthesis/8x8/Conv0_up/mul", "shape": [3, 3, 512, 512], "dtype": "float32", "quantization": {"min": -0.4508525734063443, "scale": 1.4663302872031234e-05, "dtype": "uint16"}}, {"name": "g_synthesis/8x8/Conv0_up/Reshape_1/shape", "shape": [4], "dtype": "int32", "quantization": {"min": -1.0019684138246738, "scale": 0.007827878233005264, "dtype": "uint16"}}, {"name": "g_synthesis/8x8/Conv0_up/Reshape/shape", "shape": [6], "dtype": "int32", "quantization": {"min": -1.0019684138246738, "scale": 0.007827878233005264, "dtype": "uint16"}}, {"name": "g_synthesis/4x4/Conv/StyleMod/mul_1", "shape": [1024], "dtype": "float32", "quantization": {"min": -5.562440498493498, "scale": 0.00023736624129442252, "dtype": "uint16"}}, {"name": "g_synthesis/4x4/Conv/StyleMod/mul", "shape": [512, 1024], "dtype": "float32", "quantization": {"min": -1.0663853429552892, "scale": 3.101490105445392e-05, "dtype": "uint16"}}, {"name": "g_synthesis/4x4/Conv/Reshape", "shape": [1, 512, 1, 1], "dtype": "float32", "quantization": {"min": -12.845826555282489, "scale": 0.0003183994684665383, "dtype": "uint16"}}, {"name": "g_synthesis/4x4/Const/Noise/random_uniform/shape/2", "shape": [], "dtype": "int32", "quantization": {"min": 4.0, "scale": 1.0, "dtype": "uint16"}}, {"name": "g_synthesis/4x4/Conv/mul", "shape": [3, 3, 512, 512], "dtype": "float32", "quantization": {"min": -0.41664754996776693, "scale": 1.3601708996074919e-05, "dtype": "uint16"}}, {"name": "g_synthesis/4x4/Const/StyleMod/mul_1", "shape": [1024], "dtype": "float32", "quantization": {"min": -3.649180015994126, "scale": 0.0001308700335674267, "dtype": "uint16"}}, {"name": "g_synthesis/4x4/Const/StyleMod/mul", "shape": [512, 1024], "dtype": "float32", "quantization": {"min": -1.1026837708994244, "scale": 3.238425171510791e-05, "dtype": "uint16"}}, {"name": "g_synthesis/4x4/Const/const", "shape": [1, 512, 4, 4], "dtype": "float32", "quantization": {"min": -15.045949370766282, "scale": 0.0005008138125608721, "dtype": "uint16"}}, {"name": "g_synthesis/4x4/Const/Reshape", "shape": [1, 512, 1, 1], "dtype": "float32", "quantization": {"min": -9.025035696261769, "scale": 0.0003354408361368433, "dtype": "uint16"}}, {"name": "g_synthesis/4x4/Const/Noise/Reshape", "shape": [1, 512, 1, 1], "dtype": "float32", "quantization": {"min": -3.5788710570784685, "scale": 0.0001244781418760554, "dtype": "uint16"}}, {"name": "g_synthesis/4x4/Conv/Noise/Reshape", "shape": [1, 512, 1, 1], "dtype": "float32", "quantization": {"min": -7.803584896374906, "scale": 0.0002505485422325469, "dtype": "uint16"}}, {"name": "g_synthesis/8x8/Conv0_up/Noise/Reshape", "shape": [1, 512, 1, 1], "dtype": "float32", "quantization": {"min": -5.225297621097392, "scale": 0.000173459620936708, "dtype": "uint16"}}, {"name": "g_synthesis/8x8/Conv1/Noise/Reshape", "shape": [1, 512, 1, 1], "dtype": "float32", "quantization": {"min": -5.043884399858194, "scale": 0.0001694967538093351, "dtype": "uint16"}}, {"name": "g_synthesis/16x16/Conv0_up/Noise/Reshape", "shape": [1, 512, 1, 1], "dtype": "float32", "quantization": {"min": -38.07585262369307, "scale": 0.0009639212329736734, "dtype": "uint16"}}, {"name": "g_synthesis/16x16/Conv1/Noise/Reshape", "shape": [1, 512, 1, 1], "dtype": "float32", "quantization": {"min": -3.8499128800794735, "scale": 0.00010632768670126695, "dtype": "uint16"}}, {"name": "g_synthesis/32x32/Conv0_up/Noise/Reshape", "shape": [1, 512, 1, 1], "dtype": "float32", "quantization": {"min": -20.531026440928418, "scale": 0.0008803287214187642, "dtype": "uint16"}}, {"name": "g_synthesis/32x32/Conv1/Noise/Reshape", "shape": [1, 512, 1, 1], "dtype": "float32", "quantization": {"min": -1.7280768148138912, "scale": 5.475875577710537e-05, "dtype": "uint16"}}, {"name": "g_synthesis/64x64/Conv0_up/Noise/Reshape", "shape": [1, 256, 1, 1], "dtype": "float32", "quantization": {"min": -2.0899206387748377, "scale": 6.829136485883207e-05, "dtype": "uint16"}}, {"name": "g_synthesis/64x64/Conv1/Noise/Reshape", "shape": [1, 256, 1, 1], "dtype": "float32", "quantization": {"min": -1.3749598310533446, "scale": 4.204384402205744e-05, "dtype": "uint16"}}, {"name": "g_synthesis/128x128/Conv0_up/AddN", "shape": [4, 4, 128, 256], "dtype": "float32", "quantization": {"min": -3.695445680403642, "scale": 0.00014516992773427255, "dtype": "uint16"}}, {"name": "g_synthesis/128x128/Conv0_up/Noise/Reshape", "shape": [1, 128, 1, 1], "dtype": "float32", "quantization": {"min": -41.38490262231283, "scale": 0.0012607354725617751, "dtype": "uint16"}}, {"name": "g_synthesis/128x128/Conv1/Noise/Reshape", "shape": [1, 128, 1, 1], "dtype": "float32", "quantization": {"min": -0.9516866613000102, "scale": 3.0233390345638547e-05, "dtype": "uint16"}}, {"name": "g_synthesis/256x256/Conv0_up/AddN", "shape": [4, 4, 64, 128], "dtype": "float32", "quantization": {"min": -4.78317229527853, "scale": 0.00016200414209241424, "dtype": "uint16"}}, {"name": "g_synthesis/256x256/Conv0_up/Noise/Reshape", "shape": [1, 64, 1, 1], "dtype": "float32", "quantization": {"min": -0.9285828752722157, "scale": 3.9666077542597854e-05, "dtype": "uint16"}}, {"name": "g_synthesis/256x256/Conv1/Noise/Reshape", "shape": [1, 64, 1, 1], "dtype": "float32", "quantization": {"min": -1.1531109985647117, "scale": 5.683429437452371e-05, "dtype": "uint16"}}, {"name": "g_synthesis/512x512/Conv0_up/AddN", "shape": [4, 4, 32, 64], "dtype": "float32", "quantization": {"min": -5.750285864512999, "scale": 0.00018243292717363575, "dtype": "uint16"}}, {"name": "g_synthesis/512x512/Conv0_up/Noise/Reshape", "shape": [1, 32, 1, 1], "dtype": "float32", "quantization": {"min": -11.991919201983098, "scale": 0.00027376310843719976, "dtype": "uint16"}}, {"name": "g_synthesis/512x512/Conv1/Noise/Reshape", "shape": [1, 32, 1, 1], "dtype": "float32", "quantization": {"min": -11.442665908701716, "scale": 0.0003473579597080237, "dtype": "uint16"}}, {"name": "g_synthesis/Reshape_13/shape", "shape": [4], "dtype": "int32", "quantization": {"min": -1.0019684138246738, "scale": 0.007827878233005264, "dtype": "uint16"}}, {"name": "g_synthesis/Reshape_12/shape", "shape": [6], "dtype": "int32", "quantization": {"min": -1.0, "scale": 0.00392156862745098, "dtype": "uint16"}}, {"name": "g_synthesis/256x256_1/ToRGB/Reshape", "shape": [1, 3, 1, 1], "dtype": "float32", "quantization": {"min": 0.542483925819397, "scale": 3.6065325799209898e-06, "dtype": "uint16"}}, {"name": "g_synthesis/256x256_1/ToRGB/mul", "shape": [1, 1, 64, 3], "dtype": "float32", "quantization": {"min": -0.7821504415932423, "scale": 1.820436265782014e-05, "dtype": "uint16"}}, {"name": "g_synthesis/Reshape_11/shape", "shape": [4], "dtype": "int32", "quantization": {"min": -1.0, "scale": 0.00392156862745098, "dtype": "uint16"}}, {"name": "g_synthesis/Reshape_10/shape", "shape": [6], "dtype": "int32", "quantization": {"min": -0.9999542229343099, "scale": 0.0019684138246738384, "dtype": "uint16"}}, {"name": "g_synthesis/128x128_1/ToRGB/Reshape", "shape": [1, 3, 1, 1], "dtype": "float32", "quantization": {"min": 0.3476170599460602, "scale": 3.5522599291945157e-06, "dtype": "uint16"}}, {"name": "g_synthesis/128x128_1/ToRGB/mul", "shape": [1, 1, 128, 3], "dtype": "float32", "quantization": {"min": -0.39455744801992276, "scale": 1.0691454802187372e-05, "dtype": "uint16"}}, {"name": "g_synthesis/Reshape_9/shape", "shape": [4], "dtype": "int32", "quantization": {"min": -0.9999542229343099, "scale": 0.0019684138246738384, "dtype": "uint16"}}, {"name": "g_synthesis/Reshape_8/shape", "shape": [6], "dtype": "int32", "quantization": {"min": -0.9997711146715496, "scale": 0.0009918364232852674, "dtype": "uint16"}}, {"name": "g_synthesis/64x64_1/ToRGB/Reshape", "shape": [1, 3, 1, 1], "dtype": "float32", "quantization": {"min": 0.09193149209022522, "scale": 9.895250982265773e-07, "dtype": "uint16"}}, {"name": "g_synthesis/64x64_1/ToRGB/mul", "shape": [1, 1, 256, 3], "dtype": "float32", "quantization": {"min": -0.14509209087632238, "scale": 4.6447304845483825e-06, "dtype": "uint16"}}, {"name": "g_synthesis/Reshape_7/shape", "shape": [4], "dtype": "int32", "quantization": {"min": -0.9997711146715496, "scale": 0.0009918364232852674, "dtype": "uint16"}}, {"name": "g_synthesis/Reshape_6/shape", "shape": [6], "dtype": "int32", "quantization": {"min": -1.00004577706569, "scale": 0.000503547722590982, "dtype": "uint16"}}, {"name": "g_synthesis/32x32_1/ToRGB/Reshape", "shape": [1, 3, 1, 1], "dtype": "float32", "quantization": {"min": 0.03684820234775543, "scale": 8.846081675640586e-07, "dtype": "uint16"}}, {"name": "g_synthesis/32x32_1/ToRGB/mul", "shape": [1, 1, 512, 3], "dtype": "float32", "quantization": {"min": -0.1233438385630478, "scale": 3.487540321855057e-06, "dtype": "uint16"}}, {"name": "g_synthesis/Reshape_5/shape", "shape": [4], "dtype": "int32", "quantization": {"min": -1.00004577706569, "scale": 0.000503547722590982, "dtype": "uint16"}}, {"name": "g_synthesis/Reshape_4/shape", "shape": [6], "dtype": "int32", "quantization": {"min": -1.0, "scale": 0.00025940337224383917, "dtype": "uint16"}}, {"name": "g_synthesis/16x16_1/ToRGB/Reshape", "shape": [1, 3, 1, 1], "dtype": "float32", "quantization": {"min": -0.018711573378268002, "scale": 1.188564655927587e-06, "dtype": "uint16"}}, {"name": "g_synthesis/16x16_1/ToRGB/mul", "shape": [1, 1, 512, 3], "dtype": "float32", "quantization": {"min": -0.11650217976669812, "scale": 3.54023884060709e-06, "dtype": "uint16"}}, {"name": "g_synthesis/Reshape_3/shape", "shape": [4], "dtype": "int32", "quantization": {"min": -1.0, "scale": 0.00025940337224383917, "dtype": "uint16"}}, {"name": "g_synthesis/Reshape_2/shape", "shape": [6], "dtype": "int32", "quantization": {"min": -1.00004577706569, "scale": 0.0001373311970702678, "dtype": "uint16"}}, {"name": "g_synthesis/8x8_1/ToRGB/Reshape", "shape": [1, 3, 1, 1], "dtype": "float32", "quantization": {"min": -0.016554964446835945, "scale": 1.2549245335685222e-06, "dtype": "uint16"}}, {"name": "g_synthesis/8x8_1/ToRGB/mul", "shape": [1, 1, 512, 3], "dtype": "float32", "quantization": {"min": -0.11258626809127545, "scale": 3.7921879514727828e-06, "dtype": "uint16"}}, {"name": "g_synthesis/Reshape_1/shape", "shape": [4], "dtype": "int32", "quantization": {"min": -1.00004577706569, "scale": 0.0001373311970702678, "dtype": "uint16"}}, {"name": "g_synthesis/Reshape/shape", "shape": [6], "dtype": "int32", "quantization": {"min": -1.0, "scale": 7.629510948348211e-05, "dtype": "uint16"}}, {"name": "g_synthesis/4x4_1/ToRGB/mul", "shape": [1, 1, 512, 3], "dtype": "float32", "quantization": {"min": -0.1486268524329777, "scale": 4.6617794502533626e-06, "dtype": "uint16"}}]}]}